checkpoints/mlptest2/model4_best.pt (torch, 150347 bytes, 9 tensors)

stack.0.weight f4 [128, 17]
0	0xbe441cf9	-0.19151677
1	0x3de5a1cc	0.11212501
2	0x3e455bbd	0.19273277
3	0x3dc9ecfa	0.09859653
4	0x3e01b1ea	0.12665525
5	0x3e5ed740	0.21761799
6	0xbe03f01e	-0.12884566
7	0x3e1108f4	0.14163572
8	0x3d8dc2b8	0.06921905
9	0xbd97183e	-0.07377671
10	0x3e0826b0	0.13296008
11	0x3dc06de9	0.09395964
12	0xbdc1a32a	-0.09454949
13	0xbddad940	-0.106859684
14	0x3d977c79	0.07396788
15	0x3dd8c07e	0.1058359
16	0xbdcdae4f	-0.10043012
17	0x3d398d51	0.045300785
18	0xbe905ba3	-0.28194913
19	0x3cc780ab	0.024353346
20	0x3e26f77e	0.16305348
21	0xbca44584	-0.020052679
22	0xbd0ee372	-0.034884878
23	0x3e22d1b6	0.15900311
24	0x3e161901	0.14657976
25	0xbe4d81bc	-0.20069021
26	0x3e56468d	0.2092535
27	0x3eb3e267	0.3513367
28	0x3d7b14fa	0.0612993
29	0x3de0e8e5	0.10981921
30	0xbbf964e3	-0.0076109036
31	0xbe371955	-0.17880757
32	0xbccf5257	-0.025307817
33	0x3bc7dc80	0.0060992837
34	0xbe0a551f	-0.13509034
35	0x3e204b85	0.15653808
36	0x3e1714ac	0.1475398
37	0x3c4c3ff9	0.012466424
38	0x3e0a7e19	0.13524665
39	0x3dc5738d	0.0964118
40	0xbcae8573	-0.021303868
41	0xbdca2875	-0.09870998
42	0x3e86ecf7	0.26352665
43	0x3d2c4728	0.042060047
44	0x3df40486	0.11914925
45	0x3d40d758	0.047080368
46	0xbec60e4a	-0.38682777
47	0xbe5cb6c0	-0.21554089
48	0xbe1a0e33	-0.15044479
49	0xbe5144a4	-0.2043634
50	0x3db69f93	0.08917155
51	0x3de545f7	0.11194985
52	0xbbaa1c96	-0.005191396
53	0x3e5db609	0.21651472
54	0x3d23c684	0.03998424
55	0xbd17ccf3	-0.03706069
56	0x3e079997	0.13242184
57	0xbe120564	-0.14259869
58	0xbe7f7abc	-0.24949163
59	0xbd034711	-0.032050196
60	0x3c6b5237	0.014362863
61	0x3e8347a8	0.25640607
62	0x3e5eb919	0.21750297
63	0xbdb79e91	-0.08965791
64	0x3d4291c3	0.04750229
65	0x3e437e5d	0.19091173
66	0xbe447bfd	-0.19187923
67	0xbd167811	-0.036735598
68	0xbe4af2ef	-0.19819234
69	0xbe4f4fdf	-0.20245312
70	0x3d8b9a5e	0.068165526
71	0x3d9d7f90	0.07690346
72	0xbe6b5d5e	-0.22984836
73	0xbdd08149	-0.10180909
74	0x3cef3c9c	0.029203705
75	0xbe745093	-0.23858862
76	0x3d110a62	0.035410292
77	0xbd31e0fd	-0.043427456
78	0x3e220a81	0.1582432
79	0xbe69356b	-0.22774284
80	0x3de87a49	0.11351449
81	0xbe219e3d	-0.1578302
82	0x3e1a580e	0.15072653
83	0xbe3687fd	-0.17825313
84	0x3d8fbd01	0.070184715
85	0xbd57ad21	-0.052655343
86	0x3e0c7884	0.13717848
87	0xbd062a37	-0.032755103
88	0xbde51a5c	-0.11186668
89	0x3e2eba9c	0.17063373
90	0x3e3393fd	0.17536922
91	0xbe004ad7	-0.12528549
92	0xbe8072ba	-0.2508753
93	0x3dfe163b	0.12406584
94	0x3e3bb4d5	0.183307
95	0x3e676520	0.2259717
96	0x3c8b2bf1	0.016988726
97	0xbc822052	-0.015884552
98	0x3db25417	0.08707445
99	0x3e51ea6c	0.20499581
100	0x3e28b1f4	0.16474134
101	0xbdd70eb4	-0.10500851
102	0x3d197c17	0.037471857
103	0x3e0aceac	0.13555402
104	0x3cd9618c	0.026535772
105	0x3d0eb50e	0.034840636
106	0x3d8b9890	0.06816208
107	0x3e15e81d	0.14639325
108	0x3d5c16d5	0.05373271
109	0x3cb88309	0.02252342
110	0xbd45278d	-0.04813342
111	0x3d8cf0eb	0.06881889
112	0xbe492452	-0.19642761
113	0x3e645149	0.22296633
114	0x3d87504e	0.06607114
115	0xbe25a615	-0.16176637
116	0x3df91f6c	0.12164196
117	0x3e2fa3c8	0.17152321
118	0x3e4b6aca	0.19864956
119	0xbda1825d	-0.07886193
120	0xbc94aa32	-0.018147562
121	0xbd10571b	-0.03523932
122	0x3dbb6990	0.09150994
123	0x3dcf29fa	0.10115428
124	0xbe3ee5ae	-0.18642303
125	0xbd66a50e	-0.056309752
126	0x3d64a098	0.055817217
127	0xbd6fcb94	-0.058543757
128	0xbe700749	-0.23440279
129	0x3de2a52b	0.110666595
130	0x3e00a3d6	0.12562498
131	0xbd4e679c	-0.05039178
132	0x3e2c9045	0.1685191
133	0xbd83d652	-0.06437363
134	0xbe0b9adf	-0.13633297
135	0x3e03830b	0.12842958
136	0x3def096a	0.116717175
137	0x3e087210	0.13324761
138	0xbdcdf240	-0.10055971
139	0x3d1c79e1	0.03820217
140	0xbe9b02d4	-0.30275595
141	0xbe3bbfa7	-0.18334828
142	0xbdad55ba	-0.08463617
143	0x3c102396	0.008797547
144	0x3e8090e9	0.25110558
145	0x3d2dd4a2	0.04243911
146	0x3e9fc029	0.31201294
147	0xbe208b47	-0.1567813
148	0xbe4d379d	-0.20040746
149	0xbe2ae8f0	-0.16690421
150	0x3e47a1c8	0.19495308
151	0x3e91d9b0	0.28486395
152	0x3eee26d8	0.4651401
153	0xbd39ba3c	-0.045343623
154	0x3e1f5869	0.1556107
155	0x3d9412cc	0.07230148
156	0xbe7132d9	-0.23554553
157	0x3e05854b	0.13039128
158	0x3d7f48e3	0.06232537
159	0x3e535ae3	0.2064014
160	0x3e7ad9a9	0.24497093
161	0x3e1200b4	0.1425808
162	0xbdc0d9d0	-0.094165444
163	0xbe71326b	-0.23554389
164	0x3e1ed5ab	0.15511195
165	0xbe83172e	-0.25603622
166	0x3dfe7b90	0.124259114
167	0x3e61319e	0.21991584
168	0x3e610c31	0.21977307
169	0x3d539053	0.05165131
170	0xbe3fce8f	-0.1873114
171	0x3d6f82b2	0.05847425
172	0x3dadadfa	0.08480449
173	0x3e1d6e5b	0.15374129
174	0x3d409c5b	0.047024112
175	0xbd869054	-0.06570497
176	0x3d04ff2b	0.03246991
177	0x3e68dc99	0.22740401
178	0x3db09c48	0.08623558
179	0x3dcca8a6	0.09993105
180	0x3dee97f9	0.1165008
181	0x3e23a91c	0.15982479
182	0xbe378b08	-0.1792413
183	0x3e10f639	0.14156426
184	0xbe256128	-0.16150343
185	0xbdf69824	-0.12040737
186	0x3e2a3625	0.16622217
187	0xbd659688	-0.05605176
188	0x3e877c9a	0.2646225
189	0x3dc7df9a	0.097594455
190	0x3e9b5b22	0.30342966
191	0x3d54d3dd	0.05195986
192	0xbe4ecf55	-0.20196278
193	0xbe049872	-0.12948778
194	0xbe51341e	-0.20430037
195	0xbc0eb84b	-0.008710931
196	0x3e0abc6c	0.1354844
197	0x3dfbaf42	0.12289287
198	0x3e11c0e1	0.14233734
199	0x3e219303	0.15778737
200	0xbd17dee3	-0.037077796
201	0xbeae1feb	-0.34008726
202	0xbdd8fec4	-0.10595468
203	0xbf1b83c7	-0.6074795
204	0x3e152ca7	0.14567815
205	0x3e03494e	0.12820932
206	0x3d8c5132	0.06851424
207	0x3e63b061	0.22235252
208	0xbd8797a6	-0.066207215
209	0x3e218fb0	0.15777469
210	0x3e514500	0.20436478
211	0xbcf2db0d	-0.029645467
212	0xbdbabbf3	-0.0911788
213	0xbd3c2d39	-0.045941565
214	0xbc89b02e	-0.016807642
215	0x3e430d73	0.19048099
216	0xbef38e06	-0.47569293
217	0xbe9370e0	-0.28797054
218	0xbe45cba2	-0.19315961
219	0x3e825167	0.2545273
220	0xbc15ba47	-0.00913865
221	0x3aed276a	0.0018093411
222	0xbe7e3482	-0.24824718
223	0x3dee04fd	0.11622045
224	0x3d92279f	0.071364634
225	0xbd2d2215	-0.04226883
226	0x3ccee296	0.025254529
227	0x3e8dae84	0.27672207
228	0x3d2bbf11	0.041930262
229	0x3c2d9074	0.010593522
230	0xbdc6aae4	-0.097005635
231	0xbe43a918	-0.19107473
232	0x3ebd033f	0.3691654
233	0xbebb3945	-0.3656713
234	0x3e310110	0.17285562
235	0x3ca0fd7a	0.019652117
236	0x3e12b469	0.14326634
237	0x3d1b0c63	0.03785361
238	0xbe067e6a	-0.1313416
239	0x3d566e3c	0.05235122
240	0x3e64095e	0.22269198
241	0x3dcf36c4	0.101178676
242	0xbe4a8e47	-0.19780837
243	0xbd93e256	-0.072209045
244	0x3c42124f	0.011845185
245	0x3dc53ac8	0.09630352
246	0xbd364f5a	-0.04450927
247	0xbdb9fcd3	-0.090814255
248	0x3bbbee4b	0.005735194
249	0xbe59ccae	-0.21269485
250	0x3df66400	0.12030792
251	0x3dd30d2f	0.10305249
252	0xbd3815b3	-0.04494257
253	0xbdaac24c	-0.083378404
254	0x3d7e3c19	0.062069032
255	0x3e847d50	0.25876856

stack.0.bias f4 [128]
0	0x3f829bd6	1.0203807
1	0xbf80ead7	-1.0071667
2	0xbf8c4838	-1.095954
3	0x3f95e304	1.1709905
4	0x3e314066	0.17309722
5	0x3f358e85	0.7092059
6	0xbf877387	-1.0582131
7	0x3e1a021c	0.15039867
8	0xbf575a1f	-0.8412189
9	0xbf869ec5	-1.0517203
10	0xbf925461	-1.1432
11	0x3f8f23d8	1.1182814
12	0xbf6fcc9d	-0.9367159
13	0xbfbe2174	-1.4853959
14	0xbe010aaa	-0.12601724
15	0xbf6bf8d5	-0.9217656
16	0x3f6b5465	0.9192565
17	0xbfaac368	-1.3340883
18	0xbf97c50c	-1.1857009
19	0xbd9bb852	-0.07603516
20	0x3da01722	0.07816912
21	0xbf99304f	-1.1967868
22	0xbe4d8c8a	-0.20073143
23	0xbcefcf94	-0.029273786
24	0xbdd16d42	-0.102259174
25	0x3f88f211	1.0698873
26	0x3f949064	1.1606565
27	0x3f914042	1.1347735
28	0x3f8a3522	1.0797465
29	0xbf71813d	-0.94337827
30	0x3f7781b3	0.9668228
31	0x3fb2c8c4	1.3967519
32	0xbeee726d	-0.46571675
33	0x3f8390f8	1.0278616
34	0x3f5abb4f	0.8544206
35	0xbff0e0af	-1.8818568
36	0x3f774862	0.9659482
37	0x3f87b46e	1.0601938
38	0xbf83b658	-1.0290022
39	0xbf392ff1	-0.7233878
40	0xbf8997fe	-1.0749509
41	0xbfd952f3	-1.6978439
42	0xbf7e76f8	-0.9940028
43	0xbf6ff335	-0.9373048
44	0x3f8d23d0	1.1026554
45	0x3db2c36a	0.087286785
46	0x3f792119	0.9731613
47	0xbf8d3234	-1.1030946
48	0xbe2d66d6	-0.1693376
49	0x3f4ef27f	0.8083877
50	0xbf85aaba	-1.0442727
51	0xbd89657e	-0.06708811
52	0xbf7727be	-0.96545017
53	0xbf58a038	-0.84619474
54	0x3e56bb94	0.20969993
55	0xbf9eabcd	-1.239618
56	0xbe0278ea	-0.12741438
57	0xbf652586	-0.8951038
58	0xbe5e48ed	-0.21707506
59	0xbe72a025	-0.23693903
60	0x3f792df6	0.97335756
61	0xbcaff3ec	-0.021478616
62	0x3f97dfcc	1.1865172
63	0xbe098842	-0.13430884
64	0xbfbac3f2	-1.4591048
65	0xbf5ba031	-0.8579131
66	0x3f85ed8f	1.0463122
67	0x3cacaa7b	0.021077385
68	0x3daebd65	0.08532218
69	0x3f8148ee	1.0100381
70	0x3d9094ae	0.070596084
71	0x3f86b39b	1.0523561
72	0xbf8f0d83	-1.1175998
73	0x3f97e7d2	1.1867621
74	0x3f018da1	0.50606734
75	0x3f53b8c9	0.82703835
76	0x3f91e2af	1.1397303
77	0x3f7b98eb	0.9828021
78	0xbf6ff5cd	-0.9373444
79	0x3f4e80ba	0.8066517
80	0x3f38a3c7	0.72124904
81	0x3d92f972	0.07176484
82	0xbd860fa4	-0.06545952
83	0xbfe48ea5	-1.7856032
84	0xbe3b0b55	-0.18266042
85	0x3e22a03f	0.15881442
86	0xbfd3c030	-1.6543026
87	0x3f7e1ddf	0.9926433
88	0xbf710380	-0.94145966
89	0xbf5018f3	-0.8128807
90	0x3f9518d8	1.1648207
91	0x3f8f5012	1.119631
92	0xbe5c5ae6	-0.2151905
93	0x3bdeab4d	0.006795323
94	0xbe6c7175	-0.23090155
95	0x3f8df0f0	1.1089153
96	0x3d4e54be	0.050373785
97	0x3f543785	0.82897216
98	0x3f9a84bb	1.2071756
99	0x3f29c2f6	0.6631311
100	0x3f48cb9c	0.78435683
101	0x3d974e90	0.073880315
102	0xbfcd3d69	-1.6034366
103	0x3f832aa9	1.0247394
104	0x3f504dc4	0.8136866
105	0x3f8afb69	1.0857974
106	0xbf8241eb	-1.0176367
107	0xbf4d77c8	-0.80260897
108	0xbf7ca7e1	-0.9869366
109	0xbe699bef	-0.2281339
110	0x3f8832a9	1.064046
111	0xbe44d588	-0.1922208
112	0xbed63855	-0.41839853
113	0x3fa0a32e	1.2549798
114	0x3f810b3d	1.0081555
115	0xbf089039	-0.53345066
116	0xbf81b1fc	-1.0132442
117	0xbe36c3f9	-0.17848195
118	0xbf91735a	-1.1363328
119	0x3f823b7f	1.0174407
120	0x3e5468e1	0.20743133
121	0x3f824426	1.0177047
122	0x3e50eafe	0.20402142
123	0xbf4d8859	-0.80286175
124	0x3fb23b0e	1.3924272
125	0xbee4becd	-0.4467682
126	0xbf73fcf3	-0.95307845
127	0x3f914ee0	1.1352196

stack.2.weight f4 [1, 128]
0	0xbdc66f1b	-0.096891604
1	0x3e55c19c	0.20874637
2	0x3d4cabcc	0.049968526
3	0xbe822e46	-0.2542593
4	0x3dacce24	0.08437756
5	0xbde43b7c	-0.11144158
6	0x3dc1ebd5	0.094688095
7	0x3d0e00fd	0.03466891
8	0x3e7ebb87	0.24876224
9	0x3e0ed960	0.1395011
10	0x3e183a68	0.1486603
11	0xbe645036	-0.22296223
12	0x3ddfa5da	0.109203056
13	0x3f14efa2	0.5817815
14	0x3c94eb74	0.018178679
15	0x3e00bd2f	0.12572168
16	0xbe1a1750	-0.15047956
17	0x3ebb7c0e	0.36618084
18	0x3f1a67b2	0.60314476
19	0xbcfd1e85	-0.030898342
20	0x3ecb7fa3	0.39745817
21	0x3e8c33a0	0.27383137
22	0xbf7c12e3	-0.9846632
23	0xbc8a4e1f	-0.016882954
24	0x3ca70b69	0.020391183
25	0xbd3c3052	-0.04594452
26	0xbe51e0c9	-0.20495905
27	0xbe1fff8f	-0.15624832
28	0xbecf1211	-0.4044347
29	0x3e09256d	0.13393183
30	0xbdef2c93	-0.11678424
31	0xbf9eb37b	-1.2398523
32	0x3dee2bc7	0.116294436
33	0xbe1b1b6c	-0.1514718
34	0xbe358017	-0.17724644
35	0x3fc5c0a3	1.5449413
36	0xbd32d432	-0.043659396
37	0xbe766d8d	-0.24065228
38	0x3daac690	0.08338654
39	0x3d97f948	0.074205935
40	0x3da7aec6	0.08187632
41	0x3f2e54a1	0.68097883
42	0x3e6f3f59	0.23364009
43	0x3e02979b	0.12753145
44	0xbd7db0b4	-0.061936095
45	0xbf01dac2	-0.5072442
46	0xbe0afe83	-0.13573651
47	0x3d9ec883	0.07753088
48	0x3d6c39e7	0.057672407
49	0xbcc1f021	-0.023674073
50	0x3dfaa8cc	0.12239227
51	0xbd738734	-0.05945511
52	0x3d586cd5	0.052838165
53	0x3f2ee777	0.6832194
54	0xbb60e3c0	-0.0034315437
55	0x3e2f17d9	0.17098941
56	0xbd528f2c	-0.05140607
57	0x3d5df793	0.054191183
58	0x3d9dea2e	0.07710682
59	0x3d500ae2	0.05079163
60	0xbdd7424f	-0.10510694
61	0x3c90a058	0.017654583
62	0xbe51b14e	-0.20477793
63	0x3da9ac6b	0.08284839
64	0x3eba0737	0.3633363
65	0x3dca48f3	0.09877195
66	0xbe0e0fae	-0.13873169
67	0xbcb406f7	-0.021975977
68	0xbf0ad58a	-0.54232085
69	0xbdab8ee1	-0.08376861
70	0x3da94da2	0.082667604
71	0xbe6ce2ce	-0.23133394
72	0x3e588e1f	0.21147965
73	0xbd731013	-0.0593415
74	0xbe07deee	-0.13268635
75	0xbec9bf88	-0.3940394
76	0xbe4dfc2d	-0.20115729
77	0xbe4e8f9d	-0.20171972
78	0x3e6a2ace	0.22867891
79	0xbdd348b0	-0.103165984
80	0xbf22aa83	-0.6354143
81	0x3d5f24c2	0.054478414
82	0x3da671ee	0.08127199
83	0x3f69a727	0.9127068
84	0x3c8844c9	0.016634362
85	0x3d498c3c	0.049206004
86	0x3f7819fa	0.9691464
87	0xbe015d7f	-0.12633322
88	0x3e00edc1	0.12590696
89	0x3d858371	0.06519211
90	0xbec96d93	-0.3934141
91	0xbe978026	-0.29589957
92	0xbd255261	-0.040361766
93	0xbea5f27a	-0.32411557
94	0xbcbe6517	-0.023241563
95	0xbd57c801	-0.052680973
96	0x3da8b41b	0.082374774
97	0xbe4bc1f1	-0.19898202
98	0xbf3ab629	-0.72934204
99	0xbd5bc828	-0.05365768
100	0xbea7e6c4	-0.32793248
101	0xbb9e6816	-0.0048341854
102	0x3f7e5330	0.99345684
103	0xbddeb897	-0.108750515
104	0xbf617477	-0.88068336
105	0xbe31b553	-0.17354326
106	0x3e8310aa	0.2559865
107	0x3d7b8100	0.06140232
108	0x3e57f350	0.2108891
109	0xbc58e359	-0.013237798
110	0xbd893f2c	-0.06701502
111	0xbd06f081	-0.032944206
112	0x3f8db105	1.1069647
113	0xbea2ddc7	-0.31809828
114	0xbe0b2a4b	-0.13590352
115	0x3de25eba	0.11053224
116	0x3e3f8967	0.18704759
117	0x3c3a95d0	0.011388257
118	0x3dbd2a1b	0.092365466
119	0xbd7de747	-0.06198814
120	0xbdb3a1b1	-0.087710746
121	0xbe12293d	-0.14273544
122	0x3d9236bc	0.07139346
123	0x3e706511	0.23476054
124	0xbf49c6e9	-0.7881914
125	0x3d77fbfb	0.06054304
126	0x3e31f8db	0.17380087
127	0xbed8aa4b	-0.42317423

exp_avg f4 [128, 17]
0	0x3c85be83	0.016326195
1	0x3b83fdf8	0.004028078
2	0x3afa9b85	0.0019119835
3	0x3bc433ee	0.005987636
4	0x3be495b9	0.006975856
5	0x3c8d978e	0.017284181
6	0x3c8007be	0.015628692
7	0x3b8a1888	0.00421435
8	0x3b88152c	0.0041529145
9	0x3b89f770	0.004210405
10	0x3b909b4f	0.0044130455
11	0x3c03d5db	0.008046593
12	0x39becdbb	0.00036392905
13	0x3a000d13	0.0004884761
14	0x39d748a6	0.00041062123
15	0x3a20c151	0.0006132322
16	0x3a28ecf8	0.00064440025
17	0xbd0912ce	-0.0334652
18	0xbc1157f0	-0.008871064
19	0xbb838577	-0.004013713
20	0xbc4e3655	-0.012586196
21	0xbc635da5	-0.013877307
22	0xbd16cb31	-0.036814872
23	0xbd031f1a	-0.032012083
24	0xbc16cadc	-0.009203639
25	0xbc146f25	-0.009059702
26	0xbc11a7b4	-0.008890081
27	0xbc22efba	-0.009944851
28	0xbc8d2f5b	-0.017234495
29	0xba550d20	-0.0008127261
30	0xba8c9c1c	-0.0010727677
31	0xba66c576	-0.00088032277
32	0xbaa6842b	-0.0012704184
33	0xbac03425	-0.0014663978
34	0xbc005fc8	-0.007835336
35	0xbaf15e9e	-0.0018415039
36	0xba76546e	-0.0009396736
37	0xbb4307d3	-0.0029759302
38	0xbb5df14e	-0.0033865753
39	0xbc0f8166	-0.008758878
40	0xbbf55fb1	-0.007488214
41	0xbafe0862	-0.001938116
42	0xbafb0f0e	-0.0019154267
43	0xbb003193	-0.0019560799
44	0xbb07d175	-0.0020724211
45	0xbb81500a	-0.003946309
46	0xb92817a1	-0.00016030531
47	0xb96f1de3	-0.0002280395
48	0xb944e176	-0.00018776007
49	0xb9983e6c	-0.00029038207
50	0xb9a09358	-0.00030627358
51	0x3d27d097	0.04097041
52	0x3c2809ac	0.010256212
53	0x3b9fafe0	0.004873261
54	0x3c7cb5d3	0.01542421
55	0x3c8e6469	0.017381864
56	0x3d39fc86	0.04540684
57	0x3d208c52	0.03919632
58	0x3c2f7efa	0.010711426
59	0x3c2cff9e	0.010558991
60	0x3c2fa09f	0.010719447
61	0x3c341050	0.010990217
62	0x3ca7fc0e	0.020505931
63	0x3a6c3de1	0.0009011906
64	0x3aa0f6eb	0.0012280619
65	0x3a86c090	0.0010280777
66	0x3acd07c3	0.0015642572
67	0x3ada3c56	0.0016650062
68	0x00000000	0.0
69	0x00000000	0.0
70	0x00000000	0.0
71	0x00000000	0.0
72	0x00000000	0.0
73	0x00000000	0.0
74	0x00000000	0.0
75	0x00000000	0.0
76	0x00000000	0.0
77	0x00000000	0.0
78	0x00000000	0.0
79	0x00000000	0.0
80	0x00000000	0.0
81	0x00000000	0.0
82	0x00000000	0.0
83	0x00000000	0.0
84	0x00000000	0.0
85	0x3c92cf07	0.017920984
86	0x3b8c562e	0.0042827344
87	0x3b0bbe73	0.0021323233
88	0x3bdd6fb5	0.0067577013
89	0x3bf8dd0c	0.00759471
90	0x3ca2d9a0	0.019879162
91	0x3c8c6dd1	0.017142208
92	0x3b935e75	0.004497344
93	0x3b9178f0	0.0044394657
94	0x3b947b03	0.0045312657
95	0x3b9cd2d3	0.0047858744
96	0x3c12e06b	0.008964638
97	0x39c5d11c	0.00037730567
98	0x3a096a5f	0.0005241986
99	0x39e63a16	0.00043912296
100	0x3a2ecf6c	0.00066684815
101	0x3a382cf3	0.0007025741
102	0xbc779f22	-0.015113624
103	0xbb6c2db7	-0.003603799
104	0xbaebc92a	-0.0017989029
105	0xbbbb1119	-0.0057088253
106	0xbbd18c29	-0.006394882
107	0xbc89e18b	-0.01683118
108	0xbc6cd6d6	-0.014455518
109	0xbb781d8f	-0.0037859415
110	0xbb74f668	-0.0037378315
111	0xbb79e79c	-0.0038132435
112	0xbb840cbc	-0.0040298384
113	0xbbf81e49	-0.0075719696
114	0xb9a5ee74	-0.00031648914
115	0xb9e7a491	-0.00044182365
116	0xb9c14ae5	-0.0003686763
117	0xba1364da	-0.0005622633
118	0xba1b4166	-0.0005922526
119	0x00000004	6e-45
120	0x00000004	6e-45
121	0x00000000	0.0
122	0x00000000	0.0
123	0x00000000	0.0
124	0x00000000	0.0
125	0x00000004	6e-45
126	0x00000004	6e-45
127	0x00000004	6e-45
128	0x00000004	6e-45
129	0x00000004	6e-45
130	0x00000004	6e-45
131	0x00000004	6e-45
132	0x00000004	6e-45
133	0x00000004	6e-45
134	0x00000004	6e-45
135	0x00000004	6e-45
136	0xbda4f586	-0.080546424
137	0xbcf6bccc	-0.030119322
138	0xbc3203a0	-0.010865122
139	0xbcd75598	-0.026285931
140	0xbd1e9845	-0.038719434
141	0xbd84dce5	-0.06487445
142	0xbda008e7	-0.07814198
143	0xbcfa92a8	-0.03058751
144	0xbcf8a480	-0.030351877
145	0xbcfa0283	-0.030518776
146	0xbcfb00cb	-0.030640027
147	0xbd1d8ed6	-0.038466297
148	0xbb58ed10	-0.0033100285
149	0xbb58324c	-0.0032988964
150	0xbb41e69d	-0.002958692
151	0xbb6565e3	-0.0035003356
152	0xbb668b3c	-0.0035178205
153	0xbcb69d99	-0.022291945
154	0xbbad9720	-0.0052975565
155	0xbb2debaf	-0.0026538183
156	0xbc09e9ad	-0.008417529
157	0xbc1aa350	-0.009438351
158	0xbccb4753	-0.024814283
159	0xbcaeaa07	-0.02132131
160	0xbbb66551	-0.005566277
161	0xbbb410c3	-0.005495162
162	0xbbb7e211	-0.005611666
163	0xbbc25bf9	-0.005931374
164	0xbc36e650	-0.011163309
165	0xb9f3c46c	-0.00046494917
166	0xba2a43a9	-0.00064950675
167	0xba0e855a	-0.0005436741
168	0xba595299	-0.0008290201
169	0xba651291	-0.00087384233
170	0xbcacfc5f	-0.021116434
171	0xbba4157f	-0.0050074453
172	0xbb253bc0	-0.0025212616
173	0xbc07202f	-0.008247419
174	0xbc1385c2	-0.009004058
175	0xbcc8f3ec	-0.024530374
176	0xbca4b536	-0.02010594
177	0xbbad7107	-0.005293015
178	0xbbada3c0	-0.0052990615
179	0xbbb16379	-0.0054134694
180	0xbbbcb362	-0.005758689
181	0xbc39b53c	-0.011334714
182	0xb9d398ee	-0.00040358998
183	0xba26c8df	-0.00063623296
184	0xba0700b3	-0.00051499455
185	0xba56d092	-0.00081945315
186	0xba630c91	-0.00086612353
187	0xbc28cbe7	-0.01030252
188	0xbc15ee91	-0.009151117
189	0xba0241df	-0.0004968922
190	0xb9600d02	-0.0002136715
191	0xbb674782	-0.0035290425
192	0x3b4bbf4d	0.0031089366
193	0xbc2c46bb	-0.01051491
194	0xbc0c6984	-0.008570079
195	0xbc01eeec	-0.007930499
196	0xbbe3a659	-0.0069473204
197	0xbbc84429	-0.006111641
198	0x3b1ddb1b	0.0024086896
199	0xbaa0bbff	-0.0012263058
200	0xba451e21	-0.0007519443
201	0xba349a12	-0.00068894133
202	0xb98bb965	-0.00026650276
203	0xb93fb422	-0.00018282284
204	0xbc97ec35	-0.01854525
205	0xbbf853d9	-0.007578355
206	0xbb0801c0	-0.0020752996
207	0xbbdd69cf	-0.006756998
208	0xbbfe1302	-0.0077537308
209	0xbca25194	-0.01981429
210	0xbc91b3e1	-0.017785968
211	0xbbf84e7e	-0.0075777164
212	0xbbf67c8a	-0.0075221704
213	0xbbf1aef8	-0.007375594
214	0xbbdd1ea9	-0.0067480397
215	0xbc2430b4	-0.010021377
216	0xba33d198	-0.000685954
217	0xba59b4a8	-0.0008304813
218	0xba2f27f6	-0.0006681675
219	0xba4167d1	-0.00073778356
220	0xba5b92c7	-0.00083760585
221	0xbe148d59	-0.14507045
222	0xbdf32d38	-0.11873859
223	0xbc8df61a	-0.017329264
224	0xbd49ad3e	-0.049237482
225	0xbd7ddc13	-0.061977457
226	0xbe0d824f	-0.1381924
227	0xbe0a8bda	-0.13529912
228	0xbdf3cbed	-0.1190413
229	0xbdf14522	-0.11780764
230	0xbdea54f9	-0.114419885
231	0xbdde0b14	-0.10841957
232	0xbde8c5f7	-0.11365884
233	0xbc4c56c3	-0.0124718575
234	0xbc50096c	-0.012697559
235	0xbc3e84bb	-0.011628325
236	0xbc108638	-0.008821063
237	0xbc1499d5	-0.00906988
238	0x00000004	6e-45
239	0x00000004	6e-45
240	0x00000000	0.0
241	0x00000004	6e-45
242	0x00000000	0.0
243	0x00000004	6e-45
244	0x00000004	6e-45
245	0x00000004	6e-45
246	0x00000004	6e-45
247	0x00000004	6e-45
248	0x00000004	6e-45
249	0x00000004	6e-45
250	0x00000004	6e-45
251	0x00000004	6e-45
252	0x00000004	6e-45
253	0x00000004	6e-45
254	0x00000004	6e-45
255	0xbcb72a53	-0.022359049

exp_avg_sq f4 [128, 17]
0	0x3d62b9c5	0.055352945
1	0x3ca3928a	0.019967336
2	0x3a396d0c	0.0007073439
3	0x3b9e0cf1	0.00482332
4	0x3c5f45dd	0.013627497
5	0x3cdb3088	0.02675654
6	0x3d545baf	0.05184525
7	0x3ca20119	0.019775914
8	0x3c9d46ee	0.019198861
9	0x3c94b5c0	0.018153071
10	0x3c84a8b4	0.016193725
11	0x3c64a03d	0.013954219
12	0x3982af9b	0.00024926368
13	0x3965ea62	0.00021926456
14	0x393726d7	0.00017466709
15	0x3908c7e0	0.0001304443
16	0x38eeee38	0.00011393096
17	0x3e84a7b7	0.25909206
18	0x3dbb0cee	0.091333255
19	0x3b587859	0.0033030717
20	0x3cb81450	0.022470623
21	0x3d829a69	0.06377108
22	0x3dfce332	0.123480216
23	0x3e7891c3	0.24274354
24	0x3db988a0	0.09059262
25	0x3db40be7	0.08791333
26	0x3daa549e	0.08316921
27	0x3d997a88	0.07494074
28	0x3d846615	0.06464783
29	0x3a964f94	0.0011467808
30	0x3a84207e	0.0010080484
31	0x3a52fdc8	0.00080486806
32	0x3a1f0ff2	0.00060677447
33	0x3a0a4ba2	0.00052755524
34	0x3c764674	0.015031446
35	0x3bb125ce	0.005406118
36	0x39491127	0.00019175244
37	0x3aaaef97	0.0013041374
38	0x3b731855	0.003709336
39	0x3beb51c2	0.007181377
40	0x3c66b25e	0.014080612
41	0x3baf73a1	0.00535436
42	0x3baa54fc	0.005198119
43	0x3ba10ff4	0.004915232
44	0x3b8fb7be	0.0043859174
45	0x3b77d1b0	0.0037814192
46	0x388d9dc0	6.752787e-05
47	0x38794ac5	5.943586e-05
48	0x3846b92c	4.7379333e-05
49	0x3814ac4c	3.5446414e-05
50	0x3801ec91	3.0976316e-05
51	0x3ec55140	0.3853855
52	0x3e0cfbaf	0.13767885
53	0x3ba0f7c9	0.004912351
54	0x3d08ccca	0.033398427
55	0x3dc24332	0.09485473
56	0x3e3bde2b	0.18346469
57	0x3eb8e1f8	0.361099
58	0x3e0bac19	0.13639869
59	0x3e07924d	0.13239403
60	0x3e002d10	0.1251719
61	0x3de52243	0.111881755
62	0x3dc5a1c2	0.096499935
63	0x3ae1b19c	0.0017219069
64	0x3ac68ba0	0.0015147813
65	0x3a9e4a92	0.0012076667
66	0x3a6c7cf4	0.0009021305
67	0x3a4f0b3a	0.0007898096
68	0x00000000	0.0
69	0x00000000	0.0
70	0x00000000	0.0
71	0x00000000	0.0
72	0x00000000	0.0
73	0x00000000	0.0
74	0x00000000	0.0
75	0x00000000	0.0
76	0x00000000	0.0
77	0x00000000	0.0
78	0x00000000	0.0
79	0x00000000	0.0
80	0x00000000	0.0
81	0x00000000	0.0
82	0x00000000	0.0
83	0x00000000	0.0
84	0x00000000	0.0
85	0x3d97cfb9	0.07412667
86	0x3cd980ef	0.026550738
87	0x3a77a942	0.00094475236
88	0x3bd26deb	0.0064217946
89	0x3c95771b	0.01824527
90	0x3d10a34f	0.035311993
91	0x3d8e3da3	0.0694535
92	0x3cd76c0a	0.026296634
93	0x3cd11bf3	0.025526023
94	0x3cc5b96d	0.02413627
95	0x3cb07739	0.021541225
96	0x3c983511	0.018579992
97	0x39aded98	0.00033174152
98	0x39990a54	0.0002919013
99	0x39741d96	0.00023280675
100	0x3936c3b4	0.00017429778
101	0x391fd324	0.00015242078
102	0x3d5c173b	0.05373309
103	0x3c9db178	0.019249663
104	0x3a337317	0.0006845458
105	0x3b9889a9	0.0046550822
106	0x3c58a73c	0.0132234655
107	0x3cd17be8	0.025571778
108	0x3d4e3855	0.05034669
109	0x3c9c2ed8	0.019065306
110	0x3c979b8d	0.01850679
111	0x3c8f53e5	0.017496059
112	0x3c7fd88b	0.015615593
113	0x3c5c9429	0.0134630585
114	0x397c38c0	0.00024053734
115	0x395defcc	0.00021165534
116	0x3930e5ab	0.00016870226
117	0x3904721c	0.0001263101
118	0x38e7918a	0.00011042047
119	0x000001f4	7e-43
120	0x000001f4	7e-43
121	0x00000000	0.0
122	0x00000000	0.0
123	0x00000000	0.0
124	0x00000000	0.0
125	0x000001f4	7e-43
126	0x000001f4	7e-43
127	0x000001f4	7e-43
128	0x000001f4	7e-43
129	0x000001f4	7e-43
130	0x000001f4	7e-43
131	0x000001f4	7e-43
132	0x000001f4	7e-43
133	0x000001f4	7e-43
134	0x000001f4	7e-43
135	0x000001f4	7e-43
136	0x3e1d4163	0.15356974
137	0x3dc746ea	0.09730323
138	0x3b0c8209	0.0021439812
139	0x3c698107	0.014251954
140	0x3d19a0ad	0.037506748
141	0x3d921380	0.071326256
142	0x3e0f914f	0.14020275
143	0x3dc548dc	0.096330374
144	0x3dc0cc3f	0.09413957
145	0x3db5dbac	0.0887979
146	0x3d9de6d2	0.07710041
147	0x3d81861f	0.0632441
148	0x3a9aea9f	0.001181919
149	0x3a8b5ba2	0.0010632167
150	0x3a5909dd	0.0008279363
151	0x3a150d10	0.00056858454
152	0x39f8a4e9	0.00047425114
153	0x3dee2a18	0.116291225
154	0x3d2a8377	0.04162928
155	0x3ac2359b	0.0014817001
156	0x3c250f11	0.010074393
157	0x3cea78f0	0.02862212
158	0x3d62af48	0.055342942
159	0x3ddf27a6	0.10896234
160	0x3d28e1da	0.041231014
161	0x3d23eecb	0.040022653
162	0x3d1b0198	0.037843317
163	0x3d0a5808	0.03377536
164	0x3ceeaabc	0.029134147
165	0x3a085c88	0.00052017765
166	0x39eff669	0.00045769222
167	0x39bf6177	0.00036502976
168	0x398f49c9	0.0002733006
169	0x397a9b21	0.00023899648
170	0x3e04931e	0.12946746
171	0x3d4084b4	0.047001556
172	0x3ad944fc	0.0016576345
173	0x3c383fc1	0.011245669
174	0x3d02fd18	0.03197965
175	0x3d7c46d5	0.06159099
176	0x3df844dc	0.12122509
177	0x3d3eac0f	0.046550807
178	0x3d3924b4	0.04520102
179	0x3d2f0ebc	0.04273866
180	0x3d1c2f33	0.03813095
181	0x3d06998f	0.03286129
182	0x3a19db64	0.00058691786
183	0x3a07866b	0.0005169871
184	0x39d7e438	0.00041178032
185	0x39a15f46	0.00030779297
186	0x398cc5ff	0.000268504
187	0x3e160b66	0.14652786
188	0x3daac72b	0.083387695
189	0x3b078d5d	0.0020683624
190	0x3c5f7490	0.0136386305
191	0x3d1480cd	0.036255646
192	0x3d8bdd09	0.068292685
193	0x3e09a47e	0.13441655
194	0x3da919f3	0.082569025
195	0x3da51d44	0.080622226
196	0x3d9bdd6d	0.07610593
197	0x3d88436d	0.066534854
198	0x3d6248f9	0.055245373
199	0x3a854873	0.0010168686
200	0x3a6eb59c	0.00091060414
201	0x3a3a6035	0.0007109673
202	0x3a028df1	0.00049802574
203	0x39dc5ff3	0.00042033158
204	0x3d91c4a2	0.07117583
205	0x3ccc23f2	0.024919484
206	0x3a6e3705	0.0009087178
207	0x3bca7700	0.0061787367
208	0x3c8f7dd1	0.017516049
209	0x3d0b0598	0.03394088
210	0x3d8893d1	0.06668819
211	0x3cca90bb	0.024727216
212	0x3cc486cc	0.023990057
213	0x3cb9cf61	0.022681894
214	0x3ca7a7c2	0.020465735
215	0x3c90c16a	0.017670352
216	0x39a4356e	0.00031320326
217	0x399035d1	0.00027505917
218	0x39660a7a	0.00021938412
219	0x392e7190	0.00016636238
220	0x39189330	0.00014550681
221	0x3fdf168f	1.7428759
222	0x3ed84d2f	0.42246386
223	0x3cad60e3	0.021164363
224	0x3e17f786	0.14840516
225	0x3ed9ee88	0.42564797
226	0x3f53f343	0.8279306
227	0x3fd32254	1.6494851
228	0x3ed6eddb	0.41978344
229	0x3ecfb634	0.40568697
230	0x3ec80a35	0.39070287
231	0x3ec00a78	0.37507987
232	0x3ebb6263	0.365985
233	0x3bac44c1	0.0052572195
234	0x3b9533f1	0.004553311
235	0x3b8101bc	0.0039369743
236	0x3b638980	0.0034719408
237	0x3b544b60	0.003239356
238	0x000001f4	7e-43
239	0x000001f4	7e-43
240	0x00000000	0.0
241	0x000001f4	7e-43
242	0x00000000	0.0
243	0x000001f4	7e-43
244	0x000001f4	7e-43
245	0x000001f4	7e-43
246	0x000001f4	7e-43
247	0x000001f4	7e-43
248	0x000001f4	7e-43
249	0x000001f4	7e-43
250	0x000001f4	7e-43
251	0x000001f4	7e-43
252	0x000001f4	7e-43
253	0x000001f4	7e-43
254	0x000001f4	7e-43
255	0x3dbfa84b	0.09358271

exp_avg f4 [128]
0	0x397db8ec	0.00024196849
1	0xba1e4db8	-0.00060388027
2	0xb8cb7f33	-9.703487e-05
3	0x3a1d5950	0.00060023833
4	0x00000000	0.0
5	0x39784aab	0.00023678939
6	0xb94eca58	-0.0001972107
7	0x00000004	6e-45
8	0xbb455dd2	-0.0030115736
9	0xb997823d	-0.00028898
10	0xb9631ba5	-0.00021658705
11	0xbad24b3d	-0.0016044151
12	0xba30b82b	-0.00067413104
13	0xbc48cb0f	-0.012255444
14	0x00000004	6e-45
15	0xba856a69	-0.0010178807
16	0x39a64031	0.00031709814
17	0x3aa9cdeb	0.0012955045
18	0x3c07fbf4	0.008299816
19	0x00000004	6e-45
20	0xbadbbe5d	-0.0016765107
21	0xba1249c0	-0.00055804476
22	0xb9af1419	-0.00033393575
23	0x00000004	6e-45
24	0x00000000	0.0
25	0x38bbc05e	8.952686e-05
26	0x3a061bef	0.0005115857
27	0x399d8c72	0.00030050013
28	0x3ad4804d	0.0016212553
29	0xb991653a	-0.00027731975
30	0x3982f8fe	0.00024981046
31	0xbb8f545c	-0.00437407
32	0xb8f6df60	-0.00011771801
33	0x39a76d93	0.0003193436
34	0x39ca95d4	0.00038640073
35	0xbba36281	-0.004986108
36	0x38c4d545	9.385733e-05
37	0x3a065c2a	0.0005125428
38	0xb9915039	-0.00027716326
39	0xb9c6ba5e	-0.00037904357
40	0xb98e9d35	-0.0002720148
41	0xbc3512ad	-0.011051816
42	0xbb01d6dd	-0.0019811906
43	0xb98a50fe	-0.00026381755
44	0x38d208a0	0.00010015187
45	0xbc3ed85e	-0.011648266
46	0xba3056ba	-0.00067267905
47	0xb985ef5c	-0.00025546073
48	0x00000000	0.0
49	0x388f186d	6.823321e-05
50	0xb984d353	-0.0002533445
51	0x00000004	6e-45
52	0xb90f68ff	-0.00013676657
53	0x3b1d842f	0.0024035086
54	0x00000000	0.0
55	0xba214b57	-0.0006152889
56	0x00000004	6e-45
57	0xb8e7b273	-0.00011048177
58	0x00000000	0.0
59	0x00000000	0.0
60	0x3969488b	0.00022247636
61	0x00000004	6e-45
62	0x39e1f7d1	0.00043099982
63	0x00000000	0.0
64	0x3a6903d0	0.0008888813
65	0xb9d5329a	-0.00040664227
66	0x396833bb	0.00022144515
67	0x00000000	0.0
68	0xbbc37e3f	-0.0059659774
69	0x393a8a5c	0.00017789885
70	0x00000000	0.0
71	0x3a16f7b8	0.0005758959
72	0xb82f2316	-4.1755928e-05
73	0x38f85a4e	0.00011842382
74	0x3a83c904	0.0010054414
75	0xbc37cc08	-0.011218078
76	0x3a66adab	0.0008799682
77	0x39f7a70d	0.00047235974
78	0xba793c3e	-0.0009507573
79	0x39898df1	0.0002623643
80	0xbba9ec77	-0.0051856595
81	0x00000000	0.0
82	0x00000000	0.0
83	0xb7a15252	-1.9231029e-05
84	0x00000004	6e-45
85	0x00000000	0.0
86	0xbc899dcc	-0.016798876
87	0x3a5d140e	0.00084334693
88	0xb986dd7c	-0.0002572349
89	0xba275cf5	-0.0006384396
90	0x3a586cfc	0.0008255986
91	0x3a2e8e85	0.00066588103
92	0x00000000	0.0
93	0xbb6a3543	-0.0035737313
94	0x00000000	0.0
95	0x38b5882d	8.656117e-05
96	0x00000000	0.0
97	0x3b40b19a	0.0029402734
98	0xbb5b895d	-0.0033498623
99	0x38f03883	0.00011454618
100	0x39e250fc	0.00043166417
101	0x00000000	0.0
102	0xbb71acbb	-0.0036876637
103	0x397132d0	0.0002300248
104	0xbb3ee0e0	-0.0029125735
105	0x39bf8916	0.00036532496
106	0xba9036fc	-0.0011002715
107	0xb9a88261	-0.00032140597
108	0x3a28282a	0.00064146763
109	0x00000000	0.0
110	0x390cd894	0.00013432122
111	0x00000000	0.0
112	0xbca1e991	-0.019764693
113	0x3a307f94	0.0006732878
114	0x3998500b	0.00029051336
115	0xb98251cc	-0.00024856476
116	0xb9fb7928	-0.0004796472
117	0x00000000	0.0
118	0xb9f2357c	-0.00046197686
119	0x3902880e	0.0001244845
120	0x00000000	0.0
121	0x399df687	0.0003012905
122	0x00000000	0.0
123	0xba96fe2f	-0.0011519844
124	0x3b19af15	0.0023450304
125	0xb744e226	-1.1735165e-05
126	0xba05a0c4	-0.00050975033
127	0x3adcbcfe	0.0016840992

exp_avg_sq f4 [128]
0	0x3989a0aa	0.0002625038
1	0x3a9d3239	0.0011993117
2	0x38952146	7.111071e-05
3	0x3aed5b52	0.0018108881
4	0x00000000	0.0
5	0x39b7256c	0.0003493236
6	0x3984ccbd	0.00025329544
7	0x000001f4	7e-43
8	0x3aa38ddc	0.001247819
9	0x3a0f9685	0.0005477446
10	0x3a220a3d	0.0006181335
11	0x3a8c957f	0.0010725706
12	0x39ab632f	0.0003268956
13	0x3bb2be8e	0.005454845
14	0x000001f4	7e-43
15	0x39dc37a7	0.00042003134
16	0x3a27b657	0.0006397715
17	0x3a945055	0.0011315445
18	0x3b399cc0	0.002832219
19	0x000001f4	7e-43
20	0x3b1d364d	0.0023988665
21	0x3b0a27a7	0.0021080764
22	0x37c08dfa	2.2954297e-05
23	0x000001f4	7e-43
24	0x00000000	0.0
25	0x387eb215	6.072417e-05
26	0x3a99336e	0.0011688301
27	0x3a33869a	0.00068483653
28	0x3b92f334	0.0044845585
29	0x3a047a70	0.0005053645
30	0x39c9a325	0.0003845926
31	0x394a3f19	0.00019287727
32	0x39ba3d39	0.000355223
33	0x3a29d561	0.00064786343
34	0x3a690d0b	0.0008890188
35	0x3cc889e8	0.024479821
36	0x3861b320	5.3811003e-05
37	0x3ad58cbf	0.0016292556
38	0x394d3e78	0.00019573595
39	0x391ecd76	0.00015144594
40	0x39459798	0.00018843857
41	0x3bd6891c	0.0065471064
42	0x3abc43b2	0.0014363436
43	0x39f1234d	0.00045993403
44	0x38e440cd	0.00010883957
45	0x3add3dc8	0.0016879374
46	0x39d4c687	0.00040583705
47	0x3931367e	0.00016900335
48	0x00000000	0.0
49	0x37875fec	1.6137921e-05
50	0x39dd6da7	0.00042234102
51	0x000001f4	7e-43
52	0x38a6874c	7.940698e-05
53	0x37bdfd6f	2.264857e-05
54	0x00000000	0.0
55	0x3a57402e	0.00082111626
56	0x000001f4	7e-43
57	0x38af51b1	8.3598665e-05
58	0x00000000	0.0
59	0x00000000	0.0
60	0x39a3892e	0.0003119199
61	0x000001f4	7e-43
62	0x3a9ad2e1	0.0011812114
63	0x00000000	0.0
64	0x3a881ca1	0.0010384509
65	0x398dc86d	0.00027042945
66	0x3a0d7948	0.00053967955
67	0x00000000	0.0
68	0x3abf98d7	0.0014617693
69	0x394fb25c	0.00019807502
70	0x00000000	0.0
71	0x3ac3d5eb	0.0014941072
72	0x3a93a920	0.0011265613
73	0x38d23aaa	0.00010024507
74	0x39dc460e	0.00042013865
75	0x3a45bc8d	0.000754305
76	0x3a8eab44	0.0010884781
77	0x3a96a4e9	0.0011493239
78	0x3ab875c6	0.0014073185
79	0x399ba7ac	0.0002968883
80	0x3abde290	0.0014487077
81	0x00000000	0.0
82	0x00000000	0.0
83	0x3be9ee67	0.0071390155
84	0x000001f4	7e-43
85	0x00000000	0.0
86	0x3c4e28b1	0.012582944
87	0x39e1b35a	0.00043048972
88	0x39ea9a07	0.00044746717
89	0x38e65ced	0.000109845634
90	0x3b8eb834	0.004355455
91	0x3b212d31	0.0024593587
92	0x00000000	0.0
93	0x3a97a0cb	0.0011568306
94	0x00000000	0.0
95	0x38a5d0aa	7.90668e-05
96	0x00000000	0.0
97	0x3a4c9c55	0.0007805278
98	0x392904e5	0.0001611892
99	0x38ad76af	8.2713894e-05
100	0x3b0d751e	0.00215847
101	0x00000000	0.0
102	0x3c2cf23f	0.010555803
103	0x39af2aa7	0.0003341038
104	0x3981043f	0.0002460796
105	0x3a614c9c	0.00085944845
106	0x3ae5bc24	0.0017527384
107	0x38da126b	0.00010398481
108	0x3a9bfc5d	0.0011900772
109	0x00000000	0.0
110	0x3904e2c0	0.00012672972
111	0x00000000	0.0
112	0x3c43d32c	0.011952203
113	0x3b3a53a2	0.0028431197
114	0x3a08a2fb	0.0005212274
115	0x39b3db92	0.00034305133
116	0x3a80ae96	0.0009817656
117	0x00000000	0.0
118	0x397731a4	0.00023574248
119	0x38e35822	0.000108406195
120	0x00000000	0.0
121	0x3a16568a	0.0005734941
122	0x00000000	0.0
123	0x3ac4ea9e	0.0015023535
124	0x3c608368	0.013703205
125	0x38d63e89	0.00010215963
126	0x3a5df39a	0.00084667804
127	0x3b5efc0b	0.003402474

exp_avg f4 [1, 128]
0	0xbd00cc8e	-0.03144508
1	0xbd417e91	-0.047239844
2	0xbcb26966	-0.021778774
3	0xbd3152e6	-0.04329195
4	0x00000000	0.0
5	0xbcf2d9b2	-0.02964482
6	0xbd8243a4	-0.06360558
7	0x00000004	6e-45
8	0x3ca11a2a	0.019665796
9	0xbd511ded	-0.05105393
10	0xbc360a2b	-0.011110823
11	0x3c331088	0.010929234
12	0xbdcd6990	-0.100299
13	0xbca89802	-0.020580295
14	0x00000004	6e-45
15	0xbda6b587	-0.08140092
16	0x3b27413c	0.002552106
17	0x3c6eb395	0.014569183
18	0x3a44a4be	0.0007501355
19	0x80000004	-6e-45
20	0x3cdccd9a	0.026953507
21	0xbbef3b53	-0.007300773
22	0x38ea2d17	0.00011166388
23	0x80000004	-6e-45
24	0x00000000	0.0
25	0x3c1d3294	0.009594578
26	0xbd081572	-0.033223577
27	0xbce6e7ba	-0.028186668
28	0xbd96caef	-0.07362925
29	0xbd8224d6	-0.06354682
30	0xbbb85318	-0.00562514
31	0x3a72361a	0.0009239629
32	0x3a99b801	0.0011727811
33	0x3c339662	0.010961147
34	0xbca65219	-0.02030282
35	0x3be4e216	0.0069849594
36	0xbcdff036	-0.027336221
37	0xbc36a22e	-0.011147065
38	0xbd070a87	-0.032969024
39	0xbd65a0df	-0.05606162
40	0xbd4fda7c	-0.050745472
41	0x3bc52538	0.0060163997
42	0xbd9bae1d	-0.07601569
43	0xbca10bec	-0.019659005
44	0x3bbc8e32	0.0057542557
45	0x3d216774	0.0394053
46	0x3ccb2032	0.024795625
47	0xbcfd8434	-0.030946828
48	0x00000000	0.0
49	0xbc961509	-0.018320577
50	0xbc4b3a2c	-0.012404006
51	0x80000004	-6e-45
52	0xbd0c2a82	-0.034220226
53	0x3a855657	0.0010172826
54	0x00000000	0.0
55	0xbce3b018	-0.027793929
56	0x00000004	6e-45
57	0xbcc39242	-0.023873452
58	0x00000000	0.0
59	0x00000000	0.0
60	0xbc31a509	-0.01084257
61	0x00000004	6e-45
62	0xbd2d6665	-0.04233398
63	0x00000000	0.0
64	0x3bb2d0e2	0.0054570297
65	0xbd524663	-0.051336657
66	0x3c22dc12	0.009940164
67	0x00000000	0.0
68	0xbbb72c7f	-0.005590021
69	0xbd15287c	-0.036415562
70	0x00000000	0.0
71	0xbced0ee1	-0.028937759
72	0xbc8e4b04	-0.017369755
73	0x3ba00a05	0.004884007
74	0xbc1c058c	-0.009522807
75	0x3d0cf783	0.034415733
76	0xbc6b0fc3	-0.01434702
77	0xbbaf764c	-0.0053546783
78	0xbd28df86	-0.041228794
79	0xbd3ebc08	-0.04656604
80	0x3b5b0eb8	0.003342552
81	0x00000000	0.0
82	0x00000000	0.0
83	0xbc0937af	-0.008375092
84	0x00000004	6e-45
85	0x00000000	0.0
86	0xbc6f77f6	-0.014616003
87	0xbdaa87c8	-0.083266795
88	0xbbd88bca	-0.006608461
89	0xbd2c067f	-0.041998383
90	0xbc1018fb	-0.008795018
91	0xbc769341	-0.0150497565
92	0x00000000	0.0
93	0x3d9dcbb7	0.07704871
94	0x00000000	0.0
95	0xb9bfad23	-0.00036559356
96	0x00000000	0.0
97	0x3c879e32	0.016554926
98	0x3b6ae02c	0.0035839183
99	0x3b607404	0.0034248838
100	0x3bb3b2ab	0.0054839454
101	0x00000000	0.0
102	0xbb08c8af	-0.002087157
103	0xbc897d17	-0.01678328
104	0x3b8b2b91	0.004247137
105	0x3c273627	0.010205782
106	0xbda84397	-0.08216017
107	0xbd9b9b68	-0.07598001
108	0x3bab4227	0.005226392
109	0x00000000	0.0
110	0xbcda1bc5	-0.02662457
111	0x00000000	0.0
112	0xbbf9aed1	-0.0076197167
113	0xbd23955c	-0.039937362
114	0xbccabea0	-0.0247491
115	0x3be965be	0.0071227243
116	0xbd3ebd7a	-0.046567418
117	0x00000000	0.0
118	0xbde90569	-0.11377985
119	0xbd123b91	-0.03570134
120	0x00000000	0.0
121	0xbce72a7f	-0.028218506
122	0x00000000	0.0
123	0xbd90ed0e	-0.070764646
124	0x3c8ca7f8	0.017169937
125	0x3c5998c6	0.013281053
126	0xbd12e1d8	-0.035859913
127	0x3d1eae64	0.03874053

exp_avg_sq f4 [1, 128]
0	0x3ef31c79	0.4748266
1	0x3ef3d09e	0.476201
2	0x3e3475d4	0.17623073
3	0x3eb35971	0.35029176
4	0x00000000	0.0
5	0x3f0c770b	0.54869145
6	0x3f032afb	0.5123746
7	0x000001f4	7e-43
8	0x3dc91ee4	0.09820345
9	0x3f431bb8	0.7621417
10	0x3e961b60	0.2931776
11	0x3dd0ab64	0.1018894
12	0x3f9c61ed	1.2217385
13	0x3e0be423	0.13661246
14	0x000001f4	7e-43
15	0x3f9fd5f6	1.2487171
16	0x3d3a4713	0.045477938
17	0x3d7f89a1	0.062387113
18	0x3a58924b	0.00082615454
19	0x000001f4	7e-43
20	0x3d17ff64	0.037108794
21	0x3e103480	0.14082527
22	0x3767be62	1.3813e-05
23	0x000001f4	7e-43
24	0x00000000	0.0
25	0x3e039744	0.12850672
26	0x3eb97137	0.3621919
27	0x3e2416d6	0.16024336
28	0x3f3276e5	0.6971267
29	0x3f95fc86	1.1717689
30	0x3edb047d	0.42776862
31	0x36b919a8	5.5164164e-06
32	0x3e1f7898	0.15573347
33	0x3d7eee2e	0.062238865
34	0x3dfad998	0.12248534
35	0x3cb1f44f	0.02172294
36	0x3f34bc28	0.70599604
37	0x3e9707bd	0.2949809
38	0x3e0c07f0	0.13674903
39	0x3f3bec6d	0.7340763
40	0x3f20a0ac	0.62745166
41	0x3d69d417	0.05708703
42	0x3f83014c	1.0234771
43	0x3e736924	0.23770577
44	0x3e589587	0.2115079
45	0x3c1c1e7c	0.009528752
46	0x3e9dfe9f	0.30858323
47	0x3e86c0fe	0.26319116
48	0x00000000	0.0
49	0x3e8f6f9c	0.2801484
50	0x3e8ae86d	0.27130452
51	0x000001f4	7e-43
52	0x3e14fca6	0.14549503
53	0x38ec1778	0.00011257728
54	0x00000000	0.0
55	0x3e40eccd	0.18840332
56	0x000001f4	7e-43
57	0x3ea562ba	0.32301885
58	0x00000000	0.0
59	0x00000000	0.0
60	0x3ec10872	0.37701756
61	0x000001f4	7e-43
62	0x3e925cd2	0.2858644
63	0x00000000	0.0
64	0x3cfdaa89	0.030965107
65	0x3ede2452	0.43387085
66	0x3dedf7c3	0.116195224
67	0x00000000	0.0
68	0x3d0b10ab	0.033951443
69	0x3e988f22	0.29796702
70	0x00000000	0.0
71	0x3eb9ce55	0.3629023
72	0x3e9db319	0.30800703
73	0x3e8403f1	0.25784257
74	0x3db1390d	0.0865346
75	0x3c441f8e	0.011970414
76	0x3d7ff02c	0.062484905
77	0x3d7a5e99	0.06112537
78	0x3e3325f7	0.17494951
79	0x3f03e424	0.5151999
80	0x3aa2e548	0.001242795
81	0x00000000	0.0
82	0x00000000	0.0
83	0x3d01ae9b	0.031660657
84	0x000001f4	7e-43
85	0x00000000	0.0
86	0x3d23fb24	0.04003443
87	0x3f8ea7a8	1.1144915
88	0x3eb09f08	0.3449633
89	0x3e1db29e	0.15400168
90	0x3da62af2	0.0811366
91	0x3ddf40fa	0.10901065
92	0x00000000	0.0
93	0x3d9688e6	0.0735033
94	0x00000000	0.0
95	0x3e937a03	0.28804025
96	0x00000000	0.0
97	0x3ddd48ca	0.10804899
98	0x391abe6b	0.0001475752
99	0x3d896d81	0.06710339
100	0x3d826536	0.06366961
101	0x00000000	0.0
102	0x3a9de90a	0.00120476
103	0x3eb4f2c0	0.35341454
104	0x39ebd746	0.00044983084
105	0x3cfaca91	0.03061417
106	0x3f421f6a	0.75829184
107	0x3f42342b	0.7586085
108	0x3ea8c6d7	0.32964203
109	0x00000000	0.0
110	0x3ec64e98	0.38731837
111	0x00000000	0.0
112	0x3b8d77a6	0.0043172417
113	0x3ea7c3b9	0.32766512
114	0x3f098005	0.5371097
115	0x3db5d4e6	0.08878498
116	0x3eabd4ea	0.33560878
117	0x00000000	0.0
118	0x4003dec3	2.0604713
119	0x3e6d8c4b	0.23198049
120	0x00000000	0.0
121	0x3efa045e	0.48831457
122	0x00000000	0.0
123	0x3eeff186	0.46863955
124	0x3d9adebe	0.07562016
125	0x3ebacad5	0.36482874
126	0x3e68d357	0.2273687
127	0x3d8989c4	0.0671573
