checkpoints/mlptest2/model3_best.pt (torch, 77323 bytes, 9 tensors)

stack.0.weight f4 [128, 17]
-0.018255118 -0.25344098 -0.0400361 -0.21434368 0.26777408 0.3261148 0.50394595 -0.10828943
0.21405253 0.19110946 -0.20391494 0.2198822 0.019852558 0.012918093 -0.00036238017 0.05321873
-0.17224137 0.5527385 0.110538006 -0.12896171 0.056873985 0.05457511 -0.10761638 0.6288334
0.0037404043 -0.21686506 -0.11190432 -0.029260391 0.3187368 0.04301366 0.035011444 -0.03555909
-0.079036735 0.0006697216 -0.14009134 0.1304343 -0.05790795 -0.1346898 -0.1653577 0.06253916
-0.2764389 0.15645653 -0.20680544 -0.27787977 -0.12797064 -0.07894883 0.15480787 -0.09331232
-0.15204357 -0.059283048 -0.01062201 0.103521585 -0.00087370357 0.017616553 0.0032538935 0.11721894
-0.033842623 0.4360757 0.08808231 -0.019427726 -0.0881132 0.1646316 0.14159921 -0.048198707
-0.020700961 -0.10425737 0.02502633 0.027031882 -0.1799636 -0.09933457 0.1433463 -0.0060036755
0.26129174 0.41433418 0.20390199 0.17985308 0.2652251 -0.16408905 0.28380752 0.006337613
-0.322049 0.009247874 -0.23843962 0.16933063 -0.0019240548 0.05412844 -0.24214964 -0.18531401
-0.09392539 -0.1257833 -0.1871649 -0.024207236 0.03724031 0.05923224 0.039386805 0.0799644
-0.1882563 0.071021184 0.029824242 0.023571625 -0.07936492 -0.22017984 0.18493965 -0.1333131
0.20146643 0.29753906 0.13693632 -0.04568944 0.5170533 -0.010589423 -0.10496291 -0.053600803
0.21068482 0.1747792 -0.23966439 -0.23596138 -0.106352046 0.1638589 0.3620753 -0.06344571
-0.23372352 -0.012033911 -0.018160835 0.07172344 -0.45986247 0.3513562 0.17612746 -0.2883235
0.26320997 0.07212824 0.34361246 0.19423403 -0.2531114 -0.06731317 -0.020765925 0.3190373
0.12809902 0.04669176 0.036187388 0.20303452 -0.2336006 -0.048725247 0.48459587 -0.16377081
-0.23891298 0.14829405 0.18021148 0.19636102 -0.14104341 0.030727815 -0.048824698 -0.13366675
0.26949978 0.17583397 0.19911213 0.02975112 -0.055569004 0.07629524 0.055885106 0.59615445
-0.2020452 0.17595094 -0.15168968 -0.114228725 0.27925283 0.14148897 -0.018270388 -0.093562596
0.2907029 -0.27159607 -0.025247939 0.25359848 -0.020886146 -0.37133875 -0.057121664 0.0974924
-0.27551043 0.21633255 -0.11649035 -0.3243629 -0.21384093 0.0691008 0.3386508 0.22605109
-0.17992903 -0.076809645 0.2672217 0.1404944 -0.0891958 0.16151658 -0.030558653 0.062493723
0.3844827 0.3035974 0.02366028 0.09839043 0.004400441 -0.049208 0.021462781 -0.009708931
-0.15380159 0.13276704 0.0792154 -0.04741931 0.10891105 0.16875316 -0.034971748 0.09457103
-0.033996593 -0.15036926 0.470098 -0.11590142 -0.08919236 0.051218055 -0.22083677 0.38149557
0.19505352 0.13872091 0.04375127 -0.04115025 -0.0892382 -0.29380885 -0.22035545 -0.25533903
-0.056496285 -0.15582663 -0.21213517 -0.14165978 0.17614235 -0.22385706 -0.06248235 0.052366104
-0.046128377 -0.17599078 -0.020133538 -0.13251719 0.16954896 0.0040633143 -0.13542132 0.19460823
-0.08238564 0.25055185 0.19465865 0.059251904 0.08481622 0.08428239 -0.054934457 -0.1456035
-0.15552895 -0.12835932 -0.33414596 -0.15658504 0.06896378 0.36016098 0.32656974 -0.122518696
00000000: c28b 95bc 04c3 81be e5fc 23bd e97c 5bbe
00000010: af19 893e 85f8 a63e 9a02 013f d9c6 ddbd
00000020: 9630 5b3e 33b2 433e 14cf 50be cd28 613e
00000030: d5a1 a23c 69a6 533c d8fd bdb9 e2fb 593d
00000040: 0b60 30be 4580 0d3f c061 e23d 8a0e 04be
00000050: b2f4 683d 278a 5f3d fa65 dcbd 3afb 203f
00000060: 9221 753b e011 5ebe 182e e5bd 7db3 efbc
00000070: 7831 a33e 172f 303d 2968 0f3d 69a6 11bd
00000080: 03de a1bd 4190 2f3a 1b74 0fbe 9290 053e
00000090: e330 6dbd 1fec 09be 8753 29be 8814 803d
000000a0: 6689 8dbe 2436 203e cec4 53be 4246 8ebe
000000b0: bc0a 03be edaf a1bd f485 1e3e 881a bfbd
000000c0: 4fb1 1bbe c8d2 72bd f007 2ebc 2003 d43d
000000d0: 4109 65ba 9750 903c 463f 553b 7c10 f03d
000000e0: 909e 0abd 5045 df3e 8064 b43d e526 9fbc
000000f0: b274 b4bd 3095 283e 62ff 103e 026c 45bd
00000100: 1095 a9bc e384 d5bd 0504 cd3c f771 dd3c
00000110: 6148 38be ec6f cbbd 5fc9 123e 7bba c4bb
00000120: 08c8 853e 9c23 d43e afcb 503e 682b 383e
00000130: 96cb 873e f606 28be 384f 913e c0ab cf3b
00000140: 9be3 a4be 6584 173c 8429 74be 0265 2d3e
00000150: 9130 fcba c8b5 5d3d 13f6 77be f5c2 3dbe
00000160: f45b c0bd 56cd 00be 28a8 3fbe 414e c6bc
00000170: 4c89 183d 819d 723d 0f54 213d 60c4 a33d
00000180: 42c6 40be 8e73 913d f851 f43c 4819 c13c
00000190: 138a a2bd d376 61be d260 3d3e 3b83 08be
000001a0: 374d 4e3e 0a57 983e 0939 0c3e da24 3bbd
000001b0: 9b5d 043f 427f 2dbc cbf6 d6bd 848c 5bbd
000001c0: c3bd 573e 52f9 323e 956a 75be dc9f 71be
000001d0: 1acf d9bd a1ca 273e ef61 b93e d3ef 81bd
000001e0: 3855 6fbe e229 45bc 08c6 94bc bde3 923d
000001f0: 1873 ebbe f6e4 b33e c25a 343e 239f 93be
00000200: 75c3 863e f8b7 933d f9ed af3e 49e5 463e
00000210: d197 81be 7ddb 89bd 4d1d aabc db58 a33e
00000220: 642c 033e dc3f 3f3d 3a39 143d 48e8 4f3e
00000230: ff34 6fbe 2094 47bd f31c f83e 89b3 27be
00000240: 9ba5 74be 65da 173e 5c89 383e dd12 493e
00000250: af6d 10be e6b8 fb3c 68fc 47bd f0df 08be
00000260: e0fb 893e d20d 343e 0de4 4b3e 9fb8 f33c
00000270: 539c 63bd ae40 9c3d c8e7 643d 949d 183f
00000280: f0e4 4ebe 7c2c 343e 8a54 1bbe c0f0 e9bd
00000290: 3afa 8e3e 7ce2 103e c8ab 95bc bf9d bfbd
000002a0: 03d7 943e a40e 8bbe c4d4 cebc a9d7 813e
000002b0: 6c19 abbc 1d20 bebe 68f8 69bd 18aa c73d
000002c0: b40f 8dbe 4886 5d3e 7e92 eebd e512 a6be
000002d0: 1ef9 5abe b884 8d3d a363 ad3e f079 673e
000002e0: 513f 38be 604e 9dbd 48d1 883e c4dd 0f3e
000002f0: 4aac b6bd 9a64 253e 2456 fabc 6bf9 7f3d
00000300: ebda c43e 1e71 9b3e 34d3 c13c ec80 c93d
00000310: 9331 903b 548e 49bd b7d2 af3c 3512 1fbc
00000320: 2a7e 1dbe 15f4 073e af3b a23d c03a 42bd
00000330: c20c df3d a1cd 2c3e 893e 0fbd 75ae c13d
00000340: 0340 0bbd 66fa 19be afb0 f03e b95d edbd
00000350: 7caa b6bd 06ca 513d 0923 62be 6353 c33e
00000360: 1cbc 473e db0c 0e3e 8834 333d 2a8d 28bd
00000370: 84c2 b6bd 1d6e 96be dca4 61be ccbb 82be
00000380: a668 67bd 0491 1fbe f639 59be 430f 11be
00000390: a95e 343e c93a 65be 7eed 7fbd d77d 563d
000003a0: 1cf1 3cbd ed36 34be 17ef a4bc 96b2 07be
000003b0: 3e9e 2d3e 8d25 853b e3ab 0abe 6147 473e
000003c0: cdb9 a8bd 5548 803e 9954 473e 20b2 723d
000003d0: 20b4 ad3d 3f9c ac3d f402 61bd 1519 15be
000003e0: fb42 1fbe a070 03be 2e15 abbe d457 20be
000003f0: e23c 8d3d 0567 b83e 2634 a73e 15eb fabd

stack.0.bias f4 [128]
-0.23197596 -0.28242913 0.24728522 0.07185537 -0.09654196 0.19012967 0.05079 -0.3267569
-0.061184965 -0.24841984 -0.4556073 -0.23513891 -0.049413748 0.15591255 0.060759187 0.13971525
0.108226165 0.15679634 -0.035580117 -0.04675702 0.20067687 -0.33869943 -0.3129925 0.17497015
-0.12229684 0.4066394 0.6958583 0.17820713 -0.04664189 0.5078853 -0.011102161 0.071030185
-0.27235854 -0.18039744 0.30754903 -0.2528714 0.0066856407 -0.19025123 -0.16809689 0.1919675
-0.3236409 0.1995487 -0.2324428 -0.20009963 0.07678796 -0.45291847 0.113440156 -0.12198026
0.022996038 0.21846952 -0.099994816 0.6129719 0.63728404 -0.934197 0.28425884 0.05832172
0.041371763 -0.2311587 0.15423405 0.2676457 -0.19922328 -0.07420521 -0.020228775 -0.10348631
-0.32859054 -0.18907571 0.11425549 -0.22438659 0.2783628 0.31648484 0.17797889 0.56256974
-0.32109866 -0.41844648 -0.22554529 0.39870006 0.16533911 0.7297372 0.4997669 -0.35854894
0.23289861 0.25341085 0.53384215 0.14810078 0.10277674 -0.066458195 -0.5240053 -0.18852909
-0.061199 -0.054636054 -0.21650456 0.12091295 0.27552363 0.26785126 0.16710974 0.33259705
-0.077808745 -0.1087055 0.5323371 0.06504907 -0.25062966 -0.38639018 -0.6246762 0.14787863
-0.20412156 -0.17969997 -0.5215752 0.08006054 -0.06431934 0.050166283 -0.1704735 0.43669212
-0.19075784 -0.010762982 -0.017714849 -0.12077445 0.53377503 0.20846823 -0.7545673 -0.08731352
0.10777677 -0.2289395 -0.23581228 0.05778339 -0.21045068 0.2819995 -0.2181097 0.12827428
00000000: 1b8b 6dbe 8d9a 90be 5638 7d3e e928 933d
00000010: cbb7 c5bd 5ab1 423e 2d09 503d ae4c a7be
00000020: 169d 7abd c561 7ebe 5c45 e9be 41c8 70be
00000030: 1266 4abd 8aa7 1f3e a0de 783d 8411 0f3e
00000040: aea5 dd3d 388f 203e 75bc 11bd 4a84 3fbd
00000050: 3d7e 4d3e 036a adbe 8e40 a0be 602b 333e
00000060: c476 fabd 0a33 d03e c523 323f ee7b 363e
00000070: 910b 3fbd c504 023f d7e5 35bc 4678 913d
00000080: 9472 8bbe 1bba 38be 1177 9d3e 5c78 81be
00000090: 3813 db3b 38d1 42be 9721 2cbe 2193 443e
000000a0: 43b4 a5be 7f56 4c3e 7c05 6ebe ebe6 4cbe
000000b0: 0243 9d3d eee4 e7be 5053 e83d c9d0 f9bd
000000c0: 3062 bc3c 79b6 5f3e 15ca ccbd baeb 1c3f
000000d0: 0c25 233f 8927 6fbf 608a 913e c2e2 6e3d
000000e0: 7075 293d deb4 6cbe 88ef 1d3e db08 893e
000000f0: 3001 4cbe e7f8 97bd d1b6 a5bc a1f0 d3bd
00000100: 053d a8be 109d 41be c8fe e93d 99c5 65be
00000110: 9285 8e3e 4d0a a23e 1940 363e 9204 103f
00000120: 0b67 a4be 9e3e d6be 58f5 66be 6a22 cc3e
00000130: a84e 293e 0fd0 3a3f 72e1 ff3e ba93 b7be
00000140: f97c 6e3e 11bf 813e e1a9 083f bba7 173e
00000150: 9d7c d23d 3c1b 88bd 3625 06bf c50d 41be
00000160: cdab 7abd 0eca 5fbd 5fb3 5dbe 35a1 f73d
00000170: 6f11 8d3e cd23 893e d11e 2b3e 294a aa3e
00000180: 315a 9fbd fda0 debd 3f47 083f 7238 853d
00000190: 8852 80be efd4 c5be c8ea 1fbf 7f6d 173e
000001a0: 3e05 51be 4503 38be f485 05bf c8f6 a33d
000001b0: dcb9 83bd 297b 4d3d 9b90 2ebe 1c96 df3e
000001c0: 0656 43be 3857 30bc bb1e 91bc 9858 f7bd
000001d0: 7ba5 083f b278 553e 532b 41bf 6ed1 b2bd
000001e0: 11ba dc3d 1e6f 6abe c678 71be 47ae 6c3d
000001f0: 6280 57be 3d62 903e 2658 5fbe 555a 033e

stack.2.weight f4 [1, 128]
0.3605827 0.32906902 -0.08830508 0.24398665 0.19286546 -0.09230797 0.09900661 0.71555865
0.21519747 0.32075226 -0.45212567 0.13674258 0.29985327 -0.08527883 0.13645852 -0.43881607
0.41929385 0.19343407 -0.2945275 -0.19399539 -0.19748428 -0.024348157 0.6411327 -0.108333945
0.24607658 -0.087543584 -0.49732766 0.2129182 0.37793535 -0.30010617 -0.12136628 0.46052822
0.1564901 0.31545067 -0.2639093 0.12887418 -0.21624447 0.24266583 -0.33388025 -0.13962017
0.25628084 0.44720146 -0.35335547 0.1119562 0.3622736 -0.16816616 0.1805177 0.31302983
0.29485783 0.37707272 0.36649585 -0.37552503 -0.31042945 -1.0749457 0.18660001 0.14402646
-0.09966797 -0.16012608 -0.18348832 0.35838798 0.28597695 0.38412613 0.10833715 -0.41685435
0.330669 -0.09530423 -0.057209294 0.31358314 -0.29641324 -0.3281084 0.23073417 -0.33173576
0.23341705 0.4227064 0.4080993 -0.22007182 0.24529366 -0.29960015 -0.18849434 0.3440467
-0.09706238 0.23066485 -0.41434962 -0.2687555 -0.13824204 -0.18503232 0.5972452 0.11520575
0.1467537 0.29328302 -0.11825712 -0.60750896 0.2742925 -0.14139748 0.33883473 -0.40906903
0.27623582 0.034634076 -0.4816855 0.27161622 0.5410991 0.39799532 -0.57420903 -0.05625289
0.09919811 -0.14486264 -0.24444918 0.17464606 -0.25778204 0.18496 0.36053634 -0.36435413
0.5386135 0.92710555 0.43190232 0.18360658 -0.33222327 -0.120824926 -0.35613564 0.2406993
-0.090100355 0.26592982 0.18078054 0.13440494 0.3706477 -0.5190645 0.36237103 0.23394354
00000000: 4c9e b83e bc7b a83e 4bd9 b4bd a3d7 793e
00000010: 867e 453e f60b bdbd fac3 ca3d da2e 373f
00000020: ba5c 5c3e a439 a43e 047d e7be 3f06 0c3e
00000030: 5e86 993e aba6 aebd c8bb 0b3e 80ac e0be
00000040: afad d63e 9513 463e 4fcc 96be baa6 46be
00000050: 5239 4abe c975 c7bc 4621 243f 30de ddbd
00000060: 80fb 7b3e 0d4a b3bd bba1 febe 3b07 5a3e
00000070: be80 c13e 84a7 99be e28e f8bd 5bca eb3e
00000080: f13e 203e c082 a13e 1f1f 87be 98f7 033e
00000090: 316f 5dbe 647d 783e 5af2 aabe 97f8 0ebe
000000a0: 3e37 833e 97f7 e43e 02eb b4be 4b49 e53d
000000b0: ed7b b93e c033 2cbe a2d9 383e 7245 a03e
000000c0: 9bf7 963e ad0f c13e 58a5 bb3e d144 c0be
000000d0: 9cf0 9ebe d297 89bf 1314 3f3e ac7b 133e
000000e0: b81e ccbd 17f8 23be 5de4 3bbe a17e b73e
000000f0: 926b 923e 2eac c43e dedf dd3d ef6d d5be
00000100: 724d a93e dd2e c3bd 4b54 6abd f88d a03e
00000110: 7ac3 97be d3fd a7be 9445 6c3e 45d9 a9be
00000120: e104 6f3e f96c d83e 64f2 d03e 825a 61be
00000130: 432e 7b3e 3165 99be a904 41be e426 b03e
00000140: a4c8 c6bd 6833 6c3e a225 d4be 529a 89be
00000150: 528f 0dbe 1d79 3dbe 10e5 183f fef0 eb3d
00000160: 9a46 163e 3129 963e ca30 f2bd b585 1bbf
00000170: 1170 8c3e 80ca 10be bf7b ad3e 7f71 d1be
00000180: c86e 8d3e 76dc 0d3d 7b9f f6be 4811 8b3e
00000190: 7885 0a3f 0bc6 cb3e 5dff 12bf 6e69 66bd
000001a0: 6128 cb3d df56 14be e350 7abe 6bd6 323e
000001b0: 02fc 83be 2766 3d3e 3898 b83e a08c babe
000001c0: 93e2 093f ca56 6d3f 4d22 dd3e 5d03 3c3e
000001d0: 2b19 aabe 0f73 f7bd 6957 b6be e179 763e
000001e0: 8986 b8bd f427 883e 891e 393e 73a1 093e
000001f0: 89c5 bd3e 69e1 04bf b288 b93e e58e 6f3e

exp_avg f4 [128, 17]
-0.0047344593 0.012031369 -0.011759419 -0.004871772 -0.005910525 -0.006242475 -0.0049999636 0.01125046
0.012178707 0.011739797 0.007525631 0.0050097713 -0.003442744 0.0037148667 0.0047107907 0.00087410375
0.00076936116 -0.003927315 0.01038612 -0.010626153 -0.004060413 -0.0051334896 -0.0068061436 -0.004130771
0.009623369 0.010508504 0.010120649 0.0068882774 0.0048716837 -0.0036582593 0.002922703 0.003861732
0.0012515666 0.0011695649 0.00091984036 -0.00022754652 0.0002489497 0.0007753799 0.001004179 0.0008676715
0.0008331365 -0.0004327757 -0.00037459785 -0.0003068771 -0.0005336967 -7.0013215e-05 -0.0012187317 -0.0009613575
-8.243401e-05 -0.00026673646 -0.0017147753 -0.0033945001 0.011859569 -0.008183208 -0.0033427963 -0.0042103943
-0.005248018 -0.0035216312 0.01119277 0.011632757 0.011029831 0.008017823 0.0060933363 -0.002811975
0.0016271992 0.0022675127 0.0009707653 0.000916671 -0.0026647458 0.008779012 -0.006222612 -0.0014462053
-0.0032074712 -0.00270086 -0.0029749635 0.0084005445 0.00874853 0.00833274 0.006024826 0.004187525
-0.0017046808 0.0017203976 0.0019172605 0.00074744236 -9.422995e-05 0.00038607826 -0.00039640706 -0.00014355368
0.00046269342 0.00038078256 0.00067152164 0.00022771257 -0.00058505073 -0.00031991288 -0.00022775552 -0.00060143217
5.5844495e-05 -0.0013252416 -0.0001955247 0.00030979328 -0.00011764745 -0.0013998441 -0.0010057276 0.0034466996
-0.0031020958 -0.0010912096 -0.0013346046 -0.0018427125 -0.0010528502 0.003285305 0.0035070966 0.0034693119
0.002138545 0.0017016783 -0.00082310085 0.0011324029 0.0013556359 0.0003262747 0.0009108796 -0.009583315
0.020602645 -0.015528882 -0.012990419 -0.009131407 -0.01684678 -0.010694571 0.019389546 0.021118471
0.020752687 0.01537895 0.011581739 -0.0051218546 0.005156639 0.010088811 0.0055449847 0.00060309184
-0.0023058185 0.008269578 -0.0065622395 -0.0022938787 -0.0030474833 -0.0038777993 -0.0024272436 0.00794814
0.008487343 0.00829742 0.0052580168 0.004106719 -0.0014212321 0.0028746617 0.003086172 0.0008111559
0.0021010563 -0.0035180734 0.011810841 -0.010506156 -0.003462627 -0.004591381 -0.0061967457 -0.0038156174
0.011055277 0.011995656 0.011687039 0.008342294 0.005834094 -0.0033681039 0.0037077295 0.005080194
0.002346397 0.0018180611 -0.00040635307 0.001310372 -0.0025108214 0.0010524347 -0.0008554501 0.0012130967
-0.00047480265 0.0008362971 0.0015538437 0.0013936355 -0.0001296147 0.0009756172 -0.0032924793 -0.0018596625
-8.892164e-05 -0.00039528892 -0.011578628 -0.0016709764 0.004622842 -0.004182555 -0.0012719984 -0.002274102
-0.0018711138 -0.0017820515 0.0043344754 0.0046650735 0.0044437144 0.0024107823 0.0014310047 -0.0012453424
0.0014709607 0.0016927911 -0.00015998751 0.0006041101 -0.0031861784 0.012319956 -0.0095494585 -0.0036407746
-0.0042089755 -0.0058513144 -0.003141924 0.011628574 0.012490099 0.011992387 0.0063315313 0.004295558
-0.0027870005 0.0036282574 0.004264487 -0.0010920317 0.001649964 0.00060768786 -0.0007558363 -0.00017684718
0.00078514864 0.00052320753 0.00079651846 0.00049646996 -0.00095724757 -0.0006689842 -0.00045168723 -0.00083040976
-0.00024410871 -0.0012931889 4.7095004e-05 0.0007721328 -0.0001189635 -0.0011283858 -0.0014136715 0.0053609624
-0.0037193634 -0.0012787976 -0.0018239334 -0.00246629 -0.0014236558 0.005212188 0.0052044224 0.004742597
0.0028692407 0.0019204523 -0.0006114353 0.00038317472 0.00042778827 -0.00026756994 0.0007034742 0.008583047
00000000: 8623 9bbb 381f 453c 94aa 40bc 63a3 9fbb
00000010: 14ad c1bb ad8d ccbb bcd6 a3bb d953 383c
00000020: 3389 473c 4758 403c 9299 f63b 0229 a43b
00000030: a99f 61bb 1f75 733b fa5c 9a3b 1c24 653a
00000040: f4ae 493a b5b0 80bb 8b2a 2a3c 5119 2ebc
00000050: 370d 85bb d536 a8bb 1206 dfbb 6b5b 87bb
00000060: 56ab 1d3c dc2b 2c3c 14d1 253c 0fb7 e13b
00000070: a5a2 9f3b 68bf 6fbb d28a 3f3b 1d15 7d3b
00000080: 9b0b a43a 164c 993a 7121 713a 8e99 6eb9
00000090: 7785 8239 dd42 4b3a a89e 833a 7374 633a
000000a0: d866 5a3a 2ce6 e2b9 ac65 c4b9 59e4 a0b9
000000b0: c7e7 0bba 0fd4 92b8 dabd 9fba 9c03 7cba
000000c0: 6ce0 acb8 c3d8 8bb9 50c2 e0ba 4376 5ebb
000000d0: a34e 423c dd12 06bc d112 5bbb 59f7 89bb
000000e0: 91f7 abbb 2bcb 66bb e161 373c 5297 3e3c
000000f0: 77b6 343c 305d 033c 9caa c73b 1d49 38bb
00000100: bf47 d53a 8d9a 143b f57a 7e3a c04c 703a
00000110: 04a3 2ebb d8d5 0f3c 0ee7 cbbb 998e bdba
00000120: 7034 52bb e900 31bb 9bf7 42bb 70a2 093c
00000130: ff55 0f3c 0b86 083c e76b c53b 8137 893b
00000140: 996f dfba f77e e13a 964c fb3a 02f0 433a
00000150: 529d c5b8 8c6a ca39 dbd4 cfb9 e686 16b9
00000160: a995 f239 c5a3 c739 0e09 303a 21c6 6e39
00000170: 175e 19ba fbb9 a7b9 a8d1 6eb9 6ea9 1dba
00000180: 923a 6a38 bbb3 adba c305 4db9 c06b a239
00000190: 7eb9 f6b8 f97a b7ba 9ed2 83ba 06e2 613b
000001a0: 884c 4bbb eb06 8fba e6ed aeba 2c87 f1ba
000001b0: caff 89ba 464e 573b 51d7 653b 655d 633b
000001c0: d526 0c3b d90a df3a 5dc5 57ba 236d 943a
000001d0: 98af b13a d90f ab39 18c8 6e3a 5603 1dbc
000001e0: e1c6 a83c da6c 7ebc c4d5 54bc e69b 15bc
000001f0: 4202 8abc 4838 2fbc d3d6 9e3c a500 ad3c
00000200: 8a01 aa3c fef7 7b3c 56c1 3d3c 3bd5 a7bb
00000210: 06f9 a83b 8a4b 253c b4b2 b53b cf18 1e3a
00000220: 371d 17bb 207d 073c 0e08 d7bb e654 16bb
00000230: 49b8 47bb ad22 7ebb 6412 1fbb ea38 023c
00000240: 7f0e 0b3c e7f1 073c 714b ac3b a891 863b
00000250: a348 baba d264 3c3b 6041 4a3b c0a3 543a
00000260: e0b1 093b 7a8f 66bb 4282 413c 0322 2cbc
00000270: 3eed 62bb 4c73 96bb 120e cbbb 700f 7abb
00000280: 3121 353c 6e89 443c ff7a 3f3c 1eae 083c
00000290: ed2b bf3b 68bb 5cbb 61fd 723b c277 a63b
000002a0: 02c6 193b 024c ee3a c90b d5b9 cac0 ab3a
000002b0: 988c 24bb d9f1 893a 4940 60ba c500 9f3a
000002c0: efee f8b9 f33a 5b3a 58aa cb3a a6aa b63a
000002d0: 2ee9 07b9 90c0 7f3a a3c6 57bb ebbf f3ba
000002e0: 717b bab8 c83e cfb9 49b4 3dbc aa04 dbba
000002f0: 367b 973b d00d 89bb 2fb9 a6ba 1a09 15bb
00000300: 2940 f5ba ba93 e9ba 3708 8e3b 79dd 983b
00000310: 949c 913b 37fe 1d3b 8d90 bb3a c23a a3ba
00000320: 40cd c03a a5e0 dd3a 52c2 27b9 245d 1e3a
00000330: 34cf 50bb a4d9 493c 5575 1cbc 109a 6ebb
00000340: 72eb 89bb 62bc bfbb bde8 4dbb c685 3e3c
00000350: 46a3 4c3c b77b 443c bc78 cf3b c1c1 8c3b
00000360: 1ca6 36bb 0fc8 6d3b 1cbd 8b3b 8122 8fba
00000370: 9b43 d83a 3e4d 1f3a 5123 46ba 0e70 39b9
00000380: 6fd2 4d3a dd27 093a 73cd 503a 8925 023a
00000390: ccef 7aba c55e 2fba 6fd0 ecb9 dbaf 59ba
000003a0: 6ff7 7fb9 3880 a9ba e087 4538 f468 4a3a
000003b0: 0b7c f9b8 58e6 93ba f24a b9ba 03ab af3b
000003c0: 90c0 73bb 549d a7ba 0d11 efba 7ba1 21bb
000003d0: f699 baba 01cb aa3b dc89 aa3b ca67 9b3b
000003e0: df09 3c3b b0b7 fb3a ba48 20ba d7e4 c839
000003f0: c548 e039 a148 8cb9 5b69 383a e99f 0c3c

exp_avg_sq f4 [128, 17]
0.0014691647 0.0004781235 0.0016577486 0.0013837167 0.0014112096 0.0014147721 0.0014954441 0.00043559927
0.00051778136 0.00043328077 0.00021253897 0.00024113806 8.842266e-05 0.0005198904 0.00030108303 0.0003282095
0.00039766688 0.0012425742 0.0003837525 0.0013984509 0.0011804301 0.0012028528 0.0011815734 0.0012645533
0.00034810303 0.0004159489 0.00034641562 0.00016773528 0.0001938519 7.52258e-05 0.00043994182 0.00025454885
0.00027828294 0.0003267776 5.4362037e-05 3.683748e-05 5.2760934e-05 5.1355404e-05 5.30878e-05 4.7986672e-05
5.3458247e-05 3.5367448e-05 3.535338e-05 4.8065922e-05 6.060626e-05 8.203802e-05 2.6834605e-05 4.4377895e-05
7.909873e-05 8.083384e-05 8.711696e-05 0.0006954917 0.00046011878 0.00078410964 0.0006610662 0.0006733827
0.0006654938 0.0007079993 0.00043126268 0.0004638941 0.00039745445 0.00022199338 0.00020583715 5.2216783e-05
0.00027570865 0.00018900205 0.00020609146 0.00024987987 0.00042249865 0.00028978096 0.00048227876 0.00039853042
0.00040637783 0.00040765913 0.00042953494 0.00027163478 0.00029101476 0.00024683308 0.00013342337 0.00012202004
4.698341e-05 0.00016586106 0.000105994965 0.00011075601 0.00014174957 5.8918817e-05 5.375469e-05 5.4213182e-05
5.722762e-05 5.7580826e-05 5.200469e-05 5.7824564e-05 5.1615265e-05 5.009011e-05 6.200993e-05 7.3435345e-05
9.40061e-05 2.8343346e-05 4.335074e-05 8.803711e-05 9.261552e-05 0.000100958525 0.00011549429 5.1044033e-05
0.00012976806 0.00011004162 0.00011182365 0.0001102862 0.00011747566 4.7401525e-05 5.338323e-05 4.610405e-05
2.6268583e-05 2.7339269e-05 1.2193466e-05 4.6674984e-05 2.8538452e-05 3.0812702e-05 3.518757e-05 0.0029642293
0.002069394 0.0038450318 0.0028690966 0.002764162 0.0025843864 0.0030005851 0.0019611246 0.0021917657
0.0019514314 0.0013038784 0.001302661 0.0003372294 0.0018038548 0.0009800718 0.0011926044 0.0013654382
0.00054297934 0.00024736946 0.00060987525 0.00051654817 0.0005258944 0.0005180533 0.0005518654 0.00022995559
0.00025793532 0.000222836 0.00012703166 0.00012923221 4.9493865e-05 0.00021153268 0.00013074862 0.00014424336
0.0001650387 0.0011803192 0.0005227838 0.0013326616 0.0011231363 0.001142463 0.0011244571 0.0012002428
0.00048312458 0.0005427284 0.00046176874 0.00024222484 0.0002455173 7.229327e-05 0.00042039002 0.00025380208
0.00027277973 0.0003400457 0.000872076 0.0004974076 0.00085524784 0.0008327635 0.00085358124 0.00073806033
0.00083922583 0.00044756357 0.00045022127 0.000830084 0.0010676682 0.0015143772 0.00013386774 0.00046904112
0.0016097345 0.001476678 0.0013057551 0.00021227374 8.1517646e-05 0.00024226792 0.00020247191 0.00020562785
0.00020432512 0.00021581881 7.4860705e-05 8.599077e-05 7.26242e-05 3.7439557e-05 4.014297e-05 1.3073905e-05
7.592067e-05 4.4143377e-05 4.7751302e-05 6.0392555e-05 0.0010386714 0.0005391688 0.0011722492 0.0009845985
0.0010037874 0.000990121 0.0010581003 0.00050408154 0.0005579852 0.00048331852 0.0002759129 0.00026694097
7.370291e-05 0.00039616082 0.00025924805 0.00029628846 0.00032875384 4.979865e-05 3.410109e-05 4.6100282e-05
4.7901245e-05 4.864229e-05 4.368717e-05 4.885607e-05 3.2690303e-05 3.1986638e-05 4.4615754e-05 5.71698e-05
7.770149e-05 2.479242e-05 3.7434693e-05 7.4960386e-05 7.536341e-05 8.1383354e-05 0.0002188569 0.00010660096
0.00024228083 0.00021009825 0.00021154771 0.00020884251 0.00022146273 0.00010187165 0.00011282504 0.00010234131
7.3290474e-05 7.3164396e-05 5.055865e-05 0.00011263475 7.5832875e-05 7.2105e-05 7.2906194e-05 0.0024844885
00000000: fd90 c03a a6ac fa39 d048 d93a d45d b53a
00000010: 56f8 b83a e06f b93a c702 c43a 2561 e439
00000020: b8bb 073a f629 e339 ffdc 5e39 01da 7c39
00000030: 8e6f b938 4149 083a aeda 9d39 8913 ac39
00000040: f27d d039 dfdd a23a 6332 c939 3a4c b73a
00000050: a9b8 9a3a 0ba9 9d3a 06df 9a3a 5ebf a53a
00000060: 9981 b639 b713 da39 1e9f b539 19e2 2f39
00000070: b944 4b39 8bc2 9d38 fea7 e639 f874 8539
00000080: 81e6 9139 5953 ab39 cb02 6438 f181 1a38
00000090: 9f4b 5d38 7266 5738 97aa 5e38 4c45 4938
000000a0: 5b38 6038 8257 1438 6748 1438 649a 4938
000000b0: 7a33 7e38 d40b ac38 e01a e137 6722 3a38
000000c0: cfe1 a538 5685 a938 90b2 b638 a851 363a
000000d0: 193c f139 b58c 4d3a 674b 2d3a f385 303a
000000e0: 8874 2e3a 0799 393a 191b e239 d036 f339
000000f0: 6f61 d039 e5c6 6839 fdd5 5739 5803 5b38
00000100: fd8c 9039 da2e 4639 411a 5839 4f02 8339
00000110: cf82 dd39 beed 9739 5cda fc39 d9f1 d039
00000120: 1c0f d539 15bb d539 3433 e139 346a 8e39
00000130: 5793 9839 6069 8139 90e7 0b39 03e5 ff38
00000140: 0d10 4538 fdea 2d39 9d49 de38 ae45 e838
00000150: 9ca2 1439 991f 7738 a976 6138 f662 6338
00000160: b007 7038 f182 7138 9c1f 5a38 a788 7238
00000170: 787d 5838 d917 5238 540b 8238 4d01 9a38
00000180: 2425 c538 dfc2 ed37 81d3 3538 90a0 b838
00000190: 943a c238 b2b9 d338 8635 f238 1d18 5638
000001a0: 5912 0839 25c6 e638 dd82 ea38 7449 e738
000001b0: 445d f638 00d1 4638 cfe7 5f38 d95f 4138
000001c0: 5a5b dc37 a256 e537 8a92 4c37 e2c4 4338
000001d0: dc65 ef37 e33c 0138 5e96 1338 8443 423b
000001e0: ac9e 073b eefc 7b3b 7407 3c3b f126 353b
000001f0: cf5e 293b 77a5 443b 3686 003b baa3 0f3b
00000200: 2cc7 ff3a e6e6 aa3a 0dbe aa3a 2ace b039
00000210: 536f ec3a c175 803a 2a51 9c3a 81f8 b23a
00000220: ba56 0e3a 5eb1 8139 09e0 1f3a f668 073a
00000230: 2ddc 093a f8cd 073a 0fab 103a 3c20 7139
00000240: 7e3b 8739 15a9 6939 cd33 0539 8282 0739
00000250: a297 4f38 dfce 5d39 9119 0939 0840 1739
00000260: 3d0e 2d39 f1b4 9a3a 6d0b 093a b4ac ae3a
00000270: 3336 933a b2be 953a 8562 933a 7751 9d3a
00000280: e24b fd39 e345 0e3a 8d19 f239 bcfd 7d39
00000290: c6b8 8039 279c 9738 cb67 dc39 bd10 8539
000002a0: e003 8f39 2948 b239 089c 643a 7564 023a
000002b0: b632 603a d04d 5a3a dec2 5f3a 647a 413a
000002c0: 7eff 5b3a f7a6 ea39 ad0b ec39 ff99 593a
000002d0: 00f1 8b3a 117e c63a d95e 0c39 a2e9 f539
000002e0: bafd d23a 178d c13a df25 ab3a cc95 5e39
000002f0: 74f4 aa38 4d09 7e39 a44e 5439 ce9d 5739
00000300: 1b40 5639 6c4d 6239 89fe 9c38 f155 b438
00000310: d24d 9838 6b08 1d38 305f 2838 ff57 5b37
00000320: 9937 9f38 9726 3938 9248 4838 034e 7d38
00000330: 0724 883a 0157 0d3a 28a6 993a a50d 813a
00000340: 8491 833a f3c6 813a f4af 8a3a 5724 043a
00000350: c145 123a ea65 fd39 67a8 9039 36f4 8b39
00000360: f390 9a38 ceb3 cf39 afeb 8739 2a57 9b39
00000370: 985c ac39 e5de 5038 c407 0f38 cd5b 4138
00000380: 92e9 4838 4305 4c38 be3c 3738 ceea 4c38
00000390: f21c 0938 6429 0638 cd21 3b38 9bc9 6f38
000003a0: abf3 a238 51f9 cf37 3203 1d38 0d34 9d38
000003b0: 6c0c 9e38 5bac aa38 f47c 6539 f48e df38
000003c0: c40c 7e39 d24d 5c39 e8d2 5d39 bcfc 5a39
000003d0: 7338 6839 eda3 d538 7b9c ec38 13a0 d638
000003e0: 86b3 9938 d66f 9938 f00e 5438 5236 ec38
000003f0: 7708 9f38 1437 9738 37e5 9838 cdd2 223b

exp_avg f4 [128]
-0.0016374871 -0.0018361192 -0.0010678886 0.002764039 0.0023001325 -0.0020206713 0.0005122128 0.0010510304
0.0015732843 -0.00034876732 -0.003254038 -0.00036463578 0.00039847178 -0.0014911842 0.0005260526 -0.004860301
0.0014065062 -0.00012119838 -0.0040129884 -0.0002975449 -0.004833047 -0.00011226539 0.0036583531 -0.0017831557
0.0014862617 -0.002416915 -0.006894306 0.001496003 0.0016091183 -0.0072656395 -0.0017306509 0.009312112
-0.0014460506 -0.0021639327 -0.0039715595 -0.00070137565 -0.0014638299 -0.0008090025 -0.0011911495 -0.0010320229
-0.0015506471 0.016169632 0.0014574393 -0.0008750303 0.0013135243 -0.0016686536 0.00023240598 0.0013541657
0.0015726251 0.0033914798 -0.0016666581 -0.004895957 -0.009316715 -0.008903636 0.0015258838 0.0014213633
-0.0019803056 -0.00087318674 -0.0017303198 0.0012843594 -0.0016093306 4.8523193e-06 0.00078903424 -0.0088735055
-0.0019107269 -0.001302774 -0.0015749636 -0.0002594892 0.0016065385 -0.005506092 0.000830569 -0.008060506
-0.0010492604 0.0040321155 -0.004975034 0.00049448694 0.0007122479 -0.008179379 -0.004081231 0.0067008715
-0.0012475173 0.0010674283 -0.013871686 -0.0015046621 -0.0026980895 -0.002447974 -0.00019756665 0.00058041775
0.0006732341 -0.0018515862 -0.000821952 -0.017039692 0.0024694426 -0.0011885929 0.008324702 -0.009883146
0.0024807474 -0.000109938344 -0.010099468 0.002776701 -0.001400547 0.0029942458 -0.011914594 -0.0013964712
-0.0007254405 -0.0011474807 -0.0034725924 0.0008068202 -0.0037379137 0.0009446664 -0.0014205902 -0.00086057425
0.008319865 0.00884967 0.0025121989 0.0005545405 -0.006519569 -0.0010208887 -0.0063639428 0.000581467
-0.0021827922 -0.0015980868 -0.0011198458 0.00074935524 -0.002070317 -0.0070290663 0.006321226 -0.00039485836
00000000: f3a0 d6ba f0a9 f0ba 65f8 8bba e124 353b
00000010: d2bd 163b 3d6d 04bb 0546 063a bac2 893a
00000020: a936 ce3a c2da b6b9 b341 55bb 962c bfb9
00000030: fae9 d039 d773 c3ba cbe6 093a 2943 9fbb
00000040: 845a b83a e32b feb8 637f 83bb cdff 9bb9
00000050: 895e 9ebb 0670 ebb8 fbc0 6f3b c7b8 e9ba
00000060: abce c23a 1b65 1ebb a1e9 e1bb 8815 c43a
00000070: 0de9 d23a 9a14 eebb 02d7 e2ba d491 183c
00000080: 6889 bdba c4d0 0dbb db23 82bb 86dc 37ba
00000090: fbdd bfba 3d13 54ba 5820 9cba f144 87ba
000000a0: 153f cbba 2d76 843c 8c07 bf3a 4a62 65ba
000000b0: 902a ac3a b9b6 daba 01b2 7339 437e b13a
000000c0: 8b20 ce3a 9743 5e3b c473 daba 446e a0bb
000000d0: 23a5 18bc 8ee0 11bc 2a00 c83a 0a4d ba3a
000000e0: 04c8 01bb 92e6 64ba e6cb e2ba f357 a83a
000000f0: 2df0 d2ba 1bd1 a236 31d7 4e3a 2e62 11bc
00000100: 5b71 faba d7c1 aaba 026f ceba 0d0c 88b9
00000110: 7d92 d23a 736c b4bb 8bba 593a 3610 04bc
00000120: 5687 89ba d61f 843b 9c05 a3bb 75a0 013a
00000130: 26b6 3a3a cd02 06bc d9bb 85bb fc92 db3b
00000140: bc83 a3ba f3e8 8b3a 1146 63bc 1538 c5ba
00000150: 6ed2 30bb 306e 20bb e529 4fb9 2d27 183a
00000160: fa7b 303a ecb0 f2ba 4478 57ba d396 8bbc
00000170: 5fd6 213b 8fca 9bba 5564 083c ebec 21bc
00000180: 0994 223b b38e e6b8 3d78 25bc 50f9 353b
00000190: 8f92 b7ba 1c3b 443b 6e35 43bc cc09 b7ba
000001a0: 7d2b 3eba 1067 96ba 6f94 63bb c980 533a
000001b0: c9f7 74bb 7da3 773a 1933 baba 2998 61ba
000001c0: 0b50 083c 35fe 103c b4a3 243b 955e 113a
000001d0: 1ca2 d5bb 57cf 85ba 9f88 d0bb 976d 183a
000001e0: 2d0d 0fbb e576 d1ba cac7 92ba 6170 443a
000001f0: 28ae 07bb 1554 e6bb 4922 cf3b fe04 cfb9

exp_avg_sq f4 [128]
0.0009162371 0.0007774547 6.365818e-05 0.00053597556 0.0002951675 7.059697e-05 8.413405e-05 0.0027541688
0.00039174152 0.00076027634 0.0008141573 0.00013305365 0.0007678391 5.826123e-05 0.00015498449 0.0021835396
0.0017172989 0.00035206962 0.00050091505 0.00023990637 0.00029355724 4.691736e-06 0.0018763166 9.576476e-05
0.00035464912 7.3933275e-05 0.0025501465 0.0004051951 0.0012158138 0.0011151945 0.00010268116 0.0014495916
0.00018424855 0.00071479636 0.0005974403 0.0001170485 0.00029088036 0.00043813686 0.0005991403 0.00012881722
0.0004586739 0.0015950549 0.00061029126 8.786818e-05 0.0012522195 0.00018598037 0.00028553937 0.00079349347
0.00076209137 0.0014374235 0.0009758031 0.001687906 0.0009418555 0.0048365127 0.0003197256 0.00018259417
7.482839e-05 0.00015214494 0.00025399963 0.0013237864 0.00058290525 0.0012098278 9.7041215e-05 0.0009894379
0.00077987317 5.295571e-05 2.2617714e-05 0.00072106207 0.0007759625 0.0013205543 0.00050939387 0.0013955691
0.0003915528 0.0005442112 0.0012157978 0.00062351295 0.000577581 0.0008555936 0.0003260355 0.0007424057
7.546426e-05 0.000491266 0.0016334603 0.0005161217 0.00013471294 0.00021467054 0.00035352007 9.520538e-05
0.00018245855 0.0006355095 0.000104456405 0.003169606 0.0007277327 0.00016213689 0.0010197023 0.001756354
0.0005108938 8.627512e-06 0.0022286398 0.0006795859 0.0011290665 0.0010199166 0.0010295383 2.9658826e-05
7.127988e-05 0.00014814129 0.00039694103 0.000260052 0.0003549973 0.00030253234 0.0009368554 0.0012855526
0.0019056097 0.0076768924 0.0016750083 0.0002557993 0.0013783696 0.000111494104 0.00025602625 0.00045779382
6.774245e-05 0.00052264286 0.00023160879 0.00015426174 0.0009940343 0.0023531213 0.00063468306 0.00050858664
00000000: a22f 703a 1ace 4b3a 3a80 8538 b680 0c3a
00000010: b6c0 9a39 760d 9438 2071 b038 497f 343b
00000020: a862 cd39 484d 473a 2c6d 553a 5184 0b39
00000030: cf48 493a 855d 7438 5583 2239 b719 0f3b
00000040: fd16 e13a fc95 b839 d74f 033a 608f 7b39
00000050: 96e8 9939 b56d 9d36 bdee f53a 50d5 c838
00000060: 33f0 b939 a00c 9b38 5c20 273b 5e70 d439
00000070: f15b 9f3a b82b 923a 8756 d738 3900 be3a
00000080: d832 4139 2c61 3b3a 8a9d 1c3a ef77 f538
00000090: 4d81 9839 bcb5 e539 a00f 1d3a 1c13 0739
000000a0: 2b7a f039 2911 d13a f4fb 1f3a df45 b838
000000b0: 8421 a43a ba03 4339 72b4 9539 7202 503a
000000c0: 16c7 473a ee67 bc3a 0acd 7f3a ba3c dd3a
000000d0: dae6 763a 9c7b 9e3b d8a0 a739 c076 3f39
000000e0: 30ed 9c38 1989 1f39 412b 8539 e782 ad3a
000000f0: 1cce 183a 1693 9e3a 9b82 cb38 07b0 813a
00000100: 6770 4c3a c31c 5e38 2cbb bd37 a805 3d3a
00000110: f669 4b3a 7316 ad3a d888 053a 87eb b63a
00000120: 5449 cd39 65a9 0e3a 685b 9f3a 3f73 233a
00000130: ce68 173a ea49 603a beef aa39 019e 423a
00000140: 9142 9e38 4ec8 003a d519 d63a 574c 073a
00000150: bb41 0d39 2f19 6139 a958 b939 00a9 c738
00000160: 5852 3f39 5298 263a 9b0f db38 2ab9 4f3b
00000170: 51c5 3e3a 4a03 2a39 88a7 853a 7635 e63a
00000180: 81ed 053a e2be 1037 5f0e 123b 3d26 323a
00000190: 2ffd 933a b9ae 853a 93f1 863a d8cb f837
000001a0: 187c 9538 6056 1b39 861c d039 9757 8839
000001b0: ee1e ba39 349d 9e39 4d97 753a fd7f a83a
000001c0: a7c5 f93a 718e fb3b f48b db3a cd1c 8639
000001d0: 69aa b43a f1d1 e938 433b 8639 0c04 f039
000001e0: f310 8e38 f801 093a 03dc 7239 52c1 2139
000001f0: 424a 823a d336 1a3b dc60 263a ac52 053a

exp_avg f4 [1, 128]
-0.01119989 -0.011434835 0.008643436 -0.00094010815 0.002119443 0.0036999409 -0.01905189 0.006054178
-0.0031950525 -0.010146431 0.0068993084 -0.015521174 -0.00081318646 0.005695149 -0.0019996304 -0.012202804
0.006237162 -0.011355849 -0.0057000015 0.0045171375 0.018877383 0.0047536595 2.8944063e-05 -0.0017559555
0.017464427 0.02331421 -0.022286907 -0.017633136 -7.02807e-06 0.021420004 0.001980254 0.026289882
-0.013775792 -0.019249707 0.016625598 -0.016798759 -1.1610286e-05 -0.009428441 0.002961106 -0.005241243
-0.013566766 0.0465716 0.003305958 -0.02021749 0.0019665651 0.0033162273 -0.0067713135 -8.4228464e-05
0.0051493007 0.01977989 -0.009984152 0.027241614 0.026016874 -0.00530829 -0.01955173 -0.004400433
0.00055302907 -0.0011485092 0.00022408442 -0.024910437 -0.008188131 0.00031633675 -0.005460924 0.009840656
-0.012387293 -0.0017254342 0.010660983 -0.010973216 -0.006895514 0.023361553 -0.003417801 0.017843256
-0.016705224 0.0013555816 -0.0032944623 -0.01439562 0.009285582 0.02799564 0.03608361 0.032106116
0.012799911 -0.022184871 0.03399324 -0.0042865975 -0.0019320323 -0.0011100506 -0.0014155742 -0.0010308069
-0.0076499013 -0.0060969326 0.0074571585 0.017570972 0.021592071 0.00073727436 0.020845309 -0.0010052634
0.023428513 -0.009754999 0.025252916 -0.0014716483 -0.0028783148 0.009781438 0.016088268 0.0032530052
-0.01544941 0.0017685203 0.017231848 -0.010634136 0.0107904095 -0.0129023725 -0.0050830073 -0.034789674
0.008119211 0.011473931 0.0019781436 -0.0073835547 0.022152059 0.005307597 0.02962651 -0.012384707
0.0117843505 -0.0131503595 -0.0161544 -0.010390052 -0.009107259 0.049787972 0.017544243 -0.027653398
00000000: be7f 37bc 2d59 3bbc 339d 0d3c 9771 76ba
00000010: 5ae6 0a3b b57a 723b b612 9cbc 2062 c63b
00000020: 1664 51bb 373d 26bc 9813 e23b 864c 7ebc
00000030: 052c 55ba 5f9e ba3b 3b0c 03bb 45ee 47bc
00000040: 1b61 cc3b e20d 3abc 14c7 babb 7f04 943b
00000050: bea4 9a3c 96c4 9b3b e7cc f237 1728 e6ba
00000060: 8f11 8f3c 71fd be3c 0893 b6bc 5e73 90bc
00000070: a9d2 ebb6 0179 af3c 26c7 013b e15d d73c
00000080: dcb3 61bc 90b1 9dbc 6832 883c 8d9d 89bc
00000090: ccc9 42b7 bf79 1abc 1d0f 423b bcbe abbb
000000a0: 2447 5ebc ddc1 3e3d c5a8 583b 269f a5bc
000000b0: 7de1 003b 1055 593b e5e1 ddbb d0a3 b0b8
000000c0: 77bb a83b 7009 a23c 9294 23bc ce29 df3c
000000d0: 5721 d53c 2af1 adbb f32a a0bc 8231 90bb
000000e0: 27f9 103a 9389 96ba 34f8 6a39 f910 ccbc
000000f0: 8327 06bc 00da a539 8df1 b2bb b43a 213c
00000100: 13f4 4abc f727 e2ba 67ab 2e3c 01c9 33bc
00000110: c4f3 e1bb ba60 bf3c 30fd 5fbb 052c 923c
00000120: 65d9 88bc c5ad b13a e8e7 57bb 9bdb 6bbc
00000130: 8e22 183c 1d57 e53c 68cc 133d b481 033d
00000140: b8b6 513c 0cbd b5bc 7f3c 0b3d 9676 8cbb
00000150: 3f3c fdba 1e7f 91ba ca8a b9ba 241c 87ba
00000160: 06ac fabb c7c8 c7bb 2e5b f43b 00f1 8f3c
00000170: dbe1 b03c a545 413a c8c3 aa3c 0bc3 83ba
00000180: 27ed bf3c 6ed3 1fbc 34df ce3c 53e4 c0ba
00000190: 1ca2 3cbb 5342 203c 8bcb 833c 5f30 553b
000001a0: 861f 7dbc b2cd e73a ce29 8d3c cd3a 2ebc
000001b0: 42ca 303c 7964 53bc 5b8f a6bb 9e7f 0ebd
000001c0: 7006 053c 28fd 3b3c bea3 013b bff1 f1bb
000001d0: 3c78 b53c 5aeb ad3b 4bb3 f23c 3ae9 4abc
000001e0: 2613 413c 9b74 57bc 3b56 84bc 093b 2abc
000001f0: 9d36 15bc 79ee 4b3d f2b8 8f3c 6189 e2bc

exp_avg_sq f4 [1, 128]
0.004608741 0.010921406 0.013471633 0.007189845 0.0071357763 0.008692049 0.0336888 0.00028063625
0.0055660573 0.006565896 0.0015185669 0.008702077 0.0023191068 0.012068555 0.0044844043 0.009635259
0.004249914 0.014286686 0.0061268266 0.011486965 0.0051124985 0.0011397222 0.0009925375 0.008699384
0.006842828 0.008894213 0.045569804 0.025753627 0.003283509 0.009337434 0.005997683 0.0039321296
0.006136818 0.011136687 0.01425088 0.013715705 0.014492021 0.004441338 0.0034704318 0.020441817
0.008069219 0.007068884 0.005185004 0.012295582 0.011400938 0.006407872 0.015593842 0.0026585779
0.00419271 0.008447555 0.0070857983 0.014943909 0.016297607 0.0017436683 0.028569259 0.013074049
0.011028667 0.001326681 0.011703448 0.015799826 0.009040331 0.0022350985 0.014907272 0.0038012755
0.0078976285 0.0066619646 0.0020804773 0.008423347 0.009649063 0.006770801 0.020399267 0.010358357
0.015665758 0.0019836363 0.0014081039 0.015691373 0.011351653 0.025656473 0.015581292 0.008372791
0.01585618 0.042357422 0.014854904 0.01945327 0.015489934 0.010280111 0.00054677733 0.002312608
0.006014135 0.008037709 0.004552374 0.0024926197 0.020577557 0.01178354 0.0028119576 0.009351323
0.004520973 0.0032841 0.011781106 0.019487275 0.0012127435 0.0015529309 0.0015312362 0.005135067
0.0045403475 0.004042193 0.005818281 0.024480082 0.000828143 0.029053457 0.0039378027 0.03843676
0.0013957636 0.001209552 0.003024607 0.009481515 0.0067458292 0.024081066 0.005650996 0.00585349
0.0068546394 0.005011385 0.010253531 0.024815157 0.008137902 0.025799235 0.001623119 0.023327453
00000000: ec04 973b b2ef 323c 20b8 5c3c cb98 eb3b
00000010: 3bd3 e93b 1969 0e3c 44fd 093d 5c22 9339
00000020: 7963 b63b ba26 d73b a60a c73a 2893 0e3c
00000030: 28fc 173b 30bb 453c e9f1 923b 35dd 1d3c
00000040: dd42 8b3b b412 6a3c 8cc3 c83b d333 3c3c
00000050: bf86 a73b bb62 953a 0818 823a dc87 0e3c
00000060: cd39 e03b 08b9 113c 67a7 3a3d 45f9 d23c
00000070: 2430 573b 09fc 183c 3688 c43b 18d9 803b
00000080: 5c17 c93b a776 363c 867c 693c d6b7 603c
00000090: f16f 6d3c a588 913b 2f70 633b 9975 a73c
000000a0: c234 043c 19a2 e73b f7e6 a93b 6973 493c
000000b0: 00cb 3a3c 20f9 d13b 507d 7f3c 893b 2e3b
000000c0: 0063 893b 9d67 0a3c fc2f e83b 4cd7 743c
000000d0: 8f82 853c cd8b e43a 140a ea3c 8934 563c
000000e0: 95b1 343c 07e4 ad3a d2bf 3f3c a36e 813c
000000f0: e51d 143c bb7a 123b a13d 743c d21e 793b
00000100: 0e65 013c 9c4c da3b 9e58 083b 1402 0a3c
00000110: 1b17 1e3c 98dd dd3b 5d1c a73c 19b6 293c
00000120: 7a55 803c e5ff 013b 2090 b83a 328b 803c
00000130: 49fc 393c 862d d23c ad48 7f3c 082e 093c
00000140: d2e4 813c fa7e 2d3d fc61 733c 775c 9f3c
00000150: 7ec9 7d3c e96d 283c 9b55 0f3a 208f 173b
00000160: 3912 c53b 98b0 033c 152c 953b 385b 233b
00000170: 4492 a83c c00f 413c d248 383b 4b36 193c
00000180: ac24 943b 0e3a 573b 8a05 413c c7a3 9f3c
00000190: ebf4 9e3a b78b cb3a c3b3 c83a 1044 a83b
000001a0: 32c7 943b 5f74 843b 47a7 be3b 748a c83c
000001b0: bc17 593a 8401 ee3c af08 813b dd6f 1d3d
000001c0: 0ef2 b63a d589 9e3a 7c38 463b 5b58 1b3c
000001d0: 1e0c dd3b a845 c53c fe2b b93b a2ce bf3b
000001e0: e29c e03b 8b36 a43b 6dfe 273c 2849 cb3c
000001f0: d654 053c eb58 d33c d6be d43a 3719 bf3c
