checkpoints/mlptest2/model4_4500.pt (torch, 197451 bytes, 9 tensors)

stack.0.weight f4 [128, 17]
0	0xbe4272ad	-0.18989058
1	0x3dd20e11	0.10256589
2	0x3e3f78d8	0.18698442
3	0x3dcc1630	0.099651694
4	0x3e03faa7	0.12888585
5	0x3e5ccf75	0.21563514
6	0xbe06228a	-0.13099113
7	0x3e04e477	0.12977777
8	0x3d98791d	0.074449755
9	0xbd9b1075	-0.07571498
10	0x3e0fad71	0.14031006
11	0x3dbe4b58	0.092917144
12	0xbdc20ec0	-0.094754696
13	0xbdea8a64	-0.11452177
14	0x3dc5baa5	0.0965474
15	0x3df49096	0.1194164
16	0xbdae06e7	-0.0849741
17	0x3d2a0700	0.041510582
18	0xbe909332	-0.282373
19	0x3d147e5a	0.03625331
20	0x3e26158c	0.16219157
21	0xbcd380f5	-0.025818327
22	0xbd31d769	-0.04341832
23	0x3e22e01c	0.15905803
24	0x3e226bbc	0.1586141
25	0xbe55dda2	-0.20885327
26	0x3e4990bf	0.19684123
27	0x3ebce4fd	0.36893454
28	0x3d7d4c6f	0.06184047
29	0x3e1ab14b	0.15106694
30	0x3ce34259	0.027741598
31	0xbe5345dd	-0.2063212
32	0xbd6b6968	-0.05747357
33	0x3cb17651	0.021662863
34	0xbdfbae8f	-0.12289154
35	0x3e195ac1	0.14976026
36	0x3e1abc35	0.15110858
37	0x3c855e59	0.01628034
38	0x3e0346b1	0.12819935
39	0x3dacd3f4	0.08438864
40	0xbbb87525	-0.005629199
41	0xbdd27302	-0.10275842
42	0x3e794806	0.24343881
43	0x3cf3f7c8	0.029781237
44	0x3dcb8c5a	0.09938879
45	0x3d1ebcf4	0.03875442
46	0xbec70621	-0.38871863
47	0xbe53a320	-0.20667696
48	0xbe2b75ba	-0.16744128
49	0xbe4e3461	-0.20137168
50	0x3dc58e5a	0.09646292
51	0x3de4f5f6	0.11179726
52	0xbc5846b0	-0.013200447
53	0x3e566390	0.20936418
54	0x3d214180	0.039369106
55	0xbd1e8590	-0.038701594
56	0x3e0a6359	0.1351446
57	0xbe15f4e3	-0.14644198
58	0xbe854c7c	-0.26034915
59	0xbcc880e2	-0.024475519
60	0x3c960ac8	0.018315688
61	0x3e86f5da	0.26359445
62	0x3e5d7422	0.21626332
63	0xbdb9d65f	-0.09074091
64	0x3d441bb8	0.047877997
65	0x3e6382bb	0.22217838
66	0xbe372add	-0.17887445
67	0xbcd09b1e	-0.02546459
68	0xbe4af2ef	-0.19819234
69	0xbe4f4fdf	-0.20245312
70	0x3d8b9a5e	0.068165526
71	0x3d9d7f90	0.07690346
72	0xbe6b5d5e	-0.22984836
73	0xbdd08149	-0.10180909
74	0x3cef3c9c	0.029203705
75	0xbe745093	-0.23858862
76	0x3d110a62	0.035410292
77	0xbd31e0fd	-0.043427456
78	0x3e220a81	0.1582432
79	0xbe69356b	-0.22774284
80	0x3de87a49	0.11351449
81	0xbe219e3d	-0.1578302
82	0x3e1a580e	0.15072653
83	0xbe3687fd	-0.17825313
84	0x3d8fbd01	0.070184715
85	0xbd4a71ed	-0.049425054
86	0x3e01f870	0.12692428
87	0xbd18e51e	-0.03732788
88	0xbdddd830	-0.1083225
89	0x3e3029b9	0.17203416
90	0x3e329b5d	0.17442079
91	0xbe008a4a	-0.12552753
92	0xbe86fd26	-0.26365012
93	0x3e03023e	0.12793824
94	0x3e37f14a	0.17963138
95	0x3e6d16bd	0.23153205
96	0x3c6221e4	0.0138020255
97	0xbc9d8585	-0.019228706
98	0x3da0da12	0.078540936
99	0x3e655fd5	0.22399838
100	0x3e2ffd44	0.17186457
101	0xbdc616ba	-0.096723035
102	0x3cde9cb1	0.027174326
103	0x3e168042	0.14697364
104	0x3c9a021e	0.018799838
105	0x3cce0d9c	0.025152974
106	0x3d628ba9	0.05530897
107	0x3e07eb0a	0.13273254
108	0x3d419057	0.047256794
109	0x3d149711	0.03627688
110	0xbd504705	-0.05084898
111	0x3d8ecf17	0.06973093
112	0xbe50d62f	-0.20394205
113	0x3e5b4e76	0.21416649
114	0x3d93ba53	0.07213273
115	0xbe198b71	-0.14994599
116	0x3dbce252	0.09222855
117	0x3e1ee7df	0.1551814
118	0x3e32e2f4	0.17469388
119	0xbda1825d	-0.07886193
120	0xbc94aa32	-0.018147562
121	0xbd10571b	-0.03523932
122	0x3dbb6990	0.09150994
123	0x3dcf29fa	0.10115428
124	0xbe3ee5ae	-0.18642303
125	0xbd66a50e	-0.056309752
126	0x3d64a098	0.055817217
127	0xbd6fcb94	-0.058543757
128	0xbe700749	-0.23440279
129	0x3de2a52b	0.110666595
130	0x3e00a3d6	0.12562498
131	0xbd4e679c	-0.05039178
132	0x3e2c9045	0.1685191
133	0xbd83d652	-0.06437363
134	0xbe0b9adf	-0.13633297
135	0x3e03830b	0.12842958
136	0x3dd3442a	0.10315736
137	0x3e15fbad	0.14646788
138	0xbdd6e9d4	-0.10493818
139	0xbc5c3dab	-0.013442437
140	0xbe9b0e7b	-0.30284485
141	0xbe372256	-0.17884192
142	0xbdca2972	-0.09871186
143	0x3cafe5e8	0.021471933
144	0x3e8b4302	0.2719956
145	0x3d90d71f	0.07072281
146	0x3e9e40d6	0.3090884
147	0xbe2a12ce	-0.16608736
148	0xbe43dc4e	-0.19127008
149	0xbda9abb7	-0.08284705
150	0x3e6ff431	0.23432995
151	0x3eb64279	0.3559759
152	0x3f1b0a72	0.60562813
153	0xbd641413	-0.055683207
154	0x3e1c9ca5	0.1529413
155	0x3d8c04e8	0.06836873
156	0xbe7bb92e	-0.24582359
157	0x3df8c1d2	0.12146343
158	0x3d47dfa2	0.048797257
159	0x3e4c9113	0.19977216
160	0x3e7aba66	0.24485168
161	0x3e00b9f3	0.12570934
162	0xbdd443cd	-0.103644945
163	0xbe82156b	-0.25406966
164	0x3e15255e	0.14565036
165	0xbe8796f4	-0.26482356
166	0x3df5e200	0.12005997
167	0x3e402918	0.18765676
168	0x3e4cd482	0.2000294
169	0x3d007cef	0.031369146
170	0xbe3f7f5b	-0.18700926
171	0x3d7aaa43	0.06119753
172	0x3d910873	0.0708169
173	0x3e246fe4	0.16058308
174	0x3d3b5a90	0.045740664
175	0xbd90810f	-0.07055866
176	0x3d10ce8b	0.035353225
177	0x3e6e5f1d	0.2327847
178	0x3da49d46	0.0803781
179	0x3dcce3bc	0.100043744
180	0x3ddcae4a	0.107754305
181	0x3e24e502	0.16102985
182	0xbe33913a	-0.17535868
183	0x3e30adff	0.17253874
184	0xbe242dd1	-0.16033103
185	0xbdd360f8	-0.1032123
186	0x3e3d5cfe	0.18492505
187	0xbd4a968c	-0.04945998
188	0x3e8b37b9	0.2719095
189	0x3dc62fed	0.0967711
190	0x3e9af306	0.30263537
191	0x3d4317c7	0.047630098
192	0xbe5d258e	-0.21596357
193	0xbdf633bf	-0.120215885
194	0xbe4dcfd5	-0.20098813
195	0xbc81f983	-0.015866047
196	0x3dfe4a73	0.12416544
197	0x3e13a9c9	0.14420237
198	0x3e25bf5a	0.16186276
199	0x3df69461	0.1204002
200	0xbe288550	-0.16457105
201	0xbed2fa48	-0.41206574
202	0xbe1890b2	-0.14898947
203	0xbf3848a6	-0.7198585
204	0x3e110823	0.1416326
205	0x3e0e214c	0.13879889
206	0x3d801407	0.0625382
207	0x3e6065e8	0.21913874
208	0xbd876523	-0.06611087
209	0x3e1f2b24	0.155438
210	0x3e512f7a	0.20428267
211	0xbcaf5ee2	-0.021407548
212	0xbdcc473a	-0.09974523
213	0xbd22cfa0	-0.039748788
214	0xbc5c6bcd	-0.013453436
215	0x3e2d6661	0.16933586
216	0xbefeb4b0	-0.4974723
217	0xbe9c9abd	-0.30586806
218	0xbe5ccfad	-0.21563597
219	0x3e745bbd	0.2386312
220	0xbcec2240	-0.028824925
221	0x3c050566	0.008118963
222	0xbe821b40	-0.25411415
223	0x3dc189fd	0.09450147
224	0x3d88a6f5	0.066724695
225	0xbd79f073	-0.061020326
226	0xbba24f04	-0.004953267
227	0x3e92c52c	0.28666055
228	0x3d884a90	0.06654847
229	0x3c49e063	0.012321564
230	0xbdba0e9d	-0.090848185
231	0xbe5c5c49	-0.21519579
232	0x3ec19a9f	0.3781328
233	0xbe8db7e1	-0.2767935
234	0x3e83ed96	0.257672
235	0x3e1ed78f	0.15511917
236	0x3dbe49bf	0.0929141
237	0xbd49b149	-0.049241338
238	0xbe067e6a	-0.1313416
239	0x3d566e3c	0.05235122
240	0x3e64095e	0.22269198
241	0x3dcf36c4	0.101178676
242	0xbe4a8e47	-0.19780837
243	0xbd93e256	-0.072209045
244	0x3c42124f	0.011845185
245	0x3dc53ac8	0.09630352
246	0xbd364f5a	-0.04450927
247	0xbdb9fcd3	-0.090814255
248	0x3bbbee4b	0.005735194
249	0xbe59ccae	-0.21269485
250	0x3df66400	0.12030792
251	0x3dd30d2f	0.10305249
252	0xbd3815b3	-0.04494257
253	0xbdaac24c	-0.083378404
254	0x3d7e3c19	0.062069032
255	0x3e83afb6	0.25719994

stack.0.bias f4 [128]
0	0x3f88758b	1.0660871
1	0xbf85ca7c	-1.0452418
2	0xbf92ad02	-1.1459048
3	0x3f9bdf8d	1.2177597
4	0x3e314066	0.17309722
5	0x3f40c668	0.75302744
6	0xbf8c8f74	-1.0981278
7	0x3e1a021c	0.15039867
8	0xbf5d294c	-0.8639114
9	0xbf8dcc2f	-1.1077937
10	0xbf98023c	-1.1875682
11	0x3f91df80	1.1396332
12	0xbf797582	-0.9744493
13	0xbfca3dc6	-1.5800102
14	0xbe010aaa	-0.12601724
15	0xbf77bb56	-0.96770227
16	0x3f76948d	0.9632042
17	0xbfb6a27c	-1.4268336
18	0xbfa160dd	-1.2607685
19	0xbd9bb852	-0.07603516
20	0x3db0e18a	0.08636768
21	0xbf9f49d3	-1.2444404
22	0xbe3520a9	-0.1768824
23	0xbcefcf94	-0.029273786
24	0xbdd16d42	-0.102259174
25	0x3f8c45dc	1.0958819
26	0x3f9acc06	1.2093513
27	0x3f97414b	1.1816801
28	0x3f8e4503	1.1114811
29	0xbf7ff081	-0.99976355
30	0x3f813917	1.0095547
31	0x3fbc67d4	1.4719186
32	0xbf050c74	-0.51972127
33	0x3f891f70	1.0712719
34	0x3f6693c4	0.9006922
35	0xbffca6ff	-1.9738463
36	0x3f7d6655	0.9898427
37	0x3f8d7f55	1.1054484
38	0xbf8ac953	-1.0842689
39	0xbf44d01c	-0.7688005
40	0xbf9008a8	-1.1252642
41	0xbfe826b9	-1.8136817
42	0xbf837542	-1.0270159
43	0xbf7d07fa	-0.98840296
44	0x3f9249ea	1.1428807
45	0x3d367032	0.04454059
46	0x3f7f0232	0.99612725
47	0xbf93a2d4	-1.1534066
48	0xbe2d66d6	-0.1693376
49	0x3f538485	0.82624084
50	0xbf8c283f	-1.0949782
51	0xbd89657e	-0.06708811
52	0xbf82b373	-1.0211014
53	0xbf7a9e0f	-0.9789743
54	0x3e56bb94	0.20969993
55	0xbfa4f2d4	-1.2886605
56	0xbe0278ea	-0.12741438
57	0xbf74c078	-0.95606184
58	0xbe5e48ed	-0.21707506
59	0xbe72a025	-0.23693903
60	0x3f81abc5	1.0130545
61	0xbcaff3ec	-0.021478616
62	0x3f9db67e	1.2321317
63	0xbe098842	-0.13430884
64	0xbfc7d41d	-1.5611607
65	0xbf66e747	-0.9019665
66	0x3f8bcf4c	1.0922637
67	0x3cacaa7b	0.021077385
68	0x3d2da1df	0.0423907
69	0x3f85fa2c	1.0466971
70	0x3d9094ae	0.070596084
71	0x3f8cb351	1.0992223
72	0xbf966f18	-1.1752653
73	0x3f9c9b66	1.2234924
74	0x3f0718a9	0.52772003
75	0x3f53b548	0.8269849
76	0x3f9818f3	1.1882614
77	0x3f8407b1	1.0314847
78	0xbf758744	-0.95909524
79	0x3f5a4c3a	0.8527256
80	0x3f1f11b5	0.62136394
81	0x3d92f972	0.07176484
82	0xbd860fa4	-0.06545952
83	0xbff4cb1e	-1.9124486
84	0xbe3b0b55	-0.18266042
85	0x3e22a03f	0.15881442
86	0xbfe4864c	-1.7853484
87	0x3f82f930	1.0232296
88	0xbf7d740d	-0.99005204
89	0xbf57fe94	-0.8437283
90	0x3f9b1378	1.2115316
91	0x3f953646	1.1657188
92	0xbe5c5ae6	-0.2151905
93	0xbd50ef14	-0.051009253
94	0xbe6c7175	-0.23090155
95	0x3f9361c0	1.1514206
96	0x3d4e54be	0.050373785
97	0x3f664171	0.89943606
98	0x3faa0fd9	1.3286086
99	0x3f2dcb6c	0.6788852
100	0x3f546701	0.8296967
101	0x3d974e90	0.073880315
102	0xbfde745a	-1.7379258
103	0x3f8899f2	1.067198
104	0x3f776ef8	0.966537
105	0x3f907492	1.1285574
106	0xbf86b529	-1.0524036
107	0xbf57b97f	-0.8426742
108	0xbf850b44	-1.0394063
109	0xbe699bef	-0.2281339
110	0x3f8d50f6	1.1040332
111	0xbe44d588	-0.1922208
112	0xbecf4d33	-0.40488586
113	0x3fa64524	1.298985
114	0x3f868a5d	1.0510975
115	0xbf1449c1	-0.5792504
116	0xbf87665f	-1.0578116
117	0xbe36c3f9	-0.17848195
118	0xbf96d347	-1.1783227
119	0x3f871443	1.0553058
120	0x3e5468e1	0.20743133
121	0x3f87ad0a	1.0599682
122	0x3e50eafe	0.20402142
123	0xbf55beb8	-0.8349414
124	0x3fbb3659	1.462596
125	0xbefec663	-0.49760732
126	0xbf80a9ad	-1.0051781
127	0x3f9cd390	1.2252064

stack.2.weight f4 [1, 128]
0	0xbdba6cb9	-0.091027685
1	0x3e5c1b65	0.21494825
2	0x3c84114e	0.016121533
3	0xbe83e593	-0.2576109
4	0x3dacce24	0.08437756
5	0xbde02a42	-0.1094556
6	0x3da9a168	0.08282739
7	0x3d0e00fd	0.03466891
8	0x3e875b9f	0.2643709
9	0x3e08e6ac	0.13369244
10	0x3e132e03	0.14373021
11	0xbe79c540	-0.24391651
12	0x3dd8565f	0.10563349
13	0x3f227094	0.6345303
14	0x3c94eb74	0.018178679
15	0x3e0a8365	0.13526686
16	0xbe00532d	-0.12531729
17	0x3ec1837a	0.3779562
18	0x3f088fa6	0.5334419
19	0xbcfd1e85	-0.030898342
20	0x3eabbe27	0.33543512
21	0x3e838700	0.25688934
22	0xbf87ac71	-1.05995
23	0xbc8a4e1f	-0.016882954
24	0x3ca70b69	0.020391183
25	0xbcbbff35	-0.02294884
26	0xbe4fb0a8	-0.20282233
27	0xbe17d44e	-0.14827082
28	0xbecce31b	-0.40017018
29	0x3dff1ff3	0.12457266
30	0xbdd28af2	-0.10280408
31	0xbf848058	-1.0351667
32	0x3e0335cc	0.1281349
33	0xbe078036	-0.13232502
34	0xbe09c170	-0.13452697
35	0x3fc7fee5	1.5624663
36	0xbd136b4e	-0.035991006
37	0xbe6b6e1e	-0.22991225
38	0x3d86443e	0.06555985
39	0x3d85a555	0.06525675
40	0x3d87d92e	0.066332206
41	0x3f38b517	0.7215132
42	0x3e844fce	0.25842136
43	0x3de01068	0.10940629
44	0xbd112542	-0.035435922
45	0xbf0a4766	-0.54015195
46	0xbde8399e	-0.113391146
47	0x3d7fee61	0.062483195
48	0x3d6c39e7	0.057672407
49	0xbc475a75	-0.012167563
50	0x3dd7923f	0.10525941
51	0xbd738734	-0.05945511
52	0x3caca319	0.021073865
53	0x3f3c9338	0.7366214
54	0xbb60e3c0	-0.0034315437
55	0x3e239023	0.15972953
56	0xbd528f2c	-0.05140607
57	0x3ce06e6a	0.0273964
58	0x3d9dea2e	0.07710682
59	0x3d500ae2	0.05079163
60	0xbdb28158	-0.087160766
61	0x3c90a058	0.017654583
62	0xbe4212b0	-0.18952441
63	0x3da9ac6b	0.08284839
64	0x3eaff889	0.34369305
65	0x3db5483f	0.088516705
66	0xbe0579e4	-0.13034779
67	0xbcb406f7	-0.021975977
68	0xbf125526	-0.57161176
69	0xbd86b747	-0.06577926
70	0x3da94da2	0.082667604
71	0xbe675c64	-0.22593838
72	0x3e65d043	0.22442727
73	0xbd14b547	-0.036305692
74	0xbe2ff507	-0.17183314
75	0xbeeba043	-0.46020707
76	0xbe5c04fd	-0.21486278
77	0xbe2bf301	-0.16791917
78	0x3e864a11	0.26228383
79	0xbdd1d3f0	-0.10245502
80	0xbf1e53de	-0.6184672
81	0x3d5f24c2	0.054478414
82	0x3da671ee	0.08127199
83	0x3f772025	0.96533424
84	0x3c8844c9	0.016634362
85	0x3d498c3c	0.049206004
86	0x3f835cfa	1.0262749
87	0xbdf47c50	-0.11937773
88	0x3dd98b10	0.10622227
89	0x3dba5948	0.0909906
90	0xbebe37a4	-0.37151825
91	0xbe909d75	-0.2824513
92	0xbd255261	-0.040361766
93	0xbea3000a	-0.31835967
94	0xbcbe6517	-0.023241563
95	0xbcc08741	-0.023501994
96	0x3da8b41b	0.082374774
97	0xbe6a620d	-0.22888966
98	0xbf8d8f58	-1.105937
99	0xbbaf5abd	-0.005351393
100	0xbea4b3f1	-0.32168534
101	0xbb9e6816	-0.0048341854
102	0x3f87026f	1.0547618
103	0xbdbdf2d4	-0.092748314
104	0xbf60f46e	-0.8787297
105	0xbdbe6279	-0.09296126
106	0x3e8c8b0e	0.2744984
107	0x3d5fce31	0.05464
108	0x3e5b107f	0.21393012
109	0xbc58e359	-0.013237798
110	0xbd664d7a	-0.05622623
111	0xbd06f081	-0.032944206
112	0x3f85da73	1.045729
113	0xbe9ed4bb	-0.31021675
114	0xbdf6a95c	-0.120440215
115	0x3d98f2d6	0.07468192
116	0x3e23f86c	0.16012734
117	0x3c3a95d0	0.011388257
118	0x3daf2980	0.08552837
119	0xbd3a13d7	-0.045429077
120	0xbdb3a1b1	-0.087710746
121	0xbe07fc51	-0.13279845
122	0x3d9236bc	0.07139346
123	0x3e741e95	0.23839791
124	0xbf56a066	-0.838385
125	0x3d459ac0	0.048243284
126	0x3e16c298	0.14722669
127	0xbf01ffb8	-0.5078082

exp_avg f4 [128, 17]
0	0xbc193b67	-0.0093525415
1	0xbc096eff	-0.00838828
2	0x3a98a0cb	0.00116446
3	0xbab58c86	-0.0013851083
4	0xbbb21f7a	-0.005435881
5	0xbba01513	-0.0048853247
6	0xbc120337	-0.008911899
7	0xbc06e81f	-0.008234053
8	0xbc130c59	-0.008975112
9	0xbc1308ae	-0.008974237
10	0xbc0f9660	-0.00876388
11	0xbbf81619	-0.0075709936
12	0xba5c3e9a	-0.00084016623
13	0xba9a7ae3	-0.0011785891
14	0xba8c24a5	-0.0010692073
15	0xba45c4fc	-0.00075443066
16	0x3933c57a	0.00017144336
17	0x3c98cf79	0.018653618
18	0x3c8068a0	0.01567489
19	0xbb312b86	-0.0027033999
20	0x3b6e28f1	0.003634032
21	0x3c3808df	0.011232584
22	0x3c3c3d14	0.011489172
23	0x3c914c40	0.017736554
24	0x3c7bf813	0.01537897
25	0x3c8c4531	0.017122837
26	0x3c8e9972	0.017407153
27	0x3c92e1a8	0.017929867
28	0x3c80f69a	0.015742589
29	0x3ac5e968	0.0015099468
30	0x3b181a9f	0.0023209227
31	0x3b0f8955	0.0021901925
32	0x3ad9f8f7	0.0016629983
33	0xba190ba9	-0.00058382243
34	0x3ada3813	0.0016648791
35	0x3ac5a4a1	0.001507897
36	0xb945e097	-0.0001887105
37	0x39af945e	0.00033489143
38	0x3a7b994c	0.0009597733
39	0x3a8285dc	0.0009958106
40	0x3ad0f545	0.0015942237
41	0x3ac1e84b	0.001479396
42	0x3ad2b9d7	0.0016077113
43	0x3ad25fdb	0.0016050296
44	0x3accaa01	0.001561463
45	0x3ab006c2	0.0013429748
46	0x391d8c88	0.00015025039
47	0x395ba322	0.00020946239
48	0x394651a2	0.00018913162
49	0x390a9d70	0.00013219356
50	0xb8045ad4	-3.1555843e-05
51	0xbcbeea31	-0.02330503
52	0xbcb7d961	-0.022442522
53	0x3b5dd99c	0.003385163
54	0xbb8de4aa	-0.0043302374
55	0xbc63f5d4	-0.01391359
56	0xbc655bae	-0.013998909
57	0xbcb60360	-0.022218406
58	0xbcb40baa	-0.021978218
59	0xbcc5470e	-0.024081733
60	0xbcc55dab	-0.024092516
61	0xbcbfb2d1	-0.023400696
62	0xbca3f055	-0.02001206
63	0xbb116ef6	-0.0022191382
64	0xbb51b75b	-0.0032000158
65	0xbb3d994f	-0.002893049
66	0xbb03bf24	-0.0020102942
67	0x3a1fcf62	0.0006096271
68	0x00000000	0.0
69	0x00000000	0.0
70	0x00000000	0.0
71	0x00000000	0.0
72	0x00000000	0.0
73	0x00000000	0.0
74	0x00000000	0.0
75	0x00000000	0.0
76	0x00000000	0.0
77	0x00000000	0.0
78	0x00000000	0.0
79	0x00000000	0.0
80	0x00000000	0.0
81	0x00000000	0.0
82	0x00000000	0.0
83	0x00000000	0.0
84	0x00000000	0.0
85	0xbc20c46f	-0.009812458
86	0xbc1a772b	-0.009427826
87	0x3abd81c7	0.0014458232
88	0xbaee1808	-0.0018165121
89	0xbbc03641	-0.0058658426
90	0xbbc11998	-0.0058929436
91	0xbc193fa4	-0.009353552
92	0xbc175de9	-0.0092386985
93	0xbc2603ef	-0.010132774
94	0xbc261a1e	-0.010138063
95	0xbc21f1e6	-0.009884333
96	0xbc0a6ca4	-0.0084487535
97	0xba74d76d	-0.0009339962
98	0xbab11153	-0.0013509191
99	0xbaa008de	-0.0012209674
100	0xba5cf929	-0.0008429462
101	0x398db0a9	0.00027025238
102	0x3bfb50ab	0.0076695285
103	0x3bec7d8e	0.0072171157
104	0xba8b71fa	-0.0010638826
105	0x3abdb313	0.0014472924
106	0x3b95f60c	0.00457645
107	0x3b97c497	0.0046315896
108	0x3befa887	0.007313791
109	0x3be7d053	0.0070743947
110	0x3bfde109	0.0077477735
111	0x3bfe7f9a	0.007766676
112	0x3bf7f38e	0.007566876
113	0x3bd58a7e	0.0065167537
114	0x3a3b7e5a	0.0007152312
115	0x3a86e879	0.0010292671
116	0x3a756f65	0.00093626074
117	0x3a2a0f41	0.00064872584
118	0xb94795dd	-0.00019033947
119	0x00000004	6e-45
120	0x00000004	6e-45
121	0x00000000	0.0
122	0x00000000	0.0
123	0x00000000	0.0
124	0x00000000	0.0
125	0x00000004	6e-45
126	0x00000004	6e-45
127	0x00000004	6e-45
128	0x00000004	6e-45
129	0x00000004	6e-45
130	0x00000004	6e-45
131	0x00000004	6e-45
132	0x00000004	6e-45
133	0x00000004	6e-45
134	0x00000004	6e-45
135	0x00000004	6e-45
136	0x3d39f5cb	0.045400422
137	0x3d0e1525	0.034688134
138	0xbaadd6ff	-0.0013262926
139	0x3c556461	0.0130244205
140	0x3ccf1c85	0.025282154
141	0x3cef4011	0.029205354
142	0x3d32034f	0.043460187
143	0x3d0b7a26	0.034052037
144	0x3d0f575e	0.03499543
145	0x3d11ae7c	0.035566792
146	0x3d147186	0.036241077
147	0x3d0f74cb	0.03502349
148	0x3b53a981	0.0032297077
149	0x3b71436b	0.0036813866
150	0x3b780919	0.003784722
151	0x3b4a91dd	0.0030909695
152	0x39d88c30	0.00041303178
153	0x3c49e48f	0.012322559
154	0x3c402030	0.011726424
155	0xbae2b5f3	-0.0017296657
156	0x3b18178a	0.002320739
157	0x3bf050bb	0.0073338426
158	0x3bf3a06c	0.0074348953
159	0x3c408898	0.0117513165
160	0x3c3c52ce	0.011494352
161	0x3c4e27f7	0.012582771
162	0x3c4e2b94	0.012583632
163	0x3c48ea51	0.012262897
164	0x3c2bf9d7	0.010496578
165	0x3a988e65	0.0011639117
166	0x3adb15a6	0.0016714826
167	0x3ac60177	0.0015106638
168	0x3a893644	0.0010468443
169	0xb9a3b0ac	-0.00031221414
170	0x3c6d5bb5	0.014487197
171	0x3c5208da	0.012819493
172	0xbaedef95	-0.0018153066
173	0x3b438ba4	0.002983787
174	0x3c074bec	0.008257847
175	0x3c0dad6b	0.008647303
176	0x3c63f0ee	0.013912423
177	0x3c4e03f9	0.012574189
178	0x3c60e8af	0.013727351
179	0x3c60fb90	0.013731852
180	0x3c5b3b54	0.013380844
181	0x3c3c00db	0.011474813
182	0x3aa79f37	0.0012788539
183	0x3aecf5b4	0.0018078596
184	0x3ad4fc08	0.0016249428
185	0x3a932db8	0.0011228835
186	0xb9b35da7	-0.00034211317
187	0xbcb67695	-0.022273341
188	0xbcc50027	-0.024047924
189	0x3b741438	0.0037243497
190	0xbba8ea2c	-0.0051548686
191	0xbc47c4eb	-0.012192945
192	0xbc4e2820	-0.012582809
193	0xbcaa43c8	-0.020784274
194	0xbcc047ae	-0.02347168
195	0xbcc91783	-0.024547344
196	0xbccd285d	-0.02504366
197	0xbccde3d0	-0.025133044
198	0xbcb4f6fe	-0.022090431
199	0xbb09df93	-0.0021037802
200	0xbb2d3a96	-0.0026432625
201	0xbb33b5a8	-0.0027421508
202	0xbb046a83	-0.0020205087
203	0x3a13f506	0.00056441163
204	0x3c2080f5	0.009796371
205	0x3c0d3082	0.008617522
206	0xbab26401	-0.0013610126
207	0x3af94e20	0.0019020475
208	0x3bc10637	0.0058906334
209	0x3bc771f4	0.0060865823
210	0x3c1918b9	0.009344273
211	0x3c0bf210	0.008541599
212	0x3c1a0570	0.00940071
213	0x3c16cfba	0.009204799
214	0x3c166a68	0.009180643
215	0x3bf61362	0.007509635
216	0x3a6838c9	0.00088585593
217	0x3aa89ff0	0.0012865048
218	0x3a904677	0.0011007328
219	0x3a468ad5	0.0007573788
220	0xb8ad2ff9	-8.2582184e-05
221	0x3d25124b	0.04030065
222	0x3cb09084	0.021553285
223	0xbb81d4b0	-0.003962122
224	0x3c4e1287	0.012577659
225	0x3cf30248	0.029664174
226	0x3cd723c3	0.02626217
227	0x3d213632	0.039358325
228	0x3cae43f6	0.02127264
229	0x3cc41bb2	0.023938987
230	0x3cb98966	0.022648524
231	0x3c8edcbe	0.017439242
232	0x3b84fa43	0.004058154
233	0x3b430e03	0.002976299
234	0x3b867943	0.004103811
235	0x3b47d5ac	0.0030492349
236	0x3aa2f1ee	0.001243172
237	0x3881c213	6.1873485e-05
238	0x00000004	6e-45
239	0x00000004	6e-45
240	0x00000000	0.0
241	0x00000004	6e-45
242	0x00000000	0.0
243	0x00000004	6e-45
244	0x00000004	6e-45
245	0x00000004	6e-45
246	0x00000004	6e-45
247	0x00000004	6e-45
248	0x00000004	6e-45
249	0x00000004	6e-45
250	0x00000004	6e-45
251	0x00000004	6e-45
252	0x00000004	6e-45
253	0x00000004	6e-45
254	0x00000004	6e-45
255	0x3c4a93f9	0.012364381

exp_avg_sq f4 [128, 17]
0	0x3d5246d0	0.051337063
1	0x3c9c5df5	0.019087771
2	0x3a2b03d3	0.0006523702
3	0x3b91aeec	0.004445901
4	0x3c4e3a31	0.012587116
5	0x3ccb642c	0.02482804
6	0x3d44b397	0.048022833
7	0x3c9ae7c8	0.01890935
8	0x3c967ec4	0.018370993
9	0x3c8e496a	0.01736899
10	0x3c7e64e4	0.015526984
11	0x3c59125c	0.013249006
12	0x397871de	0.00023693542
13	0x395b2e46	0.00020902706
14	0x392ef251	0.00016684203
15	0x3902a594	0.00012459449
16	0x38e12675	0.00010735999
17	0x3e941df2	0.28929096
18	0x3dd7743a	0.10520215
19	0x3b70aece	0.0036725285
20	0x3ccca037	0.02497874
21	0x3d913428	0.07090026
22	0x3e0d5c08	0.13804638
23	0x3e8a9575	0.27067152
24	0x3dd5bce0	0.10436416
25	0x3dcf9390	0.10135567
26	0x3dc44dee	0.095851764
27	0x3db13209	0.086521216
28	0x3d976335	0.07391969
29	0x3aac1a81	0.0013130457
30	0x3a97b251	0.0011573528
31	0x3a72b204	0.0009258094
32	0x3a370c01	0.0006982685
33	0x3a1d3e68	0.0005998374
34	0x3adfb3b0	0.0017067101
35	0x3a260c9a	0.0006334275
36	0x37b61674	2.1706546e-05
37	0x391a85c9	0.00014736423
38	0x39dc9dca	0.00042079232
39	0x3a55fb8a	0.00081627874
40	0x3ad1455d	0.0015966106
41	0x3a247fd9	0.00062751543
42	0x3a1fd0cf	0.00060964836
43	0x3a171cde	0.00057644944
44	0x3a071fa2	0.0005154555
45	0x39e6c115	0.00044012876
46	0x3703f460	7.865106e-06
47	0x36e8e08b	6.940279e-06
48	0x36ba100c	5.5451e-06
49	0x368b1be8	4.1457715e-06
50	0x366fb8e4	3.5721396e-06
51	0x3ed564a2	0.4167834
52	0x3e1d384a	0.15353504
53	0x3bad3297	0.005285572
54	0x3d1340db	0.035950523
55	0x3dd13e9d	0.10217021
56	0x3e4b763c	0.19869322
57	0x3ec7aa95	0.3899733
58	0x3e1bc939	0.15213479
59	0x3e175498	0.14778364
60	0x3e0f1366	0.13972244
61	0x3e0022b3	0.12513237
62	0x3ddadcd0	0.10686648
63	0x3afa3b0d	0.0019091085
64	0x3adcbfce	0.001684183
65	0x3ab066fc	0.0013458426
66	0x3a83c820	0.0010054149
67	0x3a635d04	0.0008673223
68	0x00000000	0.0
69	0x00000000	0.0
70	0x00000000	0.0
71	0x00000000	0.0
72	0x00000000	0.0
73	0x00000000	0.0
74	0x00000000	0.0
75	0x00000000	0.0
76	0x00000000	0.0
77	0x00000000	0.0
78	0x00000000	0.0
79	0x00000000	0.0
80	0x00000000	0.0
81	0x00000000	0.0
82	0x00000000	0.0
83	0x00000000	0.0
84	0x00000000	0.0
85	0x3d9a45a6	0.07532816
86	0x3ce3d84c	0.0278131
87	0x3a7a63bd	0.00095516053
88	0x3bd4d565	0.006495165
89	0x3c9746a5	0.018466303
90	0x3d132c05	0.035930652
91	0x3d9057cb	0.07047995
92	0x3ce1b808	0.027553573
93	0x3cdb4534	0.026766397
94	0x3ccf5147	0.02530731
95	0x3cb96cfa	0.022634972
96	0x3c9e5be1	0.01933092
97	0x39b52a25	0.0003455441
98	0x399fd869	0.0003048808
99	0x397f8ac4	0.0002437039
100	0x393f3a11	0.00018236811
101	0x3924dee7	0.00015723296
102	0x3d314885	0.04328205
103	0x3c82e79e	0.015979584
104	0x3a0fd175	0.00054862286
105	0x3b74980e	0.0037322077
106	0x3c2dcfab	0.010608594
107	0x3ca8fa32	0.020627115
108	0x3d25e11a	0.040497877
109	0x3c81aea8	0.015830353
110	0x3c7bf485	0.015378122
111	0x3c6e3115	0.014538069
112	0x3c550b35	0.01300316
113	0x3c35e3c1	0.011101664
114	0x39502f78	0.00019854109
115	0x3937afe6	0.00017517767
116	0x3912c37f	0.00013996473
117	0x38dba902	0.00010474214
118	0x38bd5819	9.028632e-05
119	0x000001f4	7e-43
120	0x000001f4	7e-43
121	0x00000000	0.0
122	0x00000000	0.0
123	0x00000000	0.0
124	0x00000000	0.0
125	0x000001f4	7e-43
126	0x000001f4	7e-43
127	0x000001f4	7e-43
128	0x000001f4	7e-43
129	0x000001f4	7e-43
130	0x000001f4	7e-43
131	0x000001f4	7e-43
132	0x000001f4	7e-43
133	0x000001f4	7e-43
134	0x000001f4	7e-43
135	0x000001f4	7e-43
136	0x3e3d7adf	0.18503903
137	0x3df218c5	0.11821131
138	0x3b2859cd	0.002568829
139	0x3c8b63b8	0.017015323
140	0x3d3805d2	0.044927426
141	0x3db0ed34	0.08638993
142	0x3e2c983b	0.16854946
143	0x3defc303	0.117071174
144	0x3dea936b	0.11453899
145	0x3ddd9f18	0.1082136
146	0x3dc17042	0.094452396
147	0x3d9df6ed	0.07713113
148	0x3aba4b8b	0.0014213187
149	0x3aa833de	0.001283284
150	0x3a84164c	0.0010077446
151	0x3a3641c6	0.000695255
152	0x3a160110	0.0005722204
153	0x3de619a8	0.11235362
154	0x3d29d42e	0.041462116
155	0x3abaaf3d	0.0014242899
156	0x3c1ebac1	0.00968808
157	0x3ce19e52	0.027541313
158	0x3d5b5247	0.053545263
159	0x3dd74c76	0.10512631
160	0x3d283e76	0.041075192
161	0x3d236f72	0.039901204
162	0x3d1a85e1	0.037725333
163	0x3d0a3493	0.033741545
164	0x3cec1221	0.028817238
165	0x3a070c03	0.0005151631
166	0x39ee4b15	0.00045450838
167	0x39be7656	0.0003632779
168	0x398e86db	0.00027184826
169	0x3975c84b	0.00023439636
170	0x3e0363f7	0.12831102
171	0x3d43f6ff	0.047842976
172	0x3ad660f2	0.0016355796
173	0x3c358c97	0.0110808825
174	0x3d0130b5	0.03154059
175	0x3d7a6174	0.061128095
176	0x3df5c134	0.11999741
177	0x3d422386	0.04739716
178	0x3d3ca1c9	0.046052728
179	0x3d3259be	0.043542616
180	0x3d1f73bd	0.038928736
181	0x3d081a11	0.033227984
182	0x3a1bb343	0.0005939493
183	0x3a096ede	0.0005242656
184	0x39db7f04	0.0004186557
185	0x39a4077a	0.00031286088
186	0x398d72e6	0.00026979222
187	0x3e3e27b7	0.18569838
188	0x3ddb8a53	0.107197426
189	0x3b2a805c	0.002601645
190	0x3c8cc89e	0.017185505
191	0x3d3c1ff8	0.045928925
192	0x3db1bdb8	0.08678764
193	0x3e2e0033	0.16992263
194	0x3dd972f5	0.106176294
195	0x3dd47bc5	0.1037517
196	0x3dc8c7c0	0.09803724
197	0x3db04661	0.08607174
198	0x3d9166a1	0.07099653
199	0x3aa9ddaf	0.0012959744
200	0x3a987483	0.0011631403
201	0x3a6f5d0a	0.00091309904
202	0x3a282dc8	0.00064155133
203	0x3a0b4506	0.00053127145
204	0x3d8f0ebc	0.06985232
205	0x3cce37c8	0.025173083
206	0x3a68c59d	0.00088795443
207	0x3bc5c99a	0.0060359957
208	0x3c8c556a	0.017130572
209	0x3d08a5a5	0.033361096
210	0x3d85d899	0.06535453
211	0x3ccca89b	0.024982741
212	0x3cc6b6e2	0.024257127
213	0x3cbbe36a	0.022935588
214	0x3ca9ae9a	0.02071314
215	0x3c913f4b	0.017730376
216	0x39a4ec7a	0.00031456706
217	0x39914320	0.00027706567
218	0x396847b0	0.0002215195
219	0x393005cc	0.00016786827
220	0x391753d3	0.00014431709
221	0x40072e57	2.1122034
222	0x3f03a325	0.51420814
223	0x3cd1a04e	0.025589135
224	0x3e372c3c	0.17887968
225	0x3f03de06	0.51510656
226	0x3f804adb	1.0022844
227	0x3fffdb19	1.9988738
228	0x3f02c929	0.51088196
229	0x3efcf17a	0.49402982
230	0x3ef3b229	0.47596863
231	0x3eea1fc0	0.45727348
232	0x3ee49f9f	0.4465303
233	0x3bd0efd7	0.0063762474
234	0x3bb58832	0.0055399174
235	0x3b9da702	0.0048111686
236	0x3b8b661c	0.0042541157
237	0x3b8297b5	0.00398537
238	0x000001f4	7e-43
239	0x000001f4	7e-43
240	0x00000000	0.0
241	0x000001f4	7e-43
242	0x00000000	0.0
243	0x000001f4	7e-43
244	0x000001f4	7e-43
245	0x000001f4	7e-43
246	0x000001f4	7e-43
247	0x000001f4	7e-43
248	0x000001f4	7e-43
249	0x000001f4	7e-43
250	0x000001f4	7e-43
251	0x000001f4	7e-43
252	0x000001f4	7e-43
253	0x000001f4	7e-43
254	0x000001f4	7e-43
255	0x3de8ee74	0.11373606

exp_avg f4 [128]
0	0xba730261	-0.0009270069
1	0x3ada44a9	0.0016652542
2	0x392e76cb	0.00016638187
3	0xbb2289f1	-0.0024801458
4	0x00000000	0.0
5	0xba886d58	-0.0010408564
6	0x3a509ce3	0.0007957948
7	0x00000004	6e-45
8	0x3b6c46f4	0.0036053034
9	0x3aa9c007	0.0012950905
10	0x3ab9c2ac	0.0014172397
11	0xbb2016c5	-0.0024427634
12	0x3a72bd4f	0.00092597766
13	0x3b501d44	0.0031755725
14	0x00000004	6e-45
15	0x3a96dbbd	0.0011509579
16	0xba9c790c	-0.001193793
17	0xba7f827f	-0.00097469235
18	0xb97f5205	-0.0002434925
19	0x00000004	6e-45
20	0x3bc80b6e	0.006104878
21	0x3b1cf2d1	0.002394844
22	0x3ab48356	0.0013772051
23	0x00000004	6e-45
24	0x00000000	0.0
25	0xb94fced1	-0.00019818103
26	0xbb140951	-0.002258856
27	0xbabdd55e	-0.0014483144
28	0xbb5a6e24	-0.003332981
29	0x3a9e42c8	0.0012074346
30	0xba8793f8	-0.0010343781
31	0xbb34588f	-0.0027518605
32	0x3a2093f7	0.0006125564
33	0xbaa54b48	-0.0012610937
34	0xbab5148d	-0.0013815329
35	0x3b906ba1	0.0044073616
36	0xb9aaeaf6	-0.00032599986
37	0xbb139592	-0.002251957
38	0x39c28552	0.00037101895
39	0x39f49aa1	0.00046654514
40	0x3a0b4a65	0.0005313515
41	0x39fd0d8d	0.00048266017
42	0x3b853354	0.0040649567
43	0x3a852c28	0.0010160254
44	0xb9b71e1c	-0.00034926913
45	0x3a4e425f	0.00078681664
46	0xbaacad0f	-0.0013174134
47	0x3a0351a8	0.0005009421
48	0x00000000	0.0
49	0xb8f84b13	-0.00011839545
50	0x3a5d8226	0.00084498746
51	0x00000004	6e-45
52	0x396b6a59	0.00022450964
53	0xba612bf1	-0.00085896166
54	0x00000000	0.0
55	0x3aa7842c	0.0012780479
56	0x00000004	6e-45
57	0x398bc129	0.00026656062
58	0x00000000	0.0
59	0x00000000	0.0
60	0xba656c7b	-0.00087518216
61	0x00000004	6e-45
62	0xbaee8f15	-0.0018200601
63	0x00000000	0.0
64	0xbb0c4c5a	-0.0021407814
65	0x3a47f5ed	0.00076278934
66	0xbaac325b	-0.0013137566
67	0x00000000	0.0
68	0x3acab80b	0.0015466226
69	0xba22f0c3	-0.0006215686
70	0x00000000	0.0
71	0xbb0fd087	-0.002194436
72	0x3a9e3f3b	0.0012073288
73	0xb9b1bcab	-0.0003390064
74	0xba22b95a	-0.0006207429
75	0x3a32cd9f	0.0006820801
76	0xbb1406e8	-0.0022587124
77	0xbae208db	-0.0017245071
78	0x3b67cc2c	0.0035369499
79	0xba908c58	-0.0011028154
80	0xbb0f544f	-0.002187032
81	0x00000000	0.0
82	0x00000000	0.0
83	0xba2503b4	-0.00062948023
84	0x00000004	6e-45
85	0x00000000	0.0
86	0xbb2b7752	-0.002616365
87	0xba3a0b59	-0.0007097028
88	0x3a8a450e	0.0010549144
89	0x3ad6906b	0.0016369944
90	0xbb693609	-0.0035585186
91	0xbb3197df	-0.002709858
92	0x00000000	0.0
93	0xbb3fc6bb	-0.002926274
94	0x00000000	0.0
95	0xb97421f2	-0.00023282299
96	0x00000000	0.0
97	0xbb28ffe5	-0.002578729
98	0xbb420242	-0.0029603397
99	0xb90717be	-0.00012883448
100	0xbaa1fd56	-0.0012358825
101	0x00000000	0.0
102	0xbb11b2bd	-0.002223178
103	0xba66cc01	-0.00088042027
104	0x38723e5d	5.7755376e-05
105	0xba6d84c8	-0.00090606185
106	0x3a61962a	0.0008605445
107	0x39e28f14	0.0004321268
108	0x3a7905c1	0.00094994536
109	0x00000000	0.0
110	0xba0ad17c	-0.0005295498
111	0x00000000	0.0
112	0xbc422942	-0.011850657
113	0xbb4289f6	-0.0029684282
114	0xba961018	-0.0011448888
115	0x3a45dcb0	0.00075478386
116	0x3acd0fab	0.0015644928
117	0x00000000	0.0
118	0x3a36f6ea	0.0006979542
119	0xb9e77fbb	-0.0004415492
120	0x00000000	0.0
121	0xbaa5cdee	-0.0012649873
122	0x00000000	0.0
123	0x3b3b8cf7	0.0028617957
124	0xbc21a896	-0.009866854
125	0x39f9224b	0.0004751853
126	0x3a8ef823	0.0010907691
127	0xbb852355	-0.00406305

exp_avg_sq f4 [128]
0	0x3982c33d	0.00024940996
1	0x3ab4012d	0.001373326
2	0x370ae37b	8.278405e-06
3	0x3b038d5f	0.0020073277
4	0x00000000	0.0
5	0x39beadd8	0.00036369148
6	0x395b2054	0.0002089751
7	0x000001f4	7e-43
8	0x3ac46473	0.001498355
9	0x3a0e2398	0.0005422174
10	0x3a23ddea	0.00062510243
11	0x3ab2f862	0.0013654346
12	0x39ac200f	0.00032830282
13	0x3bd90547	0.0066229436
14	0x000001f4	7e-43
15	0x3a0908b3	0.00052274315
16	0x39fa57e9	0.00047749214
17	0x3a9e3250	0.0012069438
18	0x3b1e652c	0.002416919
19	0x000001f4	7e-43
20	0x3aea05a3	0.0017854463
21	0x3b0328bb	0.002001329
22	0x37d366a8	2.5200963e-05
23	0x000001f4	7e-43
24	0x00000000	0.0
25	0x3787b0f3	1.6175652e-05
26	0x3aa11056	0.0012288194
27	0x3a2e9438	0.00066596596
28	0x3b9bbd3e	0.004752784
29	0x39f6d62f	0.00047080356
30	0x39a850ec	0.00032103749
31	0x38f70d9b	0.00011780412
32	0x39f30d29	0.00046358377
33	0x3a0b84ee	0.0005322237
34	0x3a10ae7b	0.00055191637
35	0x3ccd5f92	0.025069986
36	0x38257462	3.9447455e-05
37	0x3ad1fa61	0.0016020053
38	0x3906f796	0.00012871469
39	0x3904c1cc	0.00012660696
40	0x390bc5be	0.00013329738
41	0x3bf62e13	0.0075128167
42	0x3afb1b9b	0.0019158007
43	0x39beeb5d	0.00036414983
44	0x3820bcb4	3.8322716e-05
45	0x3af64dd5	0.0018791506
46	0x399ee8bd	0.00030309512
47	0x38f811ff	0.000118289136
48	0x00000000	0.0
49	0x369195e6	4.338787e-06
50	0x39b01e8d	0.00033592098
51	0x000001f4	7e-43
52	0x37677466	1.3795774e-05
53	0x37c41dc4	2.3378881e-05
54	0x00000000	0.0
55	0x3a4a13f8	0.0007708664
56	0x000001f4	7e-43
57	0x37bc8a17	2.247565e-05
58	0x00000000	0.0
59	0x00000000	0.0
60	0x39726de2	0.00023119853
61	0x000001f4	7e-43
62	0x3a8f1e45	0.0010919055
63	0x00000000	0.0
64	0x3a77a8f0	0.0009447476
65	0x397600c3	0.00023460672
66	0x3a0687fc	0.00051319576
67	0x00000000	0.0
68	0x3acbb32d	0.001554107
69	0x390ac82f	0.0001323528
70	0x00000000	0.0
71	0x3ac9762c	0.0015370301
72	0x3ab22cf3	0.0013593718
73	0x38298752	4.0418767e-05
74	0x3a48869b	0.00076494523
75	0x3a79a6e2	0.00095234637
76	0x3ab021c8	0.0013437802
77	0x3a5fbfd1	0.0008535358
78	0x3b028b61	0.0019919502
79	0x39a59505	0.0003158228
80	0x3ab0fe0c	0.0013503446
81	0x00000000	0.0
82	0x00000000	0.0
83	0x3c058e22	0.008151563
84	0x000001f4	7e-43
85	0x00000000	0.0
86	0x3c731428	0.014836349
87	0x39dac642	0.00041727914
88	0x39b41a1f	0.00034351737
89	0x39754feb	0.00023394793
90	0x3b89697e	0.004193484
91	0x3b1e9e7c	0.002420335
92	0x00000000	0.0
93	0x3a9661f9	0.001147329
94	0x00000000	0.0
95	0x3791e204	1.7390594e-05
96	0x00000000	0.0
97	0x3a8ddff5	0.0010824191
98	0x399dd259	0.00030102095
99	0x34c5f13e	3.6869636e-07
100	0x3b10530e	0.002202216
101	0x00000000	0.0
102	0x3c4ec77f	0.012620806
103	0x3988fd94	0.00026128872
104	0x396318a5	0.00021657588
105	0x398c38d0	0.0002674521
106	0x3b0d1a38	0.002153052
107	0x38ba0b29	8.87125e-05
108	0x3aace79d	0.0013191585
109	0x00000000	0.0
110	0x38ca2790	9.63948e-05
111	0x00000000	0.0
112	0x3c36dae7	0.011160589
113	0x3b3f804e	0.0029220763
114	0x39e6d0a7	0.00044024477
115	0x392ba3ef	0.00016368901
116	0x3a4bdf20	0.00077770837
117	0x00000000	0.0
118	0x39643804	0.00021764642
119	0x3884188c	6.298823e-05
120	0x00000000	0.0
121	0x3a0c72f1	0.0005357704
122	0x00000000	0.0
123	0x3adbfaea	0.0016783152
124	0x3c85f7ac	0.01635345
125	0x389394a2	7.037191e-05
126	0x3a2be54f	0.0006557302
127	0x3ba55d38	0.005046513

exp_avg f4 [1, 128]
0	0x3d1d6a5c	0.03843151
1	0x3d047598	0.03233871
2	0x3ca8bd40	0.020598054
3	0x3cee4b22	0.02908856
4	0x00000000	0.0
5	0x3d57312f	0.05253714
6	0x3cc4c655	0.024020353
7	0x00000004	6e-45
8	0x3d0d92f7	0.034563985
9	0x3d0c59c9	0.034265313
10	0x3d1c1d9a	0.038114168
11	0x3d106a69	0.03525773
12	0x3cfff176	0.031243067
13	0xbb122c34	-0.002230418
14	0x00000004	6e-45
15	0x3d2f406a	0.04278604
16	0x3beb2a02	0.0071766386
17	0xbb380d10	-0.0028083958
18	0xb8de0dde	-0.00010588368
19	0x80000004	-6e-45
20	0x3c44b4c2	0.012005987
21	0x3cdd1747	0.026988639
22	0xba2b74ad	-0.00065405184
23	0x80000004	-6e-45
24	0x00000000	0.0
25	0x3c6139fb	0.013746734
26	0x3d1354aa	0.035969414
27	0x3c5e60ad	0.013572854
28	0x3caf7bbb	0.021421304
29	0x3d4b2495	0.049595434
30	0x3d45a232	0.048250385
31	0x3a2757bc	0.0006383618
32	0x3d21fa3f	0.039545294
33	0x3c27f7cc	0.0102519505
34	0x3be6352b	0.007025381
35	0xb8a47445	-7.841786e-05
36	0x3d1869b8	0.037210196
37	0x3d049f75	0.032378633
38	0x3b317396	0.0027076951
39	0x3d0f0b90	0.034923136
40	0x3cfaaa4a	0.030598778
41	0xbb330a33	-0.0027319312
42	0x3d531d16	0.05154141
43	0x3c6bdc97	0.014395854
44	0x3cbae56a	0.022814471
45	0x3c2203ae	0.009888573
46	0x3d41e367	0.04733601
47	0x3c3e55ee	0.011617167
48	0x00000000	0.0
49	0x3c900d62	0.017584506
50	0x3cabc152	0.020966206
51	0x80000004	-6e-45
52	0x3c8ee8ae	0.017444935
53	0xbb07a0b7	-0.0020695159
54	0x00000000	0.0
55	0x3c6b6be5	0.014368986
56	0x00000004	6e-45
57	0x3c787a3b	0.015165861
58	0x00000000	0.0
59	0x00000000	0.0
60	0x3d2a175a	0.041526176
61	0x00000004	6e-45
62	0x3ca8f52a	0.020624716
63	0x00000000	0.0
64	0xbbcfa38b	-0.0063366345
65	0x3cd61324	0.026132174
66	0x3ca9369c	0.020655923
67	0x00000000	0.0
68	0x3ac4660d	0.0014984027
69	0x3c28e4c3	0.010308447
70	0x00000000	0.0
71	0x3d28bbb2	0.041194625
72	0x3d425387	0.04744294
73	0x3c9ef139	0.019402133
74	0x3d187c06	0.037227653
75	0x3b0249ec	0.0019880487
76	0x3c878a09	0.016545312
77	0x3c333baf	0.010939523
78	0x3ca093aa	0.019601662
79	0x3d370f78	0.044692487
80	0x3b9a9fe5	0.004718768
81	0x00000000	0.0
82	0x00000000	0.0
83	0xbbaa5f1f	-0.0051993276
84	0x00000004	6e-45
85	0x00000000	0.0
86	0x3a971574	0.0011526779
87	0x3cca707b	0.024711838
88	0x3d21e205	0.03952219
89	0x3ccd66d0	0.025073439
90	0x3cb49c38	0.022047147
91	0x3ca47d77	0.020079358
92	0x00000000	0.0
93	0x3d072b1e	0.033000104
94	0x00000000	0.0
95	0x3c9e553f	0.019327758
96	0x00000000	0.0
97	0x3d0f24a1	0.03494704
98	0x3afcc855	0.0019285778
99	0xb9816f04	-0.0002468751
100	0x3c4412c3	0.011967364
101	0x00000000	0.0
102	0x3b0d200b	0.0021533992
103	0x3d00537c	0.031329617
104	0x3a83cede	0.0010056158
105	0x3c407217	0.011745951
106	0x3ce2232d	0.027604664
107	0x3cb26988	0.021778837
108	0x3d435689	0.04768995
109	0x00000000	0.0
110	0x3cb3fb49	0.021970408
111	0x00000000	0.0
112	0x3a877e3e	0.0010337306
113	0x3cbee665	0.02330322
114	0x3d35a5bb	0.044347506
115	0x3cac2f5c	0.021018676
116	0x3d0f3609	0.03496364
117	0x00000000	0.0
118	0x3d65106b	0.05592386
119	0x3c4eeb1e	0.0126292985
120	0x00000000	0.0
121	0x3d02d5bc	0.031942114
122	0x00000000	0.0
123	0x3d08409a	0.033264734
124	0x3c176fab	0.009242932
125	0x3d376fbe	0.0447843
126	0x3ca52702	0.020160202
127	0x3c77b337	0.015118412

exp_avg_sq f4 [1, 128]
0	0x3f018c24	0.5060446
1	0x3ef5c9b6	0.48005456
2	0x3e0c7fa6	0.13720569
3	0x3ec2efbb	0.38073525
4	0x00000000	0.0
5	0x3f141af0	0.57853603
6	0x3ed52076	0.41626328
7	0x000001f4	7e-43
8	0x3e11d9a8	0.14243186
9	0x3f048843	0.5177042
10	0x3ea05075	0.31311384
11	0x3dd7259d	0.10505221
12	0x3f98f76b	1.1950506
13	0x3df8f8b8	0.12156814
14	0x000001f4	7e-43
15	0x3fa6297e	1.2981412
16	0x3d3928c9	0.04520491
17	0x3d7d8318	0.0618926
18	0x3a6e2b90	0.0009085471
19	0x000001f4	7e-43
20	0x3d1bc0ee	0.03802579
21	0x3e0c345b	0.13691847
22	0x370848b0	8.123156e-06
23	0x000001f4	7e-43
24	0x00000000	0.0
25	0x3d88d773	0.06681719
26	0x3eb4c1e4	0.35304177
27	0x3e29f6c8	0.16598046
28	0x3f35f85f	0.7108211
29	0x3f5d19e1	0.86367613
30	0x3edd3131	0.43201593
31	0x36cade48	6.045946e-06
32	0x3e30cd54	0.17265826
33	0x3d71ad26	0.059003018
34	0x3dc100ff	0.09424018
35	0x3c9c7fa6	0.019103836
36	0x3e99e402	0.3005677
37	0x3ea0301d	0.31286708
38	0x3d8a764e	0.06760846
39	0x3f160522	0.5860158
40	0x3eedc43e	0.46438783
41	0x3d4f2093	0.050568175
42	0x3f94e61e	1.1632726
43	0x3e03d91f	0.12875794
44	0x3e3a52d1	0.18195654
45	0x3c05aa2a	0.008158246
46	0x3e9d3788	0.3070643
47	0x3e1b3c9e	0.15159842
48	0x00000000	0.0
49	0x3dc68a47	0.09694343
50	0x3e2e385d	0.17013688
51	0x000001f4	7e-43
52	0x3dcb58b4	0.09929028
53	0x38b3b53d	8.5691434e-05
54	0x00000000	0.0
55	0x3e0d5003	0.13800053
56	0x000001f4	7e-43
57	0x3d83a684	0.06428245
58	0x00000000	0.0
59	0x00000000	0.0
60	0x3e9daa16	0.30793828
61	0x000001f4	7e-43
62	0x3e92103a	0.28528005
63	0x00000000	0.0
64	0x3d0ba336	0.034091197
65	0x3eb8602a	0.36010867
66	0x3dfeae21	0.12435556
67	0x00000000	0.0
68	0x3cf4064d	0.02978816
69	0x3e27b1bd	0.16376396
70	0x00000000	0.0
71	0x3ece61fa	0.40309125
72	0x3ea49a0c	0.32148778
73	0x3e5422ee	0.2071645
74	0x3dec3635	0.11533777
75	0x3c07b55b	0.008282985
76	0x3d9c5cfc	0.07634923
77	0x3d69ad15	0.05704983
78	0x3e4d0106	0.20019922
79	0x3f0e4033	0.5556671
80	0x3ad21fa8	0.0016031163
81	0x00000000	0.0
82	0x00000000	0.0
83	0x3d012d16	0.031537138
84	0x000001f4	7e-43
85	0x00000000	0.0
86	0x3d235a06	0.039880775
87	0x3f85b8ea	1.0447056
88	0x3ea92f2e	0.33043808
89	0x3e28ba35	0.16477282
90	0x3dc7e34b	0.097601496
91	0x3dff6732	0.12470855
92	0x00000000	0.0
93	0x3d920ec5	0.07131723
94	0x00000000	0.0
95	0x3e1872f2	0.14887598
96	0x00000000	0.0
97	0x3e04bad4	0.12961894
98	0x388c840e	6.700317e-05
99	0x3b915e70	0.0044363067
100	0x3d6e6c68	0.058208853
101	0x00000000	0.0
102	0x3ab2f4cf	0.0013653281
103	0x3eb2efc3	0.3494855
104	0x39cae990	0.0003870246
105	0x3cdba2e2	0.026811067
106	0x3f36bbf6	0.71380556
107	0x3f1a1eb4	0.602031
108	0x3eafa7d8	0.34307742
109	0x00000000	0.0
110	0x3eb1b61e	0.34709257
111	0x00000000	0.0
112	0x3b9ae201	0.004726649
113	0x3eaa9e20	0.33323765
114	0x3f090423	0.5352194
115	0x3d807c07	0.06273656
116	0x3eac5509	0.33658627
117	0x00000000	0.0
118	0x3ff1523b	1.885322
119	0x3e22281a	0.1583561
120	0x00000000	0.0
121	0x3ee0764e	0.4384026
122	0x00000000	0.0
123	0x3f08470d	0.53233415
124	0x3da5dd30	0.08098829
125	0x3ea7784f	0.32708976
126	0x3e63da75	0.22251303
127	0x3d98ffdf	0.074706785
