checkpoints/mlptest2/model2_best.pt (torch, 80331 bytes, 9 tensors)

stack.0.weight f4 [256, 17]
0.22087152 -0.00076355593 -0.113865405 0.14249973 -0.052165333 -0.06497508 0.49246934 0.13363564
-0.16186306 -0.14220934 0.10867504 0.351723 0.015210119 0.03802082 -0.06724571 -0.047734667
-0.020515513 -0.22646993 0.09924216 -0.23930581 0.16669683 0.2766543 -0.03974411 0.095804475
0.014093205 0.17224945 -0.15390907 0.01867273 0.24212348 -0.31444836 -0.17836985 0.21709622
-0.16567989 -0.20478857 -0.1352472 0.18917884 0.018965974 -0.08319218 -0.13901179 -0.36922505
-0.25706556 0.13877173 0.113347635 -0.10999584 -0.03454726 -0.13618778 0.054274805 -0.18588427
-0.026903784 0.21001503 0.041667383 -0.09594752 -0.16486652 -0.02201322 -0.056973442 -0.0432595
0.07809905 -0.24095225 0.07833758 0.14813772 0.24925129 0.029798046 -0.07345245 0.12825055
-0.29238075 -0.02911798 -0.021643609 0.012361873 0.02813611 0.18819359 -0.03350424 0.05659417
0.027685719 -0.32049397 0.5090989 0.014409374 -0.027104616 0.04109807 -0.1289524 0.27993092
-0.128832 -0.0023665032 0.0910686 -0.07040989 0.14606585 0.095286265 -0.07150054 -0.09467379
0.05569576 -0.19194862 -0.28500763 0.22580709 -0.0656024 -0.16322836 -0.27313367 0.2893095
0.49647242 0.13102132 0.033738427 0.027693816 -0.07778764 0.36168003 -0.1851027 -0.30438933
-0.057222515 0.07101518 -0.2140592 0.06047121 -0.28880993 -0.27439874 -0.25441357 -0.082989365
-0.3312222 0.33718863 0.05296747 0.25075755 0.34126538 0.030960463 -0.16669673 -0.046974238
0.10586747 0.31938758 0.1859949 0.16293392 0.34372655 -0.43249464 -0.13306227 -0.18334925
-0.09221454 -0.09358523 0.31737012 -0.17212385 -0.09022112 0.18133093 0.513553 -0.072412275
-0.24160798 0.028386297 0.09298569 -0.29908252 -0.30812758 0.022839969 -0.35370678 0.052834056
0.023123145 0.096317135 0.059580915 -0.33205724 -0.05624694 -0.109181955 -0.13697422 0.20229308
0.049491864 0.29383838 -0.048113186 -0.22470741 -0.1756937 0.21324942 0.034029324 0.32330868
0.25999346 -0.13032953 0.12846757 0.21981373 0.010663791 -0.29386908 -0.08603329 -0.050720796
0.34847948 0.22206372 0.14740941 0.27918085 0.13172995 -0.097099945 -0.08066612 0.25422877
0.13917874 -0.022494111 0.26993254 0.23451965 -0.04992617 0.057366617 0.5227976 -0.19430883
-0.030536784 -0.12190633 -0.2298995 0.22860102 -0.12419158 0.13284266 0.144577 -0.024096882
0.08016446 0.47826263 0.0072217733 -0.15299831 0.0964247 0.2527759 0.22282304 -0.040694196
-0.068406895 0.0055953157 -0.1210967 0.16329014 0.100884065 -0.0025538276 0.007893681 0.15666151
0.16967024 0.087462634 -0.4544903 0.26107866 -0.08977358 -0.07950884 0.010483123 0.10266204
0.027002722 -0.06778317 -0.25988787 0.37555575 0.03300713 0.016827982 -0.20065986 0.20120184
-0.06396936 0.21586041 0.09877131 0.56013066 0.19432685 -0.09103917 -0.12130649 0.12595375
0.4064685 0.24991494 -0.14570004 -0.029483296 -0.112529844 -0.07231981 0.28299972 0.007404208
0.113830864 0.21271215 0.103589706 0.15903403 0.60963494 0.19250627 -0.21894597 -0.04523202
0.13316563 0.18170519 -0.017769217 0.0002921829 -0.011151168 0.19587278 0.021376288 0.030844273
00000000: 252c 623e 5f29 48ba 4432 e9bd 73eb 113e
00000010: 51ab 55bd a811 85bd f124 fc3e c8d7 083e
00000020: 6ebf 25be 539f 11be 0591 de3d 0915 b43e
00000030: dd33 793c b8bb 1b3d 1eb8 89bd 6d85 43bd
00000040: 2610 a8bc bce7 67be 793f cb3d 950c 75be
00000050: 93b2 2a3e a2a5 8d3e b8ca 22bd 2335 c43d
00000060: 30e7 663c 2962 303e 579a 1dbe 8ef7 983c
00000070: 38ef 773e 60ff a0be 96a6 36be 794e 5e3e
00000080: fda7 29be 18b4 51be 3e7e 0abe 19b8 413e
00000090: 885e 9b3c a960 aabd 1b59 0ebe 110b bdbe
000000a0: 199e 83be 2d1a 0e3e ce22 e83d 8045 e1bd
000000b0: 6d81 0dbd cf74 0bbe 424f 5e3d 7258 3ebe
000000c0: 5365 dcbc 2e0e 573e 6bab 2a3d 2280 c4bd
000000d0: c5d2 28be 1155 b4bc fc5c 69bd e030 31bd
000000e0: 65f2 9f3d 30bc 76be 746f a03d 6ab1 173e
000000f0: bb3b 7f3e 081b f43c 3d6e 96bd 1d54 033e
00000100: eeb2 95be d488 eebc f04d b1bc 7489 4a3c
00000110: b37d e63c d2b5 403e be3b 09bd 4acf 673d
00000120: 29cd e23c c917 a4be 4e54 023f 4c15 6c3c
00000130: 800a debc 7356 283d 190c 04be 1b53 8f3e
00000140: 89ec 03be 5617 1bbb 2d82 ba3d 0f33 90bd
00000150: 4992 153e 7225 c33d e06e 92bd 55e4 c1bd
00000160: 3d21 643d 2e8e 44be 85ec 91be f939 673e
00000170: 8d5a 86bd 5625 27be 2dd8 8bbe 6020 943e
00000180: a231 fe3e 742a 063e 4e31 0a3d 24de e23c
00000190: 204f 9fbd 202e b93e 908b 3dbe ebd8 9bbe
000001a0: 2862 6abd 6870 913d 5632 5bbe a9b0 773d
000001b0: e5de 93be fe7d 8cbe 7f42 82be 54f6 a9bd
000001c0: f595 a9be fda3 ac3e 6bf4 583d 4b63 803e
000001d0: 56ba ae3e cca0 fd3c 8cb2 2abe 0f68 40bd
000001e0: 0bd1 d83d c586 a33e 7275 3e3e 26d8 263e
000001f0: edfc af3e f06f ddbe 7a41 08be e8bf 3bbe
00000200: fada bcbd 9da9 bfbd 567e a23e 3c41 30be
00000210: dac5 b8bd d1ae 393e 3678 033f e34c 94bd
00000220: 1568 77be 618a e83c 486f be3d 5821 99be
00000230: e6c2 9dbe e31a bb3c 0e19 b5be 8668 583d
00000240: c06c bd3c eb41 c53d 1e0b 743d 6803 aabe
00000250: 3163 66bd ca9a dfbd f842 0cbe eb25 4f3e
00000260: fbb7 4a3d fc71 963e 5512 45bd b319 66be
00000270: 0de9 33be 0e5e 5a3e 5562 0b3d b788 a53e
00000280: dd1d 853e 1b75 05be 018d 033e da16 613e
00000290: 2eb7 2e3c 0276 96be 3932 b0bd 9cc0 4fbd
000002a0: e76b b23e ac64 633e 7ef2 163e cbf0 8e3e
000002b0: 37e4 063e 56dc c6bd 4734 a5bd 462a 823e
000002c0: df84 0e3e 9245 b8bc 9934 8a3e eb25 703e
000002d0: 627f 4cbd 42f9 6a3d 10d6 053f e5f8 46be
000002e0: 4728 fabc 07aa f9bd c66a 6bbe 6316 6a3e
000002f0: 2858 febd e807 083e fe0b 143e d366 c5bc
00000300: 442d a43d d7de f43e a0a4 ec3b 97ab 1cbe
00000310: 507a c53d d86b 813e b92b 643e f5ae 26bd
00000320: ea18 8cbd e958 b73b 8c01 f8bd 8835 273e
00000330: 4e9c ce3d 1e5e 27bb 7f54 013c e06b 203e
00000340: 09be 2d3e 9c1f b33d f4b2 e8be 1aac 853e
00000350: 36db b7bd 88d5 a2bd 68c1 2b3c 7a40 d23d
00000360: d034 dd3c e7d1 8abd 0610 85be d848 c03e
00000370: 7c32 073d d6da 893c c779 4dbe db07 4e3e
00000380: 5e02 83bd 830a 5d3e 9d48 ca3d b964 0f3f
00000390: 9efd 463e bf72 babd 896f f8bd 05fa 003e
000003a0: a41c d03e b4e9 7f3e 6432 15be f486 f1bc
000003b0: 0c76 e6bd 691c 94bd 57e5 903e 009f f23b
000003c0: 2820 e93d 37d1 593e d726 d43d d1d9 223e
000003d0: 0911 1c3f 5d20 453e 5f33 60be 3645 39bd
000003e0: 925c 083e ed10 3a3e c090 91bc 2030 9939
000003f0: 63b3 36bc e092 483e 531d af3c 21ad fc3c

stack.0.bias f4 [256]
0.038703725 0.31018284 -0.25970864 0.48946202 0.0053500114 0.17966688 -0.10977666 0.20983563
-0.6862225 -0.053915944 -0.2283383 -0.030076403 0.24849036 -0.04481598 0.03353881 0.23349327
-0.018757962 0.28285524 0.4854178 -0.061327744 -0.28092667 0.08681827 -0.15731312 0.13163342
0.12531327 0.09672652 -0.054334987 0.46915108 -0.7044505 0.012924384 -0.27934963 -0.5839071
-0.04706168 -0.08657896 0.052633133 -0.01548272 0.013715639 -0.17408761 -0.18548615 -0.044140574
-0.10644162 -0.35497093 0.07206515 -0.1373846 0.46302736 0.16377944 -0.21419126 -0.23953101
0.3063335 -0.1301219 -0.14656727 0.036170583 -0.20329541 -0.21530284 -0.06590392 0.25771338
-0.21349876 0.3454573 -0.044596527 0.03469588 -0.36982262 0.007362888 0.5188925 0.40521556
0.12567261 0.015335133 0.35698837 0.067421734 0.23598239 -0.07714168 -0.21123901 0.26885596
0.053123515 -0.06538222 0.20155554 0.40102652 -0.28510162 -0.19395122 -0.12045827 -0.018289557
-0.38304168 0.18431465 0.43510422 0.04886597 0.002226923 0.3012466 0.24779288 0.52715224
0.27566108 -0.21858247 0.2288536 0.2274716 0.15008548 0.16059475 -0.2020066 0.025097959
-0.17304341 0.019473623 0.11365363 0.21930107 0.032074366 0.17428684 0.4254619 -0.057971995
0.07238469 0.29003957 0.23269318 0.43398544 0.24770392 0.21414302 -0.15273394 -0.053522833
0.4814218 -0.12514038 0.27513036 0.08577406 0.0011580877 -0.04608847 -0.25859573 0.06373029
-0.15356033 -0.22514156 0.23037347 -0.23078981 -0.14127584 0.30692902 0.4448003 0.070500314
0.12668982 -0.2594419 0.033477332 -0.18420523 -0.022765426 -0.014893837 -0.10530704 0.13086107
0.21010916 0.27933544 -0.20098162 0.28260323 0.282259 -0.33727887 0.09817828 0.21829855
-0.22817515 -0.34411976 -0.17069922 0.22495691 0.102632925 -0.06487175 -0.38378218 -0.08937132
-0.36671317 0.5931442 -0.30613977 -0.008068671 0.30010748 -0.40179896 0.1645678 -0.024874058
-0.13307121 -0.014877599 -0.16009252 0.20508912 -0.23616679 -0.1572722 -0.53231186 0.03632573
-0.22655497 0.20087059 -0.30827665 -0.28553796 -0.092986666 0.13723066 0.024821084 0.14244388
0.20877925 0.041258585 -0.15346865 0.019707464 -0.23828918 -0.21071157 0.0070902673 0.3167781
-0.3930783 -0.1863897 -0.017834134 -0.24525319 0.042783737 0.064589635 -0.31250128 0.45234317
0.442026 0.0056536435 -0.22680442 -0.10258902 0.008051412 -0.21079022 0.48899812 -0.5480405
0.5190428 0.2873992 -0.22265448 0.117378496 0.14051674 0.40304276 -0.0061102356 0.23720068
0.08703191 -0.10990309 0.54048 -0.20331529 0.24537495 -0.24314135 0.0582456 0.41552767
0.07199293 0.21980116 -0.16559696 0.011398176 -0.46534306 0.04896364 -0.05939073 0.20247161
0.35271233 0.085010305 -0.20416214 -0.18270943 -0.1884658 0.3315285 0.29561085 -0.0094474815
-0.25980282 -0.102358945 -0.0885157 -0.1308826 -0.27373374 -0.15353262 0.040410522 0.15720199
-0.31163782 -0.22376594 0.41576114 0.05898988 0.4449015 0.37221223 -0.06452469 -0.092827246
-0.07851946 -0.25492004 -0.282661 0.48240724 0.039135564 0.3061958 -0.06094453 0.092950046
00000000: cc87 1e3d 49d0 9e3e 88f8 84be c49a fa3e
00000010: 264f af3b 98fa 373e 96d2 e0bd 27df 563e
00000020: 47ac 2fbf f7d6 5cbd 84d1 69be ca62 f6bc
00000030: 4274 7e3e f690 37bd fe5f 093d dc18 6f3e
00000040: 4caa 99bc 67d2 903e af88 f83e cd32 7bbd
00000050: 9fd5 8fbe c7cd b13d b116 21be e9ca 063e
00000060: 1f52 003e 8e18 c63d 5d8e 5ebd 9234 f03e
00000070: de56 34bf ccc0 533c ea06 8fbe f07a 15bf
00000080: c0c3 40bd 4f50 b1bd d795 573d 3cab 7dbc
00000090: 8fb7 603c 0644 32be 15f0 3dbe bfcc 34bd
000000a0: 10fe d9bd c0be b5be e596 933d 8cae 0cbe
000000b0: ec11 ed3e ccb5 273e f454 5bbe 9e47 75be
000000c0: bfd7 9c3e ad3e 05be bb15 16be 9b27 143d
000000d0: ac2c 50be 5978 5cbe a2f8 86bd 02f3 833e
000000e0: 6b9f 5abe c7df b03e d9aa 36bd 441d 0e3d
000000f0: 6459 bdbe 6244 f13b 24d6 043f 6a78 cf3e
00000100: 52b0 003e 3640 7b3c 2ec7 b63e 6814 8a3d
00000110: 5ea5 713e 75fc 9dbd 0a4f 58be 7da7 893e
00000120: 0b98 593d 1de7 85bd 9364 4e3e 5953 cd3e
00000130: d7f8 91be 269b 46be d3b2 f6bd fbd3 95bc
00000140: 0a1e c4be fbbc 3c3e fbc5 de3e af27 483d
00000150: 91f1 113b ff3c 9a3e 6bbd 7d3e 73f3 063f
00000160: 7323 8d3e 15d4 5fbe 9958 6a3e 51ee 683e
00000170: 02b0 193e f372 243e d1da 4ebe 3c9a cd3c
00000180: 4b32 31be 2687 9f3c 3cc3 e83d 7690 603e
00000190: 6960 033d 4078 323e 24d6 d93e 0b74 6dbd
000001a0: 6d3e 943d 1180 943e 1f47 6e3e 5733 de3e
000001b0: 19a6 7d3e 4f48 5b3e 4966 1cbe c23a 5bbd
000001c0: eb7c f63e cd24 00be e3dd 8c3e 4faa af3d
000001d0: faca 973a 43c7 3cbd a966 84be 0785 823d
000001e0: eb3e 1dbe 828b 66be 06e7 6b3e 2a54 6cbe
000001f0: 9daa 10be cd25 9d3e ddbc e33e 7862 903d
00000200: faba 013e 92d5 84be 871f 093d 4ca0 3cbe
00000210: 8f7e babc 4805 74bc 38ab d7bd 7200 063e
00000220: db26 573e 0e05 8f3e 20ce 4dbe 5fb1 903e
00000230: 4084 903e d1af acbe b211 c93d a889 5f3e
00000240: bfa6 69be 7730 b0be c7cb 2ebe 1b5b 663e
00000250: 3631 d23d 7bdb 84bd 197f c4be 5008 b7bd
00000260: d4c1 bbbe 4cd8 173f 5abe 9cbe 7632 04bc
00000270: b0a7 993e 98b8 cdbe 7684 283e aec4 cbbc
00000280: d243 08be 2cc1 73bc 4bef 23be e202 523e
00000290: b5d5 71be f70b 21be 9745 08bf 4aca 143d
000002a0: 07fe 67be 05b1 4d3e 70d6 9dbe 0832 92be
000002b0: cb6f bebd 3286 0c3e 9655 cb3c cfdc 113e
000002c0: 3aca 553e c3fe 283d e326 1dbe 8c71 a13c
000002d0: 1402 74be c6c4 57be 7955 e83b bd30 a23e
000002e0: 8f41 c9be f1dc 3ebe e418 92bc a723 7bbe
000002f0: 003e 2f3d 9247 843d 2b00 a0be 8699 e73e
00000300: 3b51 e23e 3342 b93b 6b3f 68be 311a d2bd
00000310: 12ea 033c 64d9 57be f65d fa3e 624c 0cbf
00000320: fddf 043f fd25 933e 89ff 63be 2364 f03d
00000330: 9fe3 0f3e 9f5b ce3e 5f38 c8bb bce4 723e
00000340: c93d b23d df14 e1bd e65c 0a3f e231 50be
00000350: 9243 7b3e 0cfa 78be f092 6e3d 0bc0 d43e
00000360: 0771 933d 8e13 613e 4092 29be 6abf 3a3c
00000370: 7241 eebe 198e 483d b243 73bd b854 4f3e
00000380: b696 b43e e219 ae3d e10f 51be 2e18 3bbe
00000390: 2efd 40be 1bbe a93e 4e5a 973e 9cc9 1abc
000003a0: e004 85be 91a1 d1bd b847 b5bd 1706 06be
000003b0: d426 8cbe a837 1dbe 8185 253d 8ff9 203e
000003c0: fe8e 9fbe e622 65be a5de d43e 5f9f 713d
000003d0: 21ca e33e 9a92 be3e 8525 84bd 361c bebd
000003e0: d0ce a0bd e184 82be f1b8 90be 15fe f63e
000003f0: 9d4c 203d b2c5 9c3e f9a0 79bd 985c be3d

stack.2.weight f4 [1, 256]
0.25533912 0.20831312 -0.20126925 -0.10401988 0.23774174 0.32200772 -0.27767023 -0.23696347
-0.35273987 0.1541403 0.22107391 0.13957651 -0.29416016 0.15590182 0.13150541 0.15447678
-0.08957766 -0.112866394 -0.17671031 0.18480931 -0.28560612 0.12872717 0.09698298 0.1461304
0.09799459 -0.13782595 0.2874776 -0.25520912 -0.5877794 -0.16159019 0.28941476 -0.4233814
0.17650805 0.066412024 0.15223487 -0.090074115 0.3331278 0.10212465 0.26281843 0.1647054
0.16584271 -0.27257705 -0.09839811 0.121452555 -0.16814151 -0.23012118 0.23861998 0.32035565
-0.20505583 0.13226432 -0.1411457 0.13625246 0.18701978 0.11502826 0.08803747 -0.20589119
0.22102733 0.19281757 -0.079111196 0.19641355 0.391457 -0.025062745 -0.24218348 -0.2503338
0.28695127 -0.11449942 -0.12460773 0.15889129 -0.094429 0.30168688 -0.1308136 -0.1817944
-0.1839688 -0.08976381 -0.091565475 -0.29602125 -0.16812576 0.2230594 -0.17322147 0.16018194
0.24933423 0.14430754 -0.16411385 -0.0071153473 0.28341997 -0.20511499 -0.03500021 -0.19856343
0.14578441 0.22295879 0.25903475 -0.047349565 0.16416551 -0.022234334 0.07507411 -0.052491777
-0.11241996 -0.14704448 0.12572654 -0.1292939 0.061015382 0.09283615 -0.20583732 0.114700586
0.25627092 -0.16804518 -0.07053344 -0.14316857 0.15344675 -0.09295023 -0.3086731 -0.19073063
-0.2614899 -0.09330854 -0.08136018 -0.073637106 -0.048954397 0.06149089 0.1648929 0.21776083
0.11491413 0.102522284 -0.06742703 0.20627572 -0.19947207 -0.13520446 -0.10414245 0.25497743
0.12774196 0.14818661 -0.21852031 0.31506068 0.22883207 0.10954285 -0.11507793 -0.1713499
-0.08079261 0.10277177 -0.1288692 -0.13131207 0.08517289 -0.26288593 -0.1426752 0.20388547
-0.1771005 -0.25051883 0.055862404 -0.076108664 -0.11220334 0.75917107 -0.12406265 -0.21459517
0.33917516 -0.2518721 0.11904251 0.21650472 0.10752745 0.14890192 -0.2689807 -0.13494761
0.08640424 0.09051251 0.4349292 0.20256019 -0.1527511 0.20947608 0.33714777 0.11040114
-0.015563113 0.19026902 -0.30763888 -0.23029408 0.07668712 -0.25059533 0.16940774 -0.054425653
-0.078219816 -0.06786497 -0.07402711 0.11794999 -0.099349 -0.12607567 0.1121821 0.13594575
-0.21959633 0.15343916 0.19953527 0.114188164 -0.022694724 0.061127104 0.19884935 -0.21657367
-0.06804254 0.1998383 0.22538774 -0.020808036 0.1363529 0.12839028 -0.17075764 -0.32849342
-0.17355517 -0.13269815 0.19848381 -0.092737064 -0.07391562 -0.16029997 -0.17937657 -0.080550276
0.09476936 0.3230867 -0.30963024 0.2523516 0.28096431 0.16486767 -0.0594485 -0.12001888
0.18360734 -0.09287267 0.26759535 0.07743236 -0.23644532 0.11530357 0.20537049 0.16219723
-0.42395446 0.09337581 -0.026270002 0.16005816 0.21499741 -0.09257009 -0.33679393 -0.098999575
0.45447445 -0.19065414 0.11256086 0.15186746 -0.20168382 -0.10093715 0.1524885 -0.11860965
0.050913934 0.32122108 -0.18737045 -0.090859964 -0.19216475 0.29201624 -0.041895673 0.32357642
0.1144877 0.33073252 0.13972683 -0.14211331 0.2712838 -0.21811563 -0.06438219 -0.17542048
00000000: cfbb 823e 0950 553e 8719 4ebe 6008 d5bd
00000010: 9272 733e 32de a43e cb2a 8ebe 8da6 72be
00000020: 529a b4be f4d6 1d3e 3361 623e 25ed 0e3e
00000030: 299c 96be baa4 1f3e 5ba9 063e 292f 1e3e
00000040: 7e74 b7bd 7f26 e7bd 8cf3 34be a73e 3d3e
00000050: f73a 92be 0ed1 033e 039f c63d 35a3 153e
00000060: 63b1 c83d 3f22 0dbe 4430 933e c5aa 82be
00000070: b678 16bf e677 25be 2c2e 943e 72c5 d8be
00000080: 87be 343e 0703 883d 75e3 1b3e c778 b8bd
00000090: ba8f aa3e ba26 d13d 2390 863e 88a8 283e
000000a0: acd2 293e 388f 8bbe f384 c9bd 1ebc f83d
000000b0: 4a2d 2cbe e3a4 6bbe cc58 743e a805 a43e
000000c0: 28fa 51be 4c70 073e 8088 10be c485 0b3e
000000d0: 1d82 3f3e f093 eb3d fd4c b43d 24d5 52be
000000e0: fd54 623e f871 453e 0d05 a2bd a220 493e
000000f0: 0d6d c83e 6350 cdbc f2fe 77be c02b 80be
00000100: 47eb 923e ac7e eabd 5632 ffbd 66b4 223e
00000110: fe63 c1bd b476 9a3e 00f4 05be 5028 3abe
00000120: 5162 3cbe 17d6 b7bd ae86 bbbd 1990 97be
00000130: 2929 2cbe af69 643e f860 31be bc06 243e
00000140: 7951 7f3e 5bc5 133e 760d 28be dc27 e9bb
00000150: 6c1c 913e aa09 52be 615c 0fbd 3654 4bbe
00000160: 8248 153e 4f4f 643e 34a0 843e 9ef1 41bd
00000170: 011b 283e c724 b6bc 74c0 993d 9e01 57bd
00000180: 703c e6bd d492 16be 75be 003e 9f65 04be
00000190: 44eb 793d e120 be3d 05c7 52be 24e8 ea3d
000001a0: f135 833e 0914 2cbe d673 90bd c89a 12be
000001b0: 2521 1d3e b15c bebd 670a 9ebe e44e 43be
000001c0: 01e2 85be 8c18 bfbd 2ba0 a6bd 0dcf 96bd
000001d0: 6884 48bd dfdd 7b3d afd9 283e b2fc 5e3e
000001e0: 1958 eb3d 34f7 d13d 2f17 8abd f139 533e
000001f0: 6842 4cbe 0a73 0abe a348 d5bd 678c 823e
00000200: cace 023e 3bbe 173e cac3 5fbe a24f a13e
00000210: f452 6a3e 0058 e03d faad ebbd 5976 2fbe
00000220: 9976 a5bd 017a d23d 4af6 03be ac76 06be
00000230: 206f ae3d fc98 86be 7319 12be 5ac7 503e
00000240: d559 35be 0144 80be facf 643d dcde 9bbd
00000250: ddca e5bd 0959 423f 8f14 febd d6be 5bbe
00000260: 5ea8 ad3e 61f5 80be 8fcc f33d 6ab3 5d3e
00000270: 5a37 dc3d bf79 183e d7b7 89be b52f 0abe
00000280: b5f4 b03d 9f5e b93d 0aaf de3e f06b 4f3e
00000290: c96a 1cbe e680 563e a29e ac3e fe19 e23d
000002a0: 6dfc 7ebc e2d5 423e d882 9dbe 36d2 6bbe
000002b0: 230e 9d3d 084e 80be 3979 2d3e 6fed 5ebd
000002c0: b631 a0bd cafc 8abd 879b 97bd c48f f13d
000002d0: 7d77 cbbd fb19 01be bbbf e53d 5d35 0b3e
000002e0: dcdd 60be 281f 1d3e f952 4c3e 7cdb e93d
000002f0: 49ea b9bc 6a60 7a3d 2a9f 4b3e 7dc5 5dbe
00000300: e359 8bbd 69a2 4c3e 0bcc 663e 9d75 aabc
00000310: 18a0 0b3e be78 033e 17db 2ebe 4a30 a8be
00000320: 72b8 31be 06e2 07be 573f 4b3e eeec bdbd
00000330: 1361 97bd ad25 24be 7eae 37be 8bf7 a4bd
00000340: 7016 c23d 9f6b a53e db87 9ebe 3b34 813e
00000350: 8eda 8f3e 12d3 283e 4580 73bd 75cc f5bd
00000360: 9003 3c3e 0734 bebd 4202 893e db94 9e3d
00000370: b91e 72be 4724 ec3d a44c 523e 0817 263e
00000380: 8f10 d9be d13b bf3d 3034 d7bc 49e6 233e
00000390: 4828 5c3e 6395 bdbd 4170 acbe 4ac0 cabd
000003a0: e0b0 e83e d73a 43be 4f86 e63d 2583 1b3e
000003b0: 3486 4ebe 23b8 cebd f225 1c3e 9ee9 f2bd
000003c0: 218b 503d 1777 a43e 0ade 3fbe ca14 babd
000003d0: d6c6 44be 2783 953e cc9a 2bbd cfab a53e
000003e0: 8778 ea3d c655 a93e 8d14 0f3e 2786 11be
000003f0: b6e5 8a3e b459 5fbe cfda 83bd 6da1 33be

exp_avg f4 [256, 17]
0.0072408924 0.0012467306 0.00035504132 0.007007503 0.006163663 0.0068256557 0.0075329635 0.0010196381
0.0008018376 0.00021030109 0.00024042501 0.00012601426 -0.001476545 -0.000100595345 -0.0016847284 -0.00056680705
-0.0002907088 -0.0015114526 0.0044845575 -0.00024476193 -0.0007079429 -0.0021303585 -0.0017294565 -0.0012941251
0.0043472527 0.0043713874 0.003514722 4.6278496e-05 -0.0010321222 -0.001004393 -0.0014913459 -0.0030022496
-0.0064062993 -0.00668934 0.009072398 0.0023693722 0.00400037 0.0070407996 0.008701269 0.008477628
0.009269878 0.001988701 0.0021329506 0.0040623983 0.005258478 0.006295454 -0.0013219119 0.001949083
0.008495349 0.009531814 0.013549261 0.0034164367 0.0006354449 0.00083771755 0.0026019576 0.0031508699
0.0035079543 0.003258097 0.00055333757 0.0008367016 0.0021617673 0.0033168704 0.0034720388 3.398532e-05
0.00221873 0.005735337 0.0065108873 0.007825395 0.006281466 0.0026404748 -8.406199e-05 0.0072182445
0.0054333447 0.006486507 0.006077674 0.0026555732 0.0026980345 0.0020853216 0.0014771892 0.0021133986
-9.921294e-05 0.002532075 -0.0005375716 3.6333644e-05 -0.00041161486 0.0042271484 0.0034494214 -0.0035941578
0.004997506 0.002694364 0.004321986 0.00477073 0.003404871 0.0036225005 0.003010342 0.0030900347
0.0026609015 -0.00025109536 0.0030070161 -2.3470991e-05 0.00056644034 -0.00062883145 0.0066971257 0.010757586
0.0030244284 0.0034864303 0.0068467273 0.0060033603 0.0062869536 0.010082683 0.010528988 0.010895901
0.010181424 0.010574752 -0.0021442843 0.0033874533 0.008206568 0.009651664 0.015714174 -0.005090105
0.00028393435 0.0005671162 -0.0063044517 -0.0044373 -0.004481682 -0.005729067 9.5578325e-06 7.94862e-05
0.00050462823 4.9171293e-05 -0.0010766961 -0.0010983277 -0.0017772272 0.00047914832 -0.0005162884 -0.0010117465
0.011903697 0.005536242 0.004095862 0.008693677 0.011458323 0.011815015 0.012027804 0.004943985
0.005387636 0.00865175 0.010832836 0.013591864 -0.0018299264 0.003764122 0.013749955 0.016496686
0.02373505 0.004078762 0.00031602025 0.0007923162 0.00444332 0.0034943726 0.0037759098 0.004326506
0.00043527514 0.00038158902 -9.640897e-06 1.1650612e-05 0.0017962694 0.00043199814 0.001268943 -0.00050185306
-0.00010452134 0.0017574491 -0.00019617345 0.005758672 -0.0032041078 -1.547984e-05 -0.00041620602 -0.0012272865
-0.00018154702 0.0053501227 0.005222217 0.0036836392 0.0001554121 0.000284115 -0.0020385575 -0.0004963053
-0.0033868006 -0.0051583545 -0.0036610505 0.0040178555 0.00081833673 -0.00032840986 0.003924035 0.0034189792
0.0038098686 0.003987661 0.0007420445 0.00069042336 0.000472056 0.0005507875 0.00054581574 -0.000433177
0.0007389861 -0.00010379109 0.00028606804 -5.872041e-05 -0.004039471 0.00045969663 0.0010479109 -0.0054577147
-0.0024458054 -0.0035272045 -0.004699496 -1.6221762e-05 8.9597284e-05 0.0031279153 0.002266427 0.001146232
-0.0022290861 -0.0017868809 0.0084666535 0.005006809 7.0956434e-05 0.0043498203 0.001349121 -0.00026417873
0.0043015536 0.0036643234 0.0041271774 0.0043075555 0.0012784858 0.0012691321 0.0010354479 0.0012073612
0.0011667736 -0.00028968678 0.0013637027 0.0003608707 0.0011067862 0.0007750746 0.003696871 -0.0002734914
0.00035898716 0.0036180073 0.0030578123 0.0032060342 0.0040051914 -0.00037058376 -0.00048124083 -0.0007911623
-0.0007367003 0.00060280925 -0.0007586673 -0.00029567676 -0.0012654668 -0.0010568151 0.0010866126 0.0037356317
00000000: 0245 ed3b 5669 a33a d724 ba39 329f e53b
00000010: 8ef8 c93b c0a9 df3b 14d7 f63b 61a5 853a
00000020: 6932 523a 4584 5c39 991a 7c39 b222 0439
00000030: a188 c1ba b7f6 d2b8 1bd2 dcba c795 14ba
00000040: 466a 98b9 ef1b c6ba 32f3 923b 6453 80b9
00000050: 3e95 39ba 7c9d 0bbb eeae e2ba a29f a9ba
00000060: 6673 8e3b db3d 8f3b 4057 663b 281b 4238
00000070: 4648 87ba d6a5 83ba 4479 c3ba 64c1 44bb
00000080: efeb d1bb 4032 dbbb 65a4 143c 7847 1b3b
00000090: 8915 833b 82b6 e63b c48f 0e3c c0e5 0a3c
000000a0: b0e0 173c de54 023b f9c8 0b3b de1d 853b
000000b0: 504f ac3b 194a ce3b 0144 adba 5f78 ff3a
000000c0: 1430 0b3c 532b 1c3c b8fd 5d3c 4ce6 5f3b
000000d0: fc93 263a 469a 5b3a 9b85 2a3b d37e 4e3b
000000e0: b5e5 653b cc85 553b db0d 113a 1856 5b3a
000000f0: 70ac 0d3b da5f 593b 258b 633b 768b 0e38
00000100: 1d68 113b 7eef bb3b 4859 d53b 1636 003c
00000110: c2d4 cd3b d10b 2d3b 704a b0b8 0687 ec3b
00000120: 330a b23b c48c d43b 3a27 c73b 2009 2e3b
00000130: 82d1 303b e4a9 083b 3f9e c13a f280 0a3b
00000140: 8b10 d0b8 2bf1 253b d2eb 0cba f464 1838
00000150: 03ce d7b9 e483 8a3b b00f 623b f68b 6bbb
00000160: 1ec2 a33b ed93 303b 729f 8d3b c953 9c3b
00000170: 4224 5f3b 7967 6d3b 2849 453b 2e82 4a3b
00000180: 8562 2e3b 73a5 83b9 5c11 453b 92e3 c4b7
00000190: 2b7d 143a 2ad8 24ba 9073 db3b 9640 303c
000001a0: 7d35 463b 987c 643b 835a e03b d6b7 c43b
000001b0: ca02 ce3b d631 253c c781 2c3c b984 323c
000001c0: fdcf 263c ba41 2d3c 1f87 0cbb 0900 5e3b
000001d0: d774 063c 0322 1e3c 03bb 803c e5ca a6bb
000001e0: 06dd 9439 86aa 143a 9395 cebb c566 91bb
000001f0: 13db 92bb e6ba bbbb 945a 2037 d4b1 a638
00000200: 0749 043a 463d 4e38 ed1f 8dba c3f5 8fba
00000210: d9f1 e8ba 3336 fb39 8757 07ba 949c 84ba
00000220: b907 433c 5d69 b53b 9536 863b ed6f 0e3c
00000230: b1bb 3b3c c493 413c 4410 453c 2701 a23b
00000240: c48a b03b 12c0 0d3c 357c 313c 69b0 5e3c
00000250: 24da efba 7daf 763b 7e47 613c 0f24 873c
00000260: 0270 c23c 23a7 853b 85af a539 71b3 4f3a
00000270: 4599 913b d801 653b 4175 773b 5dc5 8d3b
00000280: a435 e439 0310 c839 56bf 21b7 ff76 4337
00000290: cd70 eb3a cf7d e239 a952 a63a ca8e 03ba
000002a0: 7832 dbb8 355a e63a e9b3 4db9 3eb3 bc3b
000002b0: 02fc 51bb b4da 81b7 3a36 dab9 e7dc a0ba
000002c0: a85d 3eb9 1550 af3b 221f ab3b 3669 713b
000002d0: 1ef6 2239 45f5 9439 5299 05bb 7c1a 02ba
000002e0: 16f5 5dbb 6a07 a9bb 3cee 6fbb 37a8 833b
000002f0: a685 563a 6d2e acb9 3195 803b f410 603b
00000300: fdae 793b edaa 823b c385 423a 87fd 343a
00000310: 497e f739 b962 103a 1315 0f3a 081c e3b9
00000320: 85b8 413a 6baa d9b8 67fb 9539 8f4a 76b8
00000330: 8a5d 84bb 7003 f139 0e5a 893a a1d6 b2bb
00000340: ce49 20bb ac28 67bb 3bfe 99bb f813 88b7
00000350: 2de6 bb38 b6fd 4c3b 5688 143b 2a3d 963a
00000360: dc15 12bb c635 eaba b8b7 0a3c 2810 a43b
00000370: 72ce 9438 f088 8e3b fdd4 b03a 7881 8ab9
00000380: 0cf4 8c3b 2525 703b 463d 873b 6526 8d3b
00000390: dd92 a73a 0259 a63a deb7 873a 5240 9e3a
000003a0: 6dee 983a 1ae1 97b9 45be b23a 3f33 bd39
000003b0: 9511 913a 602e 4b3a 3447 723b 6563 8fb9
000003c0: 7136 bc39 171c 6d3b 9465 483b 541c 523b
000003d0: fb3d 833b e94a c2b9 0d4f fcb9 0166 4fba
000003e0: 1f1f 41ba d805 1e3a 4de1 46ba 1005 9bb9
000003f0: 05de a5ba d584 8aba ab6c 8e3a 80d1 743b

exp_avg_sq f4 [256, 17]
0.0015525094 0.00084096385 0.0017818148 0.0014896505 0.0014787181 0.0015049137 0.0015759815 0.00078605284
0.0008616652 0.00074876193 0.00043759236 0.0004261001 0.00011987898 0.0006365069 0.00041794934 0.00045579637
0.0005116372 0.0011817006 0.00082183967 0.0012442758 0.0011842414 0.0011403352 0.0011191316 0.0011895571
0.00080368447 0.00082752714 0.00077689026 0.0007033988 0.00076949433 0.0003750243 0.00065239257 0.00062350923
0.00081746577 0.0009963309 0.0005357844 0.00063174753 0.00050737424 0.000532867 0.000526729 0.00049031735
0.0005241004 0.00062097376 0.0006083476 0.00074801507 0.0007622308 0.00091617036 0.0002961024 0.00037720648
0.0008762873 0.0008123076 0.00080876495 0.00026550406 0.00024048398 0.00031635407 0.0002666392 0.00025090115
0.00024104293 0.00026357608 0.00023348255 0.00023602863 0.0002702711 0.00027708098 0.00033754142 9.5041694e-05
0.00018742796 0.0002946516 0.00031285305 0.00032159043 0.0013149385 0.000819251 0.0014940741 0.0012668583
0.0012541348 0.0012650151 0.0013378441 0.0007784535 0.00083390664 0.0007289317 0.00043595993 0.00041734063
0.00019091944 0.00053029385 0.00036147522 0.00042985543 0.00048361384 0.0025215044 0.0013099673 0.0028111895
0.0024646074 0.0024152147 0.0023889607 0.0025637404 0.0012132428 0.0013282498 0.0012015533 0.0007384922
0.0007738067 0.00031614787 0.0010365965 0.000898251 0.000978952 0.0010586597 0.0010426792 0.00075300894
0.0009795087 0.0010700021 0.0010103956 0.00096463284 0.0010340877 0.00070861523 0.000672531 0.0008925954
0.001057482 0.0013990168 0.00042935373 0.00057673507 0.0012979714 0.0014449602 0.0016257365 0.001426741
0.0007057663 0.0015949858 0.0013725419 0.0013569146 0.0013673812 0.0014492152 0.00066031434 0.0007232067
0.00063697546 0.00040491484 0.0004144379 0.00023858403 0.0006486187 0.00046205256 0.0004976054 0.00055923744
0.0015066823 0.0010190753 0.0014410891 0.0014532991 0.0014900402 0.0013332678 0.0014634068 0.0010050768
0.0009929325 0.0015221376 0.001852283 0.0024840885 0.0008408524 0.0009713912 0.0024254436 0.0021932183
0.002236336 0.00057052623 0.00036360734 0.00064732233 0.00055030314 0.0005442409 0.000551787 0.00057893724
0.00034428318 0.00036905403 0.00032227434 0.00020324477 0.00019432176 9.478918e-05 0.0002524119 0.00016406673
0.00018975322 0.00022350499 0.0007990794 0.0007082633 0.0009781373 0.00072965695 0.0007619869 0.0007731542
0.00081135175 0.0006773358 0.000714983 0.0006324161 0.000396839 0.00036906506 5.2822452e-05 0.00038595614
0.00027219014 0.0003146478 0.00037434686 0.00046685466 0.00023388224 0.0005351672 0.00044606402 0.00044383074
0.00045099633 0.00047360532 0.00021770826 0.0002414497 0.00020914873 0.00012232077 0.000121363766 3.4518056e-05
0.00018298878 0.00011589739 0.00013007369 0.00014819158 0.0024181276 0.0017228534 0.0027586473 0.0023214393
0.0023699158 0.002320756 0.002436033 0.0016316441 0.0017339806 0.0017826388 0.0011532563 0.0011260661
0.00042045207 0.0012623888 0.0015728631 0.0011159332 0.0012640106 0.0005787513 0.00027226718 0.00066290976
0.00055365084 0.00055001857 0.0005599063 0.0005862367 0.0002527508 0.00028041963 0.00023960328 0.00013460265
0.00013817498 4.1811712e-05 0.00022968858 0.00014977231 0.00016048971 0.00018069749 0.00041122054 0.00024149394
0.00047134355 0.00039398996 0.00039176288 0.0003960883 0.00041701877 0.00022522517 0.00024483146 0.00021250658
0.00012658908 0.00012243183 3.121718e-05 0.00016312099 0.000109440094 0.00012362849 0.00014811826 0.00056303205
00000000: 927d cb3a 2174 5c3a c98b e93a 6040 c33a
00000010: 8cd1 c13a 8640 c53a 2a91 ce3a 1d0f 4e3a
00000020: 5fe1 613a 9048 443a a76c e539 3066 df39
00000030: 8a67 fb38 41db 263a 3620 db39 f4f7 ee39
00000040: 641f 063a 4be3 9a3a ba70 573a f816 a33a
00000050: 8c38 9b3a 4d77 953a d3af 923a eaea 9b3a
00000060: 5aae 523a 68ee 583a 39a8 4b3a 4b64 383a
00000070: e4b7 493a e99e c439 5305 2b3a ff72 233a
00000080: 334b 563a 5197 823a e273 0c3a dc9b 253a
00000090: 4f01 053a 19b0 0b3a 2f14 0a3a a488 003a
000000a0: c863 093a d8c8 223a 8479 1f3a 7116 443a
000000b0: 71d0 473a 272b 703a 313e 9b39 ccc3 c539
000000c0: a5b6 653a 0af1 543a 4c03 543a 5a33 8b39
000000d0: 6d2a 7c39 53dc a539 b5cb 8b39 628b 8339
000000e0: 78c0 7c39 9530 8a39 ffd2 7439 747e 7739
000000f0: 2cb3 8d39 2e45 9139 0bf8 b039 1f51 c738
00000100: 4f88 4439 787b 9a39 6d06 a439 239b a839
00000110: 045a ac3a 01c3 563a cfd4 c33a b60c a63a
00000120: c861 a43a ddce a53a 995a af3a 2111 4c3a
00000130: 879a 5a3a c715 3f3a 8d91 e439 83ce da39
00000140: 8c31 4839 6b03 0b3a 6284 bd39 385e e139
00000150: 8d8d fd39 d33f 253b 35b3 ab3a ef3b 383b
00000160: 4085 213b 9448 1e3b 1c90 1c3b 6d04 283b
00000170: ac05 9f3a ab18 ae3a 707d 9d3a 5f97 413a
00000180: 4ad9 4a3a a6c0 a539 68de 873a 9b78 6b3a
00000190: 2e50 803a bac2 8a3a 82aa 883a 9365 453a
000001a0: dc62 803a 503f 8c3a 406f 843a 6adf 7c3a
000001b0: 3a8a 873a 5dc2 393a cb4c 303a 10fd 693a
000001c0: 359b 8a3a 375f b73a e21a e139 0930 173a
000001d0: b120 aa3a d264 bd3a aa16 d53a 7c01 bb3a
000001e0: 2d03 393a d80e d13a dde6 b33a 80da b13a
000001f0: b339 b33a 98f3 bd3a f218 2d3a 9495 3d3a
00000200: b3fa 263a c04a d439 ea48 d939 6a2c 7a39
00000210: 1008 2a3a a53f f239 bc71 023a ca99 123a
00000220: de7b c53a 7e92 853a ede2 bc3a a07c be3a
00000230: 744d c33a 0bc1 ae3a c9cf bf3a c8bc 833a
00000240: 4925 823a 7682 c73a 4ec8 f23a 17cc 223b
00000250: a66c 5c3a f6a4 7e3a 31f4 1e3b 19bc 0f3b
00000260: 7e8f 123b 5e8f 153a 8da2 be39 11b1 293a
00000270: 3842 103a 63ab 0e3a cca5 103a d2c3 173a
00000280: e880 b439 987d c139 eef6 a839 1a1e 5539
00000290: dac2 4b39 8ec9 c638 2756 8439 5409 2c39
000002a0: 7ef8 4639 aa5c 6a39 5079 513a bfaa 393a
000002b0: d734 803a 7346 3f3a 13c0 473a 80ad 4a3a
000002c0: e5b0 543a 3c8f 313a b26d 3b3a bac8 253a
000002d0: d40e d039 137f c139 ad8d 5d38 285a ca39
000002e0: beb4 8e39 50f7 a439 fc43 c439 2cc4 f439
000002f0: 493e 7539 764a 0c3a b3dd e939 f4b1 e839
00000300: b473 ec39 3b4e f839 9e48 6439 a92d 7d39
00000310: ef4e 5b39 3b43 0039 ad84 fe38 7bc7 1038
00000320: ade0 3f39 f00d f338 6464 0839 e063 1b39
00000330: 7379 1e3b 5ed1 e13a 6cca 343b 4a23 183b
00000340: 9750 1b3b d317 183b daa5 1f3b e4dc d53a
00000350: bc46 e33a 6fa7 e93a dc28 973a 8298 933a
00000360: 1f70 dc39 bd76 a53a 8728 ce3a 8144 923a
00000370: 28ad a53a 58b7 173a 15bf 8e39 1fc7 2d3a
00000380: e122 113a 1f2f 103a adc6 123a aead 193a
00000390: a383 8439 4905 9339 043e 7b39 2024 0d39
000003a0: 10e3 1039 fc5e 2f38 8fd8 7039 330c 1d39
000003b0: 2149 2839 9d79 3d39 1699 d739 8939 7d39
000003c0: a91e f739 7090 ce39 8665 cd39 12aa cf39
000003d0: 50a3 da39 6c2a 6c39 b95c 8039 4dd4 5e39
000003e0: ffbc 0439 0b61 0039 31ef 0238 750b 2b39
000003f0: 3483 e538 45a2 0139 3150 1b39 7198 133a

exp_avg f4 [256]
-0.0009338408 0.003646402 -0.009924179 -0.0039363755 0.0046797073 0.004244299 -0.012566746 -0.0016832579
-0.0100777075 -0.00034884675 0.00088488514 0.00022302617 -0.0054316386 0.0006153819 -0.0012697225 0.0001790953
-0.0032172608 -0.0044309674 -0.0038812358 0.00063762616 -0.012495775 0.0067624613 0.0009281463 -0.0006383846
0.00016952386 -0.005990055 0.000705155 -0.012088188 0.005159473 -0.0053342017 -0.005764988 -0.014298524
0.0026174507 -0.00040910183 -4.013282e-05 -0.005591202 0.0024000139 0.0010607688 0.005062223 0.0023900375
0.0061573368 -0.009601483 -0.0054828203 0.0018273786 -0.0044553694 -0.00078099896 0.0022448548 0.0038090479
-0.0066559343 0.0002509278 -0.0034530864 0.00052259996 0.00093835185 0.0018020343 0.0004981063 -0.0029153526
0.0032136647 0.00010852267 -0.0036367462 0.006778278 0.0015739969 -0.0010789328 -0.007761285 -0.009699001
0.0049458137 -0.005312407 -0.0049766405 0.0013374969 -0.0042736176 0.0031123485 -0.0045297258 -0.008018654
-0.0030722385 -0.0036518231 -0.003648619 -0.012761128 -0.008776104 0.007075334 -0.0075046862 -0.0001466884
0.0018846331 0.002018278 -0.0075468803 -0.0003676368 0.0021668545 -0.0072040763 -0.0013587364 -0.007888643
-0.0006085634 0.0032525652 0.00029216774 -0.0017430177 0.00026192793 -0.0009584808 0.00095992855 -0.0014420219
-0.0043904083 -0.004308163 0.004707546 -0.0070067183 0.00061812473 0.002103792 -0.004593336 0.0001473309
0.001813578 -0.007808069 -0.002350965 -0.0053920913 0.0027891097 -0.0040900055 -0.006098595 -0.0034715848
-0.007212577 -0.004179823 -0.003243627 -0.0039594565 -0.0024240634 0.002417428 0.0009212803 -0.00091624825
0.0018329166 0.0041400576 -0.0033340736 0.0024357836 -0.005096895 -0.0038517201 -0.0059753964 0.0010754982
-0.00046885735 0.0015688442 -0.006244088 0.006199636 0.000660156 0.0017571191 -0.0053912476 -0.00508619
-0.002032761 0.006164425 -0.006904967 -0.0027741485 0.0048535317 0.0027962464 -0.00083307206 0.0033952594
-0.007046441 -0.0025809421 -7.8580546e-05 -0.0026206532 -0.00413 0.017104574 -0.007284967 -0.006897714
0.009342258 -0.009040105 0.0012937881 0.007646636 2.5725134e-05 0.00067217276 -0.00018426494 -0.0033603336
0.001062755 -0.0009687655 0.01704656 0.007298424 0.0007757446 0.0024342155 0.0066715097 0.00011955309
-0.0006712832 8.6151675e-05 -0.007698379 -0.011809204 0.00044633614 -0.008001076 -0.0012698891 -0.0029653262
-0.0039809006 -0.0034599262 -0.0029343327 0.00054040644 -0.0038159676 -0.0063303895 0.001666796 0.0052965037
-0.0113325445 0.001643914 0.0020064577 0.0016870163 -0.0010971514 2.3115055e-05 0.0017723705 -0.007834769
-0.003947957 0.001064885 0.002916199 -0.00085745146 0.0007773267 0.001660544 -0.006711738 -0.0024950968
-0.0064684 -0.0021529493 0.0028235342 -0.004241156 -0.0029120515 -0.0063607525 -0.009553583 -0.0030686231
0.00083634094 0.0021655767 -0.010229161 0.0030638792 0.0045851027 0.0021353117 -0.0022726383 -0.004886429
0.00063248543 -0.0035935051 0.002975485 -0.00012108527 -0.009508579 0.0005888909 0.00014154808 -0.00035644733
-0.011895382 -2.81539e-05 -0.0013033374 0.0012918886 0.0024544536 -0.0036321764 -0.0057611573 -0.0031441834
7.607283e-05 -0.007898143 0.000816356 0.006996304 -0.010693931 -0.0038558422 0.0011666776 -0.004191913
0.00055393233 0.0044517126 -0.007922074 -0.0030993517 -0.007860532 0.005429037 -0.0020598168 0.0028891778
0.0005097436 0.005480925 0.0016719477 -0.004850111 0.0077949846 -0.007938848 -0.0030121538 -0.0047185253
00000000: ffcc 74ba 79f8 6e3b 0699 22bc b6fc 80bb
00000010: 3b58 993b c313 8b3b c1e4 4dbc c3a0 dcba
00000020: f81c 25bc 6be5 b6b9 a3f7 673a 22dc 6939
00000030: e3fb b1bb 9551 213a d16c a6ba 87cb 3b39
00000040: aed8 52bb a631 91bb 555c 7ebb 5e26 273a
00000050: 14bb 4cbc a397 dd3b d84e 733a 4459 27ba
00000060: 37c2 3139 3948 c4bb 27da 383a 890d 46bc
00000070: cc10 a93b 87ca aebb 39e8 bcbb 5b44 6abc
00000080: 8989 2b3b b87c d6b9 4a54 28b8 6736 b7bb
00000090: 8d49 1d3b 7f09 8b3a 01e1 a53b 2da2 1c3b
000000a0: 7cc3 c93b 8a4f 1dbc 3ba9 b3bb a784 ef3a
000000b0: 59fe 91bb f4bb 4cba 6a1e 133b 38a1 793b
000000c0: 061a dabb f68e 8339 2d4d 62bb 17ff 083a
000000d0: bafb 753a 3d32 ec3a 5993 023a 800f 3fbb
000000e0: 599c 523b aa96 e338 7a56 6ebb 511c de3b
000000f0: 924e ce3a fa6a 8dba 6152 febb 8fe8 1ebc
00000100: 7e10 a23b b313 aebb 1613 a3bb f34e af3a
00000110: b409 8cbb 8bf8 4b3b 186e 94bb ac60 03bc
00000120: 9c57 49bb 6d53 6fbb ab1d 6fbb 0d14 51bc
00000130: a6c9 0fbc 34d8 e73b dfe9 f5bb 5ed0 19b9
00000140: cb05 f73a 1645 043b d24b f7bb 60bf c0b9
00000150: c901 0e3b 2c10 ecbb a117 b2ba 5e3f 01bc
00000160: 0088 1fba fd28 553b 172e 9939 f875 e4ba
00000170: 5f53 8939 8f42 7bba b7a3 7b3a 3a02 bdba
00000180: 6add 8fbb 7e2b 8dbb c241 9a3b 9d98 e5bb
00000190: a609 223a c6df 093b b283 96bb d67c 1a39
000001a0: 94b5 ed3a d4da ffbb a612 1abb 24b0 b0bb
000001b0: 7fc9 363b 7405 86bb b9d6 c7bb 8783 63bb
000001c0: 7b57 ecbb e6f6 88bb 0893 54bb 54be 81bb
000001d0: 09dd 1ebb b66d 1e3b 1382 713a 6130 70ba
000001e0: 7a3e f03a 52a9 873b 7980 5abb aba1 1f3b
000001f0: db03 a7bb 246d 7cbb 42cd c3bb bbf7 8c3a
00000200: f8d0 f5b9 ada1 cd3a 359b ccbb 5126 cb3b
00000210: 520e 2d3a 224f e63a 10a9 b0bb 0eaa a6bb
00000220: 1238 05bb f2fe c93b 1043 e2bb 7dce 35bb
00000230: 600a 9f3b 3b41 373b 8562 5aba 0083 5e3b
00000240: d5e5 e6bb 0625 29bb 9ccb a4b8 44bf 2bbb
00000250: f354 87bb e41e 8c3c bcb6 eebb 3806 e2bb
00000260: 4510 193c f31c 14bc 5394 a93a a290 fa3b
00000270: 4ecc d737 c034 303a 3e37 41b9 0b39 5cbb
00000280: 244c 8b3a c1f4 7dba 3aa5 8b3c 9e27 ef3b
00000290: 575b 4b3a 5c87 1f3b ae9c da3b 94b8 fa38
000002a0: 0ef9 2fba 54ac b438 af42 fcbb 647b 41bc
000002b0: 3902 ea39 f216 03bc 6872 a6ba eb55 42bb
000002c0: 3772 82bb eebf 62bb ef4d 40bb 10aa 0d3a
000002d0: 5015 7abb 286f cfbb 6578 da3a 4b8e ad3b
000002e0: 23ac 39bc 9a78 d73a c67e 033b e01e dd3a
000002f0: 4bce 8fba 34e7 c137 e34e e83a 675d 00bc
00000300: dd5d 81bb 9c93 8b3a b31d 3f3b 98c6 60ba
00000310: 83c5 4b3a 9ca6 d93a 24ee dbbb c784 23bb
00000320: dff4 d3bb 7f18 0dbb 0b0b 393b 65f9 8abb
00000330: 1ed8 3ebb dc6d d0bb a286 1cbc f41a 49bb
00000340: e43d 5b3a 59ec 0d3b 3698 27bc 5dcb 483b
00000350: a13e 963b 96f0 0b3b 8bf0 14bb 561e a0bb
00000360: 61cd 253a 0381 6bbb 5b00 433b 29ef fdb8
00000370: dfc9 1bbc cd5f 1a3a 866c 1439 8de1 bab9
00000380: d9e4 42bc 0a2c ecb7 bfd4 aaba 9754 a93a
00000390: e6da 203b cf09 6ebb 17c8 bcbb a50e 4ebb
000003a0: 4a89 9f38 3667 01bc b900 563a 4041 e53b
000003b0: 9935 2fbc 4cb2 7cbb 34eb 983a 515c 89bb
000003c0: c535 113a acdf 913b 96cb 01bc 7e1e 4bbb
000003d0: 76c9 00bc 10e6 b13b fefd 06bb 5c58 3d3b
000003e0: 50a0 053a 5599 b33b 4125 db3a aeed 9ebb
000003f0: 126d ff3b f111 02bc 8e67 45bb dc9d 9abb

exp_avg_sq f4 [256]
0.0012110999 0.0011381218 0.00057413493 0.00031169274 0.0010398179 0.0023906047 0.0011706954 0.0012572729
0.0012634051 0.00044740917 0.00063037564 0.0003430407 0.0022621609 0.00042657732 0.00031604062 0.00051149353
0.00011303861 0.0002061453 0.00094002334 0.0005164213 0.00092893833 0.00031017823 0.00014427626 0.00040062182
0.00019501006 0.00047125126 0.0014907457 0.0014484044 0.0015409365 0.00039913532 0.0011881812 0.001815867
0.0005166607 8.481269e-05 0.00041835665 0.00012343015 0.002369239 0.00015452343 0.0011237306 0.00046628524
0.0005507299 0.0011015342 0.00014543475 0.00023344575 0.0008060471 0.0011514459 0.0008498355 0.0015663401
0.0010582681 0.00030830104 0.00019773051 0.00035792676 0.000585331 0.00019902684 0.00010129854 0.0010293289
0.0007381354 0.0006750117 8.798261e-05 0.00069695717 0.0007911627 9.6160975e-06 0.0012348315 0.0012866107
0.0017932053 0.00019924066 0.000316668 0.0005095506 0.000153705 0.0014160551 0.00022272409 0.00061436277
0.00046238478 9.1040216e-05 0.00014350942 0.0018602912 0.00038916958 0.00036589956 0.0003897305 0.00045440698
0.00064869743 0.0004558587 0.0007377575 8.9887794e-07 0.0013582008 0.00084985176 2.1668098e-05 0.0010321449
0.00046140878 0.0007507589 0.0014587055 3.9304337e-05 0.0005491141 7.72594e-06 8.447071e-05 4.1259555e-05
0.00017427673 0.00030533524 0.0002324826 0.0003156113 6.164221e-05 0.00014486314 0.0011785608 0.00020972037
0.001292604 0.0005923036 8.498725e-05 0.0004440893 0.0005324277 0.00012876918 0.000917012 0.00060171186
0.0018470548 0.00013273653 0.000135423 9.6683514e-05 3.5410605e-05 6.439051e-05 0.0003990761 0.0008295557
0.00021544949 0.00019916275 7.0860035e-05 0.0006482591 0.0004540247 0.00041972782 0.0003161788 0.001313554
0.00034644824 0.00033049946 0.00072807015 0.0015475956 0.0009674454 0.00018725517 0.0002105103 0.00054972357
0.00011050076 0.00020314007 0.0002050636 0.00036792684 0.00012524647 0.00073826243 0.00040255423 0.0009099961
0.00034712575 0.00081914064 2.8099286e-05 9.3528e-05 0.0002573563 0.005507678 0.0001980353 0.0004672781
0.00048651404 0.0014003889 0.00020261969 0.0008710023 0.00023965411 0.00012098705 0.0016038904 0.0002979666
0.00011251599 0.00015701819 0.0027306245 0.00065513706 0.0003158494 0.00066534063 0.00069554185 0.0002185592
3.858079e-06 0.00074121647 0.0006919807 0.00060458184 8.757957e-05 0.0012999598 0.0005530625 4.862511e-05
0.00010216362 7.334602e-05 6.9699236e-05 0.00026753967 0.00010676987 0.00023666384 0.00022701907 0.0003697666
0.00065222196 0.000357128 0.0008591203 0.00019563615 1.0164072e-05 6.229215e-05 0.0006039671 0.0013159112
0.00012778174 0.00077548064 0.00076335086 8.328886e-06 0.00036387917 0.0002542375 0.0006442228 0.0011785622
0.0006466159 0.00042221163 0.00059732056 0.00012606462 9.0915644e-05 0.00056328677 0.00043225157 0.00011362864
0.00018907001 0.0014028103 0.0024117532 0.0009791823 0.0014544241 0.00041470546 5.5358905e-05 0.00032236436
0.0006197793 0.00015023505 0.0007595596 0.000110653746 0.0006546895 0.00024348052 0.00071735086 0.00052857347
0.004539166 0.00017537811 1.129557e-05 0.00039359025 0.0006855523 0.00015907013 0.0024642649 0.0001447448
0.0015306708 0.0005203936 0.00019350949 0.00033148605 0.00039725087 0.00013704816 0.00044396744 0.00020184502
3.9146555e-05 0.0016011072 0.00073757727 0.00013134773 0.0010112872 0.0020810727 3.0681334e-05 0.0020383447
0.00022706875 0.0016384239 0.00028925846 0.0005909058 0.0011557008 0.0008891859 5.886456e-05 0.00058692106
00000000: c5bd 9e3a 082d 953a 8b81 163a b16a a339
00000010: 804a 883a b1ab 1c3b 0572 993a 14cb a43a
00000020: d798 a53a 3e92 ea39 cb3f 253a 25da b339
00000030: c340 143b 3da6 df39 41b2 a539 c015 063a
00000040: 240f ed38 b528 5839 e66b 763a 7260 073a
00000050: ff83 733a 6b9f a239 dd48 1739 8d0a d239
00000060: 9d7b 4c39 4612 f739 2065 c33a 63d8 bd3a
00000070: 40f9 c93a 0943 d139 bfbc 9b3a 6302 ee3a
00000080: 8370 073a 77dd b138 e156 db39 076d 0139
00000090: 3c45 1b3b 9107 2239 244a 933a bf77 f439
000000a0: dc5e 103a 5b61 903a d87f 1839 1ec9 7439
000000b0: e84c 533a 1dec 963a 7fc7 5e3a a74d cd3a
000000c0: 96b5 8a3a 77a3 a139 e155 4f39 1ea8 bb39
000000d0: e670 193a dcb1 5039 3d70 d438 8cea 863a
000000e0: 6e7f 413a 45f3 303a 4e83 b838 01b4 363a
000000f0: 0866 4f3a d354 2137 12da a13a 7ea3 a83a
00000100: fc09 eb3a 42eb 5039 7606 a639 5d93 053a
00000110: df2b 2139 ed9a b93a 0b8b 6939 300d 213a
00000120: 3c6c f239 d8ec be38 047b 1639 04d5 f33a
00000130: 7509 cc39 35d6 bf39 be54 cc39 793d ee39
00000140: 590d 2a3a 5200 ef39 1166 413a 6c4a 7135
00000150: a805 b23a 96c8 5e3a e3c3 b537 0949 873a
00000160: 3de9 f139 94ce 443a 0932 bf3a b6da 2438
00000170: 6cf2 0f3a a99e 0137 de25 b138 1c0e 2d38
00000180: 0ebe 3639 6715 a039 93c6 7339 a278 a539
00000190: e945 8138 67e6 1739 f079 9a3a 62e8 5b39
000001a0: 986c a93a d244 1b3a 2f3b b238 a8d4 e839
000001b0: 9e92 0b3a 3706 0739 a263 703a 33bc 1d3a
000001c0: e018 f23a 312f 0b39 5600 0e39 91c2 ca38
000001d0: d985 1438 6409 8738 163b d139 8a76 593a
000001e0: 48ea 6139 58d6 5039 b19a 9438 efef 293a
000001f0: 2a0a ee39 ea0e dc39 cdc4 a539 8f2b ac3a
00000200: 7fa3 b539 e346 ad39 f6db 3e3a b1d8 ca3a
00000210: 299c 7d3a ed59 4439 6ebc 5c39 531b 103a
00000220: a5bc e738 ff01 5539 5706 5739 4ee6 c039
00000230: 9854 0339 f487 413a ea0d d339 ce8c 6e3a
00000240: 6efe b539 99bb 563a c2b6 eb37 7624 c438
00000250: c7ed 8639 c079 b43b b2a7 4f39 01fd f439
00000260: cf12 ff39 418d b73a 4f76 5439 fa53 643a
00000270: a94b 7b39 6eba fd38 a239 d23a 6638 9c39
00000280: 90f6 eb38 40a5 2439 47f4 323b 81bd 2b3a
00000290: 9798 a539 416a 2e3a 0655 363a 0a2d 6539
000002a0: a574 8136 324e 423a 0a66 353a cd7c 1e3a
000002b0: ecaa b738 6a63 aa3a 65fb 103a d0f2 4b38
000002c0: ad40 d638 58d1 9938 7e2b 9238 9144 8c39
000002d0: a3e9 df38 f728 7839 f80b 6e39 3cdd c139
000002e0: e0f9 2a3a e93c bb39 9636 613a ae23 4d39
000002f0: 5b86 2a37 d8a2 8238 8c53 1e3a a77a ac3a
00000300: 26fd 0539 a049 4b3a 9c1b 483a 4bbc 0b37
00000310: 09c7 be39 2e4b 8539 0fe1 283a fc79 9a3a
00000320: a981 293a 495c dd39 8195 1c3a 3730 0439
00000330: f7a9 be38 89a9 133a d39f e239 e94b ee38
00000340: 1841 4639 81de b73a 810e 1e3b e857 803a
00000350: 60a2 be3a d36c d939 2c31 6838 0303 a939
00000360: af78 223a 6a88 1d39 2f1d 473a c70e e838
00000370: 789f 2b3a ce4e 7f39 9a0c 3c3a f78f 0a3a
00000380: 49bd 943b b4e5 3739 1b82 3d37 ca5a ce39
00000390: a3b6 333a 10cc 2639 817f 213b a3c6 1739
000003a0: caa0 c83a 066b 083a cfe8 4a39 4ecb ad39
000003b0: 1c46 d039 96b4 0f39 4dc4 e839 5ca6 5339
000003c0: 4b31 2438 3edc d13a f959 413a 63ba 0939
000003d0: 2b8d 843a 9b62 083b d5af 0038 c095 053b
000003e0: 4e19 6e39 62c0 d63a 9da7 9739 04e7 1a3a
000003f0: e27a 973a 4118 693a 57e5 7638 9bdb 193a
