notebooks/checkpoints/mlptest2/model6_best.pt (torch, 930195 bytes, 15 tensors)

stack.0.weight f4 [256, 17]
00000000: 877c 58be 919d 65bd 9787 e0bd 3502 913d
00000010: 0e08 76be 8a09 0c3e 85eb 573e 2a76 7dbe
00000020: 0785 14be 6f00 2bbd 4679 5bbc f686 3a3e
00000030: abfd 72be 2c23 0cbe 4cd5 cebd a4f7 5fbd
00000040: aa1a 33bd 19dc 19be ddf3 b63d a29d 31bd
00000050: e096 adbd f79a d63d d4de e43d f9bd 883b
00000060: 0e0e 853d 96bc 323c aefb dd3d 320f 0ebe
00000070: 7788 97bc 39f5 933a c61b 203d cb9d f4bd
00000080: d712 a6ba 1e68 493d f255 b83d 67f1 55be
00000090: 4d89 7abe b156 903d 9ca0 39be d992 7f3d
000000a0: 3773 4d3e 713b f33c f76c 56be a9a1 d53d
000000b0: c6a8 c4bd 0f17 623e fc75 f7be 91a9 96bd
000000c0: 0770 5cbe 6855 193e 4fd7 aa3e 809d 18be
000000d0: 43d2 353e 7987 643d 48cc ae3d 9805 1c3d
000000e0: 8641 123e 8c08 ac3d a60d d4bd 9b62 1bbe
000000f0: a482 903d da04 e23c 8cf8 f93d f225 283e
00000100: 7f80 0abe 1ac9 733c 6c04 2bbe 1d0e 01be
00000110: a143 2fbe 5b88 d63d bc36 14be 3a9f 933e
00000120: 4d68 e6bc b1f9 9fbd 582f 20bd bb19 063e
00000130: 0dc1 c9bd d8e4 223e 52e6 08bc 5602 9c3d
00000140: 03ba 95be eba9 8cbe 1180 1bbe a187 1bbd
00000150: 10b6 9cbe fe0f 753d d996 5abc f6ef ecbe
00000160: e6c6 cabd ac4f af3e 2df3 cbbc 6910 7fbe
00000170: c8d9 60bc 3717 0c3e 10ce 0d3e e2bf 413e
00000180: d733 68be 55f8 c8be 3932 77be 731e 453e
00000190: 7735 a53e cf9e 07bf 5196 5fbd 9672 be3d
000001a0: f82a 0bbe c92c 863d 64f4 4e3d 7591 60bd
000001b0: e7ec ddbd aefb 8bbd 49fd 173e 6778 20bd
000001c0: a95c 75bd 21a8 f73d 215d 973e fcd5 6dbb
000001d0: e905 973e a873 653e 764d 993e 1dd5 a6bd
000001e0: 2ac4 e9bd 0f00 9b3e 8e8f 74be 7de3 683e
000001f0: 98d3 df3d 23ff 94bd 2252 ea3d 81b5 293e
00000200: c507 bdbd ac02 a83d 445f 973d 3a46 4a3e
00000210: 1989 c5bd 09df 43bd 6900 c7bc a898 5c3e
00000220: 5347 f7bd 83f9 7b3d 7b17 5d3e 69a9 db3d
00000230: 602b 38be 54f3 acbd 342a 34be 19e5 3c3c
00000240: 7852 8c3e 80f7 253e 631a 3b3d f5a8 3bbd
00000250: a266 a2be c3b9 55be 74e0 1cbf 03ac 1abf
00000260: a1e3 9c3d c66c 14be 7e2b acbd 2340 52bf
00000270: 640b 6ebd 7c7a 1b3e 60ed 3cbe e8c3 87be
00000280: 6cc8 233e 9511 653e ffd3 30be 4d3a 323e
00000290: af57 8e3d 29ca cc3b 7fc0 ae3c bedf d9bd
000002a0: 0f6a 87bd d5ef 563e 0856 003e 2483 823d
000002b0: fa64 63be d523 84be 7f0c 163e f485 d4bd
000002c0: 0bc0 8bbd fc2d d23d 3c5a 983c d3bf cabd
000002d0: 811c 83bd 12e6 ce3d 37a5 0ebd b012 933d
000002e0: d115 54be c257 adbd a48a 4cbc 4a0d 4cbe
000002f0: b2b6 803e 2822 50bd aed4 3a3e 6a51 3cbe
00000300: c096 71be 548c 0bbe d304 313e d749 01be
00000310: e581 553e f60e babd f144 0ebe c10c cf3e
00000320: 79dd 66bd 77c4 183e 96a8 e43d 31b5 95be
00000330: cab0 0a37 3721 29be c896 19be 55ef 12be
00000340: ece9 a8be 4dae 94be 3ce6 11be fecd 30be
00000350: 8b77 c0bd 10a0 483e c38d b5bc ed49 863e
00000360: 7a84 1d3e 3200 5c3d e27f 853e 71f2 063f
00000370: 66d7 f13e 8ba4 c2bd 2f24 2cbe 11eb 02be
00000380: 5512 dc3d 0825 063e 1442 44bc a437 c23c
00000390: 4d58 d83d 38a7 3a3e 39aa 283e 25ed 85be
000003a0: 068c 1d3c aee5 61be bcf0 a53e a0ae 3a3e
000003b0: e8b5 f2bd cde0 143e 97b5 28be 6796 7f3e
000003c0: 57cc 883d 0627 21be 41fd f03c 0cb0 a23b
000003d0: 0bc4 51be d647 cf3d 7053 083d 33e8 3b3e
000003e0: 0ae1 17be ea88 85be 9be1 0bbe 23c8 343e
000003f0: 51de d0bd a42e 8d3e 7c49 483e 3317 a4bd
-0.21141253 -0.05605847 -0.10963362 0.07080499 -0.2402651 0.13675514 0.21085937 -0.24752107
-0.14503871 -0.04174846 -0.013395613 0.18215546 -0.23729579 -0.13685292 -0.10099277 -0.054679528
-0.0437266 -0.15025367 0.08933232 -0.04336322 -0.08476043 0.10478776 0.111753136 0.004173037
0.06496821 0.01090922 0.1083902 -0.13872984 -0.018497689 0.0011288292 0.039088987 -0.11944159
-0.001267041 0.04917156 0.09000768 -0.20892869 -0.24466439 0.07047785 -0.18127674 0.062395904
0.20063482 0.02969143 -0.20940004 0.10431225 -0.096025035 0.22079109 -0.48332202 -0.07356561
-0.2152711 0.14973986 0.33367392 -0.14903831 0.1775599 0.05579326 0.08535057 0.038091272
0.14282808 0.08400068 -0.10354166 -0.15174334 0.07056168 0.027590204 0.1220561 0.16420725
-0.1352558 0.014879489 -0.16700906 -0.1260304 -0.17115642 0.104752265 -0.14474005 0.28832418
-0.028125906 -0.07811297 -0.03910765 0.13095753 -0.09851275 0.1590761 -0.008355694 0.07617633
-0.29243478 -0.27473387 -0.15185572 -0.037971143 -0.30607653 0.059829704 -0.013341629 -0.46276826
-0.09901218 0.34240472 -0.024896229 -0.24908604 -0.013723798 0.13680731 0.13848138 0.18920854
-0.22676025 -0.39251962 -0.24140252 0.19249897 0.32267353 -0.529767 -0.054586712 0.09299199
-0.1359061 0.06551511 0.050526038 -0.05482622 -0.10836201 -0.068351135 0.14842714 -0.039177325
-0.05990282 0.12092615 0.2956324 -0.0036290875 0.29496697 0.224074 0.2994191 -0.08146117
-0.114143685 0.30273482 -0.23882887 0.2274303 0.1092903 -0.07275226 0.11441447 0.16573144
-0.092299975 0.082036346 0.07391217 0.19753352 -0.0964529 -0.047820125 -0.024292188 0.21542609
-0.12074151 0.06151725 0.21590988 0.10725672 -0.17985296 -0.08444849 -0.17594224 0.0115292305
0.2740667 0.16207695 0.04567946 -0.045815427 -0.31718928 -0.20871644 -0.6127999 -0.6041872
0.07660604 -0.14494619 -0.08406733 -0.82129115 -0.05811633 0.15183443 -0.18449926 -0.26516652
0.15994424 0.22369988 -0.1726837 0.17405052 0.06950318 0.0062496853 0.021332024 -0.106383786
-0.06612026 0.20989926 0.12532818 0.06372669 -0.22206488 -0.25808588 0.14653204 -0.10377112
-0.06823739 0.10262677 0.018597715 -0.09899869 -0.06401921 0.10102476 -0.03482553 0.07181299
-0.20711447 -0.08464004 -0.012484226 -0.19926944 0.25139385 -0.050813824 0.18245193 -0.18390432
-0.23592663 -0.1362775 0.17286997 -0.12625824 0.20850332 -0.09084885 -0.13893487 0.40439418
-0.056363557 0.14918695 0.11164968 -0.292398 8.266603e-06 -0.16516577 -0.14998925 -0.1434911
-0.32990968 -0.2903923 -0.14247984 -0.1726608 -0.09397801 0.19592309 -0.022162324 0.26228276
0.15382567 0.053711124 0.2607413 0.52713686 0.47234648 -0.0950404 -0.16810678 -0.12784983
0.10745684 0.13100064 -0.011978645 0.023708172 0.10563717 0.18227851 0.16471185 -0.2615749
0.009615904 -0.22060272 0.32410228 0.18230677 -0.11851102 0.1453888 -0.16475521 0.24959718
0.066796 -0.15737543 0.029417636 0.004964834 -0.2048494 0.101211235 0.033282697 0.18350296
-0.1483194 -0.2608102 -0.1366028 0.17654471 -0.101986535 0.27574646 0.19559282 -0.080122374

stack.0.bias f4 [256]
00000000: 9fae 96bd 6470 083f e094 43bf d475 113f
00000010: 169f 883e 07d8 16be bd36 e43e 2e55 08bf
00000020: acdc 3fbe a032 a5be 45bb f33e b29a 133e
00000030: 1621 5b3e 1b4c aebe 971f 9c3e c779 86be
00000040: 56c3 24bf 2f31 8dbd 6570 213f 65a2 253f
00000050: 8dc9 6c3d 6d32 133f af93 fb3d b637 34bf
00000060: 609e c03d 73c5 d3be 7a59 aabe 1ed2 8c3e
00000070: c6c7 35be f6c5 27bf a8bf 33be 48b2 07bf
00000080: 45a7 d73e b804 efbe 199b 213f 97cc 2ebf
00000090: daae 293e 0d28 dc3e da04 703e 59af 973e
000000a0: 7727 833d 1390 ffbc 13d6 1a3f 093a a03e
000000b0: 606e 1bbe ffda 20bf fe0b 143f 2142 a9be
000000c0: 6b0b c83e 090f 253f 94c7 0f3f bb0a 143f
000000d0: 549a 43bc fc58 1abe 36b4 ba3e 29ba 203e
000000e0: 49fa 133e 0418 083f 44c5 a03e 4d7f 33bd
000000f0: 9be3 e13e 5343 acbe ed17 4a3e e1ef 8c3e
00000100: ca1c fd3b c9fe b23c af8a 673c 407b a63e
00000110: 60f8 33bf b600 7cbe 8254 d4be a812 33bf
00000120: a168 383e 215a 213e f7e9 52be 9e8f 353f
00000130: 4058 28be 5548 febe 58d6 21bf 7ae0 ccbe
00000140: baa5 eabd 1930 1fbf 6dec e3be 7ab6 fc3e
00000150: 5592 973e 9c1a 2c3f afb3 c1bc efca 66be
00000160: 870e 21bf 5772 ffbe b77e d0bd 7d40 4ebe
00000170: 4bbb 2abe 70e5 123f d927 e4be f873 b9bd
00000180: 71d8 de3d fa32 02bf 4c83 d13b 26cf 10bf
00000190: f16e 05bf f46f e2bd 1b82 2a3c fb9c 1d3f
000001a0: d093 e8be cd94 3e3c 72e5 6abe 7e83 1dbe
000001b0: 7e17 383e 38bf 1fbf 61ee 103f 7ff0 e43d
000001c0: cd00 9b3e 3edb 3c3e a770 de3d f6bd 82be
000001d0: 33bc bcbe 699b c03e ccf6 9e3c da14 a8be
000001e0: 7f21 ac3e fb24 a53e a931 05be eea4 04bf
000001f0: a090 f0be 6405 5d3d 64d2 e63e 4794 d3be
00000200: 431a dcbd eb56 c7be 0cec 3fbe 85e6 d8bd
00000210: 07a2 9cbd dff0 f2bd aab5 1bbf cfab 2eba
00000220: cd1c 1cbe 9cea 1b3f a48e 27bf b4be 913d
00000230: 6fa2 86be 3f2f 02bf 7686 263f 7c4e 093f
00000240: 9e0a 013f 0ad4 73be eab4 06bf 6abb 12be
00000250: d6d4 723e 18a5 103f 7bf1 da3e 0f97 f0be
00000260: f228 193f 7e72 2fbe 8d17 cb3e 0b77 033f
00000270: 5baa 03bf e9d8 1f3d f3f3 1abf b8a7 ebbd
00000280: 82c2 d6be c38b 643e 0942 163e e710 07bf
00000290: 18ed 813c 9289 47bc 578f efbe 7db3 153f
000002a0: 90b7 3c3d 845d 0abf 98eb 0f3e fa7b 4f3e
000002b0: 7e1d 5a3e 6b84 3b3f 980a 5d3c 43c1 cbbd
000002c0: 0ab8 5ebe 87ef 3ebe 9b90 1f3e 9325 163f
000002d0: 19c4 01bf 5bf7 19bf e5a1 e43d f9ca b73d
000002e0: 886d f63e f6d7 813e 1ab5 abbd 0812 af3e
000002f0: d117 c43e e40e 673e aae4 0bbf 92f5 e8be
00000300: 9806 2dbe 07f5 b43d 0068 a13d 215e c93d
00000310: 9b70 033f 8f80 153f 6ae3 e8be fadc f2bd
00000320: 5c7c 90be 8778 e83d 494f 133f bb8a e73e
00000330: b53e 3dbe 4e8f 0abf 9b79 0b3f 7993 28bf
00000340: b446 163f 58ef 16bf c153 e6be ca11 20bf
00000350: 356c 38be 9e67 1b3f 2bd0 693e 61b5 fcbe
00000360: 1ed7 ecbc dcd7 1d3f bf24 d1be 94af 2abf
00000370: 0eef df3c cb24 6bbe 6ee2 22bf 9088 17bf
00000380: c624 c0be 8385 1cbe f56e 62be 79b0 4cbe
00000390: 885e 203f d928 a1be c28e 77be c4f9 463d
000003a0: eb54 02bf e7f9 adbe 815c cdbe 11f9 03bf
000003b0: d81d fcbe 583d 31bf 675c 273f da0e 80bd
000003c0: 8954 15bf e653 d9bd e7e8 b83e 2097 00bf
000003d0: 1091 b43c fac2 26bf 318e e73e ed92 063e
000003e0: 5905 1cbf facb 2d3f 8d78 603e 381f 073e
000003f0: 61b3 38bf dc4a e53d 3acc 873e 154e cf3e
-0.07357525 0.53296494 -0.7639904 0.56820416 0.26683873 -0.14730845 0.44573012 -0.53254974
-0.18736523 -0.32265186 0.47603813 0.1441448 0.2139934 -0.3404244 0.3049285 -0.26264784
-0.6436056 -0.06894147 0.63062125 0.6470092 0.0578094 0.5749882 0.12284028 -0.7039751
0.09405208 -0.4136158 -0.3327139 0.27504057 -0.17751989 -0.6553644 -0.1755358 -0.5300641
0.42119804 -0.46683288 0.63127285 -0.6828093 0.16570607 0.42999306 0.2343935 0.29625967
0.06404012 -0.03119663 0.604829 0.31294277 -0.15178823 -0.6283416 0.578308 -0.33058265
0.3907121 0.64476067 0.5616391 0.57828873 -0.01193865 -0.15073007 0.36465615 0.15696014
0.14450945 0.53161645 0.31400502 -0.043822575 0.44118962 -0.33645114 0.1973569 0.27526763
0.007724379 0.021850007 0.014132186 0.32515907 -0.70300865 -0.24609646 -0.41470724 -0.6995034
0.18008663 0.15757038 -0.20597063 0.7092227 -0.16439915 -0.4966456 -0.6321769 -0.40015012
-0.11457391 -0.62182766 -0.44516316 0.4935797 0.2960383 0.672281 -0.02364525 -0.2253835
-0.6291279 -0.49891922 -0.10180419 -0.20141788 -0.16673009 0.57381344 -0.4456165 -0.090553224
0.10881127 -0.50859034 0.0063938256 -0.56566083 -0.5212241 -0.110565096 0.010406996 0.6156766
-0.45425272 0.011632157 -0.22939089 -0.15382192 0.17977712 -0.6240115 0.5661374 0.111786835
0.30274048 0.1844301 0.108613305 -0.25535554 -0.36862335 0.3761857 0.019404791 -0.32828408
0.33619305 0.32254776 -0.13007225 -0.5181416 -0.4698534 0.05396022 0.4508239 -0.41324064
-0.107471965 -0.389335 -0.18742388 -0.10590843 -0.07648092 -0.11862349 -0.6082407 -0.0006663175
-0.15245362 0.6090486 -0.6545203 0.07116452 -0.26295802 -0.5085334 0.6504892 0.5363538
0.50406826 -0.23811355 -0.526198 -0.14329305 0.23714003 0.56501913 0.4276236 -0.4699025
0.598281 -0.17133519 0.39666405 0.5135352 -0.51431817 0.03902522 -0.60528487 -0.11506599
-0.41945273 0.2231894 0.14673628 -0.52760166 0.015860125 -0.012178795 -0.46789047 0.58477
0.046073496 -0.54048944 0.14054716 0.20262137 0.21300313 0.7324893 0.013491295 -0.09948971
-0.21749893 -0.1864606 0.15582506 0.58651084 -0.50689846 -0.6014306 0.111636914 0.08974261
0.4813044 0.25360078 -0.08384152 0.34193444 0.3829942 0.22564274 -0.5464579 -0.45499855
-0.16897047 0.08835798 0.078811646 0.09832407 0.513437 0.5839929 -0.45486003 -0.11858554
-0.2821988 0.11351114 0.57542855 0.4522303 -0.18480952 -0.54124916 0.5448243 -0.65850025
0.58701634 -0.5895896 -0.44985774 -0.62527144 -0.18010028 0.6070498 0.22833316 -0.4935713
-0.02891117 0.616575 -0.40848348 -0.6667416 0.02733567 -0.22963254 -0.63626754 -0.5919275
-0.37528056 -0.15285306 -0.22112639 -0.19989194 0.62644243 -0.31476477 -0.24175552 0.04857804
-0.50910825 -0.33979723 -0.40109637 -0.5155192 -0.4924152 -0.6923423 0.6537537 -0.06252833
-0.58332115 -0.106117055 0.3611519 -0.502306 0.022041827 -0.6514126 0.4522567 0.13141985
-0.6094566 0.6788937 0.21920986 0.13195503 -0.7214871 0.11195919 0.26523 0.4048926

stack.2.weight f4 [256, 256]
00000000: 9107 8e3b 7756 a7bb e58c 8d3d 0495 4abd
00000010: ec35 b93d d9f2 ce3d a74d 1b3d e001 e3bc
00000020: 2dff 3a3d f0b2 7f3e 9489 f43c 1aaa b9bd
00000030: 1ccc 0abe 988c 8a3d f3d5 93bc 776a dcbb
00000040: e2d9 753d d2ca 4a3d d4d6 613d 154c 21bd
00000050: 99c0 153d ff04 ef3c 0029 233d 4614 71bc
00000060: b2b6 b43c c0e8 523d f573 f5bd 0695 673b
00000070: 973d 193e 413b 8a3c 6e40 35bd 477c 043d
00000080: 369a 683d 9a17 903d c123 6cbd 590f 443e
00000090: 3d25 17be 35fb 6d3d d094 c5bb f28c d23c
000000a0: 08c2 2d3d 86a3 24bd f097 1b3d 54b4 94bc
000000b0: 792d 81bb f7ee 85bd ee75 29bd f8ee 8f3c
000000c0: 2e67 17bc 2097 51bd 9ac1 debd 373d b0bc
000000d0: b4de ef3c de3a 013c a04f 41bd 6e6b 47bd
000000e0: eb9d efbc 7bc6 29bd 6a1e 813b 9055 b63c
000000f0: 588f 98bc 5878 a43d 045f 68bd 8453 4a3c
00000100: fb72 9cbd 67ea c73e 85f7 96bd 857b 593d
00000110: 8f4e ce3d 6b02 8d3d 342a 023d 9919 143d
00000120: e7c5 6b3d 80cf 0e3b 9882 bfbe 87aa 29bd
00000130: ff3e a3bc 6d5d d83d 17d1 513d a33a 3e3d
00000140: 676c 413c cd73 813c 94e9 683c ea56 cabc
00000150: 9e53 acbc 69aa 14bc a13f 893c f883 2c3d
00000160: 75cd f83c 5bcd 7f3d d07d ab3b b0d4 b53c
00000170: 7c70 c13c eac5 e9bd 9170 2e3d 54f6 3ebc
00000180: b687 533e c46c efbb aa6a 693d 5525 e53c
00000190: eab1 783d 1ce8 52bd 80cd eebc c07c 3abc
000001a0: 29b1 af3d 6b16 64bd 1c57 8cbc 694b 20bd
000001b0: 5a99 72bd c824 803d 4248 2a3d b01a 8bbe
000001c0: 8af3 933d c502 d33c b888 833c ce04 c13e
000001d0: 818c 11be 0076 423d caa1 633d 0318 b23c
000001e0: 8417 0c3e c939 ec3d 8453 a73c a909 763d
000001f0: 6df7 d83c ad85 87bd 6d0f cfbe 6eab 8a3d
00000200: b054 f33c 9330 0f3e 186a 5e3d 9f5d 12be
00000210: 50cd 063d 5092 41bc f0b3 2abc 93a7 6ebd
00000220: 38e0 813c 36c5 8d3d afa2 d83d 28bf af3d
00000230: d5d0 b93d 4ff7 18bd 7ac9 1c3d b02f 4ebc
00000240: 3a6b 493d e70e 643d 22e6 ec3d d30d 8cbd
00000250: 3cc2 6f3b 1e54 633d 07db b6bc f826 a13b
00000260: 0f51 f2bc 9e12 7c3d c123 83bc 645c e13b
00000270: 93d0 2cbd 6b56 283e 1a91 873d ce6e 3abd
00000280: f773 88bd 2bb7 1abd 5bfe 75bd 1577 4dbc
00000290: 366b 42bd 35c1 6c3d fef8 f53d 461f 2c3c
000002a0: 03d4 2ebe 0429 993c 56d0 05bd 23f4 7abd
000002b0: 28cf d5bb 0a5a 7ebc 50ce 6e3c bacc 60bd
000002c0: 20f6 2f3d 793a 873d 0e98 433d e2e7 a5bd
000002d0: 9eec 2c3d 8064 473b 5534 6ebd 3e17 d4bd
000002e0: 735d 97bd 3b39 1e3c b410 7abd 38e3 0abc
000002f0: b764 74bd 4d96 46be 8f97 00bd 28e6 ea3c
00000300: d856 ea3c 8d17 82bd caee 22bc ec58 75bd
00000310: e2d1 1dbc 94e4 b23c 8733 85bd a87b 97bb
00000320: 724e b33e 441a a8bc b465 913d 568a eebb
00000330: cff0 0dbd 151e 5fbd 6c9e 8ebd 2b91 013d
00000340: b81d 69bd 936d a1bd c1c0 e3bc 52e2 473d
00000350: b1c0 863c 19cc a33b 729f febc d356 963c
00000360: 6a51 c4bc 82ba 77bc 5a60 69be 7d98 b73c
00000370: 2ebd fabc 29bb 13bd 88d0 a03d af20 783c
00000380: d39d b7bb be6e b83d 8828 80bb b11b d53d
00000390: 5e9e 473c cf6b aa39 f8b7 84bc 447e af3b
000003a0: 45de 0fbd a20e 59bd e13c 4abd 0713 66bd
000003b0: 0a19 1b3d 7deb 97bc e165 39bc 48d3 01bc
000003c0: c7ce afbb a442 293d ffe4 8b3b 39f6 c1bc
000003d0: 9484 93be ae41 cc3b 0ad4 88bd b01a ddbc
000003e0: 79b5 df3c 5c9f 373c 6ff7 2dbc f975 0bbd
000003f0: f580 cbbc 1e09 6cbe f85d 303c ec53 fdbc
0.004334398 -0.005106743 0.06911639 -0.04945852 0.09043488 0.10104913 0.037915852 -0.027710855
0.04565351 0.24970603 0.029850759 -0.090656474 -0.13554424 0.067650974 -0.018046355 -0.006726559
0.060022242 0.04950983 0.055136517 -0.039379198 0.03656063 0.029177187 0.039834023 -0.014714306
0.022059772 0.0514915 -0.11985008 0.0035336628 0.14964901 0.016873958 -0.044250898 0.032345083
0.056787692 0.07035752 -0.057651285 0.1914648 -0.14760299 0.058100898 -0.0060297027 0.025701974
0.04242137 -0.04019501 0.037986696 -0.018152393 -0.0039421883 -0.065397196 -0.041372232 0.017570004
-0.009240909 -0.051169515 -0.1087677 -0.021513565 0.029280998 0.00788757 -0.047195077 -0.048686437
-0.029250106 -0.04144905 0.003940393 0.022257596 -0.01862304 0.08030766 -0.05673124 0.012349013
-0.07639118 0.39046022 -0.07371429 0.053096313 0.100735776 0.06885227 0.03177853 0.036157224
0.05756178 0.002179116 -0.37404323 -0.041422393 -0.0199275 0.105646946 0.051224794 0.04644264
0.01180563 0.015802288 0.014215846 -0.024699647 -0.021035966 -0.009073832 0.016753973 0.042118043
0.030371407 0.0624517 0.005233504 0.022196144 0.023613207 -0.11414702 0.04258782 -0.011655409
0.20657238 -0.007306667 0.05698649 0.027971903 0.060716547 -0.051490888 -0.029150724 -0.011382282
0.085787125 -0.055685442 -0.01713138 -0.039134417 -0.05922828 0.062570155 0.041572817 -0.27168798
0.07224186 0.025758157 0.016056404 0.37698978 -0.14213754 0.047475815 0.055574216 0.021739965
0.13680845 0.11534459 0.020425566 0.060067806 0.02648517 -0.066172935 -0.40441456 0.06770979
0.029703468 0.13983373 0.054300398 -0.14293526 0.032910645 -0.011814669 -0.010418877 -0.05826528
0.015853986 0.069223806 0.105779044 0.08581382 0.09073035 -0.037345227 0.03827808 -0.012584612
0.049174525 0.055678274 0.11567332 -0.06838574 0.0036584279 0.055500142 -0.022321237 0.0049179755
-0.029579667 0.061541192 -0.01600826 0.006877469 -0.0421911 0.16439216 0.06619473 -0.045515828
-0.066627435 -0.03777234 -0.060057025 -0.012540598 -0.047465526 0.057801444 0.12010382 0.010505503
-0.17073064 0.018696316 -0.032669388 -0.061267983 -0.006524939 -0.015524397 0.014575556 -0.054882742
0.042959332 0.0660295 0.047752433 -0.08100869 0.042217843 0.0030424893 -0.058155376 -0.103559956
-0.07390871 0.0096571995 -0.061051086 -0.008477025 -0.05966636 -0.19393273 -0.031394538 0.0286742
0.028605863 -0.06352148 -0.009944627 -0.059899256 -0.0096325595 0.02183751 -0.06503969 -0.0046228953
0.35020787 -0.020520337 0.070994765 -0.0072796745 -0.03465348 -0.054472048 -0.0696381 0.031632584
-0.056913108 -0.07882228 -0.027801873 0.04879982 0.016449304 0.0049986956 -0.031081889 0.018351948
-0.023964603 -0.0151201505 -0.22790661 0.02241158 -0.030607786 -0.03606716 0.07852274 0.015144511
-0.005603531 0.090054974 -0.0039110817 0.10405672 0.012183754 0.0003250525 -0.016201004 0.005355628
-0.035124082 -0.05299247 -0.049374465 -0.05617049 0.037865676 -0.018544907 -0.011315794 -0.0079239085
-0.005365226 0.04132332 0.004269242 -0.023676978 -0.28812087 0.0062334156 -0.06681068 -0.026990265
0.027308213 0.011207428 -0.010618075 -0.034048054 -0.024841765 -0.23050353 0.010764591 -0.030923806

stack.2.bias f4 [256]
00000000: 5ef5 c6be 68c9 e6bc 5ad6 debe 27a3 c23e
00000010: a85a 743c ddbb 103d 766d e83c f570 313d
00000020: f360 2cbd 42e0 bb3e e164 ad3e 0968 1dbd
00000030: 9109 06bf fe0a 413c e8ee 02bf d43c 0abc
00000040: a758 dfb9 1e6b 7dbc 1fa6 3f3b 673e f2bc
00000050: cd6b bf3e 395a d1be 4e00 df3e dda2 e7be
00000060: 502d 963e 57dc 12bc 8228 f7be 865d c63e
00000070: a239 e6be 27c5 97bc 5326 ad3e c59d b53e
00000080: ec41 0dbf 9e87 e7ba fc49 ea3e e556 94bd
00000090: 68bb d53e d914 32bc d515 5fbd b7d8 d5bd
000000a0: 0f2a 193d 8dfa e9be 95cb e93e 1465 a9be
000000b0: 110a e2be d30f 8f3c adf0 70bb 0f6f e13e
000000c0: fb30 dcbe 1d61 b0be cd5a b8be 3c3c d4bc
000000d0: e90a b03e c042 e53e 0062 8b3e 1d52 3f3c
000000e0: 9b35 8cbc 88a5 ef3e ed67 4cbd 07bb cc3e
000000f0: 8e79 51bd 8e85 fbbe 5418 f43c c3ea 983e
00000100: 9a0a ebbe 3088 ab3e 81b5 dcbe 0d24 b03c
00000110: f8bc a5bc 940b 423d edd6 7f3e f79d c63e
00000120: a1d0 b1be 7e00 9cbd 1b17 0bbf 7afe f6be
00000130: 655e da3e 272a d3be 4b70 dc3e 4b24 e63e
00000140: 3706 b5be af9a a43e ffc7 df3c 1153 cebe
00000150: 39f3 183d 5789 7f3e a1a2 e5be 6234 02bf
00000160: 5e2b 42be b4b3 753e e3ab b4bb 89ba 13bd
00000170: 00ba ae39 ae55 e3be ed5c edbe 1577 42bd
00000180: 7e06 c33e 1efa ec3e 7e4e fbbb 8bb1 e4be
00000190: 6427 ad3e a92b 20bd 2321 b6be bff8 86bd
000001a0: 9d45 dfbe 418a f03e e413 b6be ef8a d0be
000001b0: 27c6 f13e f196 b8be 512e 443d c056 d63e
000001c0: fa7a c03e 9fa3 e53e ecac d8bd 7884 bb3e
000001d0: 3459 d93e 2793 0ebf e16f 00bf 2990 67bd
000001e0: 15ff e83e ee73 e43c 0fbf d83e 90b1 cf3e
000001f0: 25f5 21bc 2738 133b 9980 d33e 2ea3 833e
00000200: 4b9b b13c fc89 a1be ba1d c6be e695 fd3c
00000210: ceb7 e73e d5f1 883b bcc5 dd3c 50c9 01bf
00000220: 4d80 903a 9599 d73e 6d25 e6bb 2bf6 b53e
00000230: ef0e 44bd 002c e138 e95a dfbe f2a0 8a3c
00000240: 3088 e8be e603 843e ef40 c8be 22f4 9abc
00000250: 060e cabb d5a4 bc3e 15e5 903e 4b66 92bc
00000260: 0bd4 bcbe d53a 2ebc 02b6 b6be 463a a5be
00000270: e11e ef3e 887f eabe 80ee d73e e467 08bc
00000280: 3eac 4cbd a380 ed3e feb5 0dbf 7ca3 debe
00000290: 242f ca3e 0a3c cd3e a0fb d5be 7fab efbe
000002a0: ae82 c03e 4126 2b3d fafd ca3e d6f3 e93e
000002b0: 730b e1be d540 d1be 4ec7 90bd f55d b2be
000002c0: 5531 afbc e608 cfbe 8a14 94bc d2d6 863c
000002d0: 829b d93e 95bf 383d 82f7 aabe 12a1 24bd
000002e0: e229 473b 5eb7 cc3e 5fa1 f8be c045 06bf
000002f0: 9425 97bd b5ed 1abd 9122 acb9 c429 45bd
00000300: dca9 b7be f71b 943c 344e b53e 4ba8 a93e
00000310: 870a b2be 5319 95ba 6495 a2bc c92c 983e
00000320: 0166 613c b4c1 7fbd eec0 713c ff3e d2be
00000330: aa0c 22bd a1ad 263d adb7 c63e d771 69bd
00000340: fcf0 a93e 0d21 03bd 26c3 83bc d7ca fb3c
00000350: 5737 c23e f465 d1be 052e d7be 3e10 77bd
00000360: b41f 90bd 9edd d13e bc52 b7be 0656 a43e
00000370: d603 e5be 7e0a cb3e aa8e ca3e 5a32 25bd
00000380: 9513 c73e 8daf 98be 8c3c a8be 2352 3c3d
00000390: a7be 68bd 2c0b cc3e 552d c5be 2780 babe
000003a0: 7c62 be3e 90cb c7be 1299 dabc aae1 e1be
000003b0: d7f4 173c 4fe0 d53c 2fec 9cbc ff38 c93e
000003c0: c4b9 e3be 58ef d3be e4a4 e43e 6fec 193d
000003d0: 584f 0cbf d752 e63e a6f6 cabe fd32 6abd
000003e0: 8929 7fbd 8c83 c73e 3dd8 a73e 15ea 53bd
000003f0: 29df bebe 034f acbe e9fd dcbe 3ac6 963e
-0.38859075 -0.02817221 -0.43522912 0.380151 0.014914192 0.03533541 0.028372508 0.043320615
-0.042084645 0.36694533 0.33866027 -0.038429294 -0.5235835 0.011782406 -0.5114579 -0.008437354
-0.00042599926 -0.015467433 0.0029243303 -0.029570771 0.37386933 -0.40889147 0.4355492 -0.45241442
0.29331446 -0.008963666 -0.48273093 0.38743228 -0.44965845 -0.018526627 0.33818302 0.3547193
-0.55178714 -0.0017664318 0.4575957 -0.07243136 0.41744542 -0.010869228 -0.05446418 -0.10441726
0.037393626 -0.45698968 0.45663133 -0.3308493 -0.44148305 0.0174636 -0.0036764548 0.44030043
-0.4300612 -0.34449092 -0.36006775 -0.025907628 0.34383324 0.4477749 0.27223206 0.011677292
-0.017115405 0.46805978 -0.0499038 0.3998644 -0.051141314 -0.49125332 0.029796757 0.2986661
-0.45906526 0.3350234 -0.43107226 0.021501565 -0.020231709 0.047374323 0.24984331 0.38792393
-0.34729484 -0.076172814 -0.5433213 -0.48241025 0.42650142 -0.41243097 0.43054423 0.44949564
-0.35356304 0.32149264 0.027317045 -0.4029775 0.03734133 0.24954735 -0.44850639 -0.5086118
-0.18961856 0.23994333 -0.0055136546 -0.036066566 0.00033326447 -0.44401306 -0.4635996 -0.047476847
0.3809089 0.46284574 -0.007669269 -0.44666705 0.33819115 -0.039104138 -0.35572156 -0.06590413
-0.43607798 0.4698048 -0.3556205 -0.40730998 0.4722149 -0.3605266 0.047895733 0.4186306
0.37593824 0.44851395 -0.10579857 0.36624503 0.4245087 -0.55693287 -0.50170714 -0.056533966
0.45507112 0.02788731 0.42333266 0.40565157 -0.009885107 0.002246389 0.4130905 0.25710434
0.021680495 -0.31550586 -0.38694555 0.030955266 0.4525742 0.0041792192 0.027071826 -0.50697803
0.0011024565 0.4210936 -0.0070235045 0.35539374 -0.047865804 0.00010737032 -0.43624046 0.016922448
-0.45416403 0.25784224 -0.3911204 -0.01891524 -0.0061662225 0.36844507 0.28299776 -0.017871043
-0.36880526 -0.010634144 -0.35685736 -0.32271022 0.46703246 -0.45800424 0.4217415 -0.008325551
-0.04996895 0.46387205 -0.55355823 -0.43484104 0.3948909 0.4008487 -0.41793537 -0.4681053
0.375997 0.04178453 0.39646894 0.45693845 -0.43954048 -0.40869775 -0.07069264 -0.3483731
-0.021385828 -0.40436476 -0.0180762 0.016459856 0.42501456 0.045104582 -0.33391958 -0.04019267
0.0030389954 0.39983648 -0.48560616 -0.5245018 -0.07380214 -0.03782435 -0.0003283215 -0.048135534
-0.3587178 0.01807974 0.35411227 0.3313621 -0.34773657 -0.0011375345 -0.019846626 0.29721668
0.01375723 -0.06244059 0.014755471 -0.41063687 -0.03956286 0.04069293 0.38812009 -0.05699333
0.3319167 -0.03201394 -0.016084265 0.03073637 0.37932846 -0.40898097 -0.42027298 -0.060318224
-0.07037297 0.40989393 -0.3580531 0.3209688 -0.4472949 0.39656442 0.3956197 -0.040331222
0.38882127 -0.29821435 -0.32858694 0.04597677 -0.056822445 0.39852273 -0.38511148 -0.36425897
0.37184513 -0.39022493 -0.026684318 -0.4411748 0.009274683 0.026107935 -0.01915559 0.39301297
-0.44477665 -0.41393542 0.44657052 0.037578996 -0.5480857 0.44985077 -0.39641303 -0.057177532
-0.06229547 0.3896755 0.32782164 -0.05173691 -0.37279633 -0.3365403 -0.43162468 0.2944811

stack.4.weight f4 [1, 256]
00000000: b5f5 343c bcd9 2fbc a280 183d d366 62bc
00000010: 1a21 efbc 7f40 463d 919b 08bd f3c0 b33b
00000020: 3935 563b 2b37 a7bc b3a7 98bc 174d eebb
00000030: 8d48 7d3e 7b40 39bc 2cc2 463e aaee cebc
00000040: f56a 8d3a f614 a83a 0ee5 a4b9 1872 903c
00000050: 3670 15be aeb7 663d 0796 42bd 90c3 393d
00000060: 9366 cbba cb79 a4bb 706d 1b3e eaae a6bd
00000070: 5b52 703e c0f5 82bc f381 1ebe 5bef 673e
00000080: b950 833e d328 973b 827f 47bd aeed 1bba
00000090: ba2d ffbc 22b1 aabb 77e3 dc3c 7545 553e
000000a0: b3b5 243d a757 8b3d d719 81bd c3b1 ec38
000000b0: 22a7 543c 4421 2c39 3a30 26bb 5fbd 08bd
000000c0: d322 053c 1358 3d3d 5845 033d 5b11 13bd
000000d0: 5d37 5cbd 3ed1 18bd d124 6cbf 5f12 09bd
000000e0: dbd6 e93c 713d acbd 51d2 c03a b99c 03bc
000000f0: d6d8 1d3c 45d7 033e cb20 0ebd 9fc6 2abd
00000100: 0785 c23c c915 d03e 7d15 9a3c 3dfc de3c
00000110: 8a09 40bd a19a c53a 7671 b9ba 1ac0 3cbd
00000120: b4b5 1b3b 3b10 debb 6086 283e f754 133e
00000130: cef2 7dbd 7774 6d3c 37bf d9bc eb76 9dbc
00000140: acb5 b2be 1cc7 8abd 9c8d c7bb 8bd8 9f3c
00000150: b389 093d 64b8 1aba 71e6 433e 0e82 423e
00000160: 0da5 4c3b ae44 ccbe 1ed5 d43a 77c5 8d3c
00000170: f407 443d 1376 5a3d 1e67 4f3e 5538 44bd
00000180: aaeb 33bd 0105 01be 3b0b cdbb 2db5 893c
00000190: 111e 953f 812c 82bc 6ab5 643c 2d70 c23c
000001a0: 06cd 7e3d 6e84 83bd daec 7f3a 7eeb 813e
000001b0: 9690 3ebd 6d88 283d f3d1 1ebd d8a1 80bd
000001c0: 5b95 7cbb 4453 b5bd 476c 8b3e 6bd2 15be
000001d0: e902 c4bc 5211 763e b46b 313e 608f 2bbd
000001e0: d7e6 c6be b4e1 19bd 612c dcbc 8936 fcbb
000001f0: b6af 0fbc ae44 da3c ec85 9cbd 0545 d1ba
00000200: cd43 8c3c 2c7e 8dba a9a6 093d 9083 d2bb
00000210: e8a8 95bd 2b15 2bbb 4ccc 7ebd 1db8 1a3e
00000220: c72b 143c 5d95 b8bd 0620 ce3b 2df7 28bd
00000230: 6a96 48bb 1c6a 5bbc 6752 163f 32ef edbc
00000240: 37d0 2d3d e3a9 0e3b bf66 473d bcf5 8f3c
00000250: 711f 473d 367e d2bd 54ae c0bd d446 3e3c
00000260: ed08 453a 224d ab3b 5a2a 523d a16a cdbe
00000270: d64c 48bd 1d4b 8c3e 2221 f0bc e801 913c
00000280: 3a44 cdbc cdf3 79bd 0336 7c3e f1d1 1f3d
00000290: ee06 b8bc db91 a1bc 7b7c 0a3d 4218 943c
000002a0: 60b6 3e3b e88c cdbb ca30 6fbb 220d daba
000002b0: b96e a53d 6068 263d c9e8 24bc f6f5 493d
000002c0: 2f48 583d 1c09 f43c 9ce3 683d 4c8e 29bd
000002d0: 5580 40bd ee4a d0bb e790 993c 6576 36bc
000002e0: 9291 9d3c 8be1 6d3b 0254 293e c2d6 cd3e
000002f0: 19e1 f5bb b237 2cbd 29a3 aebc da3e ffba
00000300: 4845 0c3a 19d6 06bd a47e 8fbd 6396 b8bd
00000310: a8ce 673d 321f 063c 9904 353d f808 dcbb
00000320: 644c 2dbd b0bf c33c f8b5 8bbb 8068 4d3d
00000330: 0b78 1bbd 945d dc3b 8ed8 1cbd ea95 043d
00000340: 780f afbd 1f31 0a3d 0e25 10bc 0655 26bd
00000350: b2cb 00bc 0102 a9be 4109 ef3c afc9 80bc
00000360: c692 fcbc 2943 f4bb 7a9b 393d 8d54 1bbf
00000370: 0884 173d 83b7 bcbc da40 70bd 7325 b9bc
00000380: b601 89bd 4657 07bf 27b5 4e3f 67e0 99bc
00000390: b60b 193d 3a30 b0bd f0e2 203c 9ecb 8f3b
000003a0: 0e87 84bc a424 053e b3b1 14bd 0f3a 6d3d
000003b0: c57c 6ebb f66f 5f39 7601 413d a6b3 f0bc
000003c0: 11d0 103e f08e 493d 16e3 19bd fc46 203b
000003d0: 74f0 483e 0dd3 e7bc 3744 773d 8afa 17bd
000003e0: 7839 40bd eeb6 26bc b4c7 713a ca99 d4bc
000003f0: ce75 753d 6c14 373d 03d2 863e 8f80 a13c
0.011044909 -0.010733064 0.03723205 -0.0138184605 -0.029190589 0.048401352 -0.033351485 0.005485648
0.0032685532 -0.020412048 -0.018634653 -0.0072723734 0.24734707 -0.011306877 0.19410008 -0.025260288
0.0010789322 0.001282363 -0.00031451177 0.01763253 -0.14593586 0.056327514 -0.04750636 0.04535252
-0.001551824 -0.0050194017 0.15178466 -0.08138831 0.23468916 -0.015986323 -0.15479259 0.226499
0.25647524 0.004613021 -0.048705585 -0.0005948198 -0.031149734 -0.005209104 0.026963932 0.20827277
0.040212344 0.06803828 -0.06303757 0.000112864676 0.012979301 0.0001641559 -0.0025358335 -0.033383723
0.0081259785 0.046226572 0.032048553 -0.035905223 -0.053763736 -0.037308924 -0.9224368 -0.033464786
0.028544834 -0.084101565 0.0014711117 -0.008032971 0.009634217 0.12875088 -0.034699243 -0.041693326
0.023745073 0.4064162 0.018809075 0.027219886 -0.046884097 0.001507599 -0.0014148194 -0.04608164
0.0023759427 -0.006776837 0.1645751 0.1438788 -0.061999135 0.014493099 -0.026580436 -0.019221744
-0.3490423 -0.06776258 -0.006089879 0.019512435 0.033578586 -0.000590211 0.19130875 0.18994924
0.0031226308 -0.39896148 0.001623783 0.017306073 0.047859147 0.05333526 0.2025418 -0.047905285
-0.04392592 -0.12599565 -0.0062574423 0.016810024 1.16498 -0.015890362 0.013959268 0.02373513
0.062207244 -0.06421743 0.00097627717 0.2537498 -0.046524607 0.04114573 -0.038774442 -0.06280869
-0.0038541171 -0.08853772 0.27231047 -0.1463105 -0.023927169 0.24030045 0.17326242 -0.04188478
-0.38847992 -0.037568763 -0.02687663 -0.007696931 -0.00876992 0.026644077 -0.07642731 -0.0015966004
0.017122174 -0.0010795048 0.033606205 -0.006424375 -0.07307607 -0.0026105146 -0.06220655 0.15109296
0.00904364 -0.09012864 0.0062904386 -0.04125135 -0.0030607232 -0.013391998 0.58719486 -0.029044721
0.042434897 0.002176874 0.04868197 0.01757323 0.04861397 -0.10277979 -0.094082505 0.011613566
0.00075162837 0.005227701 0.05130992 -0.40120414 -0.0489014 0.27401057 -0.029312674 0.017701104
-0.025056947 -0.061023522 0.24629979 0.039018575 -0.022464242 -0.01972287 0.03381012 0.018077973
0.0029100403 -0.006272901 -0.0036497586 -0.0016635994 0.08077759 0.040626884 -0.010065266 0.049306832
0.052803215 0.0297895 0.05685769 -0.04139547 -0.046997387 -0.0063565886 0.018745853 -0.011136626
0.019234452 0.0036297764 0.16535953 0.4020291 -0.0075036404 -0.042045303 -0.021318035 -0.0019473687
0.00053509 -0.032919023 -0.07006577 -0.09013059 0.056593567 0.0081861485 0.044193838 -0.0067149363
-0.04230918 0.023895115 -0.0042636357 0.050148487 -0.03795628 0.0067250226 -0.03829246 0.03236953
-0.08547872 0.03373825 -0.008797897 -0.04060843 -0.007861065 -0.3300934 0.029179217 -0.01572117
-0.030831706 -0.007454295 0.04531429 -0.6067589 0.03699115 -0.023036724 -0.058655597 -0.022600865
-0.066897795 -0.52867544 0.80745167 -0.018783761 0.037364684 -0.086029485 0.009819731 0.0043882867
-0.01617768 0.13002259 -0.03630228 0.057916697 -0.0036390286 0.00021308646 0.047120534 -0.029382538
0.14141871 0.04920858 -0.03757008 0.0024456372 0.19622976 -0.028298879 0.06036779 -0.037104167
-0.046929806 -0.01017545 0.00092231785 -0.025952239 0.0599268 0.04469721 0.263321 0.019714622

exp_avg f4 [256, 17]
00000000: 0400 0000 0400 0000 0400 0000 0400 0000
00000010: 0000 0000 0400 0000 0400 0000 0400 0000
00000020: 0400 0000 0400 0000 0400 0000 0400 0000
00000030: 0400 0000 0400 0000 0400 0000 0400 0000
00000040: 0400 0000 b63f 4cbc 4949 29bc 6346 ecba
00000050: 6e72 80bb cae6 c6bb c662 07bc baf3 3fbc
00000060: f40a 27bc 28ae 25bc 4cb5 23bc bb73 21bc
00000070: 50bb 0dbc fb30 8fba b97a 8bba 5874 81ba
00000080: 2b6f 82ba 977d 3aba c938 603d 8123 0f3d
00000090: 6c4f 3c3c e8bf 873c f9a2 ec3c ef29 ef3c
000000a0: fbf4 4b3d dc1e 0e3d b4eb 0c3d 7abb 0a3d
000000b0: 5302 0a3d 3d11 093d c394 863b 035a 823b
000000c0: 722e 5e3b fd53 6f3b b1f2 5f3b 46cd 0cbd
000000d0: 796d ffbc 8fbf bfbb 85df 30bc 247d 93bc
000000e0: e437 b5bc 816f 03bd e63e fcbc bb4f f7bc
000000f0: 417e ecbc b507 dbbc 5225 babc bcbf 56bb
00000100: 831e 41bb 1ac3 1dbb 36e9 11bb d589 1cbb
00000110: fb32 79bc af04 fdbb 64ba 70ba 97ee 99bb
00000120: 1615 eebb 6eb8 2bbc 7cb5 5fbc 777e febb
00000130: c329 07bc 5931 1dbc 57ef 41bc e586 61bc
00000140: 8f46 22ba ec44 62ba 3eb7 acba d214 c9ba
00000150: 440c 60b9 23c4 e63a d44d 153b bfa8 ed39
00000160: 29ba 893a dc2a 573a 115e 593b e828 853a
00000170: dcbb 1d3b bebb 123b fb49 ff3a ad3c 213b
00000180: ac93 143a a75e 9139 3524 5139 5928 cd37
00000190: b4f9 14b8 8c71 05b8 8a28 89bc 65b2 c1bc
000001a0: 42d0 57bb 4c81 adbb b4d4 10bc 1a87 5cbc
000001b0: 4b06 6abc bb06 bebc 2ef3 b9bc 6561 adbc
000001c0: 920c 9cbc bdc6 66bc a006 16bb 0a6d 03bb
000001d0: 9a54 c4ba c244 a5ba 8dd1 d9ba 85e4 ae3b
000001e0: 652a a23b af76 313b 20de a63a 72c1 f13a
000001f0: 4652 913a 4f7d 8d3b 1069 a03b 33d7 a33b
00000200: 1294 a93b 7777 cc3b 8f9b 063c 72cf 273a
00000210: da35 283a 628a 2a3a 563e 783a 2075 c739
00000220: 2ef3 7cbc 6b93 89bc ad4e eeba a007 99bb
00000230: 7cdd 01bc 6ab3 34bc 28cd 68bc 8e7b 89bc
00000240: 38c2 87bc 063f 81bc c193 5fbc cf79 45bc
00000250: bcd2 e0ba 9d71 cdba 5fec 90ba 363b f3b9
00000260: 06f1 0aba 2c02 243c c46e e23c 0f67 a13a
00000270: fc6f 243b b10a d73b f5c5 c53b f9f9 233c
00000280: 0165 da3c dee6 d93c f464 da3c 90ff be3c
00000290: 3e06 d03c a78c 203b 7011 1e3b 414b 223b
000002a0: 2bd4 003b 1202 0b3b 2d10 86bb 2e5a 05bc
000002b0: 4fa9 8eba b5d8 ceba ed6a 1ebb 9977 38bb
000002c0: 5be0 66bb c352 02bc 6a63 fdbb 6fa0 e9bb
000002d0: da87 ccbb 4eb8 92bb 2e4b 46ba d0d1 2aba
000002e0: 0496 f5b9 3478 f2b9 443d 5bba 579b a1bc
000002f0: f70c 1cbd a026 63bb 0bcf e3bb a8e5 37bc
00000300: e4dd 59bc 52a6 9ebc 81a9 18bd f6c5 13bd
00000310: 29ea 07bd 1876 e4bc 1f73 c1bc 045b 7abb
00000320: 77b4 52bb fe13 20bb 4dc5 e7ba 5a94 48bb
00000330: c555 9bb9 a93c 2cbb 0400 0000 0400 0000
00000340: cf7d 3837 0400 0000 c555 9bb9 0f72 17bb
00000350: 0f72 17bb 0f72 17bb 86ea 17bb 86ea 17bb
00000360: 3d23 1bb9 3d23 1bb9 3d23 1bb9 c49b 1db9
00000370: c49b 1db9 89cf 053d 3b66 b83c 1b5b c73b
00000380: 6dc1 213c 42ed 7c3c 04e1 9f3c 61cb f83c
00000390: ace7 b73c 50ad b63c 1498 b93c 4538 bb3c
000003a0: a469 c73c 69a8 1a3b 2fea 123b 145e 173b
000003b0: 4d64 283b d5bd 2a3b e64b 03bd 30df 36bd
000003c0: 2e86 98bb cafc 32bc 335f 8bbc 63a3 babc
000003d0: 2f84 fabc ba6b 34bd e8e4 2fbd a2c0 21bd
000003e0: f76c 06bd b5b7 9bbc 2b12 a6bb 7a13 93bb
000003f0: a838 54bb 4224 0fbb 8019 24bb be39 0f3d
6e-45 6e-45 6e-45 6e-45 0.0 6e-45 6e-45 6e-45
6e-45 6e-45 6e-45 6e-45 6e-45 6e-45 6e-45 6e-45
6e-45 -0.012466362 -0.010332414 -0.0018026348 -0.003919891 -0.0060699927 -0.0082632955 -0.011715824
-0.0101954825 -0.010112323 -0.009991955 -0.009854252 -0.008650616 -0.0010924631 -0.0010641433 -0.0009876592
-0.0009951344 -0.0007114051 0.054741655 0.03494597 0.011493545 0.016571 0.028886305 0.0291948
0.04979418 0.0346974 0.03440447 0.033870198 0.033693623 0.033463705 0.0041070892 0.0039780154
0.0033902195 0.0036518567 0.0034171755 -0.03437545 -0.03118013 -0.005851693 -0.010795479 -0.018004008
-0.022121377 -0.03208876 -0.030791711 -0.030189386 -0.028868796 -0.026737073 -0.022722874 -0.0032768091
-0.002946765 -0.0024072588 -0.0022264249 -0.0023885865 -0.015209909 -0.0077215056 -0.0009183048 -0.0046976316
-0.0072656972 -0.010480983 -0.013654109 -0.0077665406 -0.008249703 -0.009594285 -0.011836848 -0.0137650715
-0.00061903236 -0.0008631486 -0.0013177169 -0.0015341288 -0.00021366874 0.0017606061 0.0022781985 0.00045329888
0.001050775 0.00082079857 0.003316764 0.0010159286 0.0024068272 0.0022389735 0.0019477004 0.0024602816
0.0005667757 0.00027727077 0.00019945281 2.4456693e-05 -3.5518504e-05 -3.181542e-05 -0.016742963 -0.023644635
-0.0032930528 -0.0052949544 -0.008839775 -0.013459945 -0.014283727 -0.023196569 -0.022698965 -0.021164605
-0.019048963 -0.014085469 -0.0022892132 -0.0020054006 -0.0014978827 -0.0012608992 -0.0016618237 0.0053373002
0.0049489015 0.0027078798 0.0012730993 0.0018444492 0.0011087141 0.0043179165 0.004895337 0.005000019
0.005175122 0.0062398273 0.008215799 0.0006401456 0.0006416716 0.0006505606 0.0009469738 0.00038043503
-0.015438838 -0.016793927 -0.0018181406 -0.0046700984 -0.007926341 -0.011029104 -0.014209069 -0.016782548
-0.016572103 -0.015777122 -0.013646067 -0.012052967 -0.0017152647 -0.0015674118 -0.0011056772 -0.00046392687
-0.00053001975 0.010010283 0.027640708 0.0012314039 0.0025091162 0.006562554 0.006035561 0.010008329
0.02665949 0.026599344 0.026659466 0.023315221 0.025393602 0.0024497898 0.002411928 0.0024764093
0.0019657712 0.002121095 -0.004091284 -0.008139176 -0.0010884198 -0.0015781136 -0.002417262 -0.0028147458
-0.003522894 -0.007954302 -0.0077327983 -0.007129721 -0.0062417807 -0.0044775372 -0.0007564303 -0.000651625
-0.00046841812 -0.00046247395 -0.00083633163 -0.019727392 -0.0380983 -0.0034660473 -0.0069521717 -0.011224188
-0.013297532 -0.019366417 -0.037271027 -0.036077462 -0.033182297 -0.027888343 -0.023614464 -0.0038201222
-0.0032151022 -0.0024425979 -0.0017682702 -0.0030606003 -0.00029627807 -0.0026281273 6e-45 6e-45
1.0996547e-05 6e-45 -0.00029627807 -0.0023108756 -0.0023108756 -0.0023108756 -0.0023180558 -0.0023180558
-0.00014795079 -0.00014795079 -0.00014795079 -0.00015030714 -0.00015030714 0.032668624 0.022509685 0.0060838587
0.009872776 0.015437426 0.019516475 0.030370416 0.022449337 0.022299439 0.022655524 0.02285398
0.024342366 0.0023598915 0.0022417416 0.0023096846 0.002569455 0.002605309 -0.032054804 -0.044646442
-0.0046546673 -0.010924527 -0.017013168 -0.022782987 -0.030580608 -0.04404805 -0.04294291 -0.03949035
-0.03281876 -0.019008497 -0.0050680838 -0.004488406 -0.0032382403 -0.002184168 -0.0025039613 0.034967177

exp_avg_sq f4 [256, 17]
00000000: f401 0000 f401 0000 f401 0000 f401 0000
00000010: 0000 0000 f401 0000 f401 0000 f401 0000
00000020: f401 0000 f401 0000 f401 0000 f401 0000
00000030: f401 0000 f401 0000 f401 0000 f401 0000
00000040: f401 0000 26ea 053c 314f 253b 098a e938
00000050: 686c 3f3a de3a 063b 41e0 863b 6099 fa3b
00000060: 481b 243b 0dfd 1f3b 1cde 1a3b 21a7 143b
00000070: 2726 063b 8874 ff37 d732 e437 001b c737
00000080: 6d04 ac37 c4e7 8e37 8593 133f 2eeb eb3d
00000090: b34e dc3b f0f3 413d 5b24 0f3e 099b 8a3e
000000a0: bacf 0c3f 6147 ea3d 4bd7 e13d e4d3 d93d
000000b0: 57a8 d43d 1288 d13d 6576 bd3a f3dc a23a
000000c0: b241 8f3a 1e6c 853a 32b4 7d3a 8ec8 803d
000000d0: 3e7a b33c 65e6 523a 4216 b33b f20f 7d3c
000000e0: 7f49 f53c 8e87 713d 7cf0 b13c fd0a ad3c
000000f0: cd8b a43c 2060 963c 8d0b 863c 51b1 8c39
00000100: d492 7839 de40 4b39 13f8 2039 4e61 0e39
00000110: cd02 c13b 5099 8e3b 7718 b338 272b 1c3a
00000120: 52f3 c53a bfef 3d3b 872e ae3b 5a9e 8d3b
00000130: d27a 8a3b e86a 843b 9451 713b b622 593b
00000140: bbff 4238 c0f6 2c38 1175 0b38 d992 d437
00000150: ea00 bc37 5c5a f03a 12f3 e63a 30e5 cc37
00000160: 112c 1a39 f669 f539 1726 483a 0973 d53a
00000170: a940 e43a 6e55 e03a 87cc d43a 1d45 b53a
00000180: 5e92 913a 03f2 b037 5ed9 a237 e899 8037
00000190: 07a0 2137 c3dc 0337 7958 c83d 08a1 243d
000001a0: a520 a23a 424b 113c 7bd4 c63c b6f0 333d
000001b0: 6175 bb3d 4c47 233d 94ef 1f3d 5c2a 1a3d
000001c0: f72d 103d 7a2c 063d 1d47 f239 c98b db39
000001d0: eb2c bb39 d257 9a39 84b6 8b39 60a2 b03d
000001e0: 8a66 8d3c d9a5 773a d0f7 e93b cd69 af3c
000001f0: 6b01 243d 1b8c a83d c85d 8c3c 7883 873c
00000200: a6d6 823c 5a7e 7d3c c851 773c 0915 6439
00000210: 7ad8 4539 4017 2e39 c8b2 1e39 9004 1639
00000220: d7f8 a83b 86fc d33b 7527 c138 c404 013a
00000230: 2907 ab3a 0253 263b 0067 8f3b 5d03 d33b
00000240: 1253 ce3b 6290 be3b 70eb 8d3b 3e1b 2e3b
00000250: b10b ae38 127f 9b38 f6d6 5938 c70b 8f37
00000260: 939d 3e37 b886 c13b 0fb2 163d 2000 4537
00000270: 1baf d539 587e 9a3a 3fbd 3d3b 135e c13b
00000280: c338 113d a726 113d 5d8c 003d 4f58 c43c
00000290: 5574 483c 1838 da39 7da9 d939 2ea2 8439
000002a0: 4f65 f238 1978 8038 e1ad 8a3b 3ee4 183b
000002b0: cfeb 6438 c19c c539 2d31 8c3a aaf7 003b
000002c0: f9b5 803b 1c7e 163b 29b4 123b 7b39 063b
000002d0: c564 d93a 6591 953a 2ff9 fb37 ecd7 e037
000002e0: 5da3 9b37 ccb8 3837 bbda 2137 6ff0 943c
000002f0: c654 5d3d df7b d239 227f 013b ae51 9b3b
00000300: e405 133c ff1b 833c f26e 583d 4b21 533d
00000310: abe6 383d 2ec0 043d 9c56 853c a315 373a
00000320: 8ac7 223a 92a5 bc39 0a02 1a39 a244 d038
00000330: 8aa2 0637 fa5c a039 f401 0000 0eef 731e
00000340: 6a0f b235 0eef 731f 8aa2 0637 d6ae 8939
00000350: d6ae 8939 d6ae 8939 8983 7939 8983 7939
00000360: e393 fe35 e393 fe35 e393 fe35 daf9 8935
00000370: daf9 8935 000e b53d 9d93 d43c 3964 8c3a
00000380: 2433 fd3b e2e3 b33c 5531 2e3d 307b ab3d
00000390: a2fa d23c cc0d cd3c 919e c43c 4d87 b73c
000003a0: ff1d ab3c 93b7 a239 035c 8f39 acbc 7039
000003b0: 7d51 4939 3261 3d39 a048 ec3b ebcb 573c
000003c0: 248b 2839 6cc8 413a de93 f63a d28e 613b
000003d0: c2ca c43b b9d0 533c 2fa7 4c3c 45cd 333c
000003e0: f06d f53b 6c55 733b 5757 4739 6d69 2a39
000003f0: 4829 d038 1dfa 0438 a324 7f37 8cec 4f3d
7e-43 7e-43 7e-43 7e-43 0.0 7e-43 7e-43 7e-43
7e-43 7e-43 7e-43 7e-43 7e-43 7e-43 7e-43 7e-43
7e-43 0.008173501 0.0025224204 0.00011136017 0.00073022256 0.0020481865 0.0041160886 0.0076476783
0.0025040675 0.0024412305 0.0023630923 0.0022682624 0.0020469518 3.0452633e-05 2.7203392e-05 2.3735221e-05
2.0506059e-05 1.7035643e-05 0.5764697 0.11519466 0.006723249 0.047351778 0.13978712 0.27071407
0.55004466 0.11439396 0.11027392 0.10636118 0.10383671 0.102310315 0.001445484 0.0012425467
0.0010929613 0.0010179316 0.0009678035 0.06288253 0.021908876 0.0008045196 0.0054653 0.015445696
0.029942272 0.058967166 0.021721117 0.021123404 0.020086193 0.018356383 0.01636293 0.00026834992
0.00023705821 0.00019383754 0.00015351204 0.00013578424 0.0058902265 0.0043517724 8.539942e-05 0.0005957358
0.0015102422 0.002898201 0.005315605 0.0043218555 0.004226067 0.0040410645 0.0036822306 0.0033132262
4.6491372e-05 4.12378e-05 3.324921e-05 2.534075e-05 2.2411772e-05 0.0018337476 0.0017620048 2.4425419e-05
0.00014703 0.0004680899 0.00076350704 0.0016284893 0.001741429 0.0017115304 0.001623527 0.0013829801
0.0011106243 2.109353e-05 1.9413124e-05 1.5330457e-05 9.633607e-06 7.859609e-06 0.097825 0.040192634
0.0012369348 0.0088680405 0.02427124 0.04393073 0.091532476 0.039862916 0.03904684 0.037638053
0.035200085 0.03275726 0.0004621082 0.00041875083 0.00035700886 0.000294386 0.0002664813 0.086247206
0.017260808 0.00094470155 0.0071401373 0.021412754 0.040040415 0.08229848 0.017134562 0.016542181
0.015971493 0.015472019 0.015095182 0.0002175161 0.00018868028 0.00016602594 0.00015134655 0.00014306814
0.005156617 0.006469312 9.2103066e-05 0.00049216696 0.0013048399 0.0025379066 0.004376292 0.00643961
0.006296524 0.0058155516 0.004331045 0.002656653 8.299144e-05 7.414645e-05 5.193703e-05 1.7052413e-05
1.1361571e-05 0.0059059523 0.036790904 1.1742144e-05 0.0004075699 0.0011786921 0.002895191 0.005901107
0.035454523 0.035437252 0.03138386 0.02396789 0.012234767 0.00041621993 0.00041515744 0.00025297835
0.000115583294 6.1258856e-05 0.0042321538 0.0023329402 5.457905e-05 0.0003769156 0.0010695808 0.001967887
0.003927943 0.002296335 0.0022385216 0.0020481038 0.0016585818 0.0011411129 3.0037567e-05 2.6803427e-05
1.8553512e-05 1.1010281e-05 9.647275e-06 0.018181054 0.054035924 0.00040146612 0.0019759615 0.0047399616
0.008973572 0.01600456 0.05284018 0.051545423 0.045141857 0.03240984 0.01627665 0.000698412
0.0006209543 0.00035981514 0.00014687344 9.930997e-05 8.0248665e-06 0.0003058685 7e-43 1.2913748e-20
1.326652e-06 5.1654993e-20 8.0248665e-06 0.0002626094 0.0002626094 0.0002626094 0.00023795491 0.00023795491
1.8967515e-06 1.8967515e-06 1.8967515e-06 1.0280012e-06 1.0280012e-06 0.08840561 0.025949294 0.0010711021
0.0077270437 0.021959249 0.042527515 0.083731055 0.025754277 0.025030993 0.024001392 0.022403384
0.020888327 0.0003103582 0.0002734364 0.0002295847 0.0001919921 0.00018060653 0.007210806 0.013171176
0.00016073562 0.0007392231 0.0018812378 0.0034417403 0.006005616 0.012928181 0.012491032 0.010974233
0.007489912 0.0037129773 0.00019010656 0.00016251738 9.925902e-05 3.170419e-05 1.5207715e-05 0.050762698

exp_avg f4 [256]
00000000: 0400 0000 02ad 99ba 674d 8c3b 1429 66bb
00000010: 1d03 1bba 0e2a 6339 68b1 26bb cc70 323a
00000020: bbac e2ba 5c4e 423b 05fe 60ba 2490 8bbb
00000030: b219 a1b9 7ba1 1d3b 9902 b1bb 2d3f ef3a
00000040: 13c7 a13b 0000 0000 50ef ddbb cbfd acbb
00000050: e27e 3dbb e2a3 a6bb 0000 0000 b16a 803b
00000060: 9da0 cbb9 eac0 f2ba fa44 073b dba9 d4bb
00000070: a353 2a3a fa67 9b3b 0000 0000 7ff8 533b
00000080: a572 24bb eccb 3e3b 5252 1eba eee4 683b
00000090: 1d54 813b 6a69 97bb 0000 0000 ef63 2bba
000000a0: 0000 0000 0000 0000 8432 3dbc 49c6 ddbb
000000b0: e741 7cba 97ec 9d3a 0ab7 bdbc f93d ce3b
000000c0: 3985 c3bb 2d1f 0cbc 194b afbc 53ff 79bc
000000d0: 0000 0000 0400 0000 00f1 1fb9 0000 0000
000000e0: 994a 053a 40f8 6abc e3c1 93bb 0000 0000
000000f0: 720a e2bb 55ca 64ba 0000 0000 4a27 873a
00000100: 6dec 8ab8 78f2 40bb 854c 34bb 3803 5abb
00000110: f8e9 6b3c 7f39 c6b9 6757 2cba 45f0 bd39
00000120: d87b 1239 0000 0000 22d5 95b9 4b6f 26bc
00000130: 0400 0000 7c0e 0f3c 54b2 903b 24d9 e6ba
00000140: 0400 0000 b894 e83b 2fbc db3a e17f babb
00000150: fc59 afba 481b 59bc ce30 9639 0000 0000
00000160: a995 e73b cce8 3a3b 0000 0000 0000 0000
00000170: 0000 0000 2cd7 56bc 39b1 b23a 0000 0000
00000180: 0c40 753b 83fe f63b 0000 0000 f878 f13a
00000190: d7e3 f83b 0000 0000 0000 0000 0222 93bb
000001a0: 69fd f83b 6004 75ba 0000 0000 d445 5739
000001b0: 0000 0000 6a97 b83a d9a9 3cbb c632 39ba
000001c0: afda e8b9 0498 14bb 0000 0000 f262 4d3a
000001d0: 92cc 1db9 3a3e 0939 e902 553b 43a1 423a
000001e0: 408d d23a e330 0e3b 0000 0000 fee2 073c
000001f0: 6944 d0ba 0400 0000 922e 8539 13d9 c33b
00000200: 0000 0000 bd60 9b3a dad0 953b 1099 1fbb
00000210: 0000 0000 0000 0000 f40f 673a 0000 0000
00000220: 0000 0000 e57a 3339 6fdd d33c 1bfc 8c38
00000230: b532 823b af93 1a3a 9ab1 81bb de93 ccbb
00000240: df28 3fbc 4fda b13b 4864 803c 9eec adb9
00000250: 38c3 8bb9 3361 acbb 3bbe d2ba c1bf a23b
00000260: d4ba 06bc 0000 0000 515f cdba 3aba e5b9
00000270: c18a 6f3b c081 ef39 ba38 c6bb 0000 0000
00000280: 0b77 393a d50c a9bb 0000 0000 2c4a cd3b
00000290: 0000 0000 e509 9539 2c14 e33a d620 2abb
000002a0: dd59 16b9 b353 183c 0000 0000 4d37 273b
000002b0: 0000 0000 ff9b a6bc 0000 0000 f351 a73a
000002c0: 0000 0000 0400 0000 0000 0000 ad21 1dbc
000002d0: f3f6 0d3c 0758 78b9 0000 0000 7643 713a
000002e0: 1609 05ba 393d 10bc c4b7 8d3b 2b66 4dbb
000002f0: 2bcf 51bb 72b9 e4ba d06a c238 b54e 10ba
00000300: 0000 0000 3897 023c 0400 0000 2374 d4b9
00000310: 044c e7bb ca84 a8bb 266f 5339 0000 0000
00000320: c251 1f3b 0000 0000 9679 1fbb 7855 21bb
00000330: b991 0237 edaa 103c bffb d3bb 3ebb 123c
00000340: db21 54bc 8735 113a b76f cd3a 6244 103b
00000350: 4f3d f039 f067 d2bb 0000 0000 7660 97b9
00000360: 0000 0000 c736 be3a 23d4 78bb 4836 cc3b
00000370: 0000 0000 0000 0000 e8ae 9c39 fa48 213b
00000380: 3bec c2ba cfc9 d8ba 0000 0000 2b35 983b
00000390: d4b9 9ebb 2aa1 463b 0000 0000 0b82 bdba
000003a0: 4414 bdb9 d794 593a af2e 243b 30dd 7a3a
000003b0: f52c 643c ad5b 783b 0791 edbb 0000 0000
000003c0: fffb d73b 0000 0000 c6e9 c1bb 71a6 8d3b
000003d0: 12a2 40bb ce73 4a3c 95d9 76bb 0000 0000
000003e0: e048 2b3b 9ee9 c23a c584 3cba 0000 0000
000003f0: 1cef d039 5fe8 98bb 9e23 ee3a 4ff4 953b
6e-45 -0.0011724534 0.004281688 -0.00351197 -0.00059132447 0.00021664074 -0.0025435332 0.0006806969
-0.0017293909 0.0029648757 -0.0008582774 -0.0042591263 -0.00030727457 0.0024052549 -0.005401921 0.0018253081
0.0049370616 0.0 -0.006772913 -0.005279278 -0.002891474 -0.0050854543 0.0 0.0039189686
-0.00038838843 -0.0018520628 0.0020640478 -0.006489975 0.0006497448 0.0047426196 0.0 0.003234416
-0.0025092748 0.0029113246 -0.00060394884 0.0035536843 0.0039467947 -0.0046207206 0.0 -0.00065380236
0.0 0.0 -0.011547688 -0.006768022 -0.00096228573 0.0012048659 -0.023158569 0.006294009
-0.005966809 -0.008552355 -0.021398114 -0.015258628 0.0 6e-45 -0.00015253201 0.0
0.0005084663 -0.014341414 -0.004509197 0.0 -0.006898218 -0.00087276596 0.0 0.0010311392
-6.6243905e-05 -0.0029441398 -0.002751143 -0.0033266079 0.014399044 -0.0003780834 -0.0006574303 0.00036227904
0.0001396978 0.0 -0.0002857829 -0.01015837 6e-45 0.008731481 0.0044157896 -0.001761232
6e-45 0.007097807 0.0016764457 -0.005691514 -0.0013378258 -0.013251133 0.00028646592 0.0
0.0070674014 0.0028520105 0.0 0.0 0.0 -0.013112824 0.0013633139 0.0
0.0037422208 0.0075376644 0.0 0.0018422892 0.00759552 0.0 0.0 -0.004490138
0.007598568 -0.000934666 0.0 0.00020530011 0.0 0.0014083211 -0.002878776 -0.0007064756
-0.0004441342 -0.0022673616 0.0 0.00078348734 -0.00015048895 0.0001308852 0.0032502955 0.00074245426
0.0016063824 0.002169662 0.0 0.008293865 -0.0015889528 6e-45 0.00025402434 0.005976805
0.0 0.0011854392 0.004572016 -0.0024352707 0.0 0.0 0.0008814328 0.0
0.0 0.00017116552 0.025862424 6.7226785e-05 0.00397333 0.00058966404 -0.0039579393 -0.006243213
-0.011667459 0.0054276357 0.015672818 -0.00033173425 -0.00026657595 -0.0052606105 -0.0016078422 0.0049667065
-0.008223254 0.0 -0.0015668665 -0.00043817033 0.003655121 0.00045682304 -0.006049243 0.0
0.0007074929 -0.0051590004 0.0 0.0062649455 0.0 0.00028426867 0.0017324737 -0.0025959513
-0.00014338591 0.009297299 0.0 0.002551514 0.0 -0.020338057 0.0 0.0012765512
0.0 6e-45 0.0 -0.009590548 0.008664834 -0.00023683916 0.0 0.0009203473
-0.0005074901 -0.008803659 0.004324885 -0.0031341414 -0.003201435 -0.0017450287 9.270536e-05 -0.00055048923
0.0 0.007970624 6e-45 -0.0004052232 -0.0070586223 -0.005142783 0.00020163934 0.0
0.0024310206 0.0 -0.0024333945 -0.0024617594 7.7825325e-06 0.008829814 -0.0064692195 0.008955775
-0.012947525 0.0005539287 0.0015673552 0.0022013416 0.00045822046 -0.0064210817 0.0 -0.00028872833
0.0 0.0014512175 -0.003796824 0.0062320568 0.0 0.0 0.00029884954 0.0024610148
-0.0014871428 -0.0016539636 0.0 0.00464501 -0.00484393 0.0030308464 0.0 -0.0014458311
-0.00036063988 0.0008300072 0.002505224 0.00095697027 0.013926734 0.003789644 -0.0072499546 0.0
0.0065913196 0.0 -0.0059177605 0.00432282 -0.0029393476 0.012356712 -0.003766631 0.0
0.0026135966 0.0014870649 -0.0007191415 0.0 0.00039851002 -0.0046663727 0.0018168574 0.004576243
