notebooks/checkpoints/mlptest2/model1_best.pt (torch, 91979 bytes, 9 tensors)

stack.0.weight f4 [256, 17]
0	0x3e82af2e	0.25524276
1	0x3c0baf6a	0.008525709
2	0x3d8e8f67	0.069609456
3	0x3dcf11c3	0.1011081
4	0x3d80472a	0.062635735
5	0x3e604a7b	0.21903412
6	0x3ec94251	0.39308408
7	0x3e538fae	0.20660278
8	0xbde6f21a	-0.11276646
9	0xbbf21197	-0.007387351
10	0x3e311e12	0.17296627
11	0x3e0db677	0.13839136
12	0x3e0229d0	0.12711263
13	0xbe07b478	-0.13252437
14	0x3e3b8614	0.18312865
15	0xb9c4912e	-0.000374922
16	0xbdb6b855	-0.08921877
17	0x3ecb3b60	0.39693737
18	0x3d9cb864	0.07652357
19	0xbd6f9a9b	-0.058497053
20	0xbd8677e3	-0.06565835
21	0x3e802393	0.2502714
22	0xbb99f6aa	-0.004698594
23	0x3d89afd7	0.06722992
24	0xbd3842be	-0.044985525
25	0x3d3559b0	0.044274986
26	0x3d68733b	0.056750517
27	0xbe2c9512	-0.16853741
28	0xbeae29f9	-0.34016398
29	0xbe847072	-0.2586704
30	0x3ddf8a0d	0.10915003
31	0xbd960b52	-0.07326378
32	0x3e5ccf64	0.21563488
33	0xbe913ff2	-0.283691
34	0x3dfefa3d	0.12450073
35	0xbcea3692	-0.028590474
36	0x3d6cb72d	0.057791878
37	0xbe271b82	-0.16319087
38	0x3ccd1cb2	0.025038097
39	0x3eb1fa93	0.34761485
40	0xbe33f8c4	-0.17575365
41	0x3d4f2711	0.050574366
42	0xbe82afff	-0.255249
43	0x3e3a9cab	0.18223827
44	0xbdc6a1b5	-0.09698812
45	0x3e2349a0	0.15946054
46	0xbe69269f	-0.22768639
47	0x3e2657f2	0.16244486
48	0x3e8a24e9	0.26981285
49	0xbdd0bdef	-0.10192477
50	0xbf0e79dc	-0.5565469
51	0xbd8416ef	-0.06449687
52	0xbe0f2ec3	-0.13982682
53	0x3e0f7b01	0.14011766
54	0xbdb1e52e	-0.08686291
55	0xbdaacb28	-0.0833953
56	0xbe663640	-0.22481632
57	0x3e97e6ea	0.2966836
58	0xbd1fa591	-0.038976256
59	0xbd051654	-0.032491997
60	0x3e0a694c	0.1351673
61	0x3dcacbfa	0.09902187
62	0x3e4356f3	0.19076137
63	0x3d9e225b	0.077213965
64	0x3d8830a2	0.06649901
65	0xb9c9dcaf	-0.0003850213
66	0xbbe06d41	-0.0068489616
67	0x3e145934	0.14487153
68	0x3e44f7dd	0.19235177
69	0xbe056b7b	-0.13029282
70	0x3e8e7725	0.27825275
71	0x3dfa6111	0.12225545
72	0xbe73d15d	-0.23810335
73	0xbe722419	-0.23646583
74	0x3db8bdbe	0.090205655
75	0x3d258d4d	0.040417958
76	0xbe2dd571	-0.16975953
77	0x3bff4587	0.0077902707
78	0xbe33aa46	-0.17545423
79	0x3e716768	0.23574603
80	0xbdf6aa07	-0.12044149
81	0xbca8141c	-0.020517401
82	0x3e24c224	0.16089684
83	0x3e708d52	0.2349141
84	0xbbd947d0	-0.006630875
85	0xbd999f30	-0.07501066
86	0xbd1aa6fb	-0.0377569
87	0xbe875554	-0.26432288
88	0xbefc01e8	-0.49220204
89	0xbf0d608e	-0.55225456
90	0xbec547cd	-0.38531342
91	0xbe09110a	-0.13385406
92	0xbe18cb3e	-0.1492128
93	0x3e1f8c2f	0.1558082
94	0xbd8c4b49	-0.06850297
95	0xbd956ca5	-0.07296113
96	0xbe86547c	-0.2623633
97	0xbe45ea77	-0.19327722
98	0x3dba8bfc	0.09108731
99	0x3cdac9d7	0.026707573
100	0x3e9bcc57	0.30429336
101	0xbe5fac7c	-0.21843141
102	0xbdb4e912	-0.08833517
103	0x3e83f098	0.25769496
104	0x3d9d4878	0.07679838
105	0xbd68deb3	-0.056853008
106	0x3e0d39bf	0.1379156
107	0xbdbbd2d3	-0.09171071
108	0x3ebbc503	0.36673746
109	0x3cf0b986	0.02938534
110	0xbccbd663	-0.024882501
111	0x3c71d4b7	0.014760188
112	0xbd0030bb	-0.031296473
113	0xbd7a648c	-0.061131045
114	0x3e03d93a	0.12875834
115	0x3e7c81a0	0.24658823
116	0x3d241248	0.040056497
117	0xbe605a36	-0.21909413
118	0xbca474fd	-0.020075316
119	0xbd8ccd71	-0.06875122
120	0xbd6e1480	-0.05812502
121	0x3e1c0d5d	0.15239473
122	0x3cc225ed	0.023699725
123	0xbd56b8f6	-0.052422486
124	0x3e74e319	0.23914756
125	0xbe94b20a	-0.29042083
126	0xbe8a33ad	-0.2699255
127	0xbe547fef	-0.20751928
128	0x3e8ba062	0.272708
129	0x3dae2374	0.08502856
130	0xbeccb979	-0.39985254
131	0x3e667c28	0.225083
132	0xbdebc69f	-0.11512493
133	0x3e64944e	0.22322199
134	0x3d476802	0.048683174
135	0xbe9ac9d0	-0.30232096
136	0x3ec3be61	0.38231185
137	0xbdb88a22	-0.09010722
138	0xbdb203a7	-0.08692103
139	0xbe954629	-0.2915509
140	0x3ed47ae4	0.41500008
141	0x3e8e6128	0.278085
142	0xbbe7d5f4	-0.0070750657
143	0x3e88667c	0.2664069
144	0x3dd0b909	0.10191543
145	0x3e42ea49	0.19034685
146	0xbda3ab21	-0.079916246
147	0x3e9c4a65	0.3052551
148	0x3e2af2b9	0.16694154
149	0x3d878255	0.06616656
150	0x3db3662a	0.087597206
151	0xbdc0b241	-0.09408999
152	0xbb8af96f	-0.0042411606
153	0x3e4aa9b8	0.19791305
154	0xbed5a29f	-0.41725633
155	0x3d4363d6	0.047702633
156	0x3eaa9186	0.3331415
157	0x3e550049	0.2080089
158	0xbe156e5d	-0.14592882
159	0xbe70f763	-0.2353187
160	0xbefc2a7b	-0.4925116
161	0xbe16ecb4	-0.14738733
162	0xbe97eca1	-0.2967272
163	0x3dddb54b	0.108255945
164	0xbd4fc16b	-0.050721567
165	0x3ebd40c0	0.36963463
166	0x3e5462fd	0.20740886
167	0x3de6f3a3	0.11276939
168	0xbd6d3aed	-0.057917524
169	0xbca9f908	-0.02074863
170	0x3f1be4fc	0.6089628
171	0x3e6368c3	0.22207932
172	0x3cddc980	0.027073622
173	0x3e230705	0.15920646
174	0x3dd7e492	0.10541643
175	0x3e5c75a5	0.21529253
176	0x3eb7cb3f	0.35897252
177	0x3e1571a6	0.14594135
178	0x3e4e660e	0.20156118
179	0x3d9f64dd	0.0778291
180	0xbeea07cd	-0.45709077
181	0xbf4e4c79	-0.8058544
182	0xbe5985b8	-0.21242416
183	0xbbb632d2	-0.0055602575
184	0x3dcb0145	0.099123515
185	0x3ea97364	0.3309585
186	0x3d7d65b4	0.06186457
187	0xbe85dd9f	-0.26145646
188	0xbe2f0782	-0.17092708
189	0xbe0db16f	-0.13837217
190	0x3dd12979	0.102129884
191	0x3d8018b0	0.06254709
192	0xbd518a65	-0.051157374
193	0x3e4fb6a4	0.20284516
194	0xbcd15647	-0.025553836
195	0x3e8f9582	0.28043753
196	0x3df36b21	0.118856676
197	0x3d2b05c0	0.04175353
198	0xbeb781c5	-0.35841194
199	0x3db0c03e	0.08630417
200	0xbe200259	-0.15625896
201	0x3cfe2982	0.031025652
202	0xbe280ac5	-0.16410358
203	0x3ededfe8	0.43530202
204	0xbdd9a621	-0.1062739
205	0x3e9122bb	0.2834681
206	0xbe49ec9c	-0.19719166
207	0x3d057e05	0.032590885
208	0xbd064e29	-0.032789383
209	0x3daed432	0.08536567
210	0x3f09e908	0.538712
211	0xbdcaaa5e	-0.09895776
212	0xbdf35480	-0.118813515
213	0xbc96c755	-0.018405596
214	0x3dfc11e8	0.12308103
215	0xbd24e24d	-0.04025488
216	0x3c9dbb1f	0.019254265
217	0x3e48a56a	0.1959435
218	0xbe1b4f00	-0.15166855
219	0x3e5ee6af	0.21767686
220	0x3e155032	0.14581373
221	0xbe53ac84	-0.20671278
222	0x3db60163	0.08886983
223	0xbe953254	-0.2913996
224	0x3cb16a3a	0.021657098
225	0x3d673df0	0.056455553
226	0xbd85365e	-0.0650451
227	0x3ed959d1	0.42451337
228	0x3e1d5c1c	0.15367168
229	0xbd55f3b8	-0.05223438
230	0xbe0b01ce	-0.13574907
231	0xbeb0f27b	-0.34559998
232	0x3e5aeebc	0.21380132
233	0xbe1a3f6c	-0.15063256
234	0xbecdfe1f	-0.40232942
235	0x3c57dbf4	0.0131749995
236	0xbd02f2be	-0.03196978
237	0x3e80c9f1	0.2515407
238	0xbdce0502	-0.10059549
239	0x3d3e401c	0.04644786
240	0x3c83c1c8	0.016083613
241	0xbe0e690c	-0.1390726
242	0x3e3dfd94	0.18553764
243	0xbe1abce7	-0.15111123
244	0x3ec4d26d	0.38441792
245	0x3ccb574b	0.024821898
246	0xbcbb7ef0	-0.022887677
247	0x3da168e9	0.07881338
248	0xbe89db00	-0.26924896
249	0x3df30335	0.11865846
250	0x3d947b5e	0.07250093
251	0x3caff464	0.02147884
252	0xbd7e99f6	-0.062158547
253	0xbe1e9400	-0.15486145
254	0xbd336ec8	-0.04380682
255	0xbe377631	-0.1791618

stack.0.bias f4 [256]
0	0x3e1b32bb	0.15156071
1	0x3e6da1d9	0.23206271
2	0xbdf04d6d	-0.11733518
3	0x3f0bb735	0.54576427
4	0x3eaf6a3e	0.34260744
5	0xbf3db96a	-0.74111044
6	0x3f097712	0.5369731
7	0x3df87ada	0.12132807
8	0xbed64319	-0.41848066
9	0xbe18ae94	-0.14910346
10	0xbf514b30	-0.8175535
11	0x3e23bce2	0.15990022
12	0x3eaa4f7c	0.33263767
13	0x3e595e19	0.21227302
14	0x3f20d5b0	0.6282606
15	0x3f22ac86	0.635445
16	0x3ef60729	0.48052338
17	0x3e830993	0.25593242
18	0x3ee9c69a	0.45659333
19	0xbea98bd0	-0.3311448
20	0x3e9e1f09	0.30883053
21	0xbe79f5b2	-0.24410132
22	0x3f0ab5c7	0.5418362
23	0x3ea7c611	0.327683
24	0x3e94c061	0.29053023
25	0x3f096069	0.53662735
26	0x3e2a4570	0.16628051
27	0xbe0c51d4	-0.1370309
28	0xbf3066ae	-0.68906677
29	0xbecde040	-0.40210152
30	0x3e3654b5	0.1780575
31	0x3ec0aa35	0.37629858
32	0x3f17d794	0.5931332
33	0x3f146cde	0.5797862
34	0x3ee61f7e	0.44945902
35	0x3eb41829	0.35174683
36	0xbf20d11f	-0.62819093
37	0x3eb6c6fd	0.3569869
38	0x3e86b161	0.26307204
39	0x3e056e09	0.13030256
40	0x3e614c98	0.22001874
41	0x3ed33f74	0.41259348
42	0x3eba265c	0.3635739
43	0x3ccced2b	0.025015434
44	0x3e887f1c	0.26659477
45	0x3e2bd0cb	0.16778867
46	0x3f0f592d	0.55995446
47	0xbcbf1016	-0.0233231
48	0x3e9d95cd	0.3077835
49	0x3ec84eea	0.39122707
50	0x3d6d1eae	0.057890587
51	0x3e1799fa	0.14804831
52	0x3f037fbb	0.51366776
53	0x3f2803c6	0.6563076
54	0x3e9b43be	0.3032512
55	0xbe90090e	-0.28131908
56	0x3f21b17b	0.6316144
57	0xbe9668c7	-0.29376814
58	0x3f184c49	0.594914
59	0x3e456fc0	0.1928091
60	0x3f02bd11	0.5106974
61	0x3f19b3e7	0.60040134
62	0x3eeaa781	0.4583092
63	0x3ecf0a45	0.40437523
64	0x3f1d5af2	0.61466897
65	0x3e6bd9b8	0.23032272
66	0xbef93d8d	-0.48679772
67	0x3ea83ba0	0.3285799
68	0x3ef0fbe2	0.4706717
69	0xbe66e780	-0.22549248
70	0x3e82ed50	0.2557168
71	0xbe1ee63e	-0.15517518
72	0x3f3405bb	0.70321244
73	0x3e74702c	0.23870915
74	0x3e63adad	0.22234221
75	0x3e78d271	0.24299027
76	0x3ee4f382	0.44717032
77	0x3e9b1e60	0.30296612
78	0x3e2035a5	0.15645464
79	0x3f0aaa46	0.54166067
80	0x3ebe6046	0.37182826
81	0x3f06c88b	0.52649754
82	0x3e70952a	0.23494402
83	0x3e895276	0.26820725
84	0x3e41e906	0.18936548
85	0x3f1f40e0	0.62208366
86	0x3e3c4eee	0.18389484
87	0x3e9452d2	0.28969437
88	0x3ee7209c	0.45142066
89	0x3e1042d9	0.14088
90	0x3e94d048	0.29065156
91	0x3ecc9f39	0.39965227
92	0x3ec733d3	0.38906726
93	0x3f188319	0.5957504
94	0x3f096f72	0.5368568
95	0x3ecf6b6d	0.40511647
96	0x3f0ae385	0.5425342
97	0x3ecf20d7	0.40454742
98	0x3ee42a0b	0.44563326
99	0x3e9691e5	0.29408184
100	0x3f08f400	0.53497314
101	0x3e9ba635	0.30400243
102	0x3f024ff2	0.50903237
103	0x3e2a0d54	0.16606647
104	0x3e986776	0.29766434
105	0xbf7441f1	-0.9541312
106	0x3f310755	0.6915181
107	0x3f12d597	0.5735716
108	0xbf2813cf	-0.65655226
109	0xbf14bc80	-0.5810013
110	0x3ee7d7f6	0.45281953
111	0x3ee62717	0.44951698
112	0xbe4aa628	-0.19789946
113	0x3c062324	0.008187089
114	0x3dc5fcd7	0.09667366
115	0x3f1ba73e	0.60802066
116	0x3dee454e	0.116343126
117	0x3ed534a1	0.41641715
118	0x3eb447bb	0.35210976
119	0x3f341ef1	0.7035971
120	0x3e4b7341	0.19868185
121	0xbc35bb9e	-0.011092095
122	0x3e3e38ff	0.1857643
123	0x3f138ef3	0.5764
124	0x3f02de02	0.5112001
125	0x3e81bed8	0.25340915
126	0x3e2cd8bb	0.16879551
127	0xbdd863b9	-0.105658956
128	0x3e4f41d1	0.2023995
129	0x3ef569d3	0.479323
130	0x3f0f2732	0.5591918
131	0x3ef82d3b	0.48472008
132	0xbe34d378	-0.17658794
133	0x3f09a5c4	0.53768563
134	0x3e6ee601	0.23329927
135	0xbecbefbd	-0.39831343
136	0x3f335309	0.70048577
137	0x3f0811b6	0.53152025
138	0x3e41885d	0.18899675
139	0x3ea007f6	0.31256074
140	0x3cc3f15a	0.023918796
141	0x3f18c53e	0.5967597
142	0x3e9fe07d	0.31225958
143	0x3e672f05	0.2257653
144	0x3f3489e1	0.70522887
145	0x3e1f2f55	0.155454
146	0x3f0696de	0.52573955
147	0x3f1f4023	0.6220724
148	0x3f116ab1	0.56803423
149	0x3ea7ad6c	0.32749498
150	0x3e0963b3	0.13416938
151	0x3e72f717	0.2372707
152	0xbeb7aeae	-0.35875458
153	0x3e3739d8	0.1789316
154	0x3eb694e2	0.35660464
155	0xbd149a4b	-0.036279958
156	0xbe98bd16	-0.2983176
157	0x3f214a73	0.63004225
158	0x3ead7c34	0.33883822
159	0x3edf6c47	0.43637297
160	0x3f298d4f	0.66231245
161	0x3e463d17	0.19359241
162	0x3ecf4a86	0.40486544
163	0x3f20f238	0.62869596
164	0x3e92091e	0.2852258
165	0x3eebc8b8	0.46051574
166	0x3e09c02c	0.13452214
167	0x3e62e375	0.2215708
168	0x3f13b6af	0.5770063
169	0xbf9a7d14	-1.2069421
170	0x3e3594f4	0.17732602
171	0xbf503b71	-0.813407
172	0xbe2ea115	-0.17053635
173	0x3ea5e0c6	0.3239805
174	0x3eaf314c	0.34217298
175	0xbec0326e	-0.37538475
176	0x3f08368d	0.5320824
177	0xbf7a31af	-0.9773206
178	0x3e75bd7f	0.23998068
179	0x3f35e0d4	0.71046185
180	0xb95ccf35	-0.00021058026
181	0x3f371b08	0.7152562
182	0x3e80a322	0.2512446
183	0x3f351bc1	0.70745474
184	0xbe0ba5c3	-0.13637452
185	0x3e199222	0.14997151
186	0x3f2b27f4	0.6685784
187	0xbe84f5b8	-0.2596872
188	0x3eb949be	0.36189073
189	0x3f01bf6b	0.50682706
190	0x3e5d83b2	0.21632269
191	0xbe104bea	-0.14091459
192	0x3f1c71b5	0.61111003
193	0x3f31f6ce	0.6951722
194	0xbe9e8e59	-0.30967978
195	0x3f12d5e3	0.57357615
196	0x3efc6d02	0.49301916
197	0x3ef4db68	0.47823644
198	0x3ede7b36	0.43453377
199	0x3ea005b5	0.31254354
200	0xbdf2f4c5	-0.11863092
201	0x3ed717ba	0.4201029
202	0x3e79afcc	0.24383467
203	0x3edfbbaa	0.43697864
204	0x3e9c0fcb	0.304808
205	0x3e1b0fcf	0.15142749
206	0x3f29cd07	0.6632847
207	0xbe58783a	-0.21139613
208	0xbf3c880e	-0.736451
209	0xbe0adcec	-0.13560838
210	0x3e9e6d5b	0.30942807
211	0x3f1d21d1	0.61379725
212	0x3f117353	0.56816596
213	0x3eeabef0	0.458488
214	0x3e30f72c	0.17281789
215	0x3dd5c2e0	0.1043756
216	0xbe53f571	-0.20699097
217	0x3e075961	0.13217689
218	0x3e825d43	0.25461778
219	0x3ee2cd65	0.4429733
220	0x3e8ad7d7	0.27117798
221	0xbdd1b793	-0.10240092
222	0x3f23e49b	0.640207
223	0x3e94b072	0.29040867
224	0x3f1dd3cc	0.616513
225	0x3e9838d3	0.29730853
226	0x3ed05425	0.40689197
227	0x3f1c93f4	0.6116326
228	0x3ecc0cfa	0.3985365
229	0x3e7c404f	0.24633907
230	0x3ec1c346	0.37844294
231	0x3f14f641	0.58188254
232	0x3f228afd	0.6349333
233	0x3ea9c2c9	0.33156422
234	0x3f203885	0.6258624
235	0x3e7bad64	0.24577862
236	0x3eb79410	0.3585515
237	0xbd779301	-0.06044293
238	0x3e90855e	0.2822675
239	0x3e857376	0.26064652
240	0x3e762de1	0.24040939
241	0x3eb5944f	0.35464713
242	0x3f1c1758	0.6097312
243	0x3e4ee7a6	0.20205554
244	0x3e452b59	0.19254817
245	0x3ef274d6	0.47354764
246	0xbe9eab35	-0.30989996
247	0x3d9dc44a	0.07703455
248	0x3ea40ba5	0.32040134
249	0x3e2c7643	0.16841988
250	0x3f1b9bdc	0.607847
251	0x3e3a4070	0.18188643
252	0x3eabc298	0.335469
253	0xbc8b8fb9	-0.017036306
254	0x3f0cf884	0.55066705
255	0x3dd71342	0.1050172

stack.2.weight f4 [1, 256]
0	0x3e110b4d	0.14164467
1	0x3e3d7df8	0.18505085
2	0x3e9c51dd	0.30531207
3	0x3e318e84	0.17339522
4	0x3e68fc42	0.22752479
5	0xbed4d5d0	-0.41569376
6	0x3e842d32	0.2581573
7	0x3e72c75e	0.23708865
8	0xbebe3563	-0.37150106
9	0x3e883269	0.2660096
10	0xbf982ab4	-1.1888032
11	0x3ea7cdb8	0.32774138
12	0x3e450c58	0.1924299
13	0x3eaef658	0.3417232
14	0x3e4dc586	0.2009488
15	0x3e9ed2bd	0.31020156
16	0x3e3e98e5	0.18613012
17	0x3e0b93cd	0.136306
18	0x3e85fa62	0.2616759
19	0x3e89010a	0.26758605
20	0x3e51fe1a	0.20507088
21	0x3e80bced	0.2514414
22	0x3e2adf96	0.16686854
23	0x3e11ee87	0.14251147
24	0x3dde07b8	0.10841316
25	0x3e68670c	0.2269556
26	0x3dafc36e	0.08582197
27	0x3e5058d7	0.2034639
28	0xbebd1cab	-0.36935934
29	0xbe6bc356	-0.23023733
30	0x3e1dab18	0.15397298
31	0x3d4ef629	0.050527725
32	0x3e35e632	0.17763594
33	0x3e802b36	0.25032967
34	0x3dc6d565	0.097086705
35	0x3dc4fb82	0.09618284
36	0xbec7a19e	-0.38990492
37	0x3e0eafe1	0.1393428
38	0x3e578ce7	0.21049844
39	0x3e4b48fd	0.19852062
40	0x3dfd9d3a	0.12383504
41	0x3e1e8c84	0.1548329
42	0x3e2d16f1	0.16903283
43	0x3e66c9b1	0.22537877
44	0x3e69a274	0.22815877
45	0x3e41c1d9	0.18921603
46	0x3e31fb0b	0.17380922
47	0x3e579541	0.2105303
48	0x3dce34cc	0.10068664
49	0x3ddbcf55	0.10732905
50	0x3c9771aa	0.018486816
51	0x3e18925d	0.14899583
52	0x3e764901	0.24051286
53	0x3e252711	0.16128184
54	0x3e5435a3	0.20723586
55	0x3e990069	0.29883125
56	0x3e81b823	0.25335798
57	0xbe91c6fa	-0.2847212
58	0x3e4b7113	0.19867353
59	0x3e59c182	0.21265224
60	0x3e0e0344	0.13868433
61	0x3e6f4f98	0.23370206
62	0x3ddf0b17	0.10890787
63	0x3e0af3e2	0.13569596
64	0x3e84d9d8	0.25947452
65	0x3db79949	0.08964784
66	0xbf0aa2b1	-0.541545
67	0x3e22513c	0.15851301
68	0x3e22c37c	0.15894884
69	0x3e901dea	0.28147823
70	0x3db7282a	0.089432076
71	0x3e05def6	0.13073334
72	0x3e6ba149	0.23010744
73	0x3e06e3b9	0.13172807
74	0x3e0f6445	0.14003094
75	0xbe94a104	-0.29029095
76	0x3e838980	0.25690842
77	0x3dc37765	0.09544257
78	0x3ea8ac20	0.3294382
79	0x3e42b25f	0.19013356
80	0x3d8122d9	0.06305475
81	0x3e5f685c	0.21817154
82	0x3c85af04	0.016318806
83	0x3e15b143	0.14618401
84	0x3df3a330	0.1189636
85	0x3e16a52d	0.14711447
86	0x3dd7eef7	0.10543626
87	0x3e9bc2b2	0.30421978
88	0x3e8627c1	0.26202205
89	0x3e04dfef	0.12976049
90	0x3e431fa6	0.19055042
91	0x3e4a3f21	0.19750644
92	0x3de6d5bb	0.112712346
93	0x3e1682c1	0.14698316
94	0x3e7b768e	0.24556944
95	0x3e2a063e	0.16603944
96	0x3e021813	0.12704496
97	0x3e0151e6	0.12628898
98	0x3e59808e	0.21240446
99	0x3e4c4ad4	0.1995042
100	0x3e8ece01	0.27891544
101	0x3e13840a	0.14405838
102	0x3e79bdcc	0.24388808
103	0xbe8ef72a	-0.27922946
104	0x3e79e159	0.2440237
105	0xbf2b3a26	-0.668856
106	0x3e30e01b	0.1727299
107	0x3ddd2142	0.10797359
108	0xbeea8db4	-0.45811236
109	0xbe9421de	-0.2893209
110	0x3e4f1e5a	0.20226422
111	0x3d91a98c	0.071124166
112	0xbea5652c	-0.3230375
113	0xbe9a1da8	-0.3010075
114	0x3e1a6321	0.15076877
115	0x3e2400d8	0.16015947
116	0x3e28d2f7	0.16486727
117	0x3e4618c0	0.19345379
118	0x3e5d1424	0.21589714
119	0x3e5cf4ac	0.2157771
120	0x3e501f94	0.20324546
121	0xbed5ee99	-0.41783598
122	0x3d8f4c93	0.06997027
123	0x3e513266	0.20429382
124	0x3e24b05c	0.16082901
125	0x3e1b3512	0.15156963
126	0x3d99830b	0.074956976
127	0x3e61e211	0.22058894
128	0xbeb6ff0c	-0.3574146
129	0x3e51ed1c	0.20500606
130	0x3e90887c	0.2822913
131	0x3eb42407	0.35183737
132	0x3f208119	0.6269699
133	0x3e092546	0.13393125
134	0x3dcb1a98	0.09917182
135	0xbeb18d64	-0.34678185
136	0x3e827a37	0.25483868
137	0x3e30d678	0.17269313
138	0x3d5d1694	0.05397661
139	0x3e32de73	0.1746767
140	0x3db2f679	0.08738417
141	0x3e88726a	0.2664979
142	0x3d96a45f	0.0735557
143	0x3df8a950	0.12141669
144	0x3e4d8ed6	0.20074019
145	0x3dd964ec	0.106149524
146	0x3dbaaf8e	0.09115516
147	0x3e1cfa10	0.15329766
148	0x3e8e634e	0.27810138
149	0x3da87999	0.08226318
150	0x3e99e23b	0.30055413
151	0x3d3145b3	0.04327936
152	0x3e5a2ae1	0.2130542
153	0x3e14f8b1	0.14547993
154	0xbf11c203	-0.56936663
155	0xbe308d23	-0.1724134
156	0x3ea3dafd	0.32003012
157	0x3df37b2f	0.1188873
158	0x3e1f8979	0.15579785
159	0x3e254117	0.16138111
160	0x3e812bfd	0.25228873
161	0x3e0fb9cf	0.14035724
162	0x3dfaf3a9	0.12253506
163	0x3e6b9c5f	0.2300887
164	0x3db0da5c	0.08635399
165	0x3e44c43c	0.19215482
166	0x3e7aafdf	0.24481152
167	0x3e4d4034	0.20044023
168	0x3e8185f7	0.2529752
169	0xbf34968a	-0.70542204
170	0x3e464e5f	0.19365834
171	0xbf1a685a	-0.6031548
172	0xbee74e06	-0.45176715
173	0x3e22a259	0.15882243
174	0x3d813eea	0.06310828
175	0xbe663ff2	-0.2248533
176	0x3e163a76	0.14670739
177	0xbeee6a53	-0.46565494
178	0x3d0534c4	0.032521024
179	0x3e826ebf	0.25475118
180	0x3de7fead	0.113278724
181	0x3e716328	0.23572981
182	0x3e1d3efb	0.15356056
183	0x3e85f137	0.26160595
184	0x3db3b78f	0.087752454
185	0x3e353953	0.17697649
186	0x3e640e1d	0.22271009
187	0x3e7816e9	0.2422749
188	0x3e0c2627	0.13686429
189	0x3e8590ad	0.2608694
190	0x3e17fa13	0.1484149
191	0x3e6de1a7	0.23230611
192	0x3dff78e2	0.124742284
193	0x3e7d32c8	0.24726403
194	0x3e7c7d29	0.2465712
195	0x3e199de8	0.15001643
196	0x3e020996	0.12698969
197	0x3e8ee03b	0.2790545
198	0x3d2f9163	0.04286326
199	0x3d91c7bc	0.071181744
200	0x3de682f2	0.112554446
201	0x3e08a592	0.1334441
202	0x3e90d886	0.28290194
203	0x3e534ae1	0.20634033
204	0x3e03d6bf	0.12874888
205	0x3ea6d1d9	0.32581976
206	0x3e66e33e	0.22547624
207	0xbe3622e2	-0.17786744
208	0xbeee2db5	-0.46519247
209	0x3e1e8d70	0.15483642
210	0x3dcd876b	0.100355946
211	0x3dbba916	0.0916311
212	0x3e790185	0.24316986
213	0x3db1750f	0.08664905
214	0x3e2ac776	0.16677651
215	0x3e2623e7	0.16224633
216	0x3ead8944	0.33893788
217	0x3d8ad749	0.06779344
218	0x3e0a078a	0.13479438
219	0x3e581681	0.21102335
220	0xbe13c0d9	-0.14429034
221	0x3e8c2633	0.27372894
222	0x3e5c56a5	0.21517427
223	0x3d1bcadb	0.038035255
224	0x3e65a85e	0.22427508
225	0x3e2ca5e7	0.16860162
226	0x3e20981d	0.15683027
227	0x3e61af35	0.22039492
228	0x3dfc0a7c	0.12306687
229	0x3e137c0c	0.14402789
230	0x3e268d03	0.16264729
231	0x3e4981ec	0.19678468
232	0x3e748737	0.23879705
233	0x3e1640bb	0.1467313
234	0x3dca8ca1	0.09890104
235	0x3daecf93	0.085356854
236	0x3e320c5a	0.17387524
237	0x3e2ce1fb	0.1688308
238	0x3e485c92	0.19566563
239	0xbeeb9727	-0.46013758
240	0x3e310de3	0.17290454
241	0x3e1d5b57	0.15366875
242	0x3ea08e6d	0.31358662
243	0x3e379891	0.17929293
244	0x3d9cc3e8	0.07654554
245	0x3e74a816	0.23892245
246	0x3e94929d	0.29018107
247	0x3dbb9b4c	0.0916048
248	0x3e8cd1aa	0.2750371
249	0x3e17d650	0.14827847
250	0x3e5f2719	0.21792258
251	0xbee7a7fe	-0.45245355
252	0x3e1b8ac4	0.15189654
253	0x3e7919ef	0.24326299
254	0x3e7e0f42	0.24810508
255	0x3d9d367e	0.07676409

exp_avg f4 [256, 17]
0	0x3af73886	0.001886145
1	0xbb930eea	-0.004487862
2	0x3b128fc9	0.0022363535
3	0x3b2890f2	0.002572116
4	0x3a97e581	0.0011588783
5	0x3a6b2c7e	0.00089711684
6	0x3ae43c0a	0.0017412913
7	0xbb88e531	-0.0041777124
8	0xbb87c809	-0.004143719
9	0xbb817d5b	-0.003951711
10	0xbb1ecd4c	-0.0024231253
11	0xbac472e2	-0.0014987851
12	0x3aad0ade	0.0013202091
13	0x3a884acc	0.0010398268
14	0xb8f02141	-0.00011450286
15	0x3a103b44	0.00055019953
16	0x3a6cb1b6	0.00090291665
17	0xbb1620b4	-0.0022907676
18	0xbbccdc4c	-0.0062518474
19	0x3928f395	0.0001611247
20	0xbacdb4e5	-0.001569417
21	0xbb058cd4	-0.002037813
22	0xbb6a6fe0	-0.003577225
23	0xbb118dc5	-0.0022209745
24	0xbbd9bc82	-0.0066447863
25	0xbbd6ef3a	-0.0065592797
26	0xbbc2094c	-0.0059215184
27	0xbc10170f	-0.00879456
28	0xbbebd469	-0.007196952
29	0xbb6679d2	-0.0035167825
30	0xbb62b29a	-0.0034591318
31	0xbb21023e	-0.0024567987
32	0xbbdf8656	-0.006821434
33	0xbbf3a9a5	-0.0074359947
34	0xbbdbe709	-0.006710891
35	0xbb8c5d22	-0.0042835632
36	0xbba59d3d	-0.0050541447
37	0xbbb85809	-0.005625729
38	0xbbb999dc	-0.0056640934
39	0xbbd0b3c8	-0.006369088
40	0xbbd538c3	-0.0065070107
41	0xbbaf6fea	-0.0053539174
42	0xbb906825	-0.0044069462
43	0xbb551f99	-0.0032520054
44	0xbc34780c	-0.0110149495
45	0xbc19a4e0	-0.009377688
46	0xbbf5f415	-0.0075059035
47	0xbadd7ef2	-0.0016898795
48	0x39f19cec	0.00046084018
49	0xbc2ff27b	-0.010738964
50	0xbc0191bc	-0.007908281
51	0x3ae8c58c	0.0017759069
52	0xbbb16e70	-0.0054147765
53	0x3b037cc6	0.0020063384
54	0x3b0a5dc9	0.002111303
55	0x3a6dade7	0.0009066746
56	0x3a1fbb22	0.00060932536
57	0x3ad75442	0.0016428309
58	0xbb9f5ab7	-0.004863109
59	0xbb95acad	-0.0045677037
60	0xbb859736	-0.0040768636
61	0xbb83a58d	-0.004017538
62	0xbafe11e8	-0.0019383999
63	0x3b42f329	0.0029746986
64	0x3b74f051	0.0037374685
65	0x3b01a8cb	0.0019784446
66	0xbab53e43	-0.001382776
67	0x3ae9bc42	0.0017832594
68	0xbb405224	-0.0029345835
69	0xbc07933e	-0.008274851
70	0xbacc6caa	-0.0015596349
71	0xbb0bf2eb	-0.0021354507
72	0xbb6c818a	-0.0036087953
73	0xbb90b6bf	-0.0044163163
74	0xbb3b8628	-0.00286139
75	0xbc0b356c	-0.0084966235
76	0xbc00a935	-0.007852842
77	0xbbd62405	-0.0065350556
78	0xbbf24604	-0.0073936004
79	0xbbc4e99e	-0.0060092947
80	0xbb2dce96	-0.002652084
81	0x3a0dc1bf	0.00054075936
82	0x3a5c9848	0.00084150257
83	0xbb7dc214	-0.0038720416
84	0xbb6145cc	-0.0034373878
85	0x3c44753f	0.011990844
86	0x3beb781b	0.0071859485
87	0x3c1462db	0.009056772
88	0x3c56aee0	0.013103217
89	0x3c3be629	0.011468449
90	0x3c41de4f	0.011832788
91	0x3c43d516	0.011952659
92	0x3c0b893f	0.008516609
93	0x3bff5d19	0.0077930805
94	0x3bfeeb2b	0.007779499
95	0x3c9101e4	0.017701097
96	0x3c8d7f9b	0.017272761
97	0x3c1f1b04	0.009711031
98	0x3bc3595a	0.0059615793
99	0x3bf8b381	0.007589758
100	0x3c9c91a4	0.019112416
101	0x3c5f9f6f	0.013648852
102	0x3a0b1cc1	0.0005306714
103	0xbc193ff0	-0.009353623
104	0x3b753eca	0.0037421458
105	0x3ae75539	0.00176493
106	0xb78863d6	-1.6258953e-05
107	0xba5df053	-0.0008466292
108	0x39b2600c	0.00034022366
109	0xbc08f56c	-0.008359294
110	0xbc04944c	-0.008091997
111	0xbc008218	-0.007843517
112	0xbc141602	-0.00903845
113	0xbc035a07	-0.00801707
114	0x3bb06c88	0.0053840317
115	0x3b9d14d5	0.004793743
116	0x39c8dfcd	0.00038313717
117	0xbbaf006b	-0.005340626
118	0xbb39d48f	-0.0028355455
119	0xbb49fd3e	-0.003082111
120	0xbbbd604e	-0.0057793027
121	0xba244db4	-0.0006267682
122	0xbba08a19	-0.004899275
123	0xbb4c369b	-0.0031160477
124	0xbb76745a	-0.0037605972
125	0xbb3985df	-0.0028308553
126	0xbbc79de1	-0.0060918187
127	0xbbc7605b	-0.0060844845
128	0xbbb7d5b1	-0.005610191
129	0xbc2b2f1f	-0.010448246
130	0xbc142ac8	-0.009043403
131	0xbb4e0b46	-0.0031439825
132	0xbb51bc90	-0.003200326
133	0xbb0adce0	-0.002118878
134	0xbc0cbb04	-0.00858951
135	0xbbaa3d8f	-0.0051953266
136	0xbb512a46	-0.0031916066
137	0x3bf26036	0.007396723
138	0xbbe38449	-0.00694326
139	0xbb8338ff	-0.004004597
140	0xbb26463d	-0.0025371455
141	0xbb5e84bf	-0.0033953635
142	0xbb37e92f	-0.0028062572
143	0x3bdda69c	0.006764246
144	0x3be364aa	0.0069394903
145	0x3bdda37a	0.0067638727
146	0x3b8bce37	0.004266526
147	0x3b318a7a	0.0027090595
148	0xbb5013d8	-0.003175011
149	0xbaa254f7	-0.0012384941
150	0x3ab45664	0.0013758657
151	0xb6ac2ae1	-5.130991e-06
152	0xba1e242e	-0.0006032613
153	0x3b2bf0f3	0.0026236146
154	0xbbe4da53	-0.006984034
155	0x3b7200c7	0.0036926733
156	0x3b200db0	0.002442222
157	0x3b12e2b9	0.002241297
158	0x39bff45f	0.0003661243
159	0x3b3cd064	0.0028810734
160	0xbbcbda89	-0.00622112
161	0xbbd6ce6e	-0.00655537
162	0xbbb2af87	-0.0054530534
163	0xbb953b64	-0.004554199
164	0xbb913cfb	-0.0044323183
165	0x3b7eb1d1	0.003886331
166	0x3aa127c6	0.0012295179
167	0x3ae1fb64	0.0017241058
168	0xba9dec3a	-0.001204855
169	0xba9b6280	-0.0011854917
170	0xbc6abea5	-0.01432768
171	0x3c55305c	0.013012018
172	0xbc832ce1	-0.01601261
173	0xbc33bb88	-0.010970004
174	0xbc03c72c	-0.008043092
175	0xbb03d839	-0.0020117892
176	0xbc72d015	-0.014820118
177	0x3c45dc52	0.012076454
178	0x3c48616c	0.012230258
179	0x3c351b3e	0.011053858
180	0x3be8d0fa	0.00710499
181	0x3a5b809c	0.00083733513
182	0xbb9296d5	-0.004473547
183	0xbb0b1b11	-0.002122585
184	0x3a1f0494	0.0006066051
185	0xbc0e3032	-0.008678483
186	0xbc1bfbd8	-0.009520493
187	0xbc54912b	-0.012974064
188	0xbc54c568	-0.012986518
189	0xbc118b72	-0.008883344
190	0xbc30121d	-0.010746506
191	0xbc699b4c	-0.014258217
192	0xbc736eea	-0.014857987
193	0xbc564412	-0.013077753
194	0xbc5ca5dc	-0.013467278
195	0xbc511a92	-0.0127626825
196	0xbc547e0b	-0.012969504
197	0xbc983a15	-0.018582383
198	0xbca07192	-0.019585405
199	0xbbc285c7	-0.0059363577
200	0xbb1e6beb	-0.002417321
201	0xbc1158b0	-0.008871242
202	0xbc7c2c5d	-0.015391436
203	0xbc6de5ae	-0.014520092
204	0x3b31c096	0.0027122847
205	0xbbbeee27	-0.00582673
206	0x3b83252f	0.0040022354
207	0x3b56d567	0.0032781006
208	0x3adca823	0.0016834777
209	0x3a9e386d	0.001207126
210	0x3b2087f5	0.00244951
211	0xbbafbcca	-0.0053630816
212	0xbbae1aa7	-0.005313236
213	0xbb95f6e0	-0.004576549
214	0xbb12fdb2	-0.0022429046
215	0xba3f4b32	-0.0007297277
216	0x3b0d553a	0.0021565692
217	0x3aec4bd2	0.0018027967
218	0x3ade46cb	0.0016958354
219	0x3b1472f3	0.0022651523
220	0x3aeabf2d	0.0017909758
221	0xbbffeea4	-0.0078104306
222	0xbc7ed280	-0.015553117
223	0xbc0c2f27	-0.008556164
224	0xbbf9afce	-0.0076198345
225	0xbc1d2120	-0.009590417
226	0xbc30c574	-0.010789264
227	0xbbfcca43	-0.007714541
228	0xbc89ba4e	-0.01681247
229	0xbc86f028	-0.016471937
230	0xbc82bfe5	-0.015960643
231	0xbc908d98	-0.017645642
232	0xbc5bc3d1	-0.0134133855
233	0xbc3b11b4	-0.011417795
234	0xbc177902	-0.009245159
235	0xbc296fec	-0.010341626
236	0xbc2fd319	-0.010731482
237	0xbbc3c272	-0.0059741074
238	0xbb630c23	-0.0034644685
239	0xbc10e164	-0.0088428
240	0xbabcb426	-0.001439695
241	0xbb3aa9a5	-0.0028482464
242	0xbb79bb01	-0.0038105848
243	0xbb9beda4	-0.0047585536
244	0xbb61e8ce	-0.0034471038
245	0xbc15a629	-0.009133854
246	0xbc0fd556	-0.008778891
247	0xbc09b2e6	-0.008404469
248	0xbc3cdc46	-0.011527127
249	0xbc1f57d1	-0.009725527
250	0xbb5630d5	-0.0032682915
251	0xbafe20ac	-0.0019388399
252	0xbb56d6a4	-0.0032781744
253	0xbc05fa53	-0.008177358
254	0xbbae24c4	-0.0053144414
255	0xbbd362ad	-0.006450972

exp_avg_sq f4 [256, 17]
0	0x39c07b1f	0.00036712826
1	0x399af22d	0.00029553604
2	0x39a887f0	0.00032144738
3	0x39b13a97	0.00033803724
4	0x39c1c85d	0.0003696111
5	0x39b737d2	0.0003494607
6	0x39c401d1	0.00037385387
7	0x39920a82	0.0002785512
8	0x399a892c	0.0002947537
9	0x3989e6d6	0.00026302662
10	0x392cc68d	0.00016477164
11	0x391e6497	0.00015105527
12	0x3803445f	3.129651e-05
13	0x392b5dd5	0.00016342786
14	0x38fc5969	0.0001203295
15	0x38f366dd	0.00011606303
16	0x38fb63ee	0.00011987226
17	0x3a8618a7	0.0010230736
18	0x39e37d12	0.0004339
19	0x3a711407	0.0009196405
20	0x3a75392a	0.00093545264
21	0x3a8745ee	0.0010320523
22	0x3a7999bd	0.0009521505
23	0x3a8704ac	0.0010301075
24	0x39dc4ee8	0.0004202046
25	0x39e51963	0.00043697198
26	0x3a110164	0.0005531518
27	0x3a0ef036	0.00054526643
28	0x3a4a98b8	0.00077284453
29	0x39ac62eb	0.00032880096
30	0x3a099591	0.00052484224
31	0x3a57b5ac	0.00082286703
32	0x3a48e771	0.0007663882
33	0x3a762165	0.00093891314
34	0x3aa04751	0.0012228285
35	0x3a10c45b	0.00055224233
36	0x3a903acc	0.0011003851
37	0x3a90f5e6	0.0011059612
38	0x3a97253f	0.0011531486
39	0x3a973bf9	0.0011538259
40	0x3aa26706	0.0012390323
41	0x3a0985bc	0.0005246063
42	0x39ffb142	0.00048769457
43	0x39faa372	0.00047805492
44	0x3a29e9ed	0.0006481696
45	0x3a8c0ae5	0.0010684399
46	0x3a0dbd59	0.0005406938
47	0x3a197fd6	0.0005855536
48	0x3a1c6f92	0.0005967553
49	0x3a9488a0	0.0011332221
50	0x3ae511c9	0.0017476614
51	0x3a59a1ba	0.0008301992
52	0x3a1f491f	0.00060762645
53	0x3a360221	0.0006943066
54	0x3a48974b	0.0007651939
55	0x3a577bde	0.0008220057
56	0x3a4a5d4c	0.0007719591
57	0x3a5d6eff	0.00084470207
58	0x3a132d38	0.0005614343
59	0x3a176bde	0.00057762663
60	0x3a0d51ba	0.00053909014
61	0x39d52632	0.00040654984
62	0x3a080cd0	0.00051898975
63	0x38b752ac	8.741519e-05
64	0x39b8f9f6	0.0003528145
65	0x39be5583	0.00036303335
66	0x39f22a27	0.00046189243
67	0x3a1fa9d6	0.0006090676
68	0x3a98a96d	0.0011647173
69	0x3a132897	0.00056136533
70	0x3a7798a0	0.0009445045
71	0x3a8e3bc3	0.0010851551
72	0x3a9710dc	0.001152541
73	0x3a924708	0.0011160085
74	0x3a9c5e20	0.0011929907
75	0x3a1058b5	0.00055063824
76	0x3a18a574	0.0005822994
77	0x3a049106	0.00050570106
78	0x39e35fad	0.00043368098
79	0x39e0d6bf	0.00042884608
80	0x39ce18a8	0.00039309752
81	0x3a25ee27	0.0006329738
82	0x39d7bda5	0.00041149292
83	0x39f9258d	0.00047520958
84	0x3a2206af	0.00061808055
85	0x3b28c968	0.0025754813
86	0x3aa849e3	0.0012839403
87	0x3b1641bb	0.0022927362
88	0x3b1bdb2b	0.0023781757
89	0x3b2602fe	0.0025331373
90	0x3b16c9ee	0.0023008543
91	0x3b26a6cf	0.0025429016
92	0x3aa8fc0d	0.00128925
93	0x3aa54622	0.0012609402
94	0x3b0cf877	0.0021510401
95	0x3b260993	0.0025335297
96	0x3b716495	0.0036833633
97	0x3abf941f	0.0014616287
98	0x3ae0a866	0.001714003
99	0x3b85ad96	0.004079531
100	0x3b6b1677	0.0035871544
101	0x3b884b0e	0.004159338
102	0x3b093363	0.002093517
103	0x3abf56f3	0.0014598056
104	0x3aeacdb4	0.0017914088
105	0x3afb9355	0.0019193689
106	0x3b06d2c1	0.0020572396
107	0x3afbeb0e	0.0019219832
108	0x3b0a738e	0.0021126005
109	0x3ab0239d	0.0013438348
110	0x3ab58c66	0.0013851046
111	0x3ac2e1e1	0.0014868343
112	0x3aa8a3f1	0.0012866241
113	0x3ae6edd1	0.0017618482
114	0x396354e8	0.00021680037
115	0x3a58b065	0.0008266031
116	0x3abf87d1	0.001461262
117	0x3ad171ef	0.001597939
118	0x3af5d48d	0.0018755362
119	0x3aa7ae23	0.0012792986
120	0x3a1c52ad	0.00059632474
121	0x3a9c9da5	0.0011948837
122	0x3a956847	0.0011398875
123	0x3aa5a9cb	0.0012639103
124	0x3a9ac17b	0.0011806929
125	0x3aa84b8a	0.0012839895
126	0x3a10aedb	0.00055192196
127	0x3a1cc4e5	0.00059802673
128	0x3a43d14d	0.0007469848
129	0x3a45b51e	0.0007541942
130	0x3a98062a	0.0011598517
131	0x39a18344	0.00030806114
132	0x3a3a82a4	0.0007114804
133	0x3a994170	0.0011692476
134	0x3a9ba65f	0.0011875144
135	0x3abd92f8	0.0014463356
136	0x3b0bdf57	0.0021342838
137	0x3ae0266b	0.0017101293
138	0x3ae67ecf	0.0017585399
139	0x3afd38d1	0.0019319301
140	0x3b11695d	0.0022188046
141	0x3b082079	0.0020771308
142	0x3b0e10fb	0.0021677602
143	0x3ad40e41	0.0016178564
144	0x3add9136	0.0016904238
145	0x3ac7b60c	0.0015236749
146	0x3a817fe3	0.0009880032
147	0x3a6336d6	0.0008667534
148	0x391ec546	0.00015141544
149	0x3a4c1a98	0.0007785945
150	0x3a1e7f92	0.0006046231
151	0x3a1fc02a	0.00060940033
152	0x3a1c7256	0.0005967965
153	0x3ad2b8b9	0.001607678
154	0x3a38241b	0.0007024423
155	0x3abaebfc	0.0014261003
156	0x3abb7c8b	0.0014304084
157	0x3ad23f2f	0.0016040559
158	0x3abf2470	0.0014583003
159	0x3ad44a49	0.0016196455
160	0x3a20d2bf	0.0006134919
161	0x3a31e738	0.00067864684
162	0x3a6b4c74	0.0008975931
163	0x3a54f734	0.00081239943
164	0x3aae0675	0.0013277071
165	0x390e30d6	0.00013560368
166	0x3a3be104	0.0007167014
167	0x3ab30f4e	0.0013661177
168	0x3aa86513	0.0012847505
169	0x3ac38659	0.0014917358
170	0x3cbe8f31	0.023261638
171	0x3be2364b	0.006903445
172	0x3c9c4f43	0.019080764
173	0x3cabfc53	0.020994341
174	0x3cc07b5d	0.023496324
175	0x3cb4a960	0.02205342
176	0x3cc1f969	0.023678498
177	0x3bcd06ce	0.0062569147
178	0x3befdbc3	0.007319899
179	0x3bc58fd2	0.0060291076
180	0x3b6a5475	0.0035755907
181	0x3b69f5d6	0.0035699508
182	0x3b0240bc	0.001987501
183	0x3c0ae536	0.0084775
184	0x3b9466ca	0.004528855
185	0x3b7ada3a	0.0038277046
186	0x3b837ca5	0.0040126615
187	0x3b0a4c34	0.002110255
188	0x3af18ba0	0.0018428452
189	0x3ad80db0	0.0016483571
190	0x3b094297	0.0020944232
191	0x3b06e534	0.0020583393
192	0x3b00cda1	0.0019653814
193	0x3b096856	0.002096673
194	0x3aedaf89	0.0018133979
195	0x3af72ec1	0.0018858538
196	0x3b061070	0.0020456575
197	0x3b0f7a16	0.0021892837
198	0x3b2698d7	0.002542069
199	0x3a3e9e78	0.00072715385
200	0x3ac560a3	0.0015058707
201	0x3b0d5aab	0.0021568935
202	0x3b1443b3	0.002262336
203	0x3aeb3db6	0.0017947468
204	0x3a3f8a3d	0.0007306671
205	0x3a18fe82	0.00058362645
206	0x3a264663	0.0006342886
207	0x3a319cb1	0.0006775363
208	0x3a4104e4	0.00073630945
209	0x3a35ac5e	0.0006930287
210	0x3a42907f	0.00074220443
211	0x3a0fc98b	0.00054850493
212	0x3a16ef9b	0.000575775
213	0x3a07f78d	0.0005186729
214	0x39b052bd	0.0003363098
215	0x39a5e6bd	0.00031643166
216	0x3893d213	7.0486356e-05
217	0x39a97fa3	0.0003232929
218	0x399184ea	0.00027755584
219	0x398812ce	0.00025953952
220	0x3988b4c9	0.00026074637
221	0x3b2aab3c	0.0026042005
222	0x3ac08f35	0.0014691117
223	0x3b0b234c	0.0021230755
224	0x3b20fe79	0.002456574
225	0x3b2de533	0.0026534318
226	0x3b216f0e	0.0024632844
227	0x3b2aa13d	0.0026036047
228	0x3ac0d90f	0.0014713126
229	0x3acf65cf	0.0015823188
230	0x3af8bfe3	0.0018978085
231	0x3aec7e42	0.0018042999
232	0x3af1ea44	0.0018456657
233	0x3a8bd0a9	0.0010667044
234	0x3ae4df82	0.001746163
235	0x3b23e82e	0.0025010216
236	0x3af16fb4	0.0018420131
237	0x3ab7791e	0.0013997888
238	0x3abd20fa	0.0014429383
239	0x3a818738	0.0009882217
240	0x3aa56e4e	0.0012621374
241	0x3aaeda69	0.0013340238
242	0x3abd8fce	0.0014462413
243	0x3aaf95c2	0.0013396072
244	0x3abd8cc4	0.0014461507
245	0x3a7b0f4e	0.0009577171
246	0x3a80a8e8	0.0009815963
247	0x3a930365	0.0011216222
248	0x3a88072c	0.0010378114
249	0x3aa9b7eb	0.0012948489
250	0x39dccd2d	0.00042114538
251	0x3a484b81	0.00076406455
252	0x3aa4c87e	0.0012571958
253	0x3a9d0145	0.0011978528
254	0x3aaee757	0.0013344091
255	0x3b5e0a64	0.0033880705

exp_avg f4 [256]
0	0x3a1f12d7	0.0006068176
1	0x3bd811df	0.0065939273
2	0x3b8db6ce	0.0043247705
3	0x3b1f1073	0.002427128
4	0x3bfdc4a0	0.007744387
5	0xbc65de64	-0.014030073
6	0x3bc3cd5e	0.0059754094
7	0x3c120fa9	0.0089148665
8	0xba500836	-0.0007935794
9	0x3c326f1b	0.010890747
10	0xbbd1fbfe	-0.0064082136
11	0x3c34d49f	0.011037021
12	0x3b0c765c	0.0021432852
13	0x3a4f3731	0.00079046475
14	0x3bebfac6	0.0072015254
15	0x3c29a781	0.010354877
16	0x3b13c249	0.0022546223
17	0x3a944a5a	0.0011313662
18	0x3bb735f9	0.005591151
19	0x3ad1354c	0.0015961318
20	0x3c058140	0.008148491
21	0x3b2c4a75	0.0026289497
22	0x3ba3b883	0.0049963607
23	0x3b88d446	0.0041756956
24	0x3b2f7ef8	0.002677856
25	0x3c05d629	0.008168736
26	0x3af76cf8	0.001887708
27	0x3b46a788	0.0030312259
28	0xbbea66e5	-0.0071533793
29	0xbb5b91e2	-0.00335037
30	0x3a02da50	0.00049916375
31	0x3ac30647	0.001487919
32	0x3b96ff90	0.004608102
33	0x3b59b464	0.0033219093
34	0x3b512863	0.0031914942
35	0x3a9a36ce	0.0011765601
36	0xbc09ffd9	-0.008422815
37	0x3b722868	0.0036950354
38	0x3be22fc2	0.006902666
39	0x3b20a5a3	0.002451279
40	0x3b00886b	0.0019612561
41	0x3a8f2699	0.0010921537
42	0x3bb6a08b	0.0055733374
43	0x3913caaa	0.0001409451
44	0x3c056eb2	0.008144068
45	0x3b2ea30d	0.0026647479
46	0x3b479ad9	0.0030457287
47	0x3ae4314f	0.0017409715
48	0x3aeab21f	0.0017905867
49	0x3a354149	0.00069143303
50	0x3900ea1b	0.00012294242
51	0x3a39ca82	0.0007087366
52	0x3bd9d4be	0.0066476753
53	0x3b92c1bf	0.0044786627
54	0x3aeb6c62	0.0017961378
55	0x3ae19594	0.0017210715
56	0x3beb9f55	0.0071906247
57	0x3ab39ed8	0.0013703955
58	0x3c1329bb	0.008982117
59	0x3ba0066d	0.0048835785
60	0x3b45726b	0.0030128013
61	0x3bc14673	0.005898291
62	0x3b84ca06	0.0040524034
63	0x3b924e70	0.004464917
64	0x3c1f3d94	0.009719271
65	0x39283bd8	0.00016044022
66	0xbc02d765	-0.007985924
67	0x3bb2d85e	0.005457922
68	0x3b517392	0.0031959754
69	0x3b4322fc	0.002977549
70	0x39843aaf	0.00025220725
71	0x3aa5577e	0.0012614576
72	0x3c06a8be	0.008218942
73	0x3ab2edbc	0.0013651173
74	0x3ab04e1c	0.0013451013
75	0xbbe7706f	-0.0070629637
76	0x3c015367	0.00789342
77	0x3b32da81	0.0027290883
78	0x3b9158a5	0.004435616
79	0x3bfa7a78	0.007643994
80	0x39fd680c	0.0004833344
81	0x3bc72483	0.0060773506
82	0x39dd114a	0.00042165286
83	0x3b16ba7e	0.0022999342
84	0x3b2e9506	0.0026639118
85	0x3b39931f	0.002831645
86	0x395422f3	0.00020230915
87	0x3bbc9257	0.0057547498
88	0x3c1d3c4c	0.009596895
89	0x3a79f253	0.00095347053
90	0x3ac4055e	0.0014955213
91	0x3ba973a3	0.0051712557
92	0x3a9952e1	0.0011697673
93	0x3b9141f9	0.0044329134
94	0x3be6c878	0.0070429407
95	0x3ac5ecd1	0.0015100484
96	0x3b9e0d11	0.004823335
97	0x3b3805e4	0.0028079683
98	0x3c05436f	0.008133753
99	0x3b18aaec	0.0023295237
100	0x3bbd998b	0.005786126
101	0x3afa16b1	0.0019080249
102	0x3bc0071c	0.0058602225
103	0xbb6b107f	-0.0035867987
104	0x3c0bb72e	0.00852756
105	0xbc4fe23a	-0.012688214
106	0x3b4e5745	0.0031485122
107	0x3b387fcd	0.0028152347
108	0xbc63cf78	-0.013904445
109	0xbbbcf8ab	-0.005766948
110	0x3beaeef0	0.007169597
111	0x3a88437c	0.0010396088
112	0xbbf99af3	-0.0076173483
113	0x3a925ef7	0.0011167218
114	0x3a436f24	0.0007455221
115	0x3b849161	0.004045651
116	0x3ac847f8	0.0015280237
117	0x3bc5f1fa	0.0060408087
118	0x3bcbd0de	0.0062199673
119	0x3bfd2a8d	0.0077260197
120	0x3b165b4d	0.0022942603
121	0xbc1eef24	-0.00970057
122	0x39b80393	0.00035097878
123	0x3bd7c580	0.006584823
124	0x3b8062eb	0.003918042
125	0x3acf3baf	0.0015810634
126	0x3a0d2d21	0.0005385448
127	0x3b95678b	0.0045594624
128	0xbc19549b	-0.00935855
129	0x3bfca7aa	0.007710417
130	0x3b353270	0.0027648471
131	0x3c25a08c	0.010109078
132	0x3c34b2b1	0.0110289315
133	0x3b892f56	0.004186551
134	0x3aa2e072	0.0012426509
135	0xbc36bb5d	-0.011153069
136	0x3c1c6b3d	0.009547052
137	0x3b830d3e	0.0039993813
138	0x3b167b30	0.002296161
139	0x3befb273	0.007314974
140	0x3a4cd1e1	0.0007813257
141	0x3bea3680	0.00714761
142	0x38be81a0	9.0840505e-05
143	0x39d323dc	0.00040271773
144	0x3bee38ed	0.0072699697
145	0x3a40587f	0.00073374057
146	0x3a47058c	0.0007592074
147	0x3b859922	0.0040770927
148	0x3c1b264d	0.009469581
149	0x3b54f243	0.0032493032
150	0x3c2c7a66	0.010527229
151	0x3a5d674b	0.0008445873
152	0x3a951aa4	0.0011375737
153	0x3b938482	0.00450188
154	0xbbcf398c	-0.006323999
155	0xbbce6e34	-0.0062997583
156	0x3ad3b20f	0.0016151088
157	0x3b8a9960	0.0042297095
158	0x3ab87810	0.0014073867
159	0x3b1d0099	0.0023956655
160	0x3c258b99	0.010104083
161	0x3aa992b2	0.0012937395
162	0x3b008f88	0.0019616801
163	0x3c0ddccf	0.008658602
164	0x3a1fa78b	0.00060903345
165	0x3b557b5d	0.003257475
166	0x3ba01bf6	0.0048861457
167	0x3aa9e13b	0.0012960801
168	0x3bb6bafe	0.0055764904
169	0xbc0e1eb5	-0.008674313
170	0x3a878ae2	0.0010341073
171	0xbc36fd25	-0.011168753
172	0xbae0009a	-0.0017090023
173	0x3b2d6c50	0.0026462264
174	0x3aa6759d	0.0012699846
175	0xbc1ee209	-0.009697446
176	0x3b979674	0.0046260897
177	0xbbb66c69	-0.0055671227
178	0x3a6495cb	0.00087198307
179	0x3be01213	0.006838092
180	0x393ba28f	0.00017894268
181	0x3c055230	0.008137271
182	0x3b0126c8	0.0019706953
183	0x3c1b6a22	0.009485753
184	0x3a82d95e	0.0009982993
185	0x3ac9cfa0	0.001539696
186	0x3bf7e089	0.0075646085
187	0x3ac46de4	0.0014986363
188	0x3b451ecd	0.0030078173
189	0x3bb31bd0	0.005465962
190	0x3a9d5717	0.0012004104
191	0x3c131fa4	0.008979712
192	0x3b8a1fe6	0.0042152284
193	0x3c07c6d1	0.008287148
194	0x3b63d791	0.0034765939
195	0x3b706e23	0.003668674
196	0x3b9b6950	0.004742779
197	0x3b8c9958	0.004290741
198	0x3a9624da	0.0011455074
199	0x3a81f7a1	0.0009915718
200	0x3a90825f	0.0011025182
201	0x3abbb77a	0.0014321648
202	0x3beb14f3	0.007174128
203	0x3c0237b0	0.007947847
204	0xb95314d1	-0.00020130283
205	0x3c19abc9	0.009379336
206	0x3c034a2d	0.00801329
207	0xbbd493ef	-0.0064873616
208	0xbc8d832b	-0.01727446
209	0x3b80d4a5	0.003931599
210	0x3b41cef3	0.0029572814
211	0x3afabd0b	0.0019129826
212	0x3be4b604	0.0069797058
213	0x3b1a9637	0.002358807
214	0x3aba743b	0.0014225313
215	0x3b920398	0.004455995
216	0x3a4d088a	0.0007821402
217	0x3b2d9eef	0.0026492437
218	0x3a3374c5	0.0006845708
219	0x3b83ad10	0.0040184334
220	0xbbc5eb3d	-0.0060400055
221	0x3b8cd786	0.0042981533
222	0x3bff887a	0.0077982517
223	0x3a8cf475	0.0010754006
224	0x3bce53ad	0.006296596
225	0x3a76647d	0.0009399129
226	0x3b406cfd	0.0029361837
227	0x3c049202	0.008091452
228	0x3a9fe886	0.0012200035
229	0x3b02f05a	0.0019979686
230	0x3aeb913d	0.0017972362
231	0x3bbf877d	0.005845009
232	0x3c036460	0.008019537
233	0x3b9226ff	0.004460215
234	0x3b51c0b4	0.003200573
235	0x3b2f50ab	0.0026750963
236	0x3ba7d315	0.0051215985
237	0x3af3995b	0.0018585132
238	0x3c070357	0.008240542
239	0x3a566871	0.0008179015
240	0x3bc0ef73	0.0058879196
241	0x3ba0f49b	0.0049119717
242	0x3c19179b	0.009344007
243	0x3b130310	0.0022432245
244	0x38d55e5f	0.000101742095
245	0x3bd1b1fd	0.0063993917
246	0x3b28e493	0.0025771006
247	0x3a480586	0.00076302176
248	0x3ba5bdc0	0.0050580204
249	0x38d8fd85	0.00010346904
250	0x3b90a663	0.004414366
251	0xbc74d79a	-0.014943982
252	0x3b9e4c9a	0.004830909
253	0x3b30e170	0.002698984
254	0x3b5de56f	0.0033858677
255	0x39482406	0.00019086906

exp_avg_sq f4 [256]
0	0x3991ee7c	0.0002783424
1	0x3a27b773	0.00063978805
2	0x3a7af586	0.0009573329
3	0x3a373962	0.00069894467
4	0x3a722f4a	0.0009238614
5	0x3b18e139	0.0023327603
6	0x3adb6f78	0.0016741594
7	0x3a7a1553	0.0009539921
8	0x3ab60ddc	0.0013889628
9	0x3a84ef14	0.0010142052
10	0x3c1725f9	0.009225362
11	0x3addf6b2	0.0016934483
12	0x3a1cca21	0.0005981047
13	0x3ad34c9e	0.0016120856
14	0x3a90638b	0.0011015994
15	0x3b28d70d	0.0025762946
16	0x3a58427a	0.0008249652
17	0x3991ba0e	0.00027795177
18	0x3aa73d6b	0.0012759393
19	0x3a3c0d11	0.0007173578
20	0x3a5bae92	0.00083802
21	0x3a247c46	0.00062746217
22	0x3a3b8f26	0.00071548147
23	0x39b3354e	0.00034181256
24	0x397d3e6f	0.00024151219
25	0x3aaef1c1	0.0013347195
26	0x3904607d	0.00012624446
27	0x39da3f9f	0.00041627602
28	0x3ae20317	0.0017243352
29	0x3a35ba17	0.00069323316
30	0x39b0c37e	0.0003371499
31	0x38808952	6.1290935e-05
32	0x3a532480	0.000805445
33	0x3ab50560	0.0013810806
34	0x39866e8a	0.0002564083
35	0x39194ecd	0.00014620573
36	0x3ad6c173	0.0016384557
37	0x39c55dac	0.0003764456
38	0x3a46cf73	0.0007584013
39	0x3a227529	0.0006197268
40	0x3978cb87	0.00023726943
41	0x39e2393c	0.00043148722
42	0x3a4314be	0.00074417505
43	0x3a2d4d37	0.0006610932
44	0x3a9c6d57	0.0011934441
45	0x39fb8e5d	0.0004798052
46	0x3a371cde	0.00069851975
47	0x3a168f8e	0.0005743437
48	0x3936dcca	0.00017439123
49	0x3930e090	0.00016868324
50	0x36b167e1	5.287104e-06
51	0x399effca	0.00030326686
52	0x3ac5d9ef	0.0015094856
53	0x3a380c76	0.00070209
54	0x3a317cb9	0.0006770599
55	0x3a69f68a	0.0008924982
56	0x3adcb733	0.0016839266
57	0x3a578474	0.0008221336
58	0x3a6f9f1b	0.0009140835
59	0x3a421e47	0.00074050244
60	0x39c4703f	0.00037467663
61	0x3abb6744	0.0014297743
62	0x39a616ea	0.0003167906
63	0x3a02e291	0.00049928675
64	0x3aef2716	0.0018245901
65	0x38ebb1a1	0.00011238759
66	0x3b0f7853	0.0021891787
67	0x3a045aef	0.00050489506
68	0x39d98490	0.00041488232
69	0x3a54a8fc	0.0008112339
70	0x38ebee17	0.00011250021
71	0x39336d05	0.00017111383
72	0x3ab070de	0.0013461371
73	0x39837a44	0.00025077362
74	0x3993335c	0.0002807629
75	0x3aa36e28	0.0012468742
76	0x3ad062f0	0.0015898626
77	0x3923048a	0.00015546582
78	0x3ad22392	0.0016032329
79	0x3a79fb03	0.0009536
80	0x3883ff48	6.2941166e-05
81	0x3aa2ddae	0.0012425685
82	0x36ca1d91	6.023511e-06
83	0x399311d0	0.00028051296
84	0x398ccc85	0.0002685526
85	0x3a10aa75	0.0005518564
86	0x391ea3f4	0.00015129131
87	0x3aaee360	0.001334291
88	0x3ad8ff39	0.0016555554
89	0x397f70d6	0.0002436073
90	0x3a149c01	0.00056689983
91	0x3a7c5611	0.0009625862
92	0x3949c06a	0.00019240534
93	0x3a0f2cf0	0.00054617133
94	0x3accd1a7	0.0015626446
95	0x39e94f5e	0.00044500356
96	0x39e55733	0.00043743252
97	0x39d0aba4	0.00039800734
98	0x3a92ae93	0.0011190943
99	0x3a18f1ec	0.0005834389
100	0x3b022751	0.001985986
101	0x39c8bbc5	0.00038286872
102	0x3aaebf63	0.0013332184
103	0x3a96a957	0.0011494559
104	0x3a860c2f	0.001022702
105	0x3ba0f086	0.004911485
106	0x3a4c0a43	0.00077835115
107	0x3977f858	0.00023648271
108	0x3b3f1747	0.0029158161
109	0x3a8835d8	0.0010392023
110	0x3a664de7	0.0008785412
111	0x38a9151e	8.062481e-05
112	0x3abc6a24	0.0014374894
113	0x3a8aaae2	0.0010579491
114	0x39c1116c	0.0003682481
115	0x3a275b7c	0.00063841767
116	0x39bdb9a2	0.00036187196
117	0x3a2ec2d2	0.0006666604
118	0x3a56f1f3	0.00081995054
119	0x3aa6774b	0.0012700347
120	0x3a396dc2	0.0007073545
121	0x3b3f22e4	0.0029165084
122	0x388c813f	6.699794e-05
123	0x3a91a110	0.0011110622
124	0x3a1b07f5	0.00059139665
125	0x39b18b34	0.00033863785
126	0x38a0b433	7.662959e-05
127	0x3a0b1753	0.0005305905
128	0x3b232f5e	0.002490006
129	0x3a89d67c	0.0010516192
130	0x3ac0bd00	0.0014704764
131	0x3b4d77e7	0.0031351985
132	0x3b225354	0.0024768906
133	0x39f11616	0.00045983557
134	0x3921ed4d	0.00015442558
135	0x3ab9fe9b	0.0014190258
136	0x3ae5dbf5	0.0017536866
137	0x3a476602	0.0007606448
138	0x385dde44	5.2897507e-05
139	0x3a0b6e6c	0.00053188833
140	0x38c4d399	9.3854214e-05
141	0x3af33aae	0.0018556917
142	0x38a0e153	7.6713644e-05
143	0x39643180	0.00021762215
144	0x3a900286	0.001098708
145	0x3924f7d8	0.00015732588
146	0x390810cd	0.0001297623
147	0x3a19c676	0.000586606
148	0x3b083585	0.0020783853
149	0x38f60bc7	0.00011732388
150	0x3ab6733f	0.0013919844
151	0x37de0244	2.6465517e-05
152	0x39f88bb2	0.00047406327
153	0x39b95773	0.00035351104
154	0x3b9cbd46	0.0047833053
155	0x39deaf16	0.0004247359
156	0x3a8e6173	0.0010862782
157	0x39ca0b15	0.000385367
158	0x39c3e058	0.00037360447
159	0x39e7936e	0.00044169597
160	0x3ade3788	0.0016953805
161	0x39bcc695	0.0003600611
162	0x39809f4d	0.0002453275
163	0x3ab7781f	0.0013997591
164	0x38df496a	0.00010647143
165	0x3a5020cf	0.0007939459
166	0x3a7195c8	0.00092157396
167	0x3a193450	0.0005844282
168	0x3ad27e4e	0.001605937
169	0x3b92960d	0.004473454
170	0x3a057451	0.000509088
171	0x3b21ef93	0.0024709448
172	0x3aba4233	0.0014210403
173	0x39d112d1	0.00039877606
174	0x389b1332	7.394551e-05
175	0x3a396207	0.0007071797
176	0x3a0cfe3c	0.000537846
177	0x3b103ec3	0.0022010065
178	0x3781c8ae	1.5471447e-05
179	0x3adfc17e	0.0017071215
180	0x3931bcdb	0.0001695039
181	0x3ac320f8	0.0014887145
182	0x39ad9287	0.00033106303
183	0x3af2d806	0.0018527515
184	0x38a262c1	7.743156e-05
185	0x39d58037	0.00040722053
186	0x3aa68507	0.001270444
187	0x3a0fb932	0.00054826133
188	0x39d02bd8	0.00039705518
189	0x3ae2cf8c	0.0017304285
190	0x399ee686	0.00030307862
191	0x3a52d35f	0.0008042361
192	0x39d4d93d	0.00040597646
193	0x3ad96560	0.0016585998
194	0x3a1b2bb5	0.00059192936
195	0x3a1a487e	0.0005885436
196	0x39e29f63	0.00043224831
197	0x3ad7dc4e	0.0016468854
198	0x3843db8b	4.669609e-05
199	0x38a4372d	7.830407e-05
200	0x3925791e	0.00015780746
201	0x39be2116	0.00036264275
202	0x3ae9a959	0.0017826959
203	0x3a4f4eca	0.0007908164
204	0x397dd9af	0.00024209054
205	0x3ace3a3e	0.001573391
206	0x3ab09bb9	0.0013474143
207	0x39eb7013	0.00044906195
208	0x3b318e00	0.0027092695
209	0x398ecfe4	0.0002723924
210	0x396bc649	0.00022485213
211	0x39460d80	0.0001888778
212	0x3abced5c	0.0014414
213	0x394f89d3	0.00019792402
214	0x39c2dcf1	0.00037167178
215	0x39e1ef2e	0.00043093547
216	0x3a9cae73	0.0011953845
217	0x38904a6a	6.880316e-05
218	0x398561c4	0.00025440578
219	0x3a5796e6	0.0008224085
220	0x39d796cd	0.0004112035
221	0x3a2153b6	0.00061541365
222	0x3aa59443	0.0012632686
223	0x3818e208	3.6450132e-05
224	0x3a9bf19a	0.0011897564
225	0x39d7e287	0.00041176772
226	0x39e6633d	0.00043942957
227	0x3aa82a87	0.0012830057
228	0x3978c5ca	0.00023724805
229	0x39aee4a8	0.00033358228
230	0x3a1d297e	0.00059952575
231	0x3a7c1414	0.0009616029
232	0x3acbde43	0.001555391
233	0x39c1b309	0.0003694522
234	0x397df419	0.00024218894
235	0x390767d7	0.00012913287
236	0x3a470975	0.0007592657
237	0x39bbad57	0.00035796568
238	0x3a3b0277	0.0007133851
239	0x3b2d0971	0.0026403333
240	0x39ee7269	0.0004548014
241	0x39d3ed27	0.00040421748
242	0x3b25a1cf	0.0025273447
243	0x39e11cb7	0.00042936738
244	0x38a9f07e	8.103343e-05
245	0x3ab2daac	0.0013645492
246	0x3a57a040	0.0008225478
247	0x38e91279	0.000111137466
248	0x3ab31284	0.0013662134
249	0x399e3156	0.00030172867
250	0x3a9c7a7c	0.0011938359
251	0x3b6a723a	0.003577365
252	0x39cfacae	0.00039610773
253	0x3a4720ea	0.0007596152
254	0x3a82d802	0.0009982588
255	0x38a861f7	8.0291116e-05
