notebooks/checkpoints/lstmtest/cp_128_300_64_3e-4.pt (torch, 273476 bytes, 5 tensors)

lstm.weight_ih_l0 f4 [512, 2]
0	0x3ca273d0	0.019830614
1	0x3ce8cd12	0.028418098
2	0xbda7caa1	-0.08192945
3	0x3db9bc45	0.09069113
4	0x3d9c3940	0.07628107
5	0xbd9a5b2b	-0.0753692
6	0xbcd15cc4	-0.02555693
7	0x3ccb2c08	0.02480127
8	0x3be663db	0.0070309467
9	0x3d320afb	0.043467503
10	0xbd42944f	-0.04750472
11	0xbbfece3d	-0.0077760504
12	0xbd38dbc8	-0.045131475
13	0x3d13d227	0.03608909
14	0x3cdf0424	0.027223654
15	0x3c56f0a5	0.013118898
16	0x3cbf4f0e	0.023353126
17	0xbd413d98	-0.04717788
18	0xbd536d8c	-0.051618144
19	0x3d4f4207	0.050600078
20	0x3d375d0b	0.044766467
21	0x3cd8e4aa	0.026476223
22	0x3e03c6e2	0.12868837
23	0x3d7bd905	0.061486263
24	0x3d627d52	0.055295296
25	0x3b040fb3	0.002015096
26	0xbc92ce7d	-0.017920727
27	0xbd4ed5d2	-0.050496884
28	0x3d86482b	0.06556734
29	0xbe1a5a6c	-0.15073556
30	0xbd581b4f	-0.05276042
31	0x3cde2831	0.027118774
32	0xbc23b1b9	-0.009991103
33	0x3df95c47	0.12175804
34	0x3d5514c3	0.052021753
35	0xbd2ad3a4	-0.041705742
36	0x3ce39672	0.027781699
37	0x3d8315fa	0.06400676
38	0xbd9f20a2	-0.07769896
39	0x3d5d6ec6	0.05406072
40	0x3d0420e4	0.03225793
41	0xbdcfd4b9	-0.101479955
42	0xbd6df71f	-0.058097
43	0xbce20e4b	-0.027594706
44	0xbd2de3ec	-0.04245369
45	0x3c5fe6bd	0.013665852
46	0xbc95dc3a	-0.018293489
47	0xbdab6f8e	-0.08370887
48	0xbd06f093	-0.032944273
49	0xbdb65078	-0.08902067
50	0x3e28b952	0.16476944
51	0xbc0383f8	-0.008027069
52	0xbcdb1ccd	-0.026747132
53	0xbd2fb30b	-0.042895358
54	0xbd961073	-0.07327356
55	0xbd28009a	-0.0410162
56	0x3dbaf1de	0.09128164
57	0xbcb3cf97	-0.021949572
58	0x3d8fc6d6	0.07020347
59	0x3c067e40	0.008208811
60	0x3e092ef4	0.13396817
61	0xbc516bac	-0.012782019
62	0x3e228ad2	0.15873268
63	0x3dbfe5ce	0.09370004
64	0xbdfc8224	-0.1232951
65	0x3e108803	0.14114384
66	0x3d160a80	0.036631107
67	0x3c590dcc	0.013247918
68	0xbdd65a1c	-0.10466406
69	0x3dffd65e	0.12492059
70	0xbdda4969	-0.10658533
71	0x3d8db54e	0.06919347
72	0xbc78762e	-0.015164895
73	0x3dd12682	0.10212423
74	0x3d2933d4	0.041309193
75	0x3c978a8c	0.018498681
76	0xbd992a9c	-0.0747883
77	0x3db0e484	0.08637336
78	0xbdd4f13d	-0.10397575
79	0x3df7c149	0.12097413
80	0xbd246cf0	-0.040142953
81	0xbd96ae79	-0.07357497
82	0x3e86dd79	0.26340845
83	0x3c92679e	0.017871674
84	0x3e307fc6	0.17236242
85	0xbd958c87	-0.07302194
86	0xbd26b2bf	-0.04069781
87	0x3cea6d8f	0.028616695
88	0xbbb04cbb	-0.0053802407
89	0x3db388cd	0.08766327
90	0x3d85d753	0.065352105
91	0xbd538bed	-0.051647115
92	0x3d1c04de	0.03809058
93	0xbc4f1b98	-0.012640856
94	0x3eb53603	0.3539277
95	0xbd17595c	-0.036950454
96	0xbd429679	-0.047506783
97	0xbd294a8a	-0.04133085
98	0x3d913200	0.07089615
99	0xbbf3705e	-0.0074291667
100	0x3bc84fba	0.00611302
101	0xbd9290f9	-0.071565576
102	0xbd21bc16	-0.039486013
103	0x3b7a1ac5	0.0038162929
104	0x3d6c2b99	0.057658765
105	0xbd800b96	-0.0625221
106	0x3ca75e7d	0.020430798
107	0x3ceef2a2	0.02916843
108	0x3c393a92	0.011305468
109	0x3d6c97b5	0.057761867
110	0xbc45b3d2	-0.012066798
111	0xbd9b6b84	-0.07588866
112	0x3b89bd3d	0.004203467
113	0xbd6baed6	-0.057539783
114	0xbd4c06b8	-0.049811095
115	0x3c946e29	0.018118935
116	0xbdd247be	-0.1026759
117	0x3db70e39	0.0893826
118	0xbde34577	-0.11097234
119	0xbd320c25	-0.043468613
120	0x3e24ec72	0.16105822
121	0x3d57e148	0.05270508
122	0x3d0c9141	0.034318212
123	0xbdcb8e08	-0.099392
124	0x3dc8a18f	0.0979644
125	0xbca91f36	-0.020644765
126	0xbccab6c1	-0.024745347
127	0xbcad3e91	-0.021147998
128	0xbdabf3aa	-0.083960846
129	0xbce523cc	-0.02797117
130	0xb919233f	-0.00014604347
131	0xbc68d679	-0.0142112905
132	0x3dcbfb00	0.09959984
133	0x3e0239d1	0.12717368
134	0xbcecdd0e	-0.028914
135	0x3dad695e	0.08467363
136	0x3b9ce5ed	0.0047881515
137	0x3d8c81f7	0.06860726
138	0xbd94bd53	-0.07262673
139	0xbd153c34	-0.036434367
140	0xbdab04f3	-0.08350553
141	0xbbc1ec3d	-0.0059180544
142	0xbbb9fd75	-0.0056759664
143	0xbd3080cf	-0.04309159
144	0x3de66317	0.11249369
145	0x3d5680d8	0.05236897
146	0x3e42fb0c	0.1904108
147	0xbdee85f5	-0.11646644
148	0x3cd4445e	0.025911506
149	0x3dc87b35	0.09789125
150	0x3e4c5a55	0.19956334
151	0x3cd53ad0	0.02602902
152	0x3dd7bb42	0.105337635
153	0x3dfa82e4	0.12231997
154	0x3e010ec9	0.12603296
155	0x3e19c3e8	0.15016139
156	0xbd2cc878	-0.04218337
157	0x3d30f53c	0.043202624
158	0xbd100f36	-0.035170756
159	0x3dc3d2c1	0.095616825
160	0xbdaefb0b	-0.085439764
161	0x3d355198	0.044267267
162	0xbdc6530b	-0.09683808
163	0x3dc00cd6	0.09377448
164	0xbdc44d4c	-0.09585056
165	0x3c5e5cdc	0.013571944
166	0x3b866f3b	0.004102615
167	0x3cdf547d	0.027261967
168	0x3dad6dae	0.08468185
169	0xbd8bf04f	-0.068329446
170	0xbb17b48c	-0.0023148386
171	0xbcc71ba2	-0.024305169
172	0x3d1653c5	0.036700983
173	0x3dd2fccc	0.103021234
174	0xbdd00c95	-0.1015865
175	0x3d8e0511	0.0693456
176	0x3d03021f	0.031984445
177	0x3da38143	0.07983639
178	0x3d3ab783	0.045585167
179	0xbd1d21fa	-0.03836248
180	0xbc978808	-0.018497482
181	0xbdd169e1	-0.10225273
182	0x3d7951a9	0.060868893
183	0x3d8e688f	0.06953537
184	0x3dd7d582	0.1053877
185	0xbd8d2579	-0.06891913
186	0x3b914c2c	0.004434129
187	0xbd248504	-0.040165916
188	0x3d3d04e4	0.046147242
189	0xbd7415a9	-0.05959097
190	0x3de8b97c	0.11363503
191	0x3c28aabc	0.0102946125
192	0xbdadd237	-0.08487361
193	0x3df4c436	0.11951487
194	0xbd9225a7	-0.07136088
195	0xbc57b728	-0.013166226
196	0x3dcd0f22	0.10012652
197	0xbe05426d	-0.1301362
198	0x3d8b06b4	0.06788388
199	0xbd5ff8d1	-0.05468065
200	0x3d7bf09f	0.06150877
201	0x3dae8cf1	0.08522976
202	0x3dbe62c1	0.092961796
203	0xbcafd769	-0.02146502
204	0xbcaecc62	-0.021337692
205	0x3c4d628c	0.012535702
206	0x3c9519c7	0.018200768
207	0xbd124fe5	-0.035720725
208	0xbdc65a66	-0.09685211
209	0x3d32c4f6	0.043644868
210	0xbde2c2bd	-0.110723
211	0x3cedec21	0.02904326
212	0x3d4e7bbd	0.050410975
213	0x3c980410	0.018556625
214	0x3ca555b0	0.02018246
215	0x3bb7dc16	0.005610953
216	0xbce20598	-0.027590558
217	0xbd9cc062	-0.076538816
218	0x3d0fcb8c	0.035106227
219	0x3d8d14e2	0.06888749
220	0x3cc80e87	0.02442099
221	0x3d6033ff	0.054737087
222	0x3d4bce5f	0.049757358
223	0x3cb71626	0.022349428
224	0x3c982dfe	0.018576618
225	0xbd1046bb	-0.035223704
226	0x3e0ad786	0.13558778
227	0x3d94d82f	0.07267796
228	0x3c91028e	0.017701413
229	0x3dc65c6a	0.09685595
230	0xbc7c3dc4	-0.015395585
231	0x3d4b4111	0.0496226
232	0x3d4d61c8	0.05014208
233	0xbda0da50	-0.0785414
234	0x3d2c7eea	0.042113222
235	0x3d1a7ed8	0.037718624
236	0x3d074b0d	0.03303056
237	0x3d0fe4cc	0.035130307
238	0x3ca3f033	0.020011997
239	0x3dade11f	0.08490204
240	0xbcc63c84	-0.024198778
241	0xbc9c7cd4	-0.019102491
242	0xbd954bdc	-0.0728986
243	0x3d05b3b8	0.032642096
244	0x3d04a9e6	0.03238859
245	0xbdbd3e2c	-0.09240374
246	0x3d86a766	0.065748975
247	0xbd0de2bf	-0.03464007
248	0xbd8a80ca	-0.06762846
249	0xbdf2c035	-0.11853067
250	0xbd54d448	-0.05196026
251	0x3d369a4e	0.04458075
252	0xbd1da813	-0.038490366
253	0x3dbd2d7b	0.0923719
254	0x3d6997ce	0.057029538
255	0x3d868b53	0.06569543

lstm.weight_hh_l0 f4 [512, 128]
0	0x3abf3434	0.0014587701
1	0xba445446	-0.00074893644
2	0xbddc391e	-0.10753082
3	0xbd60765b	-0.054800373
4	0xbda9f573	-0.08298769
5	0xbdb6bfbc	-0.08923289
6	0x3dc11abd	0.09428928
7	0x3de6e9bc	0.1127505
8	0x3b9a6cc8	0.0047126748
9	0xbc1c8b19	-0.009554648
10	0x3ddd6e97	0.10812109
11	0x3cc89638	0.024485692
12	0xbd4db8dd	-0.050225127
13	0xbd8849b5	-0.066546835
14	0x3dddea56	0.10835712
15	0xbd20277f	-0.039100166
16	0xbd3d581c	-0.046226606
17	0xbd0c38bb	-0.03423379
18	0x3be39611	0.0069453795
19	0x3d5b86b2	0.053595252
20	0xbded990c	-0.11601457
21	0x3aa6b81e	0.0012719666
22	0xbdd1f7c3	-0.10252335
23	0xbdde9483	-0.1086817
24	0xbd31c282	-0.043398388
25	0xbc18ac03	-0.009318355
26	0x3c950a30	0.018193334
27	0xbbdf87b4	-0.006821597
28	0xbdaff43e	-0.085915074
29	0x3dd9d977	0.10637181
30	0x3d73a654	0.059484795
31	0xbde73d60	-0.11291003
32	0xb9e550e7	-0.0004373856
33	0xbdd6d29a	-0.10489388
34	0x3d9f4e21	0.07778574
35	0x3d3b7df3	0.04577441
36	0xbaa51f4c	-0.0012597828
37	0xbd88fe87	-0.06689172
38	0xbaa43ce7	-0.0012530357
39	0x3d5d2d67	0.053998377
40	0xbca93f3c	-0.020660035
41	0xbda4269a	-0.08015175
42	0xbc45060a	-0.012025366
43	0x3d974451	0.07386077
44	0x3dca7d18	0.09887141
45	0x3d58303b	0.05278037
46	0xbc5a52a5	-0.013325368
47	0x3dac2fa3	0.084075235
48	0x3d88a880	0.06672764
49	0xbb84c13f	-0.004051357
50	0xbd141f82	-0.03616286
51	0x3d4566a2	0.04819358
52	0xbd24a87b	-0.040199738
53	0xbd34b36b	-0.04411642
54	0x3cb1ad90	0.021689206
55	0x3d005495	0.031330664
56	0xbd451804	-0.048118606
57	0xbacf7201	-0.0015826822
58	0x3c16ca26	0.009203469
59	0x3dd25b67	0.1027134
60	0xbdb385ad	-0.08765731
61	0xbe098372	-0.13429049
62	0x3dfe3811	0.124130376
63	0xbde51590	-0.11185753
64	0x3cefd118	0.029274508
65	0xbd889b52	-0.0667025
66	0x3cbeeeeb	0.023307284
67	0x3d54fb75	0.05199762
68	0xbcac288b	-0.021015426
69	0x3daf31e4	0.08554438
70	0xbcba3a1d	-0.022732789
71	0xbb5b6af0	-0.0033480488
72	0xbc80173f	-0.015636085
73	0x3da93caa	0.08263524
74	0x3c1b493d	0.009477911
75	0xbdfcccce	-0.12343751
76	0x3cc0cc0e	0.0235348
77	0x3d491b56	0.049098335
78	0xbd9c71cd	-0.07638893
79	0xbb1925fe	-0.0023368592
80	0x3b2ca455	0.0026343067
81	0xbcbc85c7	-0.023013009
82	0xbd96c73a	-0.07362218
83	0xbafb3d6a	-0.0019168083
84	0xbc8af2e4	-0.016961522
85	0xbc641fd5	-0.013923605
86	0xbd68127d	-0.056658257
87	0xbdad40c3	-0.08459618
88	0x3dcb7995	0.09935299
89	0x3cad59ab	0.021160921
90	0x3ce87adc	0.028378896
91	0xbcc93a92	-0.024564061
92	0x3c77b168	0.015117981
93	0x3bb1ec95	0.005429814
94	0xbd62815c	-0.055299148
95	0xbd0ea8a5	-0.0348288
96	0x3df94d42	0.12172939
97	0xbc336168	-0.010948516
98	0x3d8d6cfd	0.069055535
99	0xbcaa8e65	-0.020819852
100	0xbd81c8ff	-0.06337165
101	0x3e006225	0.12537439
102	0xbdc8639d	-0.09784625
103	0x3d8ec0ad	0.06970344
104	0x3db76807	0.089553885
105	0x3df14663	0.11781003
106	0x3d852361	0.065008886
107	0x3d94a484	0.07257941
108	0xbc52ef9e	-0.012874512
109	0xbdc83a3c	-0.09776732
110	0xba35c41e	-0.0006933826
111	0xbd50c4cb	-0.050968926
112	0x3dc00739	0.093763776
113	0xbd61679c	-0.05503045
114	0xbddd2390	-0.10797799
115	0x3cb3c5bd	0.021944875
116	0x3d924a62	0.07143094
117	0xbd6600c6	-0.05615308
118	0x3d83a708	0.06428343
119	0xbd903285	-0.07040886
120	0x3c90694b	0.017628333
121	0xbcd0bcd8	-0.025480673
122	0x3d96789d	0.07347224
123	0xbc81b909	-0.015835302
124	0xbd503db1	-0.050840084
125	0x3d19fdb7	0.037595477
126	0x3d8a45ec	0.06751618
127	0x3d498a3d	0.0492041
128	0xbddc1eca	-0.1074806
129	0xbd33c130	-0.04388541
130	0xbe47ab32	-0.194989
131	0xbe217ef1	-0.1577108
132	0xbdc603dd	-0.096687056
133	0xbdeabe29	-0.114620514
134	0x3e1e513f	0.1546068
135	0x3d94677a	0.07246299
136	0xbb8866e7	-0.0041626575
137	0xbddb5985	-0.10710434
138	0x3e210929	0.1572615
139	0xbdcb23ab	-0.099189125
140	0xbc9c6873	-0.019092774
141	0xbe1a9d6b	-0.15099113
142	0xbc0213fe	-0.007939337
143	0xbdae4aec	-0.08510384
144	0x3d491b92	0.04909856
145	0xbe215421	-0.15754749
146	0xbe1b003e	-0.15136811
147	0x3d0f3fa6	0.03497281
148	0xbdece27d	-0.11566637
149	0xbd22de68	-0.039762884
150	0xbc7f1a53	-0.015570241
151	0x3b98e252	0.0046656514
152	0xbdeb6c75	-0.11495296
153	0xbd58097b	-0.052743416
154	0xbd642b72	-0.055705495
155	0x3b3d4fcf	0.002888668
156	0xbe1ab737	-0.15108953
157	0x3de87feb	0.113525234
158	0x3c932162	0.017960254
159	0xbd604029	-0.054748688
160	0xbd59d364	-0.053180113
161	0xbe3118d7	-0.17294632
162	0x3c0c79fd	0.008574006
163	0xbe209c7a	-0.15684691
164	0x3de53844	0.111923724
165	0x3d93a483	0.072091125
166	0xbc0bd13a	-0.00853377
167	0xbd8319d3	-0.0640141
168	0xbcbc9f00	-0.023025036
169	0x3d70d20f	0.058794077
170	0xbd1ab85a	-0.037773468
171	0x3beee5e1	0.0072905873
172	0x3cadc9e6	0.021214437
173	0x3d8fe890	0.0702678
174	0x3c685d54	0.014182407
175	0x3da249dd	0.079242446
176	0x3da32db2	0.079677
177	0xb925935d	-0.00015790523
178	0x3d851cc2	0.06499626
179	0xbb9422d6	-0.0045207543
180	0xbd3a1d23	-0.045437943
181	0xbe07ccd2	-0.13261726
182	0xbbe0fc03	-0.0068659796
183	0xbd5496fd	-0.051901806
184	0xbdc57437	-0.09641307
185	0x3a07377a	0.0005158108
186	0xbd97c580	-0.07410717
187	0xbca4428c	-0.020051263
188	0xbdd2bb87	-0.10289674
189	0xbcff6d39	-0.031180011
190	0x3e27cf05	0.16387565
191	0xbd8be46c	-0.068306774
192	0xbe094026	-0.13403377
193	0x3adbac7f	0.0016759782
194	0x3de82cb6	0.11336653
195	0x3dc907e0	0.09815955
196	0x3dfde08e	0.12396346
197	0x3e1fca60	0.15604544
198	0x3db6018d	0.088870145
199	0xbd241e81	-0.040068153
200	0xbd1fe11d	-0.039033044
201	0x3b3b749c	0.002860344
202	0x3deaefa5	0.1147149
203	0xbce6041f	-0.028078137
204	0x3d796368	0.060885817
205	0x3db197a9	0.08671505
206	0xbe0d2fd6	-0.13787779
207	0x3de51d6f	0.11187255
208	0xbd0b411e	-0.033997647
209	0xbd78277e	-0.060584538
210	0xbd1c2a44	-0.038126245
211	0xbcdf665e	-0.027270492
212	0x3e0e0a3b	0.1387109
213	0x3d3f0976	0.046639882
214	0xbc03df99	-0.008048915
215	0xbd75b7f0	-0.05998987
216	0x3d767394	0.060168818
217	0x3d023667	0.031790163
218	0xbd32ce0e	-0.04365354
219	0x3d2059ce	0.039148144
220	0xbdbf9874	-0.0935525
221	0xbcbf8aa9	-0.023381548
222	0xbc74c7df	-0.014940231
223	0x3c38a243	0.011269155
224	0x3d377f9c	0.044799432
225	0xbc320cd4	-0.010867316
226	0xbdcb5a31	-0.09929312
227	0x3d02ea4a	0.031961717
228	0xbd0ff30c	-0.035143897
229	0x3e0e44dd	0.13893457
230	0x3c66835f	0.014069407
231	0x3bb23b43	0.0054391935
232	0x3e192811	0.1495669
233	0x3e4fff05	0.20312126
234	0x3c8c103b	0.017097583
235	0x3db1207c	0.08648774
236	0x3d9486ba	0.072522596
237	0xbe04d94a	-0.12973514
238	0xbd7ec83b	-0.062202673
239	0xbe0ab9a2	-0.13547376
240	0x3c7ec522	0.01554993
241	0x3de071e2	0.109592214
242	0xbe09614e	-0.13416025
243	0x3d961000	0.073272705
244	0x3d8cbedd	0.06872342
245	0xbdca3ea9	-0.09875233
246	0x3da07734	0.07835236
247	0xbc9ad87d	-0.018902058
248	0x3e053322	0.13007787
249	0xbd06e662	-0.032934554
250	0x3dbd0acd	0.09230576
251	0xbe054365	-0.1301399
252	0xbd7145e3	-0.05890454
253	0x3e1f4234	0.15552598
254	0xbc0f6b4e	-0.008753611
255	0xbd260e40	-0.040540934

lstm.bias_ih_l0 f4 [512]
0	0xbd494f74	-0.049148038
1	0x3d48bd21	0.049008492
2	0x3d383664	0.044973746
3	0x3d21e6ac	0.039526626
4	0x3dc0d05d	0.09414742
5	0x3d9cd51d	0.07657836
6	0x3db13b39	0.08653874
7	0xbce33521	-0.027735295
8	0x3d38cefe	0.045119278
9	0x3da15348	0.07877213
10	0x3d830bbe	0.06398724
11	0xbb21e92d	-0.0024705634
12	0x3c8e2d53	0.017355597
13	0xbc40ee66	-0.011775589
14	0xbd957f1e	-0.07299636
15	0x3dae2a1a	0.08504124
16	0x3d2c328e	0.0420404
17	0xbd5d92ee	-0.0540952
18	0x3dbaf229	0.0912822
19	0x3d9d4494	0.07679096
20	0x3c1c992f	0.009558006
21	0xbd807844	-0.06272939
22	0x3d2022e4	0.039095774
23	0x3d8ece5e	0.06972955
24	0xbd9fee86	-0.078091666
25	0xbd2ff08d	-0.042954016
26	0xbccd4ee7	-0.025062038
27	0xbd90cd4d	-0.07070408
28	0x3d4633e6	0.048389338
29	0xbd2e962e	-0.04262369
30	0xbc3c40e1	-0.011490078
31	0x3cf11e5b	0.02943342
32	0x3d210398	0.039310068
33	0x3d103572	0.03520722
34	0x3d2b89c4	0.04187943
35	0x3d25f6a4	0.040518418
36	0xbd0f87b1	-0.035041515
37	0x3dacf02a	0.08444245
38	0xbd8d8ba6	-0.069114015
39	0xbd9ed25a	-0.07754965
40	0xbc5c811b	-0.0134585155
41	0xbab8e5c9	-0.0014106567
42	0xbce7954c	-0.028269432
43	0x3d3f71cb	0.04673938
44	0x3e0a444c	0.13502616
45	0xbd2f425b	-0.04278789
46	0x3d99acdf	0.07503676
47	0xbda8f0fc	-0.08249089
48	0x3cd2d495	0.025736133
49	0x3b0ec07a	0.0021782205
50	0xbd762c1a	-0.060100652
51	0x3db2050d	0.086923696
52	0x3cb9e4f5	0.022692183
53	0x3dc8f35d	0.09812043
54	0x3d929fbd	0.07159374
55	0x3dd548de	0.10414289
56	0xbdb231f7	-0.08700936
57	0x3dae2992	0.08504023
58	0x3db7ee4e	0.08981
59	0x3d8c3cb9	0.068475194
60	0xbb666a2a	-0.0035158494
61	0x3d68586f	0.05672496
62	0xbdb6b544	-0.089212924
63	0x3e1c4b56	0.15263113
64	0xbca2ffdf	-0.0198974
65	0xbd3f0861	-0.04663885
66	0x3d70bfb4	0.058776572
67	0x3d51c29e	0.051210992
68	0x3d8d75e7	0.06907254
69	0x3d7a9e54	0.06118615
70	0xbd9ba31e	-0.075994715
71	0x3daddbea	0.08489211
72	0x3d11461e	0.03546726
73	0x3d1e9771	0.038718645
74	0x3ca9fa4f	0.02074924
75	0xbd69e671	-0.05710453
76	0xbd69f8fb	-0.057122212
77	0x3cee51d9	0.029091762
78	0x3daef139	0.08542103
79	0x3e0060e9	0.12536968
80	0xbd01086e	-0.03150218
81	0x3d96c8c8	0.07362515
82	0x3dacf9e1	0.08446098
83	0xbd9111ab	-0.07083448
84	0x3ca04ca6	0.019567799
85	0xbc92fd5f	-0.017943082
86	0x3da0e41c	0.078560084
87	0xbcb8ba84	-0.022549875
88	0xbb51e6f2	-0.0032028523
89	0x3c71c46c	0.014756303
90	0x39963f37	0.00028657328
91	0xbd616e75	-0.05503698
92	0x3d8a50c6	0.067536876
93	0x3d8e23d0	0.069404244
94	0xbd55a933	-0.052163314
95	0xbd4bf31c	-0.049792394
96	0x3d3ff643	0.046865713
97	0xbd63b3a6	-0.055591248
98	0xbcc76bae	-0.024343338
99	0x3d9951e2	0.07486321
100	0x3d1e8a13	0.038705897
101	0x3c7fd49b	0.015614654
102	0xbca645e4	-0.020296998
103	0xbce907b6	-0.02844606
104	0x3c80800b	0.015686056
105	0xbcf6b662	-0.030116264
106	0x3da9dc49	0.08293969
107	0xbd49253f	-0.049107786
108	0x3c22373b	0.009900863
109	0xbc7d51f5	-0.015461435
110	0xbd545b79	-0.051845048
111	0x3db85953	0.09001412
112	0x3dacb25e	0.08432458
113	0x3c1ca2dd	0.009560314
114	0xbd71c300	-0.059023857
115	0x3cfdb8dd	0.030971939
116	0xbd00c402	-0.031436928
117	0x3d96f159	0.07370252
118	0x3d569257	0.052385654
119	0xbc14df3b	-0.009086425
120	0x3cf4f7df	0.02990335
121	0xbd336eb7	-0.043806758
122	0x3d387f79	0.045043442
123	0xbce59bf3	-0.028028464
124	0xbd5ef87e	-0.0544362
125	0xbd840baa	-0.06447537
126	0x3e08203b	0.13293545
127	0xbd7015fa	-0.05861471
128	0x3d0266cf	0.031836327
129	0x3d083ec0	0.033262968
130	0x3d1b5fac	0.037933037
131	0x3dd4d1a0	0.10391545
132	0x3da252d8	0.079259574
133	0x3d913a89	0.07091243
134	0x3da740a2	0.081666246
135	0xbd662719	-0.05618963
136	0xbd3b1681	-0.04567576
137	0xbd20f1e1	-0.039293174
138	0x3b7ce111	0.0038586298
139	0x3cda8d5b	0.026678732
140	0xbd673ce5	-0.056454558
141	0xbd3999b8	-0.045312613
142	0xbd4d3777	-0.050101724
143	0x3d4154bf	0.04719996
144	0xbd8adb13	-0.06780066
145	0x3c712992	0.014719384
146	0x3ce34657	0.027743502
147	0x3cee56e5	0.029094169
148	0x3d943da5	0.0723832
149	0xbcd57646	-0.026057374
150	0xbc181703	-0.00928283
151	0x3c8b1d58	0.016981766
152	0xbd70114d	-0.05861025
153	0xbcbc00c9	-0.022949593
154	0x3d85393e	0.06505059
155	0x3d9e4aef	0.07729136
156	0xbcf4d652	-0.029887352
157	0x3d8101be	0.062991604
158	0xbd591d86	-0.05300667
159	0xbc4dc164	-0.012558315
160	0xbd948ff6	-0.07254021
161	0x3df93519	0.12168331
162	0x3d5f34a0	0.054493546
163	0xbb89dff4	-0.0042076055
164	0xbc954279	-0.018220173
165	0x3d3b0abb	0.04566453
166	0xbc8adc2e	-0.016950693
167	0x3d02c1af	0.031922992
168	0xbcbba4e0	-0.022905767
169	0xbbeed134	-0.0072881225
170	0xba048e62	-0.0005056617
171	0xbca991bf	-0.02069938
172	0x3ccb4f88	0.024818197
173	0x3de1e4ce	0.11029969
174	0x3db5d9c3	0.088794254
175	0x3e06cf41	0.13164999
176	0x3cdfdff8	0.027328476
177	0x3d25d73a	0.04048846
178	0xbca14255	-0.01968495
179	0x3dcf75c9	0.101298876
180	0xbcce3b0f	-0.025174646
181	0xba16b108	-0.00057484256
182	0x3ce54c3a	0.02799045
183	0xbcc57180	-0.024101973
184	0xbd462f5e	-0.048385017
185	0xbd843e1e	-0.064571604
186	0xbd587871	-0.052849237
187	0x3c622525	0.013802801
188	0xbdae8579	-0.08521552
189	0xbd9b2fd8	-0.07577485
190	0xbc199e0b	-0.009376059
191	0x3d4631e9	0.04838744
192	0x3da943c2	0.08264877
193	0x3ddf41b7	0.10901206
194	0xbc8cfced	-0.017210448
195	0xbd27e78a	-0.040992297
196	0x3d97a0ba	0.07403703
197	0xbd4d280f	-0.05008703
198	0x3d2c90f7	0.042130437
199	0x3da51d8a	0.08062275
200	0x3d20f32d	0.03929441
201	0x3c33932a	0.01096038
202	0xbd20894c	-0.039193437
203	0x3d96a80e	0.07356273
204	0x3e056b15	0.1302913
205	0x3d60b150	0.0548566
206	0x3d9caf3f	0.07650613
207	0xbcdd5746	-0.027019154
208	0x3dd0d372	0.1019658
209	0x3d5ee035	0.05441304
210	0x3dcf6be2	0.10127999
211	0x3ae406b1	0.0017397014
212	0x3de9c15f	0.11413836
213	0x3dc3973a	0.095503286
214	0xbd68b2ca	-0.05681113
215	0xbc8220b1	-0.01588473
216	0x3dbd29d2	0.09236492
217	0x3d9fa7fa	0.07795711
218	0x3c54ac28	0.012980498
219	0xbd961b90	-0.07329476
220	0xbd59d97e	-0.053185932
221	0x3dbe514f	0.09292852
222	0x3cd708df	0.026249347
223	0x3de03c78	0.109490335
224	0xbc614d48	-0.013751335
225	0x3dadb0bf	0.08480977
226	0xbd0e4391	-0.034732405
227	0xbcf08413	-0.029359853
228	0x3da0d69b	0.07853433
229	0xbc84a57e	-0.016192194
230	0x3e09cf83	0.13458066
231	0x3dbd92ec	0.09256539
232	0x3db28777	0.08717244
233	0x3d5c6506	0.05380728
234	0xbd26314a	-0.04057435
235	0xbc695655	-0.014241775
236	0xbc750928	-0.014955796
237	0xbd122113	-0.035676073
238	0x3da13687	0.078717284
239	0xbcec730f	-0.028863458
240	0x3dd81bea	0.10552199
241	0x3d853c41	0.06505633
242	0x3d45cecb	0.048292916
243	0x3d46fb7f	0.04857969
244	0x3dbb51e5	0.091464795
245	0x3db3dda2	0.087825075
246	0xbb50196f	-0.003175344
247	0x3b2d6476	0.0026457584
248	0xbd561a9a	-0.052271463
249	0xbd07625f	-0.0330528
250	0xbd8d866c	-0.069104046
251	0x3c3700fb	0.011169667
252	0xbd6d2df5	-0.057905156
253	0xbcf1e986	-0.029530298
254	0x3c96ca7f	0.018407105
255	0x39c1c3de	0.0003695776

lstm.bias_hh_l0 f4 [512]
0	0x3ca183a1	0.019716086
1	0x3e14bec4	0.14525896
2	0x3d93b788	0.0721274
3	0xbbed413e	-0.0072404435
4	0x3db4a841	0.088211544
5	0x3daeca95	0.08534733
6	0x3cb03ed1	0.021514328
7	0x3d4f2738	0.05057451
8	0xbd837c30	-0.06420171
9	0xbcc84afd	-0.02444982
10	0x3cd88ca4	0.02643425
11	0x3a0c2a4c	0.0005346879
12	0x3d8b8613	0.06812682
13	0x3d0e5450	0.034748375
14	0x3ce3f02a	0.02782448
15	0x3daf5019	0.08560199
16	0xbad84221	-0.00164992
17	0xbd94db9a	-0.07268448
18	0x3d9a48ba	0.07533403
19	0xbd25bf38	-0.040465564
20	0xbcd1e500	-0.025621891
21	0xbd6c5981	-0.057702545
22	0x3d424f48	0.04743889
23	0xbcb744fe	-0.022371765
24	0x3d8050d9	0.062654205
25	0xbd4349ab	-0.047677677
26	0xbd794cbb	-0.06086419
27	0xbc0d95a0	-0.00864163
28	0x3d3d873b	0.046271544
29	0xbca66e65	-0.020316312
30	0xbd535393	-0.051593374
31	0xbdadb34d	-0.084814645
32	0xbd51fe20	-0.051267743
33	0x3e07ca52	0.13260773
34	0xbd2d6809	-0.042335544
35	0xbcf556fa	-0.0299487
36	0x3d6748a2	0.056465752
37	0xbdad2669	-0.08454592
38	0xbd10d6af	-0.03536099
39	0xbd031d30	-0.032010257
40	0x3c91ee73	0.017813897
41	0xba7b174b	-0.0009578361
42	0xbc3e0036	-0.01159673
43	0x3d216d31	0.039410774
44	0x3d61def8	0.05514428
45	0x3d5ad73b	0.053427916
46	0x3d96b4d4	0.07358709
47	0x3b24fc0a	0.002517464
48	0xbd0b7037	-0.034042563
49	0xbd73cf32	-0.05952377
50	0x3d60902f	0.054825004
51	0x3d43e83a	0.04782889
52	0x3d1d0a24	0.03833975
53	0x3cb3b216	0.021935504
54	0x3d850044	0.06494191
55	0x3d020647	0.031744268
56	0xbd2623fe	-0.04056167
57	0xbd3cc562	-0.046086676
58	0x3ccc9863	0.024975007
59	0x3cdbc966	0.026829433
60	0xbd8a6b02	-0.06758691
61	0xbd6410d3	-0.055680107
62	0xbbf680c6	-0.007522675
63	0x3db83a7a	0.089955285
64	0x3cf6e590	0.03013876
65	0x3d51b8fb	0.0512018
66	0xbceb8965	-0.028752038
67	0x3d4808a1	0.048836354
68	0xbd037186	-0.032090686
69	0x3dd7d8fd	0.10539434
70	0x389c1c7c	7.443965e-05
71	0x3d78f662	0.060781844
72	0xbd064e4a	-0.032789506
73	0xbc6b03d2	-0.014344173
74	0x3d1015df	0.035177108
75	0x3cd5851d	0.02606445
76	0xbcab0f31	-0.020881267
77	0xbc3fa853	-0.011697846
78	0x3ce9c131	0.028534504
79	0x3cce4b15	0.025182286
80	0x3cb44886	0.022007238
81	0xbd9eab81	-0.077475555
82	0xbcaf0920	-0.021366656
83	0xbd875c9a	-0.06609459
84	0xbd004be5	-0.03132238
85	0x3d60b8bc	0.054863676
86	0x3daf4a48	0.0855909
87	0xbd1601de	-0.036622874
88	0xbd513c1b	-0.05108271
89	0x3d33aeaa	0.043867745
90	0xbd830c8e	-0.06398879
91	0xbd650e24	-0.05592169
92	0xbb4cb569	-0.0031236059
93	0x3d142904	0.036171928
94	0xbd6a0864	-0.05713691
95	0xbcaf2d97	-0.021384044
96	0xbcdca49b	-0.026933959
97	0xbd5b9138	-0.05360529
98	0x3cc693c3	0.02424038
99	0x3d7ba3ac	0.061435387
100	0xbd716ac4	-0.05893971
101	0x3d70079d	0.05860101
102	0x3d8d9230	0.06912649
103	0xbd0e2192	-0.034699984
104	0x3d42ef96	0.04759177
105	0x3d46aa2b	0.04850213
106	0x3d018048	0.03161648
107	0xbbe9a9fd	-0.00713086
108	0x3cd56982	0.026051287
109	0x3d9f74ac	0.07785925
110	0xbd5ba54d	-0.05362444
111	0xbc8d8477	-0.017275078
112	0x3d36db5c	0.04464279
113	0x3dc30ca0	0.095238924
114	0xb912d839	-0.00014004194
115	0x3d28606e	0.041107588
116	0x3d400665	0.0468811
117	0x3d9079d3	0.07054486
118	0x3bfcc721	0.0077141677
119	0x3d68a997	0.05680236
120	0xbd0fb777	-0.035087075
121	0x3dd108f9	0.102067895
122	0xbd1bebc9	-0.03806666
123	0x3d1b38db	0.03789602
124	0x3d305cee	0.043057375
125	0x3d0f5555	0.03499349
126	0x3e04fa6c	0.12986153
127	0x3d9d47fe	0.07679747
128	0x3d7671e8	0.060167223
129	0x3cb535d3	0.022120392
130	0xbc0ec55e	-0.008714048
131	0xbc2ccbd5	-0.010546644
132	0x3ce3c138	0.027802095
133	0x3c93511b	0.01798301
134	0xbc109578	-0.008824699
135	0x3dc4aedc	0.09603664
136	0xbced0269	-0.028931813
137	0x3d3528d5	0.044228394
138	0x3cbcb41f	0.023035107
139	0xbd2521f8	-0.0403156
140	0x3dc297ee	0.095016345
141	0xbcec0471	-0.028810712
142	0xbd72207c	-0.05911301
143	0x3da8cfd5	0.08242766
144	0x3da07ad7	0.0783593
145	0x3daea099	0.08526725
146	0xbd28bf8e	-0.041198306
147	0x3dcaded7	0.099057846
148	0xbd36453e	-0.04449963
149	0xbd10af07	-0.03532317
150	0x3c053836	0.0081310775
151	0x3d933409	0.07187659
152	0xbcf40842	-0.029789094
153	0xbcb17bb7	-0.021665437
154	0x3dcb4b03	0.09926417
155	0xbc69eafa	-0.014277214
156	0x3cea4671	0.028598042
157	0xbd1aeee4	-0.03782548
158	0xbbfd5933	-0.0077315806
159	0x3d6762ec	0.056490824
160	0xbd25b940	-0.04045987
161	0x3deac19e	0.11462711
162	0x3b9c9740	0.0047787726
163	0xbd37af80	-0.044845104
164	0x3d76f62f	0.060293373
165	0xbd1097e7	-0.035301115
166	0x3dc50d59	0.096216865
167	0x3ccf7b86	0.025327455
168	0xba335c2c	-0.0006842043
169	0x3d29f856	0.041496597
170	0xbc204ebe	-0.009784399
171	0xbd07c56c	-0.03314726
172	0x3d42e328	0.047579914
173	0x3bf1584d	0.0073652626
174	0xbd2223a4	-0.03958477
175	0x3dcc537d	0.099768616
176	0x3c531cfa	0.0128853265
177	0x3d9e7144	0.077364475
178	0x3dda1a61	0.106495626
179	0x3d9eeaf9	0.07759661
180	0x3dd607aa	0.104506806
181	0x3cef85f8	0.029238686
182	0x3d7b3f51	0.06133968
183	0x3d45e463	0.04831351
184	0xbdaf5446	-0.08560996
185	0x3b80ab35	0.0039266595
186	0x3d4be866	0.04978218
187	0xbd185a71	-0.037195627
188	0xbb87bf52	-0.00414268
189	0x3d94a785	0.07258514
190	0xbceab153	-0.028649008
191	0x3aa17c1a	0.001232031
192	0x3d059c1c	0.03261958
193	0x3d803f87	0.06262117
194	0x3d39215b	0.045197826
195	0x3d3bf778	0.0458903
196	0x3daeff84	0.085448295
197	0x3d9069b8	0.07051414
198	0xbc7137c6	-0.01472277
199	0x3dc0767b	0.09397598
200	0xbcd81b49	-0.026380198
201	0x3d8292af	0.06375634
202	0x3db5978b	0.08866795
203	0xbd33d3a0	-0.043902993
204	0x3cfbbf5f	0.030730901
205	0x3d818dc6	0.06325869
206	0x3ddd1af8	0.107961595
207	0x3c83f5e2	0.016108457
208	0xbd30ad6a	-0.04313413
209	0x3d1b955a	0.03798423
210	0x3d989959	0.07451124
211	0x3cea951e	0.028635558
212	0x3d58f2fd	0.052966107
213	0xbd2a014a	-0.041505136
214	0xbb3cb517	-0.0028794461
215	0x3d63b96c	0.055596754
216	0xbb250b77	-0.0025183836
217	0xbcce829b	-0.025208762
218	0xbd830fa4	-0.063994676
219	0xbd4667d5	-0.048438866
220	0xbd88f49f	-0.06687283
221	0x3c3a51c4	0.0113720335
222	0x3d83745f	0.064186804
223	0x3dd49517	0.10379999
224	0x3dda25fa	0.10651775
225	0xbc4dd270	-0.012562379
226	0x3cf04bfd	0.029333109
227	0x390658a0	0.00012812251
228	0xbd64a406	-0.055820487
229	0x3dc6aaf1	0.09700573
230	0x3c4ac12e	0.012375159
231	0xbd024ca4	-0.03181137
232	0xbc78f600	-0.01519537
233	0x3c9ef31d	0.019403035
234	0x3cdfb599	0.027308272
235	0x3dc854c8	0.09781796
236	0x3da7834f	0.08179342
237	0xbd751cf6	-0.059842072
238	0x3d6c2a1e	0.057657354
239	0x3d168ce4	0.036755458
240	0x3d7482db	0.059695106
241	0x3d774c31	0.060375396
242	0xbd4aab5d	-0.04947983
243	0x3ceadce1	0.028669776
244	0x3d803e13	0.0626184
245	0x3b5db3f4	0.0033829184
246	0x3d906201	0.07049943
247	0x3de35247	0.110996775
248	0xbb929682	-0.0044735083
249	0x3ae6dad3	0.0017612822
250	0x3d10a5d6	0.035314403
251	0x3b422b0d	0.002962771
252	0x3d553ad5	0.05205806
253	0x3ac54a53	0.0015052058
254	0xbd7153ab	-0.058917683
255	0x3da6296f	0.081133716

h2o.weight f4 [1, 128]
0	0xbeb9fe6d	-0.36326924
1	0xbeab38cc	-0.3344177
2	0xbe936e31	-0.28795007
3	0xbe98263f	-0.2971668
4	0xbeaf670f	-0.34258315
5	0xbeba9f98	-0.36449885
6	0x3ec3cfb5	0.38244405
7	0x3ea8e0a1	0.32983878
8	0x3ea8f316	0.3299796
9	0xbea51db7	-0.32249233
10	0x3eae5867	0.3405182
11	0xbebe0477	-0.3711278
12	0xbe9e7db3	-0.30955276
13	0xbeae1c28	-0.34005857
14	0xbbdd7aff	-0.006759047
15	0xbeb330e1	-0.3499823
16	0xbebd989a	-0.37030488
17	0xbe9c754a	-0.30558234
18	0xbea349fd	-0.31892386
19	0xbeb0e112	-0.34546715
20	0xbeb0e8fa	-0.34552747
21	0xbebd9ea8	-0.37035108
22	0xbeb605cb	-0.35551295
23	0xbec26d45	-0.3797399
24	0xbe924fbc	-0.28576458
25	0xbec112ec	-0.3770975
26	0xbe9586ad	-0.29204312
27	0x3d227e72	0.03967137
28	0xbeb4d4b0	-0.35318518
29	0x3ecc3b60	0.3988905
30	0x3ebff86e	0.37494224
31	0xbeb43bec	-0.35201967
32	0x3ecac599	0.3960388
33	0xbec1fbdf	-0.37887475
34	0x3ea5ed95	0.32407823
35	0xbeaaace0	-0.33335018
36	0x3ec49ad4	0.38399374
37	0x3eb4d2f0	0.35317183
38	0x3ea27fbe	0.31738085
39	0xbea55611	-0.32292226
40	0xbea8dd0f	-0.32981154
41	0x3ea38ffc	0.3194579
42	0x3e99c0db	0.3002995
43	0x3eb1c9a5	0.34724155
44	0x3ec07f4c	0.3759712
45	0x3ebe84f5	0.37210813
46	0x3eb88643	0.36039934
47	0x3ead466e	0.33842796
48	0x3eb60996	0.35554188
49	0x3ed23d2b	0.41062292
50	0x3ec43aed	0.38326207
51	0xbea8c3a3	-0.3296176
52	0xbeaecf6e	-0.3414263
53	0xbea3b372	-0.31972843
54	0xbea0f9be	-0.31440538
55	0xbeb8fd40	-0.36130714
56	0xbeccf09e	-0.40027326
57	0x3eb702bf	0.35744283
58	0xbeb0cece	-0.3453278
59	0x3e9c72f7	0.3055646
60	0xbebb8a16	-0.3662879
61	0xbec631bd	-0.38709822
62	0x3ebde950	0.37092066
63	0xbebe1221	-0.37123206
64	0xbec275ea	-0.37980586
65	0xbe98bd9a	-0.29832155
66	0x3ec25b7e	0.37960428
67	0x3eb62fcd	0.35583344
68	0x3eabb903	0.3353959
69	0x3ea3ce71	0.3199344
70	0x3e94b301	0.2904282
71	0xbe9d6a4a	-0.30745155
72	0x3eb3239f	0.34988114
73	0x3ebabca2	0.3647204
74	0x3ea16bfb	0.31527695
75	0xbebd1b87	-0.36935064
76	0x3eb57efa	0.35448438
77	0xbe9f0cad	-0.31064358
78	0xbea23a0b	-0.31684908
79	0x3e9cb974	0.3061024
80	0xbea80647	-0.3281729
81	0xbea09e5a	-0.31370813
82	0xbe9d5e8a	-0.3073619
83	0xbebcc3e6	-0.3686821
84	0x3ec74dd2	0.3892656
85	0x3eb005df	0.3437948
86	0xbeb2877c	-0.3486899
87	0xbec7338e	-0.3890652
88	0x3ea9bca3	0.3315173
89	0xbeb3e67e	-0.3513679
90	0xbeb71a93	-0.35762462
91	0x3e98e958	0.29865527
92	0xbeb81d6c	-0.35959947
93	0xbec1a6da	-0.3782261
94	0xbea2772b	-0.31731543
95	0x3ea12d9b	0.31480107
96	0x3ecbb20a	0.3978427
97	0xbe8c3020	-0.27380466
98	0xbe95b83f	-0.2924213
99	0x3ea211f4	0.31654322
100	0xbe9ca940	-0.30597878
101	0x3eb4ea54	0.35335028
102	0xbeab9faa	-0.33520252
103	0x3ebb910e	0.36634105
104	0x3ec6a896	0.38800496
105	0x3ebf4998	0.37360835
106	0x3e9f6580	0.31132126
107	0x3eb85c50	0.3600793
108	0x3ea35816	0.31903142
109	0xbe9a832c	-0.301782
110	0xbeb3e230	-0.35133505
111	0xbe9ef691	-0.3104749
112	0x3ec17179	0.37781885
113	0x3e8ef8fd	0.27924338
114	0xbed266b5	-0.41093984
115	0x3e9d52f8	0.30727363
116	0x3eb78ca6	0.35849494
117	0xbea119ed	-0.31465092
118	0x3ec39be8	0.38204885
119	0xbea3ad97	-0.31968376
120	0x3ea98565	0.33109584
121	0x3ec8d880	0.39227676
122	0x3ec4822d	0.38380566
123	0xbebf13d6	-0.3731982
124	0xbebf928f	-0.37416503
125	0x3ec4d90e	0.3844685
126	0x3ec1bc86	0.37839144
127	0xbeafe848	-0.34356904
