notebooks/checkpoints/cp_32hidden_600epochs.pt (torch, 7199 bytes, 5 tensors)

rnn.weight_ih_l0 f4 [32, 1]
00000000: 6014 80bd e7a6 283e d2cf 2dbd bb85 cebc
00000010: b32f 04be a675 5dbe ba3f f5bd fa82 2f3d
00000020: 650b 8abc 85a1 39be 2135 9dbc 5ca8 6f3d
00000030: c937 ac3d 1fa8 113e a9f6 a13d 83a0 20be
00000040: 65d8 26bd 272e 05be 0e3c ec3d e58a 42bd
00000050: fe26 75be 65f2 0e3d 53d6 113e 0018 df3d
00000060: 2026 0dbe 88e6 193e 7023 85bd 8a6c 2fbe
00000070: 9e10 94bd 9196 2c3d e160 d73d 43d3 463e
-0.06253886 0.16469918 -0.04243452 -0.025210252 -0.12908821 -0.2162691 -0.119750455 0.04284952
-0.016851136 -0.18128021 -0.019190373 0.05851017 0.08409078 0.1422429 0.07908375 -0.1568623
-0.040733714 -0.13005887 0.11534892 -0.04749574 -0.23940656 0.034899134 0.14241914 0.108932495
-0.13784075 0.15029347 -0.065009 -0.17131248 -0.07229732 0.04213578 0.10516525 0.19416527

rnn.weight_hh_l0 f4 [32, 32]
00000000: cf78 183d 21fb 16be ed8d bb3d efc6 d8bd
00000010: ddaa 503d 7455 09be cde3 493d 1ca0 0ebe
00000020: 95e0 26be c508 bcbd a0d5 b7bd 4986 bdbd
00000030: ef71 143d 4042 283e 22e2 cd3d 3d7f 1c3e
00000040: d713 bd3d 747f 2bbe 4f88 0b3e 9a82 6ebd
00000050: 5024 2a3d 261c 023c 867e ecbd 2889 083e
00000060: f945 6b3d aedb 053e 5bbf 01bd faab 15be
00000070: b4f0 a9bb 175b 0b3d a03e f23d 515a f63d
00000080: f867 b5bd 331d 6dbd b451 b63d 27de 2bbc
00000090: 4a23 c93b 8ac6 09be 50c2 d2bd b608 0b3e
000000a0: 1df8 99bd 8cc7 113e 06f6 eabc 1b91 8dbc
000000b0: d724 843c bd78 253e 1536 dc3d 58e4 103d
000000c0: 4371 11be 179a eebd e63b a03d 3e19 233e
000000d0: 6cef 913d 5d48 b7bd 5767 c13c 6cad 203e
000000e0: f396 14bd e8c1 043d 1b8b 26be e915 8ebd
000000f0: 1e9f 54bd 7fe5 283d 8ffa ce3c 5061 82bd
00000100: 0e3f b53d 17f5 25be 8da0 eb3c d76c bdbd
00000110: e37b 1e3d b8e8 1f3c 8e3d 6dbd 7373 8d3d
00000120: e2b7 29be 67b5 833c 3f52 3ebd 5e9d 41bd
00000130: 0454 07bd f32e d8bd 82ff c93d 65c0 b03d
00000140: 3414 b73d 157a a53d a55a 003e 7f5c d83d
00000150: 22b4 75bd 235b 4fbd 12be 0a3e f82b 0b3d
00000160: 9514 7e3b 5dd9 f63c 010f dbbd 9df2 31bd
00000170: fcb7 e0bd 999c 9bbc a352 2d3e 931c b13d
00000180: 0046 bcbc 4212 543e 4916 ae3b 6317 be3e
00000190: d07b eebc 7e38 853e d32e 80bd ff46 b2bc
000001a0: 842f 94bc ae5a 2d3e c8e3 03be 3483 373e
000001b0: 488d 923e a967 d43d c4ce 5b3d 9d8d 2cbe
000001c0: e671 eebd bd4b 973d c7fb 203e 512b ecbd
000001d0: da11 15bd 639e b13d 06d4 cc3d c9f2 d23d
000001e0: d8e2 a73d 63a5 753e 5a04 fa3d d5cc 193e
000001f0: 66b9 9c3d 3882 c43a 8d4f 1e3e a7e9 443e
00000200: 6254 a9bc 7e31 aabd b0c4 35bd 2a7d 263e
00000210: 8795 1fbe 3d89 133e 9692 f03d 0c0f b23d
00000220: 43f3 e53d 8991 103e 78f3 11be ad1f 093e
00000230: 5695 213e 7521 593b 88a8 5e3d fdec 053e
00000240: c485 7a3d fa02 20be 415c f5bd e7c5 3fbd
00000250: 84a1 283e c03b 153e 9198 c3bd 1294 d7bd
00000260: 2705 dfbc a0cc ca3d 3054 52bd 2b0b daba
00000270: 151f 15be 1074 c53c 2515 a63d a077 02be
00000280: 25d2 1a3e c9ad 133e 747b 1bbe 1857 2e3e
00000290: 9090 7bbd 67b9 2c3e bab0 583d 2d41 a0bd
000002a0: 529b 2f3d d8ce fabc d2f8 debd c6a6 6f3b
000002b0: 0df4 9f3d 605c 8dbd 840f ac3d b376 1e3e
000002c0: aa42 9a3c 646f 1cbd 4cb9 5cbd 984f 0fbe
000002d0: 2d71 3a3e 7d0b 50bb ac7c c53d 7144 2b3d
000002e0: 41c1 143e b62a 663e dafa a43d 7df2 06be
000002f0: f9dc 4f3e e9f1 753c 6f7c 7d3c d713 6c3e
00000300: 2ecd 303c 5b56 b33c 697d 643d 9e05 ba3d
00000310: 7bbc 113e 581d 51bc c1f3 12bc ee96 503c
00000320: 690a a9bc 76da 223b f7e0 1ebe a9db 00bc
00000330: 09d1 8f3d ba2e b43d dee3 bb3d ce5d 63bd
00000340: 1b79 97bd 1916 a03c 1861 38bd 7727 233e
00000350: b753 88bd 3c2f 36be 3bd2 2f3e 4beb f23c
00000360: 56f2 15be 35f1 033e b6df 46ba 0209 d73d
00000370: dd20 d73d 495f 913d 12c4 3e3d e8d1 593d
00000380: 4951 8b3d 655f b1bd 0a87 be3d 1dfc e3bd
00000390: 0bce 08be 011c 3a3e 1cf4 bcbb 98a8 eabd
000003a0: 57bc 03be 21cd bb3d dbde 14be f205 bbbd
000003b0: 1b10 8f3d 57e0 a03d 7dcd aabd 88f7 233e
000003c0: 31c0 c9bd 3c8e babc 0cb5 f63c 95c6 a33d
000003d0: 10aa b03d 9379 b13d 1289 313e 7f9d c73d
000003e0: fdda c33c 2136 103e f3f7 c43c 2ba1 aebd
000003f0: 23e6 01be a895 ba3d 7aa1 03be 64bb 36bd
0.037224587 -0.14744236 0.091579296 -0.105848186 0.050944198 -0.13411504 0.049289513 -0.13928264
-0.16296609 -0.0918136 -0.089762926 -0.092541285 0.036241468 0.16431522 0.10052897 0.15282913
0.092323 -0.16747838 0.13626216 -0.05823002 0.041538537 0.007941281 -0.1154757 0.13333571
0.057439778 0.13072082 -0.03167663 -0.14616385 -0.0051861648 0.034022417 0.11828351 0.12028945
-0.08857721 -0.057889175 0.089023024 -0.010489977 0.00613824 -0.13454643 -0.102909684 0.13577542
-0.07518027 0.14236277 -0.028681766 -0.017281106 0.016130848 0.16159339 0.10752503 0.035374016
-0.14203362 -0.11650484 0.07823925 0.15927598 0.07125744 -0.08949349 0.023608847 0.15691155
-0.03627677 0.032411486 -0.16264002 -0.06937773 -0.05190956 0.04123449 0.02526596 -0.06366217
0.08849917 -0.16206776 0.02876308 -0.09249275 0.038692366 0.009760074 -0.05792003 0.06906786
-0.16574052 0.01607771 -0.046465155 -0.047269218 -0.033039108 -0.1055583 0.098631874 0.08630446
0.089394 0.08079926 0.12534578 0.10564517 -0.05998624 -0.050624024 0.13549069 0.03397748
0.0038769592 0.030132944 -0.10696221 -0.043444265 -0.10972592 -0.01899557 0.16926055 0.08648028
-0.022982597 0.2071009 0.005312715 0.37127218 -0.029111773 0.26019663 -0.06258931 -0.02176237
-0.018089063 0.16929123 -0.1287986 0.17921144 0.28623414 0.10371334 0.053663984 -0.16850896
-0.11642818 0.07387493 0.15721045 -0.115316994 -0.036393978 0.08672788 0.10001378 0.10300214
0.08197564 0.23988871 0.12207861 0.15019543 0.076525494 0.0014992421 0.15460034 0.19229756
-0.02067012 -0.08310221 -0.04437703 0.16258684 -0.15584384 0.14407821 0.11746709 0.08694276
0.11228039 0.14118017 -0.14253032 0.1339099 0.15779623 0.0033131514 0.054359943 0.13078685
0.061162725 -0.15626135 -0.11980487 -0.046819594 0.16467863 0.14573574 -0.09550584 -0.10526289
-0.027224137 0.0990231 -0.05134982 -0.0016635408 -0.14562638 0.024103194 0.08109502 -0.12740946
0.15119226 0.14421763 -0.15183812 0.17025411 -0.061417162 0.168676 0.052902915 -0.07824931
0.042872734 -0.030616209 -0.108873025 0.003656791 0.07810221 -0.06902385 0.08401397 0.15474968
0.018830616 -0.038192168 -0.05388765 -0.13995206 0.18207236 -0.0031745129 0.0964292 0.041813318
0.14526846 0.2247723 0.08055659 -0.1317844 0.20299138 0.015011289 0.015471562 0.23054443
0.010791106 0.021891763 0.055783663 0.09083103 0.14232056 -0.012763344 -0.008969248 0.012731297
-0.020634847 0.002484945 -0.15515505 -0.007864871 0.07022292 0.08797975 0.091743216 -0.05550938
-0.07396146 0.019541787 -0.04501447 0.15933023 -0.06656592 -0.17791456 0.1717004 0.029653212
-0.14643225 0.12884982 -0.0007586436 0.10499765 0.10504315 0.07098252 0.046573706 0.053178698
0.06802613 -0.08660773 0.093031004 -0.11132071 -0.13359849 0.18174745 -0.005766405 -0.11457938
-0.12864815 0.091699846 -0.14538138 -0.09131993 0.06985494 0.078552894 -0.08339975 0.16012394
-0.09851111 -0.0227729 0.030115627 0.07996861 0.08626187 0.086657666 0.17337444 0.09746837
0.023908133 0.14083149 0.024044013 -0.08526834 -0.12685446 0.09110576 -0.12854567 -0.044612303

rnn.bias_ih_l0 f4 [32]
00000000: c8e0 0fbe 7861 a8bd f6a1 953d f8ad 153d
00000010: efe0 a5bd 1ada ec3c fb64 3d3d 20f4 fdbd
00000020: 522f e93d 140e 063d 6122 643d 67f6 113d
00000030: 7740 d33d ad87 083d d979 0ebd 6728 ad3d
00000040: 43bf 11be 31fa 06be d72e 0cbe ab69 fa3d
00000050: 17ae c13d 2cb2 32be 0c4d 213c 12aa a03d
00000060: b429 2cbd 351a 10be 1647 e13d 989a 91bc
00000070: 8669 12be 9f9c b33d b6d6 133e 67e3 f93d
-0.14050591 -0.08221716 0.07306282 0.036542863 -0.08099543 0.028912593 0.04623888 -0.12400079
0.11385979 0.03272827 0.05569685 0.03563538 0.1031503 0.033332516 -0.03478417 0.08454972
-0.14233117 -0.13181378 -0.13689743 0.12227186 0.09457033 -0.1745078 0.00984503 0.07844938
-0.04203196 -0.14072497 0.10999887 -0.017773911 -0.14298066 0.087701075 0.14437374 0.12201577

rnn.bias_hh_l0 f4 [32]
00000000: aa52 54bd 48b8 2dbe 2811 cabd e3fd c63d
00000010: 8d03 30bd 3e00 5d3c a941 eebd 0dfd cf3d
00000020: 5b06 163e 31f9 2b3e 651d 9f3b 950b 78bd
00000030: 028c db3d f402 0f3e 37a0 c1bd dbf8 dabd
00000040: c346 0e3e d835 7c3d a2fb 3e3e 4183 9aba
00000050: a091 bfbd e0e5 27be c44e 8fbd c96c 3b3d
00000060: 8bfe 243d 6d1b 1bbe a621 cb3c 002a 44bd
00000070: 7a6c 45be b794 3bbd 9390 213e 8bd6 4fbd
-0.051836647 -0.16964829 -0.098665535 0.09716394 -0.042972136 0.013488827 -0.116336174 0.101556875
0.14650862 0.16794278 0.004855799 -0.06055792 0.10720064 0.1396597 -0.09454387 -0.10691997
0.13894181 0.061574787 0.18650678 -0.0011788384 -0.09353948 -0.16396284 -0.06997445 0.045758042
0.040281814 -0.15147181 0.024796318 -0.047891617 -0.19279662 -0.045796122 0.15777807 -0.050741713

h2o.weight f4 [1, 32]
00000000: fa95 a73d 017c 323d c870 61bd f580 883e
00000010: c575 083e 6328 3b3e 6f5a e83c 3986 36bc
00000020: 677f 28be c927 093e 10eb b7bd b867 1dbe
00000030: cc0a 2f3e 8ca0 0d3e da91 95bd 6a3d 793d
00000040: 4fd1 f43d 2cfe 4ebd 66ad 473e 0956 15be
00000050: f8b3 aa3d 765e 7a3d 9b13 ee3d 1d72 07be
00000060: c0b9 0bbc 42b7 d83c 0498 bc3d ecac cd3d
00000070: 8170 02be dda1 10be 698e a8bd 5fa0 483e
0.08182903 0.04357529 -0.055039197 0.26660886 0.13326176 0.18277125 0.028363435 -0.0111404
-0.1645485 0.13394083 -0.089803815 -0.15371597 0.17093962 0.13830775 -0.073032096 0.060849585
0.11953985 -0.050535366 0.1949974 -0.14583601 0.083351076 0.06112524 0.11624833 -0.13227125
-0.008528173 0.026454572 0.09208682 0.10042748 -0.1273823 -0.14124246 -0.082302876 0.19592427
