notebooks/checkpoints/scalertest/rnn2_scalertest_cp4.pt (torch, 70669 bytes, 5 tensors)

rnn.weight_ih_l0 f4 [128, 2]
000000 9a 56 a3 bd 8f 1d 28 3e 45 eb 3f be f2 a8 a9 3d
       -0.07975502 0.16417526 -0.18742092 0.08284177
000010 98 82 c5 bb 43 23 3a bd eb e4 40 bd 67 31 3b bd
       -0.006027531 -0.045443784 -0.047093313 -0.04570141
000020 7b b9 93 3d 95 28 a6 3d 31 98 4a 3d d5 86 49 bd
       0.07213112 0.08113209 0.049461547 -0.04920085
000030 ed 5c 2d bd 8e c2 01 3d c7 90 f2 3d d3 b3 bf bb
       -0.04232495 0.031679682 0.1184402 -0.005850294
000040 59 c2 db 3c e0 51 e3 3c 77 bf 75 3d 3f 89 c5 bb
       0.02682607 0.027749002 0.05999705 -0.006028324
000050 57 77 fe bd 36 bc 15 bb 6d 11 5c be cc f7 8e 3d
       -0.12425106 -0.0022847778 -0.21491022 0.06980857
000060 bb 10 69 3d 31 ac 48 bd fe 91 a4 3b 48 73 0a bd
       0.05690072 -0.04899234 0.0050222864 -0.033801347
000070 15 27 79 3d ec 0e 9e bd aa e7 16 bd f5 11 91 bd
       0.060828287 -0.0771769 -0.036842026 -0.07083503
000080 36 be 99 3d 9f af d7 3c 53 eb 74 3d da 69 03 3e
       0.07506983 0.02632886 0.059794735 0.12833348
000090 58 c1 8c bd 81 d5 2d bd 0e cc 3e 3d 29 09 a9 bc
       -0.06872815 -0.04243994 0.04658132 -0.02063425
0000a0 0c bf c7 bd d6 e9 41 bc 3f 11 dc 3c 42 68 8e bd
       -0.09753236 -0.011835536 0.026863692 -0.06953479
0000b0 9d 00 49 bd f2 d9 d1 bd e6 36 7b bc 77 16 52 3d
       -0.04907285 -0.10246648 -0.015332913 0.051290955
0000c0 7d 99 b6 3c d8 e2 94 3d 93 73 0b bd ff 01 e4 3d
       0.022289986 0.072698295 -0.034045767 0.11133193
0000d0 9b 92 94 bd 24 1d 13 bd 5d 88 84 3d 89 99 59 bc
       -0.07254525 -0.035916463 0.06471322 -0.013281235
0000e0 30 35 67 3d 6e ca 8b bd 9e 27 0b 3e 90 56 75 3d
       0.056447208 -0.0682572 0.13589332 0.059897006
0000f0 2d a9 a1 3e c6 7f 10 3e a7 79 e0 3c 99 3b 97 ba
       0.31574383 0.14111242 0.027401758 -0.0011538147
000100 cd 59 b2 bd 31 20 5f bd 0b 2a 05 3d af 77 80 3c
       -0.087085344 -0.05447406 0.0325108 0.01568207
000110 3a 11 3b bc 1f e6 46 3d 15 0e f4 3d b6 1a d1 3d
       -0.011417681 0.048559304 0.119167484 0.10210173
000120 d8 9a 6c bc df f4 c3 bd 9b 20 3b 3e 3b cc a7 3d
       -0.0144412145 -0.0956819 0.18274157 0.08193251
000130 ef c1 3e 3d 18 ef 26 bd 3c d8 75 3d 21 b8 b2 39
       0.04657167 -0.04075536 0.06002067 0.00034087992
000140 9e a6 8f bc 16 38 8b bd d9 60 bc bd a1 d8 8f 3d
       -0.017535504 -0.06797807 -0.0919816 0.070237406
000150 15 03 7f 3c 04 95 0e bd cc 05 b1 3c 0a de 19 3d
       0.0155647 -0.03481008 0.02160921 0.03756527
000160 1d a1 74 bd ae 63 16 bd 8b da d6 3d 5e 50 92 bb
       -0.059723962 -0.036716156 0.104909025 -0.004465147
000170 26 f5 09 bd 41 a5 2f bd c5 41 b9 3d 78 9e 8b 3d
       -0.033681057 -0.042882208 0.09045748 0.06817335
000180 04 a1 74 bd 5f 78 60 3d c1 f4 a4 3d 80 5c 0c 3c
       -0.05972387 0.054802295 0.080544956 0.008566976
000190 d7 25 c4 bc 86 62 81 3d f3 d9 12 be f7 f8 ab 3d
       -0.023943825 0.0631762 -0.14340954 0.08397096
0001a0 08 48 46 3d 4e 30 c3 3c 2b 35 01 3e 43 15 a4 3d
       0.048408538 0.023826744 0.12617938 0.08011868
0001b0 dc a4 25 3c 93 96 0d 3e b9 a3 96 3d b1 d7 a8 3d
       0.010110106 0.13826971 0.07355446 0.08244265
0001c0 0a 1b 0e be 54 34 91 bd d0 5c 2e 3e 64 ac 95 3d
       -0.13877502 -0.07090059 0.17027593 0.073082715
0001d0 c6 6e cc 3d 4b df 34 3d 0f 71 7d 3e aa cd f2 3d
       0.09982066 0.04415826 0.2475016 0.118556336
0001e0 eb a8 af 3c 05 39 5a 3d a6 53 8e 3d 07 a2 1d bc
       0.021442851 0.053277034 0.069495484 -0.00962115
0001f0 3b bc 81 3d 59 43 04 3c d2 6c 1e 3e 3f 54 76 3d
       0.0633473 0.008072698 0.15471199 0.060138937
000200 45 06 ab 3c e3 23 3e 3c 4d e6 13 3d c7 c1 10 3d
       0.020877013 0.011605236 0.036108304 0.03534105
000210 a1 97 c1 bd 63 0e a9 bd dc 55 87 3d f5 bf 1b bd
       -0.09452749 -0.08254697 0.06608173 -0.03802486
000220 ea 27 f6 bc ae fe f9 3c 0e a8 9c bd 89 84 b4 bc
       -0.03004833 0.030516949 -0.076492414 -0.022035854
000230 dd 5a 18 bc 39 39 52 bd e0 4f c6 3d b2 97 1d 3d
       -0.009299007 -0.051324103 0.09683204 0.038474746
000240 69 6c ac bd 57 15 01 3d 4d d3 b0 3d c9 a0 97 bc
       -0.08419115 0.031514492 0.086340524 -0.018509286
000250 a5 eb c4 3c 83 20 84 3b af 8e e2 3b 5c d1 4d 3d
       0.024038145 0.004032196 0.006913982 0.05024849
000260 2a 48 ec 3d 0c bf 3b 3d 6c d6 84 3c b0 e9 83 bd
       0.11537202 0.045836493 0.016215526 -0.06441057
000270 68 68 22 3d f0 0b 11 bd ef 35 83 bd 5d 9f e4 ba
       0.03965035 -0.035411775 -0.064067714 -0.0017442513
000280 62 aa 0d bd 40 1a 93 3c 0b 94 eb 3c 0a 15 92 3d
       -0.034586318 0.017956853 0.028757116 0.07132919
000290 07 f1 9a 3d 95 d3 d1 3d 46 6b 96 3c 3e 4a a2 3d
       0.075655036 0.10245434 0.018361699 0.07924317
0002a0 ce ab c7 3d 39 e6 b4 3b e5 17 00 3e 3a cc 14 3c
       0.09749566 0.0055206087 0.12509115 0.0090818945
0002b0 13 f3 a3 3b f4 e1 be bc c7 5a 35 ba 74 46 9f bd
       0.005003342 -0.023301102 -0.0006918129 -0.0777711
0002c0 6a 2a 4c 3e 11 27 01 3e 8d d9 47 3d 7a 22 58 bd
       0.19938055 0.12612559 0.048791457 -0.052767254
0002d0 ba ac 45 bd 22 94 de bd 01 c7 f8 bc 09 87 86 3d
       -0.048260428 -0.10868098 -0.03036833 0.06568725
0002e0 99 50 33 3d a2 1c 40 3d f2 23 10 3e 7b 8a 00 3e
       0.043778036 0.046902306 0.14076212 0.12552826
0002f0 d3 26 df bd 45 33 98 3d e5 e3 b4 3c 86 bf 89 bd
       -0.10896077 0.07431654 0.022081325 -0.06725983
000300 d9 fe 6d be 55 85 4a bd b3 5b 9c bd 2e 6e fa 3d
       -0.23241748 -0.04944356 -0.07634678 0.12228046
000310 c4 49 b3 3c 0a 5d c6 3d ea 9a 9c bc dc 99 fc 3d
       0.02188576 0.096857145 -0.019116838 0.12334034
000320 54 e5 d8 3d 11 36 88 3d f0 c1 fe 3d 1b 69 53 3c
       0.10590616 0.06650937 0.124393344 0.012903477
000330 26 9b 69 3e 2f fc ce 3d 51 d8 eb 3d c1 2b 03 3c
       0.2281309 0.10106694 0.115158685 0.008006037
000340 9d 23 1f bd 9b a4 fa 3c 94 a1 67 bd 8d 88 8e 3a
       -0.038852323 0.030596068 -0.056550577 0.0010874436
000350 01 50 91 3d a5 ab fc 3c de 51 69 3b 3e 77 41 3d
       0.07095338 0.030843565 0.0035601775 0.04723286
000360 e8 18 d1 3d a2 46 b6 bc dc b7 21 3d 44 7a b8 bd
       0.102098286 -0.022250477 0.039481983 -0.09007695
000370 c7 d8 30 3d 4e f5 80 bd 23 af de 3d f5 16 89 bd
       0.043175485 -0.06296788 0.108732484 -0.06693832
000380 bb b8 0d 3e 17 5d 15 3e 30 b7 81 3d 61 9c 6e 3c
       0.1384 0.14586292 0.06333768 0.014563651
000390 3e f0 0b 3d 64 ae c4 3d 06 19 14 3d 6e 95 13 bd
       0.03416466 0.09603575 0.036156677 -0.03603118
0003a0 db dd 25 bd 02 11 3a 3c ed c8 75 bd df 28 65 bd
       -0.04049478 0.011356594 -0.06000607 -0.05594718
0003b0 65 0b 78 3d ae 6e a9 bd c2 c3 6b bd 40 93 ba 3d
       0.06055774 -0.082730636 -0.057559736 0.09110117
0003c0 47 b5 d4 3d f8 6d a5 bc ec cd e8 3d 69 8f 3a 3d
       0.103861384 -0.020194039 0.113674015 0.045546923
0003d0 81 74 87 3d 62 c2 98 3d 09 41 7c bd 1b d2 d7 bd
       0.06614018 0.074589506 -0.06158546 -0.10538121
0003e0 bc 84 61 3d 9c d0 02 3d 17 bf 09 3e 7f cc b4 3d
       0.055058226 0.031937227 0.13451801 0.08828067
0003f0 af 73 14 3e c3 b1 21 ba 81 80 27 3c 50 5a ff 3d
       0.14497255 -0.0006168151 0.010223509 0.124683976

rnn.weight_hh_l0 f4 [128, 128]
000000 6c 6b 46 3c 0b bc 39 bc ad 98 ac 3d 1b a8 66 bd
       0.012110572 -0.011336337 0.08427558 -0.05631266
000010 93 5d 3c bd 90 fc ae 3b e3 5f 86 bd 33 99 4b 3b
       -0.045987677 0.0053401664 -0.06561258 0.0031066656
000020 be c0 df bb 95 3d bb bc 23 5d 83 3d ea 92 f2 3d
       -0.0068283966 -0.022856513 0.06414249 0.11844428
000030 7f f7 3d bd ca f3 38 bd 78 fc c0 3c a4 28 53 bd
       -0.04637861 -0.04515437 0.023557886 -0.05155243
000040 d0 fa f8 bc 6a 21 1e 3d 1f 96 bb bc b8 7c 64 bd
       -0.030393034 0.038606085 -0.022898732 -0.055783004
000050 23 9b 25 3d 53 ff 48 bc d9 23 a7 3c 07 79 32 3d
       0.040431153 -0.012267905 0.020402836 0.043572452
000060 19 c4 03 3c b9 f4 2e 3d 7b a6 e8 bc 95 14 37 bd
       0.008042359 0.042713854 -0.028399697 -0.044697363
000070 ab 48 0e bc 12 5f a4 bd 08 01 d2 3b 82 23 d0 3d
       -0.008684318 -0.08025946 0.0064088143 0.101630226
000080 27 74 d9 3c a8 d7 f6 bc 18 9b 6c bc 0a 8c 82 3d
       0.026544644 -0.03013213 -0.014441274 0.063743666
000090 d4 69 81 3d 2a 8e d8 3d e7 d0 c0 3c 7b 99 b2 3d
       0.06319013 0.10573991 0.023537112 0.0872068
0000a0 8c 74 96 3d 4c 20 a2 bc 2d f8 25 3c ec ed 3b 3d
       0.07346448 -0.019790791 0.0101299705 0.045881197
0000b0 f2 c5 9b bd 30 22 b4 3c fe 50 04 3d 7f a5 3a bd
       -0.076061144 0.021988958 0.032303803 -0.045567986
0000c0 26 ca 91 3b 76 ec 69 3c 3d fe c7 bd 0d c2 4b 3d
       0.004449147 0.014277568 -0.09765289 0.049745608
0000d0 48 ff 36 3c e6 48 73 3d ad c8 1c 3d 95 bc 8b 3d
       0.011169262 0.059395693 0.038277317 0.068230785
0000e0 46 a1 8c 3c f7 e2 82 bc f8 2f 26 3b b3 02 88 3d
       0.017166745 -0.015977366 0.0025358181 0.0664114
0000f0 21 34 89 bc 5e e7 73 3d 87 18 90 3d 2a 00 fb 3c
       -0.01674849 0.05954682 0.07035928 0.030639727
000100 31 a4 c8 3d d7 c9 0f 3c 1a e4 08 3d 08 e0 b0 bd
       0.09796942 0.00877615 0.03342066 -0.086364806
000110 24 37 ec 3d a7 1d f9 3c a8 7e a2 bd fc 40 90 3d
       0.11533955 0.030409647 -0.07934314 0.07043645
000120 78 91 4f bd 52 e0 b2 3d 3c 23 a2 3c 63 da 31 3b
       -0.05067584 0.08734192 0.019792192 0.0027138225
000130 55 87 7f 3d c9 2a a3 bd cc 37 bf bd 01 37 85 3d
       0.062384922 -0.07967145 -0.09336814 0.06504632
000140 5d 04 ae 3d d5 32 9b 3c be 58 aa bc fe 3f c4 3d
       0.08496926 0.018945137 -0.020794269 0.09582518
000150 b9 0b 6f 3b eb 2f a2 bc 4d 4c fe bb e4 2f 85 3a
       0.0036475493 -0.01979824 -0.0077605606 0.0010161367
000160 06 40 8a 3d ac 71 eb b8 3c 75 79 bd 0b 38 2f bb
       0.06750493 -0.00011226846 -0.06090282 -0.0026736285
000170 96 fa de 3d 67 85 f9 3d 5d 18 3f 3d 80 66 fe 3c
       0.10887639 0.121836476 0.046654094 0.031054735
000180 2c 9d 93 3d 11 2a 06 3d 27 1e 58 bd fe 00 98 3d
       0.072077125 0.03275496 -0.05276313 0.07422064
000190 df 89 31 bc 95 08 72 3d e1 6d 34 3c 0e 8f da bb
       -0.010836094 0.059090216 0.011012525 -0.0066698855
0001a0 8c 07 52 bd 55 b9 a5 bc a9 7a 73 bc 6a 62 63 3c
       -0.05127673 -0.020229975 -0.014860787 0.013878444
0001b0 9d 93 df 3b 88 c9 98 3c d4 22 38 bd 31 81 dd bb
       0.006823017 0.018650785 -0.04495509 -0.0067597856
0001c0 be f8 62 3a 97 3f 86 bd bc a7 1d 3c 7c 1d ea bb
       0.00086582813 -0.065550976 0.0096225105 -0.007144628
0001d0 b9 75 f4 3a 24 3f a0 3d c3 92 6e 3d 78 f1 2f 3d
       0.0018650807 0.07824543 0.05824543 0.042954892
0001e0 75 0e df ba fe 99 e1 3b e3 79 d7 3d 25 b0 4a bb
       -0.0017017858 0.0068848124 0.10521295 -0.0030927744
0001f0 c0 cc de 3d ba 6d 6f 3d 2e 63 a1 3d e7 97 9b 3d
       0.10878897 0.058454253 0.07880245 0.075973324
000200 29 c8 62 3d ec e4 16 bc 62 5d a5 3d 4b 6b 09 3d
       0.05536667 -0.009209853 0.08074452 0.03354959
000210 bc 76 87 3d 3e 1a af 3d 45 4c 1a bd 7b fe 0f 3d
       0.06614444 0.08549927 -0.037670393 0.0351548
000220 f2 10 c3 3d 99 33 28 3c 8f f6 c1 3d 10 9d ea bc
       0.095247164 0.010266208 0.094708554 -0.028639346
000230 7c f5 f0 b8 63 f4 5e 3d fa 03 ee bc b4 6b dc 3c
       -0.00011489817 0.054432284 -0.02905463 0.026906826
000240 2c 73 80 3c 19 47 99 3d 10 bc 48 bd 40 64 47 3c
       0.015679918 0.07484264 -0.049007475 0.012169898
000250 53 4b aa 3c cb 4a ed 3d f6 25 22 bd 11 3c bd bc
       0.02078787 0.11586531 -0.039586984 -0.023099931
000260 39 f4 af 3d eb 00 c8 bc a9 85 4c 3b 95 9f 46 3d
       0.08591504 -0.0244145 0.0031207597 0.048492033
000270 47 1e a0 3d 85 f7 18 bc 34 21 bb bd fd b5 0b bd
       0.07818275 -0.009336357 -0.09137192 -0.034109104
000280 1e 17 ff bc 9d 12 b5 bd 74 30 7b bd 83 28 19 3d
       -0.031138953 -0.08841441 -0.061325505 0.03739215
000290 8a 99 80 bc 66 34 67 3d d0 61 4f 3d 0e a8 c3 3d
       -0.015698213 0.056446455 0.05063039 0.09553538
0002a0 f5 36 7d bb 57 fb c8 3c 53 73 3a 3d 8c af 19 3d
       -0.0038637493 0.02453391 0.045520138 0.03752093
0002b0 27 78 aa 3d 5b 7b a0 3d 84 1f 98 3d 74 34 8a 3d
       0.083236985 0.07836028 0.07427886 0.06748286
0002c0 21 bc f8 bd 7f 6c 13 bd 57 4e d2 bc 1b 8d 4e bd
       -0.12145258 -0.03599214 -0.025672121 -0.050427537
0002d0 6d c3 84 3c b9 f5 a5 3c 19 6d a5 3c 6b a2 b2 3d
       0.016206468 0.020258771 0.020193623 0.08722385
0002e0 2e 05 60 bd e6 3f a2 3d db 90 bd bc 16 9b 38 bd
       -0.05469244 0.07922344 -0.023140362 -0.045069776
0002f0 a5 37 d5 bd 75 f7 9d bd 3e 4f 27 3d 1a 7b 89 bd
       -0.10411004 -0.07713214 0.040847056 -0.06712933
000300 93 de 58 3d 27 22 18 3d 94 6f 8c 3d 38 bd f7 3c
       0.05294664 0.037141945 0.06857219 0.030241594
000310 a7 10 d3 3c a3 9b 58 ba 32 e3 2d bd cb 69 ba 3d
       0.025764776 -0.0008262938 -0.042453 0.0910221
000320 c5 21 bf bc c6 52 da bb 30 eb 8a bd 01 7c 2e bd
       -0.023331532 -0.0066626994 -0.0678314 -0.042598728
000330 f7 0f 08 3c 82 ff 83 bd 90 0c 99 3d 28 12 2f bd
       0.008304588 -0.064452186 0.07473099 -0.042741925
000340 08 69 da bc 6e e6 85 3d 5c 60 48 3d 55 1b ad 3d
       -0.02666141 0.065380916 0.04892002 0.08452479
000350 dc c2 38 bd a4 1e cc 3c 91 25 76 bc cb 0e c8 3b
       -0.045107707 0.024916954 -0.015023605 0.006105279
000360 e6 f1 97 bd 86 e5 01 bd c3 24 98 3d 4e 44 0d 3d
       -0.07419185 -0.03171303 0.07428887 0.03448897
000370 a8 a4 50 bd ac 95 0e 3d 9e f9 9c 3d 2c 56 26 3c
       -0.05093828 0.034810707 0.07664798 0.010152381
000380 8c da 65 bb e4 3f be 3d ca 8e d8 bc a3 fe 72 3d
       -0.003507289 0.0928953 -0.026435275 0.05932487
000390 76 66 50 3d b8 bc 41 3d cd 85 27 3d 8b 78 58 3d
       0.050878964 0.047299117 0.040899087 0.052849334
0003a0 43 b5 9a 3d 94 9d de 3c 41 9f 55 bb a7 eb eb bc
       0.07554104 0.027174748 -0.0032596143 -0.028798891
0003b0 77 e2 bf bc f0 55 34 bd 84 4a dd bc d8 bd 2b bd
       -0.023423417 -0.04402727 -0.02701307 -0.041929096
0003c0 6b bc 4e bd 5f 1d 89 3b 4f 7b 1f 3c 01 1a 59 bd
       -0.050472658 0.0041844095 0.009733989 -0.053003315
0003d0 92 88 fd b9 af 8b d8 3d 51 0b 33 3d 03 e8 80 bd
       -0.00048357673 0.105735175 0.043711964 -0.06294253
0003e0 e9 67 8d bd 04 fb 47 bd 84 b4 f0 3b 98 11 dc 3d
       -0.06904585 -0.04882337 0.007345738 0.10745543
0003f0 cb 8e 94 3d 81 57 40 3d f1 40 a4 bb 81 30 72 bd
       0.07253798 0.04695845 -0.0050126244 -0.05912829

rnn.bias_ih_l0 f4 [128]
000000 e7 23 34 3e 73 0c 18 3d 9f 54 4c bd f2 62 a2 bd
       0.1759182 0.037121248 -0.04988539 -0.079290286
000010 40 3a 2d bd f6 34 97 bd 82 41 ca 3c 1a 4c 88 3c
       -0.04229188 -0.07383148 0.02468944 0.01663785
000020 f7 f0 7f 3d 0f b9 57 bd 42 af 2b 3e 33 21 a0 3d
       0.06248566 -0.05266672 0.16766074 0.07818832
000030 e5 bb 8f bd aa 3d d4 3a a2 b1 00 bc 58 8c 8b 3d
       -0.0701826 0.0016192694 -0.007854851 0.06813878
000040 9f 14 90 bd 43 69 08 3e cd f6 ab 3c 5e 64 ca bd
       -0.07035183 0.13321404 0.020991707 -0.09882425
000050 f5 63 85 bd 7a 86 2f bd ec 6d eb bd 02 a4 a3 3d
       -0.06513206 -0.042852856 -0.11495575 0.079902664
000060 eb c6 98 3d 0f 33 51 3e ad 9c e9 3a 47 1c a1 bd
       0.074598156 0.20429634 0.0017823182 -0.078667216
000070 08 69 40 3c 5f 7c d8 bc 00 de e9 3d 80 31 ec bd
       0.011743791 -0.026426492 0.11419296 -0.11532879
000080 a9 28 af bd 4d 70 71 bc 10 d2 32 3d 4c 4a a2 3d
       -0.08552677 -0.014736247 0.043657362 0.07924327
000090 69 83 f5 3d 04 57 80 3c 12 bc d4 3b c0 aa ac 3c
       0.11987955 0.015666492 0.0064921463 0.021077514
0000a0 2f 99 a9 bd 49 cb 2b 3c 9b 39 4d bd dc 61 40 3c
       -0.082811706 0.010485479 -0.050103765 0.0117420815
0000b0 25 66 85 bc a3 0f 49 3d 9d fd 5a 3d a3 3a a1 bb
       -0.016284058 0.049087178 0.05346452 -0.00492032
0000c0 8f 34 8e bc 4a 56 69 bd 69 f6 f7 bc 18 25 44 3e
       -0.017359046 -0.056967057 -0.030268865 0.19154775
0000d0 e3 d1 07 bb 91 03 cd 3d a5 b7 55 3e ab 17 a8 bd
       -0.0020724467 0.10010446 0.20870836 -0.08207639
0000e0 6b 61 53 bd 1d a6 33 3d 90 9a b3 3c b1 d2 79 3d
       -0.051606577 0.04385959 0.021924287 0.060991947
0000f0 30 42 e2 3c 8e c6 88 bd 39 f3 83 bd b2 f9 0f bd
       0.027619451 -0.06678496 -0.064428754 -0.035150237
000100 8b 11 f7 3c 4c 65 97 bd 1e e5 7e 39 ff 83 f7 bc
       0.030159732 -0.07392368 0.0002430868 -0.030214308
000110 0d 21 47 3e 85 8e 68 3c b4 d6 60 bd f4 67 2f 3e
       0.19446202 0.014194136 -0.054892257 0.17129499
000120 49 bf f0 bc ac b2 32 ba d4 7a 5d bd 1e e9 30 bd
       -0.029388087 -0.00068167853 -0.054072216 -0.043191068
000130 77 83 55 3d 19 34 d4 3c 50 05 7a 3c 89 fc 23 3d
       0.052127328 0.025903748 0.015260056 0.04003576
000140 10 fc b1 3d ec fe 46 bd 8e 18 84 bc e3 f1 71 3e
       0.08690655 -0.048582956 -0.01612499 0.23627429
000150 f0 01 85 3c f0 0e b9 bc ba a6 ab 3a d6 bb b2 3c
       0.016236275 -0.02259013 0.0013095953 0.021818083
000160 4e 99 df 3d f1 98 07 3d 56 4e 1c 3d 79 4b eb 3d
       0.109179124 0.03310484 0.038160644 0.11489005
000170 bd 84 fe bd 2d f8 18 3e d8 1c 2b 3e 83 a4 84 bd
       -0.124276616 0.14938422 0.16710222 -0.064766906
000180 23 39 bb 3d b9 e8 0a 3e 27 59 ae bd 5c 93 d0 3d
       0.09141757 0.13565339 -0.08513098 0.101843566
000190 af 62 4f bd 45 c7 88 3b a3 02 09 bc 1b 41 b6 3d
       -0.05063122 0.0041741454 -0.008362445 0.08899137
0001a0 41 43 8d 3d c7 3b c9 bc e5 dd 4f 3b 9b 2f d2 3d
       0.06897593 -0.024564637 0.0031717953 0.10262986
0001b0 d3 82 f3 3c 46 6b e3 3d 48 f6 02 be a7 08 5f bd
       0.029725468 0.11104445 -0.12789261 -0.05445161
0001c0 75 83 a3 3c 24 42 24 bd a0 23 3c 3a 7d 22 a9 bd
       0.019960145 -0.04010214 0.00071769394 -0.08258531
0001d0 7f d0 53 bd c9 e3 90 3d 5e 4f 7f 3c a4 82 29 3a
       -0.05171251 0.070746966 0.015582887 0.00064663053
0001e0 22 02 63 3d 22 18 3d 3c e9 62 6d bb 6a 8f c8 3d
       0.055421956 0.011541398 -0.0036222285 0.09792979
0001f0 bb 82 fd 3d 22 88 dc 3d 2d 95 28 3a db 5f 4f bd
       0.123784505 0.10768153 0.00064309203 -0.050628524

rnn.bias_hh_l0 f4 [128]
000000 b5 89 5a 3e 79 6a 96 3d 7e 0b ea 3c fe 92 b3 3c
       0.21341594 0.07344527 0.028569933 0.021920677
000010 f0 a7 ac 3d 8c dd 20 bd 0b 3f c8 bb 30 a6 2c 3d
       0.08430469 -0.039273784 -0.006111031 0.042150676
000020 47 00 06 3e f8 bf b1 3d 37 de 86 3c aa 33 dd 3d
       0.13086043 0.08679193 0.016463382 0.1080087
000030 e3 54 33 3d 40 e9 09 bd ac 4c 4e 3d 65 c3 e7 3d
       0.043782126 -0.03366971 0.05036609 0.113165654
000040 58 4a d9 3b fa aa 1b 3e a7 1e 18 bb 80 8d 4d bd
       0.006631177 0.15201941 -0.002321163 -0.050183773
000050 02 45 06 3d a0 35 97 3d 61 b4 04 be 81 e5 b0 bc
       0.032780655 0.07383275 -0.12959434 -0.021593811
000060 63 8b 3b 3e 20 31 66 3e 27 63 a0 bd 83 24 29 3c
       0.1831489 0.22479677 -0.07831412 0.0103236465
000070 4a 56 a5 bd 8b 32 50 bb 64 e9 04 3e 5a 0f 00 bd
       -0.08073099 -0.0031768407 0.12979656 -0.03126464
000080 40 e0 cd bc 36 7b 36 3d 38 cd 11 3e b1 ef 29 3e
       -0.025131345 0.044551097 0.14238441 0.16595341
000090 a4 df 64 ba 42 e6 27 bd af 6d 5a 3d 0b 00 26 3d
       -0.0008730835 -0.040991075 0.05332726 0.040527385
0000a0 58 bf dd 3c 38 5e 5e 3c f3 09 9e bd 88 bb 8a 3d
       0.027068779 0.013572268 -0.077167414 0.0677405
0000b0 63 c7 03 3c 7a 02 c6 3d 55 d2 e8 3d 6f 32 61 3d
       0.008043143 0.09668441 0.11368243 0.054979738
0000c0 e9 d5 10 3d 81 3e 2b bd 02 e0 bf bd 91 74 23 3e
       0.03536025 -0.041807655 -0.09368898 0.15962435
0000d0 97 fb 38 bd 64 80 db 3d 4f 14 61 3d a8 db 48 3b
       -0.04516181 0.10717848 0.05495101 0.0030648503
0000e0 99 b0 b1 3d 73 29 6f bd ea 39 15 bd 46 10 18 3e
       0.086762615 -0.05838914 -0.036432184 0.14849958
0000f0 a3 c1 1c bd 20 bb ad bd 68 80 be bc 1e 2f 90 3d
       -0.038270604 -0.08482957 -0.023254588 0.07040237
000100 59 38 aa 3d 59 7a 26 bd c0 5d aa 3d ba 00 b2 bd
       0.08311529 -0.040644024 0.08318663 -0.08691545
000110 24 3c 45 3e ed 44 2f bd 71 ca 1d 3d a8 3b fa 3d
       0.19261223 -0.042790342 0.03852314 0.1221841
000120 fa 0a d0 3c f7 be f4 3c 56 a2 13 3d 23 10 9e bd
       0.025395859 0.029876215 0.036043487 -0.077179216
000130 66 60 8c 3d 7a 5c 1c 3c 7c b2 d9 bc f8 73 91 bc
       0.06854324 0.0095435325 -0.026574366 -0.017755494
000140 67 21 e4 bc ca f3 ba 3d e7 ed 13 3c 79 5c 94 3e
       -0.027847959 0.0912853 0.009028888 0.289768
000150 e5 f1 9a bc dc 75 27 3d b8 99 32 bd 4d cf 6b 3c
       -0.018914172 0.040883884 -0.04360363 0.014392686
000160 38 7d d5 3d 5b 03 c5 3c 48 83 4e 3c fb 47 e7 3d
       0.10424274 0.024049452 0.012604542 0.11293026
000170 2f 01 c6 bd a4 e9 3d 3e 16 6e 40 3e f1 fc 8e 3b
       -0.096681945 0.18546158 0.18791994 0.004363649
000180 65 31 f0 3d db 78 3d 3e b3 1b 5d bd ab 68 6c 3d
       0.11728171 0.18503134 -0.053981494 0.057717007
000190 3b 43 b9 3d d7 40 ba 3d e0 30 94 3c c9 71 85 3d
       0.09046026 0.090943985 0.018089712 0.065158434
0001a0 e4 59 97 3c 11 21 96 bd 32 6f d7 3d 3a db e2 3b
       0.01847548 -0.07330526 0.10519256 0.0069231065
0001b0 0e 8c 14 3d 6e 4b 7c 3a 4f 76 ea bc 45 0e 15 3d
       0.03626638 0.0009624277 -0.028620867 0.03639056
0001c0 21 6c 09 3e 79 34 e3 3c 36 28 a1 bb 91 f6 b0 bd
       0.13420154 0.027734982 -0.0049181236 -0.08640779
0001d0 65 42 04 be 75 1c e2 3d 40 47 df bc 01 10 b0 3d
       -0.12915953 0.11040584 -0.027255654 0.085968025
0001e0 80 0b ae 3d 26 a1 22 bd 91 74 96 bd db c4 04 3d
       0.08498287 -0.039704464 -0.07346452 0.0324143
0001f0 fc 74 c0 3d 72 5a d2 3d 5e 82 c1 3d b7 28 aa 3d
       0.09397313 0.10271157 0.09448694 0.08308547

h2o.weight f4 [1, 128]
000000 63 42 f3 3e 06 ed c5 3e cc da 34 bd 1d 81 16 bd
       0.47511587 0.38657397 -0.044153973 -0.036744226
000010 e8 0d 19 bd 3e aa d2 3d 69 d6 44 bd ea 95 85 bc
       -0.037366778 0.10286377 -0.04805604 -0.016306836
000020 1c 86 21 3e 82 5a 86 3d 53 15 bb 3e b6 4a d0 3e
       0.15773815 0.06560232 0.36539707 0.40682
000030 03 42 8a bc 30 2d 8c 3c 35 fe e8 bc 3b 00 d0 3d
       -0.01687718 0.01711139 -0.028441528 0.10156294
000040 ad d7 7a 3c 8a a2 35 3e cd 16 06 3e 10 f4 55 bd
       0.01531021 0.17737785 0.13094635 -0.05223471
000050 90 53 37 3d 43 13 b6 3c eb ab aa bd 70 48 48 3d
       0.044757426 0.022225982 -0.08333572 0.048897207
000060 e3 ac 31 3e 72 27 b4 3e 67 ce 0f 3e 87 53 ec 3d
       0.17351107 0.35186344 0.1404358 0.11539369
000070 b1 e0 b8 bd 04 e7 86 3d 27 a5 66 3c fb 21 fc bc
       -0.090272315 0.065870315 0.014077461 -0.030777922
000080 83 ca 2e bb d6 b7 97 3c 80 2c 81 3e 23 76 ed 3d
       -0.0026671 0.018520277 0.25229263 0.115947984
000090 71 57 2a 3e 19 b5 49 3d a2 f4 d7 bc e1 7a 0b 3d
       0.16634919 0.049244974 -0.026361767 0.034052733
0000a0 96 70 3f bd 9a c0 b0 bc e3 df 1a bc 1e c4 a2 3d
       -0.04673823 -0.021576215 -0.009452793 0.07947563
0000b0 59 84 db bc dd da 6d 3d 25 b3 44 3e e2 6a d0 bc
       -0.026796507 0.058070052 0.19208963 -0.02544159
0000c0 03 65 a3 bc 52 65 a2 bd 3b bc b0 bd f4 c4 be 3e
       -0.019945627 -0.079294816 -0.08629652 0.37259638
0000d0 78 32 d0 bc 0b d2 b0 bc 8a 01 64 3e 92 d8 5e bd
       -0.02541469 -0.021584531 0.22266212 -0.054405756
0000e0 a1 19 0d 3e 2e 8e 21 bc 62 be 90 3d 55 76 9b bc
       0.13779308 -0.009860558 0.07067563 -0.018977324
0000f0 6a a1 d7 bc 2a e5 49 3d fe c2 82 3d 00 a6 d1 3b
       -0.026322085 0.049290814 0.06384848 0.0063979626
000100 8f c9 30 3e fb b1 3b 3c f2 29 f4 3d 2d e7 fd bc
       0.17264389 0.011456008 0.11922063 -0.030994022
000110 e5 37 94 3e 3d 96 96 bd db 4d a0 bd 75 ae df 3d
       0.28948894 -0.073528744 -0.0782735 0.10921947
000120 1f c9 18 3c 50 6d 4b 3d d7 ee 7a bd 6b 88 b0 3d
       0.009325295 0.049664795 -0.06126293 0.0861977
000130 30 e4 0d bd 6c 2a 19 bd 2f fd 05 3d b4 e8 69 3e
       -0.034641445 -0.037393972 0.032712158 0.22842675
000140 b6 8e 51 3d 97 58 2b bd 58 71 36 bd 35 6c a4 3e
       0.05116149 -0.041832533 -0.044541687 0.32113805
000150 db 96 c3 3d cb 02 8e bc c3 11 9e bc 22 59 03 bd
       0.09550258 -0.017335316 -0.019295579 -0.032067426
000160 42 76 5f bb 73 ba 7e bd e4 61 e1 3d 9a cd 6e bd
       -0.0034097587 -0.06218953 0.11004999 -0.058301546
000170 61 9d 5d 3c b9 95 06 3d ee 52 ea 3e a0 c3 81 3c
       0.013526292 0.03285763 0.45766395 0.015840352
000180 3b 5b c1 3e 01 e0 8a 3e 81 df 7e bd c4 13 3a 3e
       0.37764916 0.27124026 -0.06222487 0.18171602
000190 1e d9 ba 3d 2a de 86 bd 9f 7c 4a bb c5 b3 cb 3c
       0.09123443 -0.06585343 -0.0030897034 0.024865994
0001a0 7f 2d 6d 3d e0 41 e8 bd ab 94 15 3e 91 5b 1e 3e
       0.057904717 -0.1134069 0.14607494 0.15464617
0001b0 9e d5 04 3c df 5e 01 3d 69 e8 28 3c f8 f6 28 bd
       0.008107571 0.031584617 0.010309317 -0.041251153
0001c0 17 57 a3 3d 96 bc 6b bc 34 cf 06 3c fb 0f 8a 3c
       0.079755954 -0.014388224 0.008228112 0.016853323
0001d0 0e b4 2c 3b 0a d7 8f 3e 5b 55 38 3d 6e 03 03 3e
       0.0026352438 0.2809375 0.045003276 0.12794277
0001e0 ef ff 82 3c eb b2 b6 3d a6 8c 52 3c 1a 0a d8 3d
       0.01599118 0.08920845 0.012850916 0.10548802
0001f0 89 ef 28 3e 7e 1f 6c bc 7f f1 49 3c 03 f0 a7 3d
       0.16497625 -0.014411805 0.012325644 0.082000755
