notebooks/checkpoints/scalertest/rnn2_scalertest_128_+adam133_64_6e-5.pt (torch, 70950 bytes, 5 tensors)

rnn.weight_ih_l0 f4 [128, 2]
00000000: 60be a4bd e6c2 283e d304 43be be01 ae3d
00000010: 3c18 dfbb 7bad 38bd 7a7f 3dbd b9e9 3cbd
00000020: ab86 943d 711f a63d aa07 483d 0e6a 48bd
00000030: 182a 2dbd 3a4e 0b3d cb9e f33d b119 c6bb
00000040: cf95 ce3c 436d e93c 9b4a 713d 1619 b7bb
00000050: 93ef 00be f0e0 00ba 5c85 5cbe 6e28 903d
00000060: 3373 693d 8129 49bd 4884 9f3b 411e 0bbd
00000070: 7c35 753d 1427 9ebd 2d80 17bd c4a3 91bd
00000080: 1be5 973d 26b9 e03c 21a5 6d3d 8645 063e
00000090: 4f03 8dbd c0bd 2cbd 547a 3e3d 2f61 a7bc
000000a0: 3e1b c6bd bb19 16bc f73e f83c 36fe 8dbd
000000b0: 43c7 49bd ed6d d1bd 7dff 75bc 0f43 523d
000000c0: be8e b43c 2a67 953d 8165 13bd 106d e63d
000000d0: be1b 94bd 9a6c 13bd de84 843d 2a23 58bc
000000e0: 3814 673d 266c 8bbd a165 0b3e cacd 743d
000000f0: 7bc6 a13e 379b 103e 171a e03c 0951 7cba
00000100: 903f b2bd 83c4 5ebd 7825 073d 319a 7f3c
00000110: 21d3 47bc f124 483d a61f f23d 8da6 d13d
00000120: 4f65 87bc 68bc c2bd d133 3a3e e6df a83d
00000130: 9d91 3d3d 3840 27bd f9ef 733d 6e57 4a3a
00000140: c06e 8ebc 4114 8bbd 343b babd 88a7 8e3d
00000150: 6573 7f3c 6cc9 0dbd 0271 a33c 356a 1e3d
00000160: 2c29 81bd 3d55 1dbd 134d d83d 0d84 99bb
00000170: e580 10bd b673 2bbd dd4e b13d 02b6 8e3d
00000180: f0cb 70bd 0e97 5b3d e405 9f3d ec5b 373c
00000190: c6e6 c5bc a9b2 813d fc4e 13be 67af ac3d
000001a0: b510 473d e0f9 c33c 1a42 013e 192c a33d
000001b0: d498 f63b 17f9 0f3e 58d9 943d 7398 a83d
000001c0: bd9a 0cbe 946e 8bbd 2d61 2e3e 90db 953d
000001d0: 89e3 cc3d 1f20 363d 68e4 7d3e fa92 f23d
000001e0: e37b bd3c 329f 593d a653 8e3d 07a2 1dbc
000001f0: 303d 803d 97ca 143c 52b9 1e3e febb 773d
00000200: 68fb a93c ac8b 413c 23ff 123d 9896 0f3d
00000210: c6cd bfbd 07fe a7bd dc28 8c3d d405 25bd
00000220: 8cf1 05bd 0d81 043d 6bbb 9dbd e9f9 97bc
00000230: c0a6 27bc f0a3 51bd ba3f c53d 42b6 1e3d
00000240: ce87 afbd a252 0f3d 012e b23d 757c 9bbc
00000250: 8607 c83c 788f 773b ed4b d73b 432e 4e3d
00000260: d091 eb3d add5 3d3d a733 5f3c c3dc 87bd
00000270: c233 143d 77c0 12bd d293 84bd fd33 b4ba
00000280: 9b41 0ebd d23f 963c adbc d93c 946c 953d
00000290: 1c30 9b3d d7f9 d13d d045 833c 5891 a43d
000002a0: dcbd c73d 2d0d ba3b d526 003e 0501 073c
000002b0: 4933 a83b 5ec2 bfbc 6b7c c63a c8eb 9ebd
000002c0: cc03 4b3e 03a0 023e 9263 493d b7ce 56bd
000002d0: 1ead 49bd 773c dcbd 6cbd f1bc b24d 903d
000002e0: 267c 333d ba62 403d 99bf 0f3e cb40 003e
000002f0: e6ed e1bd be10 9a3d 9c9b bd3c 02d4 89bd
00000300: 5abe 6ebe d394 47bd e904 9fbd 93f3 fb3d
00000310: 4dd7 bf3c 06a0 c53d c5cf a0bc 500d fd3d
00000320: c21a d93d 3ba0 883d 1345 ff3d 3729 4f3c
00000330: 2588 693e c697 ce3d 6524 ec3d fa84 043c
00000340: b56e 21bd d37a 083d 08a0 62bd 1b51 98ba
00000350: b258 903d 5b3e ff3c 8f6f 5e3b 9660 423d
00000360: dce8 d13d da35 b8bc f911 233d b6c5 b4bd
00000370: 76ab 2e3d 865d 80bd a02e dd3d 6f3e 87bd
00000380: 3799 0c3e 77f9 153e 1319 823d 2227 733c
00000390: 78b5 123d 99c8 c33d 0619 143d 6e95 13bd
000003a0: c6f9 26bd 219b 3b3c 59fa 7bbd 5ceb 60bd
000003b0: 2917 763d ca95 a8bd 8ca8 6fbd 7ae9 bc3d
000003c0: a8da d53d 26a8 a7bc ef66 e83d 3260 3b3d
000003d0: ed10 873d a148 993d 4279 7dbd c5be d1bd
000003e0: 61f1 5f3d abe1 033d bcdf 093e 59f0 b43d
000003f0: 08cf 143e 1aa8 54ba d3e9 1f3c 8845 003e
-0.08044124 0.16480598 -0.19044809 0.08496426 -0.006808309 -0.04508732 -0.04626415 -0.046121333
0.072522484 0.08111466 0.048835434 -0.048929267 -0.04227647 0.03401015 0.11895522 -0.006045543
0.025217919 0.028494483 0.05890904 -0.0055877073 -0.1259139 -0.0004916331 -0.21535248 0.07038961
0.05699463 -0.049111847 0.004868064 -0.0339644 0.05986546 -0.07722297 -0.036987472 -0.07111314
0.07416745 0.027432036 0.058018807 0.13112459 -0.06885397 -0.042173147 0.04650338 -0.020432083
-0.09673165 -0.009161408 0.030303461 -0.069332525 -0.049262296 -0.10226045 -0.015014526 0.051333483
0.022040721 0.072950676 -0.035985474 0.11251271 -0.07231854 -0.035992242 0.06470655 -0.0131919775
0.056415766 -0.06807737 0.13612987 0.05976657 0.3159674 0.1412171 0.02735619 -0.0009625112
-0.0870353 -0.054386627 0.032994717 0.015600727 -0.012196333 0.048863355 0.11822443 0.10236845
-0.0165278 -0.09508592 0.18183829 0.0824583 0.046281446 -0.04083273 0.059555028 0.00077187165
-0.017386794 -0.067909725 -0.09093323 0.06965548 0.015591477 -0.03461592 0.019951347 0.038675506
-0.06306681 -0.038411368 0.10561576 -0.004684931 -0.035279173 -0.041858397 0.0865762 0.06968309
-0.05878824 0.053610854 0.077647954 0.0111913495 -0.024157893 0.06332905 -0.14385599 0.08431893
0.048599917 0.02392286 0.12622872 0.07967395 0.0075255428 0.14059864 0.072680175 0.082322024
-0.13730903 -0.068082005 0.17029257 0.07317269 0.100043364 0.044464227 0.24794161 0.1184444
0.023130363 0.053130336 0.069495484 -0.00962115 0.062616706 0.009081504 0.15500382 0.060482018
0.020749763 0.0118130855 0.03588785 0.035055727 -0.0936542 -0.08202749 0.06843731 -0.04028876
-0.03270106 0.032349635 -0.07701763 -0.018551784 -0.010232627 -0.051181734 0.096312955 0.038748033
-0.085708246 0.034990914 0.08700181 -0.018980244 0.02441765 0.0037774723 0.0065703304 0.050337087
0.11502421 0.046346355 0.013623155 -0.06633904 0.036182173 -0.03582808 -0.06473507 -0.0013748404
-0.034730535 0.018340979 0.026579225 0.072961 0.075775355 0.10252731 0.0160245 0.080355346
0.0975301 0.00567784 0.12514813 0.008239989 0.005133067 -0.023408111 0.0015143281 -0.077598155
0.19825667 0.12756352 0.049167223 -0.052443232 -0.049237363 -0.1075372 -0.029509269 0.07046069
0.04381957 0.046969153 0.14037932 0.12524717 -0.11031704 0.075227246 0.02314549 -0.067298904
-0.23314801 -0.048725914 -0.077646084 0.123023175 0.023418093 0.09649663 -0.019630322 0.12356055
0.10600807 0.066711865 0.12464347 0.012644104 0.22805841 0.10087542 0.11530379 0.008088345
-0.03941222 0.03332026 -0.0553284 -0.0011620851 0.07048167 0.031157663 0.0033941006 0.047455393
0.102494925 -0.022486616 0.039812062 -0.08826773 0.042643987 -0.06267838 0.10799909 -0.06603705
0.13730322 0.14645945 0.06352439 0.014840873 0.035817593 0.09559745 0.036156677 -0.03603118
-0.040765546 0.01145056 -0.061518047 -0.054911956 0.06008068 -0.08231695 -0.05851035 0.092242196
0.10442096 -0.020465922 0.11347758 0.045746036 0.06595025 0.07484556 -0.06188322 -0.102414645
0.054673556 0.032197636 0.13464254 0.08834905 0.14532101 -0.0008112207 0.009760338 0.12526524

rnn.weight_hh_l0 f4 [128, 128]
00000000: cd8e 473c f08d 38bc 1e58 ac3d a64b 65bd
00000010: 3b67 39bd 90d1 aa3b 6438 83bd cfb1 433b
00000020: 7324 dfbb a752 a5bc b271 833d 09a5 f23d
00000030: a24a 3ebd 9f36 39bd 8fe2 d93c 5d8a 52bd
00000040: abcf e1bc f370 1e3d 864d bcbc 6c57 66bd
00000050: 0852 223d e3d0 4ebc 67f3 a43c 7886 323d
00000060: 749f 043c f837 2f3d 5102 e9bc acdc 38bd
00000070: 8588 0fbc f7c9 a3bd 3308 db3b c360 cf3d
00000080: b54e d73c 6959 f2bc 8ba1 6bbc 16bb 823d
00000090: d554 813d c4b6 d83d ab4c c33c f48c b23d
000000a0: a16e 963d 5bb8 97bc 0e3c 203c 0e29 3c3d
000000b0: 7be0 9fbd 916f b53c 059b 043d aa11 3fbd
000000c0: c25b e83b f01c 803c f81c c8bd 9ff7 4b3d
000000d0: 38e0 353c 4d09 743d 9727 1d3d 77cc 893d
000000e0: 3756 7b3c cbe6 82bc 1a30 343b b1fc 883d
000000f0: 4629 87bc 5ee7 733d 6c17 973d 7728 fb3c
00000100: 71a3 c83d b395 0b3c 049b 083d 0767 aebd
00000110: d449 ec3d b0cc f23c ccbf 9ebd 025f 903d
00000120: ef0c 4bbd 0a84 b33d 39ba a43c e045 1b3b
00000130: 6035 803d 22a9 a7bd 02c1 c1bd e146 853d
00000140: b744 ae3d 8fe0 ae3c 77a5 aabc 2767 c43d
00000150: be71 7a3b 4dc1 9ebc 43af fabb d9a0 9d3a
00000160: f76d 8a3d 8acc 10bb 1efd 79bd e854 d0ba
00000170: 1ed2 de3d 52f3 f93d 9a4a 3f3d d83d fb3c
00000180: a3a0 933d 5a81 063d f9be 55bd fa3b 983d
00000190: 7899 31bc 78e1 733d 3d01 393c c00f cfbb
000001a0: 3e2c 52bd 01b4 9ebc 7898 73bc a759 643c
000001b0: 4b38 f43b dde1 993c 6885 39bd 234f f3bb
000001c0: 593a 6f3a f74f 86bd 207b 1e3c 7c1d eabb
000001d0: 4527 ac3a 4d4d a03d 32a4 6f3d 9a3f 303d
000001e0: ec13 a7ba 9d11 e33b a963 d73d 8f14 75bb
000001f0: c9d4 de3d abb1 703d 1adc a13d 1578 9b3d
00000200: 437f 633d b4e4 11bc 98b8 a43d 0906 103d
00000210: 6ea5 8b3d 233e ae3d 3171 11bd ccaa 0c3d
00000220: 5b34 c33d b756 173c 6c73 c23d 4a2a e8bc
00000230: 207b d2ba 54cc 583d cd90 fcbc aeca db3c
00000240: ada5 843c aeac 993d af5f 49bd f434 443c
00000250: c4e6 bc3c 8f25 eb3d 2ae7 24bd 5332 bfbc
00000260: 01ea af3d e633 c7bc a26e 333b aeb5 433d
00000270: 83f4 9e3d 8257 25bc eea3 bcbd 041f 0ebd
00000280: ff04 02bd cc04 b3bd c627 7abd c59f 183d
00000290: 2d06 7fbc e0f5 663d 8754 533d 9276 c33d
000002a0: 0339 9abb 3abd de3c c5be 383d a5b1 193d
000002b0: 51a7 a83d acdd 9f3d 4566 983d b024 843d
000002c0: 462c f3bd 35a1 17bd 9f0a d4bc 49a2 4dbd
000002d0: 25ca 813c 3e6f b63c d7e9 a63c 3d79 b03d
000002e0: 2f27 6dbd b8b5 a13d 271b c2bc aa8a 39bd
000002f0: cbbf d2bd 75f7 9dbd 69ce 303d 4de3 89bd
00000300: fd63 583d ff9d 153d 33c8 8c3d e0e0 f73c
00000310: cce0 d33c 8acd d4b9 df7a 2ebd 1a52 ba3d
00000320: 0603 b0bc 8393 f5bb 20ba 8cbd 79af 2ebd
00000330: 42a1 f63b 5098 83bd c0f2 983d 7824 2fbd
00000340: dac7 cfbc ab26 883d 885c 473d 6a5b ad3d
00000350: 8ade 3cbd 3bc2 cc3c b180 65bc 807f b73b
00000360: 9668 98bd c408 0abd 568a 983d 788e 103d
00000370: 9161 51bd 9a26 133d c94f 9d3d 6c09 113c
00000380: 8dec 50bb 719a be3d 468e c9bc f26f 743d
00000390: 558e 4f3d 9212 403d bd46 253d 2060 553d
000003a0: 9b49 9e3d 7386 f73c 9679 60bb f414 ebbc
000003b0: 56d6 b1bc b4c0 36bd 6e37 e2bc 9127 26bd
000003c0: 9059 4fbd 72e9 833b 8e4a 1e3c 011a 59bd
000003d0: 7aae 6bb9 c2e6 d83d 2489 303d a1b1 80bd
000003e0: 956b 8cbd d2ce 48bd b6e0 ec3b 18e0 da3d
000003f0: 234b 943d c81f 3d3d 2126 bfbb 8448 72bd
0.012180042 -0.011264309 0.084152445 -0.055980347 -0.045264464 0.00521297 -0.0640724 0.002986062
-0.006809765 -0.020181013 0.0641817 0.11847884 -0.046457894 -0.045218106 0.02659729 -0.051401485
-0.027564844 0.038681936 -0.022986185 -0.056235716 0.039629012 -0.012623045 0.020135595 0.04358527
0.008094657 0.042777985 -0.028443487 -0.045132324 -0.008760576 -0.07997506 0.006684327 0.10125878
0.026282648 -0.02958365 -0.014381777 0.0638334 0.063150086 0.10581735 0.02384027 0.08718291
0.073453195 -0.018520525 0.009779943 0.04593759 -0.07806488 0.022147926 0.0323744 -0.046647705
0.0070910165 0.015638798 -0.0977115 0.049796697 0.011100821 0.059579182 0.038367834 0.06728452
0.015340379 -0.015979191 0.002749449 0.06688822 -0.016499173 0.05954682 0.07377514 0.030658944
0.09796799 0.008519578 0.03335096 -0.08515745 0.11537519 0.029638618 -0.07751426 0.07049371
-0.04957288 0.08765419 0.02010833 0.0023692772 0.062601805 -0.081865564 -0.094606414 0.0650766
0.085092 0.021347312 -0.020830853 0.09589987 0.0038214768 -0.019379282 -0.0076502874 0.0012026086
0.067592554 -0.002209457 -0.061032407 -0.0015894445 0.108799204 0.12204613 0.046702005 0.030669138
0.072083734 0.032838203 -0.05218408 0.074333146 -0.010839812 0.059541196 0.011291799 -0.006319016
-0.051311724 -0.019372942 -0.014867894 0.01393739 0.0074529997 0.018784458 -0.04529324 -0.0074252053
0.0009125821 -0.06558221 0.00967291 -0.007144628 0.0013134262 0.07827244 0.0585062 0.043029405
-0.0012747026 0.00692959 0.105170555 -0.0037396287 0.10880429 0.058763187 0.07903309 0.07591263
0.055541288 -0.008904625 0.08043021 0.035162006 0.068186626 0.085079454 -0.03550834 0.034342572
0.095314704 0.009236983 0.09494671 -0.028340477 -0.0016058423 0.052929237 -0.030830765 0.026830044
0.016192282 0.07503639 -0.049163517 0.011975516 0.023059256 0.11481773 -0.040259518 -0.023339426
0.085895546 -0.02431674 0.0027379175 0.047780685 0.07761481 -0.010091664 -0.092109546 -0.034697548
-0.031743046 -0.08741149 -0.061073087 0.037261743 -0.015565437 0.05638683 0.051594283 0.095441
-0.0047065034 0.02718984 0.045103807 0.03752293 0.08235038 0.078059524 0.07441381 0.0645231
-0.11873679 -0.037018973 -0.02588397 -0.050203595 0.01584346 0.022269841 0.020375175 0.08616874
-0.057898697 0.07895988 -0.023694588 -0.045298256 -0.10290488 -0.07713214 0.043165598 -0.06732807
0.05282973 0.03652763 0.068741225 0.030258596 0.025864027 -0.0004058893 -0.042597648 0.09097691
-0.021485817 -0.0074943914 -0.06871438 -0.042647813 0.0075265476 -0.06425536 0.07468176 -0.04275939
-0.025363851 0.06648 0.04867223 0.084647015 -0.046110667 0.02499496 -0.014007733 0.005599916
-0.07441823 -0.033699766 0.074482605 0.03529212 -0.051118437 0.035925485 0.076812334 0.008852344
-0.0031879277 0.09306801 -0.024603974 0.059677072 0.050672848 0.04689271 0.040350664 0.052093625
0.07728883 0.030215478 -0.0034252158 -0.028696515 -0.021708649 -0.04461737 -0.027614322 -0.040565077
-0.050622523 0.0040256316 0.00966133 -0.053003315 -0.00022476344 0.105908886 0.043099537 -0.0628388
-0.06856457 -0.049025364 0.007228936 0.10687274 0.07240894 0.046172887 -0.0058334027 -0.059151188

rnn.bias_ih_l0 f4 [128]
00000000: 6f67 343e 938e 1a3d 0943 4bbd be7c a2bd
00000010: ebe6 2dbd 4286 96bd 5010 c43c bd99 863c
00000020: dc66 7e3d cf59 5dbd 5db8 2b3e 4fae a03d
00000030: 8195 8fbd 9b84 aa3a 60c9 18bc 73e8 8a3d
00000040: 4d98 92bd ff8e 083e 91b4 ae3c 5abf c9bd
00000050: 46dd 87bd 2d95 2fbd d0dd eabd 331a a43d
00000060: c02a 993d c456 513e 726b 093b 04a7 a0bd
00000070: 5e34 453c 0e60 d9bc 3833 e93d 8bae ebbd
00000080: 0796 aebd 826d 76bc 79b8 333d 6c9a a23d
00000090: bc32 f63d a50c 803c f6e0 d13b 00ef ae3c
000000a0: b70c a9bd 5c4f 2a3c c668 4cbd 9a54 333c
000000b0: 7513 72bc 7ae6 483d a274 5a3d b64a 0bbc
000000c0: acfb 92bc d165 75bd 260b f9bc d66a 443e
000000d0: 7ffa d9ba 7bda ca3d dd0e 553e 5919 aabd
000000e0: 1f17 5abd 3870 343d c8f1 b03c 2b4c 7a3d
000000f0: b572 df3c 8ec6 88bd e71a 86bd e37d 0fbd
00000100: 5af3 f83c fe9f 97bd 0543 8239 3f33 e6bc
00000110: dde9 463e 7124 6f3c 3fce 62bd 37a5 2f3e
00000120: 3bd9 e5bc ad0e 22ba 9694 5dbd 3b42 2fbd
00000130: 6b90 543d ea95 e03c 0124 7d3c 5c27 253d
00000140: eab5 b13d 9158 3ebd 13da 81bc d5fe 713e
00000150: 5eac 803c 2a11 bfbc 45a3 973a 60a5 b23c
00000160: 5f90 dc3d cafd 093d 5517 1b3d cef5 e43d
00000170: 9a10 febd 0638 173e ac62 2b3e 0f2f 84bd
00000180: 59de bb3d 684f 0b3e 1a19 aebd 5623 d03d
00000190: 1779 4ebd 31af 8d3b 899a 0bbc fea9 b53d
000001a0: 2208 8e3d 3e4c ccbc b953 5d3b 3cb6 d23d
000001b0: caef f23c b75a e23d f4b3 02be e7c9 62bd
000001c0: 2eb4 a33c cc67 23bd 711e 7c3a 7d22 a9bd
000001d0: 004b 51bd 6366 913d 7f0a 753c 1a94 a239
000001e0: 5e9c 613d 4e50 413c 7d92 5dbb 302e c53d
000001f0: 4b1b fe3d 0a15 dc3d 95ad 3e3a 9fc3 4ebd
0.17617582 0.037733626 -0.049624477 -0.07933949 -0.04245655 -0.073498264 0.02393356 0.01643073
0.062109813 -0.054040726 0.16769548 0.07845747 -0.070109375 0.001300949 -0.009325355 0.067826174
-0.07157955 0.13335799 0.021326335 -0.098509505 -0.066340014 -0.042866874 -0.114680886 0.080128096
0.07478857 0.20443255 0.0020968583 -0.07844356 0.012036411 -0.02653506 0.11386722 -0.11507901
-0.08524709 -0.015040757 0.0438771 0.0793961 0.120213956 0.01563103 0.0064049913 0.021354198
-0.08254378 0.010394897 -0.049904607 0.010945464 -0.014775147 0.049047925 0.053333886 -0.008501699
-0.017942272 -0.059911553 -0.030400824 0.1918138 -0.001663044 0.09904953 0.20806451 -0.08305616
-0.053244706 0.044052333 0.021599665 0.061107796 0.027276376 -0.06678496 -0.065481 -0.035032164
0.030389477 -0.07403563 0.00024845466 -0.028100608 0.1942515 0.014596091 -0.055372473 0.17152868
-0.028057685 -0.00061819964 -0.05409678 -0.04278777 0.05189554 0.027415235 0.0154504785 0.04032074
0.086772755 -0.046471182 -0.015851056 0.23632367 0.015707191 -0.023323614 0.0011569044 0.021807373
0.10769724 0.033689298 0.037864048 0.11179696 -0.1240551 0.14767465 0.16736859 -0.06454288
0.09173269 0.1360451 -0.085008815 0.1016299 -0.05040845 0.004323863 -0.008520731 0.08870314
0.06935145 -0.024938699 0.0033771826 0.10288665 0.029655356 0.11052459 -0.12763959 -0.05536833
0.019983377 -0.03989391 0.0009617573 -0.08258531 -0.051096916 0.07099607 0.014956116 0.00031009392
0.055080764 0.011798931 -0.0033809238 0.0962795 0.124075495 0.107462004 0.00072737905 -0.050479528

rnn.bias_hh_l0 f4 [128]
00000000: 3dcd 5a3e 74ab 973d 922e ec3c 8f2b b33c
00000010: 8151 ac3d 4d80 1fbd 1e04 e1bb 1ccd 2b3d
00000020: bc9d 053e 99ef ae3d 7227 873c c6c0 dd3d
00000030: afa1 333d 2337 0bbd bf46 483d 801f e73d
00000040: ac10 b13b b6d0 1b3e 942f 02bb 1e43 4cbd
00000050: 4d52 013d 572e 973d 306c 04be d10c afbc
00000060: 4ebd 3b3e d554 663e 5abe 9fbd 47ce 2c3c
00000070: dbbc a4bd 2f50 57bb f393 043e 7412 febc
00000080: 1e95 cbbc e23b 353d e406 123e bd17 2a3e
00000090: 8739 0dba 9f0b 28bd 4c12 5a3d 0c22 273d
000000a0: 4cf1 df3c 4be2 5c3c 80a1 9dbd e219 893d
000000b0: 2f80 1c3c fded c53d ef8d e83d 1887 523d
000000c0: 6072 0e3d 084e 37bd 2c25 c0bd 4fba 233e
000000d0: 474e 37bd 4e57 d93d 2f71 5e3d 84a4 083b
000000e0: a255 ae3d 585f 6ebd 518e 16bd ba2e 183e
000000f0: 7529 1ebd 20bb adbd 1f1f c7bc 1e6d 903d
00000100: b1b0 aa3d eaef 26bd a660 aa3d 73ac adbd
00000110: f404 453e 7e9f 2dbd e6d2 1b3d 26b6 fa3d
00000120: 08f1 da3c 0c44 f53c 9488 133d a33c 9dbd
00000130: d8e6 8b3d 2220 353c 1d23 d8bc 4b1e 8fbc
00000140: d039 e5bc e746 bf3d 006b 183c 0463 943e
00000150: 7747 9fbc d174 243d cb39 33bd 71a2 6b3c
00000160: 4974 d23d 1dcd c93c fba6 493c 50f2 e03d
00000170: 0c8d c5bd 7d29 3c3e eab3 403e c654 963b
00000180: 9bd6 f03d 8adf 3d3e 9d9b 5cbd 9288 6b3d
00000190: fbb7 b93d 4b8f ba3d eee4 923c acda 843d
000001a0: 896d 9a3c 48e5 96bd e1da d73d 2f45 eb3b
000001b0: 9f42 143d 65d9 e739 4063 e8bc 054d 113d
000001c0: 3972 093e f7e8 e43c b528 99bb 91f6 b0bd
000001d0: f9a0 03be 0f9f e23d bf69 e4bc 7b5f af3d
000001e0: 8558 ad3d 1793 21bd 1ef6 95bd b604 fc3c
000001f0: 8c0d c13d 5ae7 d13d 89ae c13d d576 aa3d
0.21367355 0.07405749 0.0288308 0.021871356 0.08413983 -0.038940717 -0.006866946 0.041943654
0.13048452 0.085417934 0.016498301 0.10827784 0.043855365 -0.03398813 0.048895594 0.11285305
0.005403599 0.15216336 -0.0019864785 -0.049868695 0.03157263 0.073818855 -0.12931895 -0.021368416
0.18333933 0.22493298 -0.077999786 0.010547227 -0.08043834 -0.003285419 0.12947063 -0.031014659
-0.024851378 0.04424656 0.14260441 0.16610618 -0.00053872954 -0.041026708 0.053240106 0.040803954
0.027336739 0.013481687 -0.07696819 0.0669439 0.009552046 0.09664533 0.11355197 0.051398367
0.034777045 -0.04475215 -0.0938209 0.1598904 -0.044752385 0.10612355 0.05430716 0.0020850012
0.08512427 -0.058196396 -0.036756817 0.14861575 -0.038613755 -0.08482957 -0.024306832 0.070520625
0.083344825 -0.040756144 0.083192155 -0.08480158 0.1924017 -0.04238843 0.038042925 0.12241773
0.02672626 0.029939674 0.036018923 -0.07677581 0.06831139 0.011055024 -0.02638393 -0.0174705
-0.027981669 0.093396954 0.009302855 0.28981793 -0.019443257 0.040150467 -0.043756288 0.014381991
0.10276086 0.024633938 0.012307878 0.109837174 -0.09646043 0.18375202 0.18818632 0.0045877425
0.11759683 0.18542305 -0.053859342 0.05750329 0.090682946 0.09109362 0.017931428 0.06487021
0.018851059 -0.07367951 0.10539795 0.007179878 0.036196347 0.00044221725 -0.028367639 0.035473842
0.13422479 0.027943118 -0.004674042 -0.08640779 -0.12854375 0.11065494 -0.027882455 0.08563133
0.084641494 -0.039446916 -0.07322334 0.030763965 0.09426412 0.10249205 0.09457118 0.08323447

h2o.weight f4 [1, 128]
00000000: f084 f33e 4558 c63e f236 35bd c062 10bd
00000010: df47 0dbd 755e d13d 69d6 44bd d59e b0bc
00000020: bbbf 213e 825a 863d ca5d bb3e 9dc4 d03e
00000030: 5e18 8cbc ea12 893c 35fe e8bc 08d5 cb3d
00000040: add7 7a3c 9008 363e 0245 063e 0837 51bd
00000050: d7c8 273d 235f 8e3c e942 abbd 58cd 473d
00000060: 38ac 313e 834d b43e 65ce 0f3e d6ba eb3d
00000070: 3676 bbbd 438b 813d c179 2d3c a226 fbbc
00000080: 490c 2fbb 2106 913c 0f70 813e 7b5b ec3d
00000090: 3b30 2a3e 8bbb 483d 0ac7 e5bc 9979 0b3d
000000a0: eddb 46bd d710 9abc f63a 11bc b750 a23d
000000b0: d344 ddbc b095 653d 3378 443e e26a d0bc
000000c0: 4fc0 8cbc 5265 a2bd 85eb afbd bd25 bf3e
000000d0: aa52 d8bc e89a bbbc 4d70 643e 92d8 5ebd
000000e0: 3993 093e 4e3c 29bc 4cf0 8a3d bd37 bfbc
000000f0: 07cd c3bc 2ae5 493d fec2 823d 7288 bf3b
00000100: ed7f 303e de53 553c 8c0a f53d 2de7 fdbc
00000110: f356 943e 3d96 96bd db4d a0bd b421 df3d
00000120: 1fc9 183c 8998 3d3d 7368 83bd 92d0 b33d
00000130: 7d12 25bd 6c2a 19bd 2ffd 053d 7cfc 693e
00000140: 5ca0 4f3d 9758 2bbd ce3b 36bd ef86 a43e
00000150: ff80 bb3d 8214 abbc 226d 93bc 420c 1bbd
00000160: f22d 8bbb 9f4f 81bd b481 d83d 9acd 6ebd
00000170: 5929 693c d2bc ee3c c493 ea3e 4ae6 433c
00000180: 76d4 c13e cd28 8b3e 0d8e 73bd d3db 3a3e
00000190: ce52 ba3d ab51 8cbd 2b6d bcbb 8f40 b23c
000001a0: 7f2d 6d3d 4128 e1bd c28d 153e f78c 1e3e
000001b0: ea1b 393b 835c d33c c6c6 253c c3d2 3bbd
000001c0: 83cb a23d 4721 6abc a023 0f3c fb0f 8a3c
000001d0: 84c8 a33b d007 903e 19aa 363d d2c4 033e
000001e0: f21a 1f3c e0b0 b53d d5a5 563c b30a d23d
000001f0: 409b 283e bd68 90bc 3de1 1b3c 367e a93d
0.4756236 0.3873922 -0.044241853 -0.035250425 -0.03449237 0.102230944 -0.04805604 -0.021560112
0.15795796 0.06560232 0.36594993 0.40775004 -0.017101463 0.016732652 -0.028441528 0.09952742
0.01531021 0.17776704 0.13112262 -0.051077873 0.04096302 0.01737935 -0.083623715 0.048779815
0.17350852 0.35215387 0.14043577 0.115102455 -0.09153406 0.0632539 0.01058811 -0.03065807
-0.0026710203 0.017703118 0.25280806 0.11540886 0.16619961 0.04900698 -0.02804901 0.03405151
-0.04854958 -0.018806858 -0.008864155 0.079255514 -0.027010357 0.056050956 0.19186477 -0.02544159
-0.017181544 -0.079294816 -0.08589844 0.3733348 -0.026406605 -0.022901013 0.22308464 -0.054405756
0.13435067 -0.010329319 0.06784114 -0.023342008 -0.023901476 0.049290814 0.06384848 0.005845123
0.172363 0.013020484 0.11964902 -0.030994022 0.28972587 -0.073528744 -0.0782735 0.108951
0.009325295 0.046288047 -0.064164065 0.08780016 -0.040300835 -0.037393972 0.032712158 0.22850221
0.05069004 -0.041832533 -0.044490628 0.32134196 0.091554634 -0.020883802 -0.017996375 -0.037853487
-0.0042474205 -0.06314015 0.10571614 -0.058301546 0.014231049 0.02914277 0.4581586 0.011956761
0.37857407 0.27179566 -0.059461642 0.18247919 0.09097825 -0.068515144 -0.0057503185 0.0217593
0.057904717 -0.10994006 0.14604858 0.15483461 0.0028245398 0.025800949 0.010118192 -0.045855295
0.07948973 -0.0142901605 0.008736521 0.016853323 0.0049982686 0.2813096 0.04459581 0.1286805
0.009711014 0.08871627 0.013101061 0.10255947 0.16465473 -0.017628068 0.00951415 0.08276026
