checkpoints/mlptest/model6_best.pt (torch, 168395 bytes, 9 tensors)

stack.0.weight f4 [128, 17]
00000000: a620 c2bd 4437 57be f546 c33c 6c64 653e
00000010: fcfc 1a3e 679b 38be 3890 49be 83a2 3bbd
00000020: 647e 0f3e 6309 10be 4c6d 443e 3952 c63c
00000030: 9b63 183e d9b1 e63d 2630 6b3e 368b a73c
00000040: 0c6b 77be 5a82 5a3e a12b 4fbe ae96 bb3d
00000050: 3547 ad3d 54d7 2d3e 197c 593d 23b7 8fbd
00000060: 4ca6 28be 1823 2dbd 6d7b babd 9e7d 323e
00000070: bccd 7e3e 7ea0 24bf e0b2 ebbe b496 48be
00000080: e23c e43e fa6a 043d 6fc2 9bbd f6b3 323e
00000090: 757f 283d 10e9 07be 7be5 b03d 1b2e 4c3d
000000a0: 8f2a 33be 168e 023d de7a 023e 13fc 323d
000000b0: 12e9 673e 7ec0 4c3e 3e8f d53d a02a 333d
000000c0: 91ed 3f3e 4dec 26be 4218 2bbc d553 07be
000000d0: f4b3 8bbd 6f6a 31bc 5bd0 43be 97d6 033e
000000e0: 461f 533d 46f9 51be 74d2 b9ba 13cf b8bd
000000f0: 54e9 023c bbcd 2bbe 2185 543e 53dd 4d3d
00000100: 72f5 6b3e 495a a13d 27fa 39be edd6 553d
00000110: 8578 843e 83c1 8bbd 608b 923e 8268 3d3e
00000120: f97c 833b 24fd cb3d 4ec9 10bd da05 5abd
00000130: 182f 6e3e dae5 393e cbe0 673d 8504 463e
00000140: 9406 623d b2f5 ddbd 2837 5ebd 9632 2cbe
00000150: 6d6c 4d3e 6be8 93bd cdac 3dbe 8888 e5bc
00000160: bf1c 85bd b449 5cbe 63d2 08bd 0213 16bd
00000170: a644 0dbe 5a3c dcbd 356e 0cbe 08a2 6e3e
00000180: a3ff a5bc 02c5 5a3e 262e 14bc 346d 413e
00000190: 0b56 45be 23c5 c33c add4 02be b00b 35be
000001a0: f76a 943d 4f7a 863d 7ab1 d73d 09a6 e3bb
000001b0: 4a81 c0bd 4f46 4fbc 4791 813d f2a4 4c3e
000001c0: 3805 c6bc 85db 45be 6696 84bd 679c 32be
000001d0: 9033 753e 09c1 2dbe 2900 16be 4637 64be
000001e0: 20f7 4bbe 6938 df3d e144 483e 1804 6fbe
000001f0: 9b99 d23c ad74 3ebe 7c5a 9d3d 4295 4dbd
00000200: ccc1 dd3d 0a6b 103c 5c66 823b 0637 afbd
00000210: 9ab2 1c3e 8000 54be c96e 9ebd 9413 a03d
00000220: c3f6 7ebc 1c3c 90bc 612a 59bd 5bfa 77be
00000230: 5334 53be c5e8 13be 5bc2 53be bde3 b33d
00000240: f250 143e bd65 51be da06 01be 3154 49be
00000250: 15f9 143e 372c 13be 77ca 49bd 1053 493e
00000260: e1ab d9bd 08db 453e f341 7d3c f5e9 88bd
00000270: 3b72 a6bd 3295 333d 2b1b 023d d3f5 9a3c
00000280: bd24 1dbd 6b2d 62be 431f e93d 90df c23d
00000290: 8f7a 00bd d96b 2bbf d7d4 49bf ec97 71bf
000002a0: 0fa8 87be 5dbb 3abf fd14 33be 56b8 12be
000002b0: deff 36be 20c5 8abd 6a23 78bd 05ff 873d
000002c0: 1b83 b3bd d5b9 68be 9d2f 543c 7cd9 833d
000002d0: 8307 51bd 7134 663e f1d6 ee3d d914 743e
000002e0: d0ef 6f3d 74da 3a3d 4ad5 343d 6e2b 0cbe
000002f0: 726e 893d 9762 18be 81c5 983d 2f77 bd3d
00000300: 647c 5cbd c001 033e 0148 843d 008e 54be
00000310: b4b8 72be a764 5a3e 3c73 6bbe f365 283e
00000320: 069d a7bd fdbd b9bd d0a5 603e 3843 5e3c
00000330: 7705 02bd 38e3 453d 3170 153e d8e7 09be
00000340: e9ca ae3d cdaa 893e 4dd6 96bd b565 673e
00000350: 9fd2 2b3e 886d f1bd a548 463e 2007 26be
00000360: 25a4 663d 7775 ae3d 84c8 02bd 19ed 203c
00000370: 55e0 22be c2c3 683e 0a16 64bd c344 73bd
00000380: 990f a1bd 5899 073d baa5 bcbc ed97 743d
00000390: cca0 54be f0a1 db3d 1839 9a3d 450e cbbb
000003a0: b6fa 3b3e 4843 c43d 9243 d83d ccf6 00bd
000003b0: 3257 95bd c6d8 933e 80ac 6a3e 5271 12be
000003c0: 9862 2a3d 3aec 423e d7af 743e ec08 ebbd
000003d0: 4e6c 01bd 7076 343e 6cfe 5cbd dfe9 78bd
000003e0: aa82 973d fa79 413e 1b09 113e 0621 923e
000003f0: ce90 193e 03bf 5e3e ae21 8bbd 0290 bb3d
-0.094788834 -0.21017176 0.023837546 0.22401589 0.15135568 -0.18028031 -0.19683921 -0.04580928
0.14013058 -0.14066081 0.19182318 0.024209129 0.14881746 0.112643905 0.22967586 0.020452123
-0.24161929 0.21338788 -0.20231487 0.09159599 0.08460847 0.16976672 0.053096864 -0.070173524
-0.16469687 -0.042269796 -0.09105573 0.17430732 0.24883169 -0.6430739 -0.46034908 -0.19588739
0.445777 0.032328583 -0.07605445 0.17451462 0.041137177 -0.132725 0.0863752 0.049848657
-0.17496704 0.031873785 0.12742183 0.043697428 0.22647503 0.19995305 0.10427712 0.043741822
0.18742968 -0.16301079 -0.010442795 -0.13215573 -0.06821433 -0.010828598 -0.1912245 0.12874828
0.051543497 -0.20505247 -0.00141771 -0.09023871 0.0079902 -0.16777699 0.2075391 0.0502599
0.23042849 0.07878549 -0.18161832 0.052206922 0.258732 -0.06824019 0.2862196 0.18496898
0.0040127006 0.09960392 -0.03534823 -0.053228237 0.23260152 0.18154088 0.056610864 0.19337662
0.055182055 -0.10837878 -0.05425182 -0.16816172 0.20060892 -0.072220646 -0.1852295 -0.028019205
-0.064996235 -0.2151249 -0.033403765 -0.03663922 -0.13795719 -0.10753699 -0.13713916 0.23303998
-0.020263499 0.21364215 -0.009044206 0.18889314 -0.19271104 0.023897713 -0.12776442 -0.1768024
0.072469644 0.06566297 0.10531898 -0.006947283 -0.0939966 -0.01265104 0.063265376 0.19984797
-0.02417241 -0.19322021 -0.06473999 -0.17442475 0.23945451 -0.16968168 -0.14648499 -0.2228671
-0.1991849 0.10899431 0.19557525 -0.23341405 0.02570801 -0.18599196 0.07683274 -0.05019117
0.108279794 0.008814583 0.0039794873 -0.08555417 0.15302506 -0.20703316 -0.07735974 0.07816234
-0.015561762 -0.017606787 -0.05301893 -0.24216597 -0.20625429 -0.14444263 -0.2067961 0.08783672
0.14484003 -0.20448966 -0.1260027 -0.19661023 0.14548142 -0.14372335 -0.04926535 0.19660592
-0.106284864 0.19321835 0.015457618 -0.06685249 -0.081272565 0.043843456 0.03176419 0.018916046
-0.038365114 -0.22087638 0.11382916 0.095152974 -0.03136688 -0.6696144 -0.7884039 -0.9437244
-0.26495406 -0.72942144 -0.17488475 -0.14328131 -0.17871043 -0.0677588 -0.06058065 0.06640438
-0.08765241 -0.2272714 0.012950805 0.06437966 -0.051032554 0.22480942 0.116620906 0.23836078
0.058578312 0.04561849 0.04414872 -0.13688442 0.06710519 -0.14881359 0.07459546 0.09251248
-0.053829566 0.12793636 0.06459046 -0.20757294 -0.23703271 0.21327458 -0.22993177 0.1644514
-0.08184247 -0.090694405 0.21938252 0.013565831 -0.031743493 0.048312396 0.14593579 -0.13467348
0.08534796 0.26888123 -0.073650934 0.22597392 0.16779564 -0.117884696 0.19363649 -0.16213655
0.056308884 0.085184984 -0.031929508 0.0098221535 -0.15905888 0.22730926 -0.05568508 -0.05939175
-0.07864303 0.033105224 -0.023028243 0.0597152 -0.20764464 0.107242465 0.07530421 -0.0061967694
0.18357357 0.095831454 0.10559763 -0.031485364 -0.07292022 0.28876323 0.22917366 -0.14301041
0.041597933 0.19035426 0.23895203 -0.11476311 -0.031597428 0.17623305 -0.053953573 -0.06076991
0.07397969 0.18894187 0.1416363 0.2854082 0.14996645 0.21752553 -0.06793533 0.09158327

stack.0.bias f4 [128]
00000000: 91a0 aabd ba00 bdbf 751c 20bf 27eb a63d
00000010: ada6 b2be c7a4 4e3e fa10 47bd 5679 07bd
00000020: e346 033e 9d93 3e3d 57c6 66be b41a 0fbd
00000030: 1923 91be 8b06 a5be c873 cebe 9263 d1bf
00000040: a3b0 18be 5ceb 8dbf 7020 d4bf 44c4 293f
00000050: 2564 02bf 5c97 cc3e 834a a8bd a97c 133f
00000060: 40d2 3cbe c9e7 23bf c5d6 15bf b913 2a3f
00000070: de99 d5be aacb 803f e976 c13e 34fb 80be
00000080: d2ee 653d 6c72 39be 31df 333e 46d5 893e
00000090: 79a3 f6be 14a6 0b3e e6e0 903e 5098 793d
000000a0: 2ba9 453f 89f2 4d3f fe4f 82be eef3 38be
000000b0: 5899 dcbe 99d5 a63d 8af4 98be 8355 8dbc
000000c0: 5f6d 6c3d 3c2c 8cbe 21a0 b8bb cac0 1bbd
000000d0: ad55 8ebc 03be 03bf 6428 a2bd 523b 1fbe
000000e0: 0582 21be 2d27 b4be be54 d5be 5e8d 3c3f
000000f0: 5318 7abe bc87 25bf 6c42 043e ddb8 28bf
00000100: 17d6 e9bd 451f fabd 8372 5a3d ca73 f5be
00000110: 1371 43be e19f 143f 2bad 31be 5cd7 da3d
00000120: 7bc7 25bf 6c56 b5be 8c97 d1bf 200f 363f
00000130: 958b 083f 8fdc aebd c73c 7bbd bd5f c8be
00000140: e7f1 0abf 6401 09bf 21f1 b3be d597 b83e
00000150: a7a5 43be a221 72be 8693 2ebf f53a 2a3f
00000160: cbd9 d3be 7960 d73c c278 9f3d 44da c0bf
00000170: ade5 2c3e bccc 653e fc25 11bf de0d 04bf
00000180: 284a ad3d 677d 1b3d f15c dbbe 48c1 e1be
00000190: 0ebd 813f dae9 853d 6b2c c0bd bd61 c8be
000001a0: 1e3f a7be 2dd0 e5be 1748 3a3f b6bd e5be
000001b0: 7457 f9be 6a4e 83bd 0c57 b3bd 4eac 523e
000001c0: 185a a2bf 0a4f 023f 35c3 9f3c 9601 eb3e
000001d0: fee6 bb3e 9467 5abe 1e1e 1fbf 3088 313f
000001e0: 6f1c f4bd b719 563e 4e50 35be 4f1e a0bc
000001f0: 7bc5 9fbe dbc3 8bbe bfde 4ebc 4183 75be
-0.08331407 -1.4765847 -0.6254342 0.081503205 -0.3489279 0.20180045 -0.048600174 -0.0330747
0.1282001 0.046527494 -0.22536598 -0.034937575 -0.2834709 -0.32231554 -0.4032271 -1.6358511
-0.14911132 -1.1087451 -1.6572399 0.663151 -0.5093406 0.39959228 -0.08217337 0.5761209
-0.18439579 -0.6402555 -0.5853084 0.66436344 -0.41718954 1.0062153 0.37786034 -0.25191653
0.05613596 -0.18110055 0.1756561 0.26920527 -0.48171595 0.13637573 0.28296584 0.060936272
0.77211255 0.80448204 -0.25451654 -0.18061802 -0.43085742 0.08146209 -0.29874068 -0.01725269
0.057721492 -0.27377498 -0.005634323 -0.038025655 -0.017374838 -0.5146181 -0.0791786 -0.15549973
-0.15772255 -0.3518614 -0.41666216 0.7365321 -0.24423341 -0.6466024 0.12915963 -0.6590708
-0.114177875 -0.122129954 0.053331863 -0.47939903 -0.19086103 0.58056456 -0.17351215 0.10685608
-0.6475751 -0.35417497 -1.6374373 0.7111683 0.53337985 -0.08538162 -0.06133726 -0.39135543
-0.54275364 -0.53517747 -0.35144904 0.3605334 -0.1910616 -0.23645642 -0.6819385 0.6649621
-0.413771 0.026291119 0.077867046 -1.5066609 0.1688449 0.22441381 -0.56698585 -0.5158366
0.0846141 0.03796139 -0.42844346 -0.44092774 1.013582 0.06538744 -0.09383472 -0.39137068
-0.32665342 -0.44885388 0.7276625 -0.448713 -0.48699534 -0.06411441 -0.08756837 0.20573542
-1.2683744 0.50901854 0.019502262 0.45899647 0.3669967 -0.21328574 -0.6215533 0.6934843
-0.11919486 0.20908247 -0.17706415 -0.019545702 -0.31205353 -0.27297863 -0.012626349 -0.2397585

stack.2.weight f4 [1, 128]
00000000: ccc8 db3c 0928 853e 4dfd 343d a39f b1bd
00000010: 93d4 433d a4df 513d 1f8c 733c e24e 383d
00000020: eef9 8b3d 4503 e5be a47c 8dbd 5439 9b3d
00000030: 15a1 f43c 193e 163d 4f53 9b3d 2ac2 9f3f
00000040: ffd1 003d e7c6 1e3f 0100 613f c215 c2bd
00000050: 17b1 5a3e 79e4 d2bd 3ffd a73d bc08 04be
00000060: a88e 713d d2bf 843e 5101 463e 96f6 efbc
00000070: 395a 643e 59b1 afbf 12b5 08be 9437 18bf
00000080: 1ec9 0b3d ec37 883c e6c3 aa3d b3e9 ce3e
00000090: 246e 313d acc9 99bd 7715 69bd dba0 39bd
000000a0: 5417 8cbe 1cad 7bbe 344f d53c 4ac2 8b3d
000000b0: 0a7c 313e 003f 503d 4e65 883d ce8c 10bf
000000c0: 228a a13e 2eff ad3d 70c1 79bd 17f1 3fbd
000000d0: 4177 84be 1205 be3d 2ed7 24bd 56a4 37bd
000000e0: b736 64bd 7628 453d 6531 533c e0ea 0a3f
000000f0: db2b 113f 2cae 333e e1a4 1f3f fde2 22bf
00000100: 426c 2abd 6a1a 42bd 3d14 663e d134 803d
00000110: a3bb 763c b6c7 b6bd a312 43bd f316 963d
00000120: cdc7 ed3d 6edf ff3d e0c5 0b3f 7506 bfbc
00000130: c58a 8abe c126 be3c 99b6 b43d 5446 4b3e
00000140: 4e76 893d e49b df3c ceb9 403d 0afa 83bd
00000150: 6e54 7ebd 977a 45bf d29d 9f3d f2e1 c9bb
00000160: 1633 ee3d d43d 82bd eaa9 f4bb f4c2 a13f
00000170: d873 243d be31 b2bd 6ce1 0c3e 5c57 133d
00000180: 475d a5be 331f 6abd b542 f93d a771 033e
00000190: 78c1 04bf 2dc3 42bd e784 463d c5e0 933c
000001a0: 8a65 a33d 2e72 9d3d 9053 0fbf 1190 34bf
000001b0: 9981 a33d 4ba3 60bc 6afa c8bc 121b a6bc
000001c0: 50ff 0e3f 2128 ce3f 5cca 94bd 6a57 763e
000001d0: 4431 d0be 9e07 a63b 8f0a 663e 7d2a 1fbd
000001e0: da97 0bbb 7151 263d 9965 cbbc 80ca a43d
000001f0: 90ab ba3d 3d9e 813e 1b6e 533c 4807 cd3d
0.026829146 0.26007107 0.04418688 -0.086730264 0.04781015 0.05123867 0.01486495 0.044997104
0.0683478 -0.44729057 -0.06908539 0.07579294 0.029861966 0.036680315 0.07584249 1.2481129
0.031450268 0.6202225 0.8789063 -0.09476806 0.21356617 -0.10297484 0.082026 -0.12893957
0.05897394 0.25927597 0.1933644 -0.029292386 0.22300042 -1.3725997 -0.13350323 -0.59459805
0.034127347 0.016628228 0.08338146 0.40412673 0.04331793 -0.07509169 -0.056905236 -0.04531942
-0.27361548 -0.24577755 0.026038744 0.06824167 0.17332473 0.05084133 0.06659947 -0.5646485
0.315507 0.08495937 -0.060975492 -0.04686078 -0.25872234 0.09278311 -0.040244274 -0.044834457
-0.055716243 0.04813429 0.012890195 0.5426464 0.56707543 0.1754691 0.6236096 -0.63627607
-0.04160715 -0.04738847 0.22468658 0.06260074 0.0150593845 -0.089248106 -0.047625195 0.07328596
0.116103746 0.12493788 0.5459881 -0.023318509 -0.27058998 0.023211839 0.0882389 0.19851047
0.06712018 0.027296014 0.047052197 -0.064441755 -0.062092237 -0.7714018 0.07793774 -0.006160968
0.116308376 -0.06359449 -0.0074665444 1.263762 0.04014954 -0.08700894 0.13757867 0.035971984
-0.32297727 -0.05715866 0.121709265 0.12836324 -0.5185771 -0.047549415 0.04846659 0.018051514
0.079783514 0.07687794 -0.5598688 -0.7053233 0.07983703 -0.013710807 -0.02453347 -0.02027658
0.55858326 1.6105996 -0.072651595 0.24056783 -0.40662587 0.005066826 0.22464965 -0.03885888
-0.0021300227 0.040605012 -0.024828719 0.08046436 0.09114754 0.2531604 0.012904669 0.100111544

exp_avg f4 [128, 17]
00000000: 0000 0000 0000 0000 0000 0000 0000 0000
00000010: 0000 0000 0000 0000 0000 0000 0000 0000
00000020: 0000 0000 0000 0000 0000 0000 0000 0000
00000030: 0000 0000 0000 0000 0000 0000 0000 0000
00000040: 0000 0000 08d2 21be 7316 84bd 0e25 9ebc
00000050: cdbb 3dbd 0e8c a5bd 05a2 e6bd 7f0c 1fbe
00000060: 03c7 84bd 9d43 81bd fa16 7abd e56f 76bd
00000070: 7025 74bd 7502 05bc 6b11 f1bb 7c90 dfbb
00000080: a3af d1bb 864f cfbb c6d4 ecbc a3a2 89bc
00000090: d04a 5fbb b77a 0bbc 96db 60bc e204 abbc
000000a0: 26f7 e7bc df28 89bc c3f3 86bc eeae 78bc
000000b0: 3c2b 78bc bf47 69bc 64ea 04bb 95cb f7ba
000000c0: 0f69 b9ba 0f51 b3ba 24c3 81ba 0000 0000
000000d0: 0000 0000 0000 0000 0000 0000 0000 0000
000000e0: 0000 0000 0000 0000 0000 0000 0000 0000
000000f0: 0000 0000 0000 0000 0000 0000 0000 0000
00000100: 0000 0000 0000 0000 0000 0000 0000 0000
00000110: e4b2 01bd a058 95bc 103e 71bb 45fa 16bc
00000120: 88f4 78bc 64a9 b7bc 59f7 fdbc aa0b 95bc
00000130: 4b8d 92bc 6677 86bc 46de 85bc 81a7 7bbc
00000140: be33 12bb 283b 08bb a200 cdba 39df c3ba
00000150: 3199 8eba 0000 0000 0000 0000 0000 0000
00000160: 0000 0000 0000 0000 0000 0000 0000 0000
00000170: 0000 0000 0000 0000 0000 0000 0000 0000
00000180: 0000 0000 0000 0000 0000 0000 0000 0000
00000190: 0000 0000 0000 0000 0000 0000 0000 0000
000001a0: 0000 0000 0000 0000 0000 0000 0000 0000
000001b0: 0000 0000 0000 0000 0000 0000 0000 0000
000001c0: 0000 0000 0000 0000 0000 0000 0000 0000
000001d0: 0000 0000 0000 0000 0000 0000 0000 0000
000001e0: 0000 0000 0000 0000 0000 0000 0000 0000
000001f0: 0000 0000 0000 0000 0000 0000 0000 0000
00000200: 0000 0000 0000 0000 0000 0000 0000 0000
00000210: 0000 0000 0000 0000 0000 0000 0000 0000
00000220: 0000 0000 0000 0000 0000 0000 0000 0000
00000230: 0000 0000 0000 0000 0000 0000 0000 0000
00000240: 0000 0000 0000 0000 0000 0000 0000 0000
00000250: 0000 0000 0000 0000 0000 0000 0000 0000
00000260: 0000 0000 6aff 5f3e 88cf 9f3d ac33 d73c
00000270: e8c1 7b3d 9c7e e43d 0433 1b3e 6c03 5a3e
00000280: dc5f a03d 2a1f 9b3d bf8a 953d 620d 933d
00000290: 7ba4 8d3d 39d0 253c ff1b 133c 2858 073c
000002a0: ee55 f13b ab20 ea3b 0000 0000 0000 0000
000002b0: 0000 0000 0000 0000 0000 0000 0000 0000
000002c0: 0000 0000 0000 0000 0000 0000 0000 0000
000002d0: 0000 0000 0000 0000 0000 0000 0000 0000
000002e0: 0000 0000 0000 0000 0000 0000 0000 0000
000002f0: 0000 0000 0000 0000 0000 0000 0000 0000
00000300: 0000 0000 0000 0000 0000 0000 0000 0000
00000310: 0000 0000 0000 0000 0000 0000 0000 0000
00000320: 0000 0000 0000 0000 0000 0000 0000 0000
00000330: 8eb4 a1bc 1926 3abc 665e 16bb 693a bcbb
00000340: 1530 1bbc 5af6 64bc 0453 9ebc 4ac6 39bc
00000350: aaaa 36bc c097 27bc a6dc 26bc 1cd7 1cbc
00000360: fc40 b6ba c2d2 a9ba f982 7fba f231 74ba
00000370: 84d0 31ba 11aa c6bc 25e6 64bc c8cb 38bb
00000380: 8644 e7bb f0aa 3ebc 4daa 8cbc f080 c2bc
00000390: cb6f 64bc 459d 60bc 6414 4ebc 2023 4dbc
000003a0: 42c7 40bc b613 e0ba 88cb d0ba b710 9dba
000003b0: 8f05 96ba 8346 5aba d611 4ebd 9a43 edbc
000003c0: 25a5 bfbb 0be2 6fbc 75c7 c5bc e5e6 11bd
000003d0: 5ec0 49bd 6bc9 ecbc 26d3 e8bc 31a3 d5bc
000003e0: 97af d4bc 4ced c7bc cb40 68bb 9469 58bb
000003f0: 0fdc 22bb 549a 1bbb bb9b e2ba 98db 4ebf
0.0 0.0 0.0 0.0 0.0 0.0 0.0 0.0
0.0 0.0 0.0 0.0 0.0 0.0 0.0 0.0
0.0 -0.15802777 -0.06449594 -0.019304778 -0.04632168 -0.08083354 -0.112613715 -0.1553211
-0.06483271 -0.06311724 -0.06105707 -0.060165305 -0.059606016 -0.008118262 -0.0073568127 -0.006822644
-0.0063991114 -0.0063266186 -0.028910052 -0.016801184 -0.0034071691 -0.008513144 -0.013724228 -0.020876352
-0.028316092 -0.016743122 -0.016473657 -0.015178425 -0.015147027 -0.014238297 -0.002028131 -0.0018905277
-0.001414569 -0.0013680774 -0.0009900075 0.0 0.0 0.0 0.0 0.0
0.0 0.0 0.0 0.0 0.0 0.0 0.0 0.0
0.0 0.0 0.0 0.0 -0.031664744 -0.018230736 -0.0036810674 -0.009214942
-0.01519502 -0.022419639 -0.031001734 -0.018194038 -0.01788964 -0.016414355 -0.01634134 -0.01535976
-0.0022308673 -0.0020787213 -0.0015640447 -0.0014943845 -0.0010879395 0.0 0.0 0.0
0.0 0.0 0.0 0.0 0.0 0.0 0.0 0.0
0.0 0.0 0.0 0.0 0.0 0.0 0.0 0.0
0.0 0.0 0.0 0.0 0.0 0.0 0.0 0.0
0.0 0.0 0.0 0.0 0.0 0.0 0.0 0.0
0.0 0.0 0.0 0.0 0.0 0.0 0.0 0.0
0.0 0.0 0.0 0.0 0.0 0.0 0.0 0.0
0.0 0.0 0.0 0.0 0.0 0.0 0.0 0.0
0.0 0.0 0.0 0.0 0.0 0.0 0.0 0.0
0.0 0.21874776 0.07803255 0.026269756 0.06146422 0.11156961 0.1515618 0.21290368
0.07830784 0.075743034 0.07301854 0.07180287 0.06916138 0.010120445 0.008978843 0.008260764
0.00736498 0.0071450076 0.0 0.0 0.0 0.0 0.0 0.0
0.0 0.0 0.0 0.0 0.0 0.0 0.0 0.0
0.0 0.0 0.0 0.0 0.0 0.0 0.0 0.0
0.0 0.0 0.0 0.0 0.0 0.0 0.0 0.0
0.0 0.0 0.0 0.0 -0.019739415 -0.011361622 -0.002294445 -0.0057442677
-0.009471913 -0.01397475 -0.019326694 -0.01133878 -0.011149088 -0.010229051 -0.010184443 -0.00957277
-0.0013904865 -0.0012956487 -0.00097469945 -0.0009315304 -0.00067830854 -0.024251016 -0.013970886 -0.0028197635
-0.007057729 -0.011637434 -0.01717105 -0.023743123 -0.013942669 -0.013709371 -0.012578104 -0.0125205815
-0.011766257 -0.0017095718 -0.0015929798 -0.0011983131 -0.0011445748 -0.0008326547 -0.05030998 -0.028962899
-0.005848544 -0.014641295 -0.02414296 -0.03562059 -0.04925572 -0.028904637 -0.028420996 -0.026078792
-0.025962634 -0.024405144 -0.003543901 -0.0033021914 -0.0024850403 -0.002374311 -0.0017288843 -0.80803823

exp_avg_sq f4 [128, 17]
00000000: 0000 0000 0000 0000 0000 0000 0000 0000
00000010: 0000 0000 0000 0000 0000 0000 0000 0000
00000020: 0000 0000 0000 0000 0000 0000 0000 0000
00000030: 0000 0000 0000 0000 0000 0000 0000 0000
00000040: 0000 0000 fef8 963e 2b68 863d da14 613b
00000050: 367e cd3c 0335 953d a6b2 103e 6624 8f3e
00000060: 0aa9 853d fc5a 813d 88f0 793d 24af 723d
00000070: 41bc 6d3d 3077 563a 49cf 3a3a bdb6 233a
00000080: 772f 143a 6b25 0a3a 191f 123c 001f 673b
00000090: 3676 ea38 2db8 4c3a ef06 123b b957 8d3b
000000a0: 1a59 083c b051 653b c046 5f3b 7b62 513b
000000b0: 0c86 383b d392 1b3b cee8 3d38 bcfe 2838
000000c0: 970e 0238 e38e b937 372f a337 0000 0000
000000d0: 0000 0000 0000 0000 0000 0000 0000 0000
000000e0: 0000 0000 0000 0000 0000 0000 0000 0000
000000f0: 0000 0000 0000 0000 0000 0000 0000 0000
00000100: 0000 0000 0000 0000 0000 0000 0000 0000
00000110: 8b44 463c e4f1 8d3b 0610 1c39 c394 893a
00000120: 89ef 433b 6b45 be3b 3dc3 393c 5bdb 8c3b
00000130: d3e0 883b fc5a 803b 6009 633b d0c2 403b
00000140: 285a 6b38 2a2c 5038 81ff 2038 2d46 e937
00000150: b476 ce37 0000 0000 0000 0000 0000 0000
00000160: 0000 0000 0000 0000 0000 0000 0000 0000
00000170: 0000 0000 0000 0000 0000 0000 0000 0000
00000180: 0000 0000 0000 0000 0000 0000 0000 0000
00000190: 0000 0000 0000 0000 0000 0000 0000 0000
000001a0: 0000 0000 0000 0000 0000 0000 0000 0000
000001b0: 0000 0000 0000 0000 0000 0000 0000 0000
000001c0: 0000 0000 0000 0000 0000 0000 0000 0000
000001d0: 0000 0000 0000 0000 0000 0000 0000 0000
000001e0: 0000 0000 0000 0000 0000 0000 0000 0000
000001f0: 0000 0000 0000 0000 0000 0000 0000 0000
00000200: 0000 0000 0000 0000 0000 0000 0000 0000
00000210: 0000 0000 0000 0000 0000 0000 0000 0000
00000220: 0000 0000 0000 0000 0000 0000 0000 0000
00000230: 0000 0000 0000 0000 0000 0000 0000 0000
00000240: 0000 0000 0000 0000 0000 0000 0000 0000
00000250: 0000 0000 0000 0000 0000 0000 0000 0000
00000260: 0000 0000 655b 113f 1f78 af3d 7869 d33b
00000270: 213f 413d d246 103e b3c5 8b3e cbdd 0a3f
00000280: 5951 ae3d 820a a63d 885a 9e3d ae16 993d
00000290: 2e1a 943d 7e94 963a 62d1 773a 352e 513a
000002a0: 3009 3f3a 9778 333a 0000 0000 0000 0000
000002b0: 0000 0000 0000 0000 0000 0000 0000 0000
000002c0: 0000 0000 0000 0000 0000 0000 0000 0000
000002d0: 0000 0000 0000 0000 0000 0000 0000 0000
000002e0: 0000 0000 0000 0000 0000 0000 0000 0000
000002f0: 0000 0000 0000 0000 0000 0000 0000 0000
00000300: 0000 0000 0000 0000 0000 0000 0000 0000
00000310: 0000 0000 0000 0000 0000 0000 0000 0000
00000320: 0000 0000 0000 0000 0000 0000 0000 0000
00000330: 0576 9e3b 7142 e33a 6a9f 7938 41ec db39
00000340: 18a3 9c3a 665c 183b 0575 943b 5283 e13a
00000350: fe26 db3a 1985 cd3a a2bd b53a 214a 9a3a
00000360: a65d bc37 47a4 a637 94e9 8037 aeb6 3a37
00000370: ab37 2537 56d2 ea3b e14e 283b 8bcd b838
00000380: 3df3 223a cd02 e83a 1a5a 613b cc02 dc3b
00000390: 8502 273b 9b4b 223b 8a26 183b 8f91 063b
000003a0: df56 e43a ef7c 0b38 46c5 f637 e2b7 be37
000003b0: d92b 8a37 5f7d 7437 5892 f93c daac 323c
000003c0: 9e71 c439 aa2e 2d3b 64a2 f63b 5c81 6f3c
000003d0: 7dd4 e93c 4a4e 313c 2b4c 2c3c 5d91 213c
000003e0: 1fe4 0e3c a2a2 f23b e820 1439 5605 0339
000003f0: aea7 ca38 c0d0 9238 71f1 8138 938e cf40
0.0 0.0 0.0 0.0 0.0 0.0 0.0 0.0
0.0 0.0 0.0 0.0 0.0 0.0 0.0 0.0
0.0 0.2948684 0.06562837 0.0034344704 0.025084596 0.07285502 0.14130649 0.27957457
0.06526382 0.06316182 0.061020404 0.05924906 0.05804086 0.00081812125 0.0007126225 0.00062451867
0.0005652825 0.0005269858 0.008918547 0.003526628 0.00011180008 0.0007809427 0.0022281965 0.004313436
0.008322025 0.0034991316 0.003406927 0.0031949568 0.002815607 0.0023738637 4.5277928e-05 4.029156e-05
3.1008003e-05 2.2120255e-05 1.94531e-05 0.0 0.0 0.0 0.0 0.0
0.0 0.0 0.0 0.0 0.0 0.0 0.0 0.0
0.0 0.0 0.0 0.0 0.012101303 0.004331814 0.00014883289 0.0010496605
0.0029897413 0.005806615 0.011338052 0.00429861 0.0041771918 0.003917096 0.003464304 0.0029412992
5.611233e-05 4.9632195e-05 3.838493e-05 2.7808443e-05 2.461239e-05 0.0 0.0 0.0
0.0 0.0 0.0 0.0 0.0 0.0 0.0 0.0
0.0 0.0 0.0 0.0 0.0 0.0 0.0 0.0
0.0 0.0 0.0 0.0 0.0 0.0 0.0 0.0
0.0 0.0 0.0 0.0 0.0 0.0 0.0 0.0
0.0 0.0 0.0 0.0 0.0 0.0 0.0 0.0
0.0 0.0 0.0 0.0 0.0 0.0 0.0 0.0
0.0 0.0 0.0 0.0 0.0 0.0 0.0 0.0
0.0 0.0 0.0 0.0 0.0 0.0 0.0 0.0
0.0 0.5678008 0.08567833 0.006451782 0.047179345 0.14089516 0.2729927 0.5424468
0.085116096 0.08107473 0.07732111 0.07475029 0.07231556 0.0011488346 0.0009453503 0.00079796027
0.0007287441 0.00068462774 0.0 0.0 0.0 0.0 0.0 0.0
0.0 0.0 0.0 0.0 0.0 0.0 0.0 0.0
0.0 0.0 0.0 0.0 0.0 0.0 0.0 0.0
0.0 0.0 0.0 0.0 0.0 0.0 0.0 0.0
0.0 0.0 0.0 0.0 0.0048358464 0.0017338527 5.9514692e-05 0.00041946958
0.0011950461 0.0023248433 0.0045305514 0.0017205274 0.0016719995 0.0015679925 0.0013865719 0.001177136
2.2454955e-05 1.986524e-05 1.5367557e-05 1.1128997e-05 9.847728e-06 0.0071661873 0.002568178 8.812089e-05
0.0006216055 0.001770103 0.003438598 0.0067142006 0.002548368 0.0024764303 0.002321633 0.0020533537
0.0017420909 3.3256536e-05 2.9417348e-05 2.2735392e-05 1.64713e-05 1.4572724e-05 0.03046529 0.010905469
0.00037468685 0.002642552 0.0075266827 0.014618244 0.028543705 0.010821888 0.010516207 0.009861317
0.0087213805 0.0074046412 0.00014126638 0.00012495121 9.6633434e-05 7.000705e-05 6.196171e-05 6.486154

exp_avg f4 [128]
00000000: 0000 0000 ab52 01bc 3327 07bb 0000 0000
00000010: ed85 13bb 0000 0000 0000 0000 0000 0000
00000020: 0000 0000 55ce 223c 0000 0000 0000 0000
00000030: 0ae6 b7ba 9f1b e2ba b059 6abb df10 28bd
00000040: 0cf3 c2ba fac9 acbc 3f74 d6bc 9df3 923b
00000050: b607 1cbc fdca 9f3b 0400 0000 e3d5 c73b
00000060: 4920 36bb 4b06 ecbb 7b98 15bc d7d6 b33a
00000070: 9fda f1bb 1ca5 573b 6141 8e3b 4035 423c
00000080: 0000 0000 0000 0000 0400 0000 01fd 82bb
00000090: 569f 05bb 0000 0000 e410 333b 0000 0000
000000a0: 4888 cb3b b766 bf3b 1306 99ba 0000 0000
000000b0: bb28 19bc 0000 0000 dfb8 4dbb 01b9 0f3b
000000c0: 0c6d d2bb 3591 83bb 0000 0000 0400 0000
000000d0: 809b c53b fc68 8fbb 0400 0000 0000 0000
000000e0: 0400 0000 b8d6 14bb a57d 1fba 5141 2abc
000000f0: cbae 55bc 7abc 07bc 3eba 60bc c78c 1e3c
00000100: 0400 0000 0400 0000 10ce 66bb 8b56 41bb
00000110: 0000 0000 5582 8d3b 0400 0000 0400 0000
00000120: a489 b3bb da54 7abb 4fda 77bc bf1a 8f3a
00000130: 1835 b63b 0000 0000 0000 0000 d0fb 0ebb
00000140: b0e8 4fbb 9bfa a7ba 7bba cfba 35db 4f3b
00000150: 0000 0000 1899 113d 955b 72bb cc0b 9d39
00000160: 05da b3bb 0000 0000 0400 0000 a30b 27bd
00000170: 0000 0000 0000 0000 ebc9 d4bb ec5f e1ba
00000180: 37d9 183c 0000 0000 f598 bcbb b7ec c6bb
00000190: ad12 783c 0400 0000 0000 0000 7571 5fba
000001a0: ae12 77bb aa91 6dbb 7ba7 853c 5cfb 523c
000001b0: caba 76bb 0000 0000 0000 0000 0000 0000
000001c0: 01c6 82bc 962a e7bc 0000 0000 1a40 8ebb
000001d0: 3611 2f3b d4f4 74b9 61df f4bb c230 f63a
000001e0: 0000 0000 0000 0000 0000 0000 0000 0000
000001f0: 6ee1 8cbb 1fe8 25bc 0000 0000 4206 49bb
0.0 -0.007893245 -0.002062273 0.0 -0.0022510246 0.0 0.0 0.0
0.0 0.009936889 0.0 0.0 -0.0014030349 -0.0017250663 -0.0035759024 -0.041031715
-0.0014873459 -0.021092404 -0.026178477 0.0044846074 -0.009523323 0.004876493 6e-45 0.0060984953
-0.002779024 -0.0072028986 -0.009130592 0.0013720643 -0.007380798 0.003290481 0.00434129 0.011853516
0.0 0.0 6e-45 -0.0039974456 -0.002038916 0.0 0.00273233 0.0
0.0062113144 0.005841102 -0.0011674784 0.0 -0.00934809 0.0 -0.003139071 0.002193034
-0.006421691 -0.0040151128 0.0 6e-45 0.0060305 -0.004376529 6e-45 0.0
6e-45 -0.002271099 -0.0006084091 -0.010391549 -0.013042162 -0.008284682 -0.013716279 0.009677119
6e-45 6e-45 -0.0035218038 -0.0029501047 0.0 0.0043185153 6e-45 6e-45
-0.0054790545 -0.0038197548 -0.015127732 0.0010918005 0.0055605285 0.0 0.0 -0.0021817572
-0.0031724386 -0.0012815775 -0.0015848422 0.003171635 0.0 0.035546392 -0.0036980857 0.00029954163
-0.0054886364 0.0 6e-45 -0.040782582 0.0 0.0 -0.006493797 -0.0017194725
0.009329132 0.0 -0.0057555386 -0.006070699 0.015141171 6e-45 0.0 -0.00085236813
-0.0037700343 -0.0036250153 0.016315212 0.012877312 -0.0037647956 0.0 0.0 0.0
-0.015963556 -0.028218549 0.0 -0.0043411376 0.002671314 -0.00023360859 -0.007472918 0.0018782842
0.0 0.0 0.0 0.0 -0.0042993343 -0.010126143 0.0 -0.0030673896

exp_avg_sq f4 [128]
00000000: 0000 0000 4e88 5d3a c13f 4638 0000 0000
00000010: 9877 7538 0000 0000 0000 0000 0000 0000
00000020: 0000 0000 3f21 9c3a 0000 0000 0000 0000
00000030: e47a c437 1885 1138 3f7e 1a39 b02c 923c
00000040: 743d d437 8034 c63b 1b52 1d3c 6ef7 7539
00000050: 8221 953a e334 9039 f401 0000 d272 e239
00000060: 34b9 bc38 caa2 aa39 5cab 7b3a 266c bd37
00000070: d56a 9a3a 6e8b 6e39 d0f1 be39 2c42 a33a
00000080: 0000 0000 0000 0000 f401 0000 6b8c 503a
00000090: fdae 4a38 0000 0000 81f7 ae38 0000 0000
000000a0: bd55 b13a 06ad 973a cbf5 8b37 0000 0000
000000b0: 680b 293a 0000 0000 2e12 ee38 7db8 7e39
000000c0: ad3b af39 5763 4239 0000 0000 f401 0000
000000d0: ccac 8239 938d 6839 f401 0000 0000 0000
000000e0: f401 0000 b8b1 7a38 4a40 9036 36f2 763b
000000f0: b842 9b3b 1b91 4f3a ef6f 1d3b 7be6 353b
00000100: f401 0000 f401 0000 5072 f838 6268 d238
00000110: 0000 0000 b588 5639 f401 0000 f401 0000
00000120: ebbc b439 27cc c539 74c3 093b edb2 6b37
00000130: d4d3 9c3a 0000 0000 0000 0000 5f42 9f38
00000140: 08eb f038 1d11 a137 250c ba37 080a df38
00000150: 0000 0000 0ece 4c3c f022 2439 14d3 a535
00000160: 418f b539 0000 0000 f401 0000 9077 5a3c
00000170: 0000 0000 0000 0000 8a79 fe39 c0fc 0d38
00000180: 8dfe 073b 0000 0000 2d15 c739 f1c0 dd39
00000190: fff0 473b f401 0000 0000 0000 dd0f 0a37
000001a0: 11ab 2a39 0173 1e39 17e1 ae3b 3ae3 103b
000001b0: d1d2 2a39 0000 0000 0000 0000 0000 0000
000001c0: 8cb5 783b 3fd4 3f3b 0000 0000 c3c0 493a
000001d0: d507 643a d938 6435 aaa2 a13a b908 2f38
000001e0: 0000 0000 0000 0000 0000 0000 0000 0000
000001f0: a818 5f39 1346 cb3a 0000 0000 f809 7939
0.0 0.0008450792 4.7266254e-05 0.0 5.8523932e-05 0.0 0.0 0.0
0.0 0.0011911764 0.0 0.0 2.3422246e-05 3.4694647e-05 0.00014733615 0.017843574
2.5300986e-05 0.006048739 0.009602095 0.00023457195 0.0011377784 0.00027505224 7e-43 0.00043191627
8.999035e-05 0.00032546214 0.00096004247 2.2580916e-05 0.0011781106 0.0002274939 0.00036419788 0.0012455634
0.0 0.0 7e-43 0.0007955494 4.8323524e-05 0.0 8.343068e-05 0.0
0.001352958 0.0011571951 1.6684548e-05 0.0 0.0006448538 0.0 0.000113521106 0.00024292055
0.00033423063 0.00018538289 0.0 7e-43 0.00024924276 0.00022177985 7e-43 0.0
7e-43 5.977016e-05 4.2990187e-06 0.003768099 0.004738178 0.0007918046 0.0024023016 0.0027755785
7e-43 7e-43 0.00011846854 0.00010033023 0.0 0.00020459558 7e-43 7e-43
0.0003447303 0.00037726873 0.002102104 1.4048751e-05 0.0011964985 0.0 0.0 7.5940734e-05
0.0001148787 1.9200665e-05 2.2178583e-05 0.00010635337 0.0 0.012500299 0.00015653274 1.235489e-06
0.00034629743 0.0 7e-43 0.01333417 0.0 0.0 0.0004853721 3.385241e-05
0.002075109 0.0 0.00037972015 0.00042296157 0.0030508635 7e-43 0.0 8.229134e-06
0.0001627619 0.00015110896 0.0053368914 0.0022108094 0.00016290999 0.0 0.0 0.0
0.0037950007 0.0029270796 0.0 0.0007696265 0.0008698677 8.5019343e-07 0.0012331803 4.1731375e-05
0.0 0.0 0.0 0.0 0.00021276122 0.0015508555 0.0 0.00023750204

exp_avg f4 [1, 128]
00000000: 0000 0000 545a b3bd f6ef 01be 0000 0000
00000010: 1147 d6be 0000 0000 0000 0000 0000 0000
00000020: 0000 0000 c3b8 0fbd 0000 0000 0000 0000
00000030: d6c5 4bbe 3c6f 41be 14b9 85be c040 c4bc
00000040: 8048 0fbe ca76 7abd ba48 9dbd fe0f dcbd
00000050: e12f b9be f26b e0bd 0400 0000 2963 bcbd
00000060: 153e 1dbe 0934 65bd 4339 6abe d965 ddbd
00000070: ed65 d6be 23e5 87ba c185 cebd 05ba bdbc
00000080: 0000 0000 0000 0000 0400 0000 696b 57bc
00000090: 2976 57be 0000 0000 0bd3 0cbe 0000 0000
000000a0: 4f83 b6bd e980 c5bd a724 92bd 0000 0000
000000b0: 8866 12bd 0000 0000 ed29 00bf 1cc4 62bb
000000c0: 5cf8 1abd 3c78 94be 0000 0000 0400 0080
000000d0: a23d 44bd 4403 93be 0400 0080 0000 0000
000000e0: 0400 0080 9a6b 50be 1fe0 87bd b890 41bd
000000f0: 31fd 96bc a2d8 6cbe 4b85 89bb 5233 1ebc
00000100: 0400 0080 0400 0080 3417 45bc 4fc6 fcbe
00000110: 0000 0000 c7df b3bd 0400 0080 0400 0000
00000120: 0b0d 91be 0304 78be ee15 93bd 1f31 7bbd
00000130: c560 1ebd 0000 0000 0000 0000 f825 f9ba
00000140: 9481 c5be d09e 86be 67e1 a3bb dec5 b6bd
00000150: 0000 0000 b17d fdbc 6b85 4fbe 2dce a1bd
00000160: 3d15 f8be 0000 0000 0400 0080 0b31 2bbd
00000170: 0000 0000 0000 0000 ff30 65be da57 30be
00000180: c9ad b8be 0000 0000 1690 9bbe 6f84 85be
00000190: 9b4e 29be 0400 0080 0000 0000 b71f 01be
000001a0: 4792 cebe 6465 9cbe f073 21be f1f5 15bc
000001b0: 9eed ffbe 0000 0000 0000 0000 0000 0000
000001c0: 7876 9bbd 3921 10bb 0000 0000 8a97 31bd
000001d0: 3490 123b 5e28 e4bd c8ad 3dbe 5a08 58bd
000001e0: 0000 0000 0000 0000 0000 0000 0000 0000
000001f0: fd98 e3be 5b05 09be 0000 0000 eee8 afbe
0.0 -0.08757463 -0.12689194 0.0 -0.41851094 0.0 0.0 0.0
0.0 -0.035088312 0.0 0.0 -0.19899687 -0.18890089 -0.26117766 -0.023956656
-0.139925 -0.061148442 -0.07679887 -0.10745238 -0.3616934 -0.10958089 6e-45 -0.09198601
-0.15355714 -0.055957828 -0.22873406 -0.108104415 -0.41874638 -0.0010367971 -0.10084105 -0.02315999
0.0 0.0 6e-45 -0.013148167 -0.21041168 0.0 -0.13752382 0.0
-0.08911764 -0.09643728 -0.07135897 0.0 -0.035742313 0.0 -0.50063974 -0.0034601754
-0.03783451 -0.28997982 0.0 -6e-45 -0.04791034 -0.2871343 -6e-45 0.0
-6e-45 -0.20353547 -0.066345446 -0.047257155 -0.018431278 -0.23129514 -0.004196798 -0.00965579
-6e-45 -6e-45 -0.012029458 -0.49370047 0.0 -0.087829165 -6e-45 6e-45
-0.28330263 -0.2422028 -0.07181917 -0.061326142 -0.038666505 0.0 0.0 -0.0019008508
-0.38575423 -0.2629304 -0.0050012353 -0.08924459 0.0 -0.030943723 -0.20265739 -0.07900653
-0.48453704 0.0 -6e-45 -0.041794818 0.0 0.0 -0.22381972 -0.17221013
-0.36070088 0.0 -0.30383366 -0.260776 -0.16533892 -6e-45 0.0 -0.12609755
-0.40345976 -0.30546105 -0.15766883 -0.009152875 -0.49985975 0.0 0.0 0.0
-0.075909555 -0.0021992458 0.0 -0.04335741 0.0022363784 -0.11140512 -0.18523324 -0.05274234
0.0 0.0 0.0 0.0 -0.44452658 -0.13380949 0.0 -0.343574

exp_avg_sq f4 [1, 128]
00000000: 0000 0000 ceb8 ac3d be80 933e 0000 0000
00000010: 008a 0840 0000 0000 0000 0000 0000 0000
00000020: 0000 0000 afec 7e3c 0000 0000 0000 0000
00000030: 4d09 f23e 681f e73e 1ad5 553f 9e17 2e3c
00000040: c23b 873e 0432 6f3d 00e8 8a3d 03ea 383e
00000050: 9015 c93f e738 303e f401 0000 cee4 0d3e
00000060: 54f0 993e d8bb 0d3d 4773 1d3f 681e 063e
00000070: 961d 0840 e96a eb37 7cc5 593e f3ab 273c
00000080: 0000 0000 0000 0000 f401 0000 ec64 fb3a
00000090: 99d5 0d3f 0000 0000 b87e 993e 0000 0000
000000a0: 04be 443e b677 543e 7db4 be3d 0000 0000
000000b0: d7f3 753c 0000 0000 b126 4140 c193 9539
000000c0: 57ae 993c 8f93 813f 0000 0000 f401 0000
000000d0: 67cd 013d 7db8 7a3f f401 0000 0000 0000
000000e0: f401 0000 9363 003f ce16 7b3d 29f5 693d
000000f0: 2838 323c 9270 223f cfda 4b3b d507 c83b
00000100: f401 0000 f401 0000 160d a03a ccea 3840
00000110: 0000 0000 a547 cf3d f401 0000 f401 0000
00000120: 9e11 7b3f 7121 343f 9661 893d 83ff 293d
00000130: 37cf 083d 0000 0000 0000 0000 ede3 6c38
00000140: 9db6 e53f f881 563f 1a42 203b 6461 f63d
00000150: 0000 0000 5e29 dd3c 9781 033f b957 d53d
00000160: d92b 3840 0000 0000 f401 0000 5c3f b83c
00000170: 0000 0000 0000 0000 ea07 1c3f 4655 d93e
00000180: 7789 b43f 0000 0000 3d85 893f c03c 533f
00000190: b16f 863e f401 0000 0000 0000 0f2c 663e
000001a0: 0181 f83f b0b8 973f ef74 853e d273 813b
000001b0: 62e9 3e40 0000 0000 0000 0000 0000 0000
000001c0: 5932 893d 48b3 3138 0000 0000 b44b 613d
000001d0: 885c 573b 01d1 2b3e 6a5c db3e 18a2 543d
000001e0: 0000 0000 0000 0000 0000 0000 0000 0000
000001f0: 6164 1940 c22f 993e 0000 0000 ca18 b63f
0.0 0.08433686 0.2880916 0.0 2.1334229 0.0 0.0 0.0
0.0 0.015559359 0.0 0.0 0.4727272 0.4514115 0.8352829 0.010625748
0.2641278 0.058397308 0.06782532 0.18058018 1.5709705 0.17209207 7e-43 0.13856813
0.30066168 0.03460297 0.61504024 0.13097537 2.1268058 2.8063967e-05 0.2126674 0.010233867
0.0 0.0 7e-43 0.0019179857 0.5540405 0.0 0.2997949 0.0
0.1921311 0.20748791 0.09311769 0.0 0.015011749 0.0 3.0179865 0.0002852958
0.01875989 1.0123156 0.0 7e-43 0.031690028 0.97937757 7e-43 0.0
7e-43 0.5015194 0.061301045 0.05711857 0.0108776465 0.6345302 0.0031105762 0.0061044493
7e-43 7e-43 0.0012210931 2.8893309 0.0 0.10121087 7e-43 7e-43
0.98073757 0.7036353 0.06708066 0.04150344 0.03340074 0.0 0.0 5.6479057e-05
1.7946354 0.83792067 0.0024453462 0.120302945 0.0 0.026997264 0.51369613 0.104171224
2.8776762 0.0 7e-43 0.02249115 0.0 0.0 0.60949576 0.4244787
1.4104451 0.0 1.0743786 0.8251457 0.2625709 7e-43 0.0 0.22477745
1.9414369 1.1853237 0.26065776 0.0039505744 2.9829946 0.0 0.0 0.0
0.06699056 4.2367057e-05 0.0 0.055003837 0.003286155 0.16778947 0.42843944 0.051912397
0.0 0.0 0.0 0.0 2.3967516 0.2991925 0.0 1.4226315
