checkpoints/mlptest/model5_2023.pt (torch, 308563 bytes, 15 tensors)

stack.0.weight f4 [128, 17]
0	0x3dc11956	0.094286606
1	0xbdc26a82	-0.09492971
2	0xbd8b207a	-0.06793304
3	0xbc9e7e3d	-0.019347304
4	0x3da0a95b	0.07844802
5	0x3d1e908d	0.038712073
6	0xbdef51fc	-0.11685559
7	0xbd4df397	-0.050281134
8	0x3cb4be85	0.022063503
9	0xbe5fc6fc	-0.2185325
10	0xbe4b00c7	-0.19824515
11	0x3dd1b078	0.10238737
12	0x3e4ba39f	0.19886635
13	0xbd2ddc23	-0.042446267
14	0xbe3ee474	-0.18641835
15	0xbe600a9b	-0.21879046
16	0x3ce821f5	0.028336504
17	0x3c5d354b	0.013501476
18	0x3dfd5e75	0.12371532
19	0x3e106079	0.14099301
20	0x3e3ac8b5	0.18240626
21	0xbe9959d7	-0.29951355
22	0xbe286c1b	-0.16447489
23	0x3e450c49	0.19242968
24	0x3de4fe91	0.11181367
25	0x3d8d28e6	0.068925664
26	0x3cd91f7a	0.026504267
27	0xbe880e21	-0.2657328
28	0xbe5b26c9	-0.21401514
29	0x3e83b2ee	0.2572245
30	0x3ed7c29c	0.42140663
31	0x3d7f7c88	0.06237462
32	0x3d61388d	0.05498557
33	0x3e55c4a7	0.20875798
34	0xbe35edfd	-0.17766567
35	0x3e2ead01	0.17058183
36	0x3d07a336	0.033114634
37	0x3d38ff10	0.04516512
38	0x3c574dff	0.013141154
39	0xbd7c4c73	-0.061596345
40	0x3de04ca8	0.10952121
41	0x3e693caf	0.22777055
42	0x3d25282c	0.040321514
43	0xbdb21cd2	-0.08696903
44	0x3dc7f4ac	0.09763464
45	0x3b964061	0.0045853113
46	0xbdceb710	-0.1009351
47	0xbe1227ee	-0.14273044
48	0x3cee8302	0.029115204
49	0x3e14341b	0.14473002
50	0x3d858867	0.06520157
51	0xbc1fa5dc	-0.009744134
52	0x3ce2c735	0.02768288
53	0xbdf86d3f	-0.12130212
54	0xbe6f2731	-0.23354794
55	0xbcdb97a2	-0.026805703
56	0xbcee8a60	-0.029118717
57	0xbe3af233	-0.18256454
58	0xbe26b6d7	-0.16280685
59	0x3e357c03	0.17723088
60	0x3c92a474	0.017900683
61	0xbe593d77	-0.21214853
62	0xbdc911b1	-0.098178275
63	0x3e1d4db3	0.15361671
64	0xbe6af87c	-0.22946352
65	0x3e70874f	0.23489116
66	0x3e74b15b	0.2389578
67	0xbdd1b1f5	-0.10239021
68	0xbaef0ec4	-0.0018238653
69	0x3e77ec5a	0.24211255
70	0xbdc51a79	-0.0962419
71	0x3e475003	0.19464116
72	0x3e8e6f74	0.27819407
73	0xbd80ac48	-0.0628286
74	0x3da3a48c	0.07990369
75	0xbd15307b	-0.036423188
76	0xbe430e6d	-0.19048472
77	0xbe0357c9	-0.12826456
78	0xbe3405d1	-0.17580344
79	0x3d046e73	0.032331895
80	0xbebeb6f2	-0.3724895
81	0xbd845ed3	-0.06463399
82	0xbed472db	-0.41493878
83	0x3e58ba64	0.21164852
84	0xbe7063e3	-0.23475604
85	0x3b49a48f	0.003076825
86	0x3d144e7a	0.036207654
87	0x3d8b926f	0.06815039
88	0xbe57fd93	-0.21092825
89	0xbdce63c5	-0.10077623
90	0x3e2c1869	0.16806187
91	0xbe63ff1a	-0.22265282
92	0x3e364d3b	0.17802899
93	0x3e052983	0.13004117
94	0x3e57768b	0.21041314
95	0xbd886280	-0.066594124
96	0x3d0d2c5a	0.034466125
97	0xbde95f9c	-0.11395189
98	0xbe49d224	-0.19709069
99	0xbe9dbb64	-0.3080703
100	0x3d3884f8	0.045048684
101	0xbe7a1cf7	-0.24425112
102	0x3dbbf644	0.09177831
103	0x3de90fd3	0.11379971
104	0xbdc4aeef	-0.096036784
105	0xbe76a7f8	-0.24087512
106	0xbdfd58a6	-0.12370424
107	0x3d59f078	0.053207844
108	0xbd8e6886	-0.0695353
109	0x3e0f10a1	0.13971187
110	0xbe6cf2d3	-0.23139505
111	0xbc180d16	-0.009280464
112	0xbe76c9b0	-0.24100375
113	0xbe4331e0	-0.19061995
114	0x3c0e1e0a	0.008674154
115	0x3d8e2fe2	0.06942727
116	0x3e071257	0.1319059
117	0x3bae6fa9	0.0053233695
118	0xbe2c443e	-0.16822907
119	0x3d9708f8	0.073747575
120	0xbe5e3e96	-0.21703562
121	0xbcf9ac31	-0.030477615
122	0x3e8b560d	0.2721409
123	0x3d681a82	0.056665905
124	0x3e83286a	0.2561677
125	0x3e10dba6	0.14146289
126	0xbcbb72d1	-0.022881897
127	0xbd9e6e49	-0.07735879
128	0x3e21a3b2	0.15785101
129	0xbe0024a2	-0.12513974
130	0xbd586f2f	-0.052840408
131	0xbe041a03	-0.12900548
132	0x3e953bc8	0.29147172
133	0x3d8000f8	0.06250185
134	0xbd0dafc9	-0.03459147
135	0x3dff6db4	0.12472096
136	0x3def4efd	0.11684988
137	0xbe4ab760	-0.19796515
138	0xbe26ea43	-0.16300301
139	0x3d6aca97	0.05732211
140	0x3e8c5860	0.27411175
141	0xbd688151	-0.05676395
142	0xbe5b3767	-0.21407853
143	0x3e80e871	0.2517734
144	0xbe349755	-0.17635854
145	0x3d90de47	0.07073646
146	0x3e40d030	0.18829417
147	0xbe050fa0	-0.12994242
148	0x3e3d18f6	0.18466553
149	0x3de9f3b2	0.11423434
150	0xbb461e8e	-0.0030230614
151	0x3db10fd6	0.086455986
152	0x3e322d62	0.17400125
153	0x3e1d9572	0.1538904
154	0xbdbc3305	-0.09189419
155	0xbd113e78	-0.035459965
156	0x3e53a39c	0.20667881
157	0x3e39320b	0.18085496
158	0x3e544e66	0.20733032
159	0xbe5b7cc3	-0.21434312
160	0xbe3384f9	-0.17531194
161	0xbc1dddbf	-0.009635388
162	0x3e03433a	0.12818614
163	0x3e3fc9e6	0.18729362
164	0x3e2fee88	0.17180836
165	0xbcc99f8a	-0.024612207
166	0xbe6028df	-0.21890591
167	0xbd7751e2	-0.060380824
168	0x3e2337fb	0.15939324
169	0xbe10fdd1	-0.14159323
170	0xbe218a74	-0.15775472
171	0x3e3b818b	0.18311135
172	0xbe20bd49	-0.15697207
173	0xbe8125f0	-0.25224257
174	0x3e23b797	0.15988003
175	0xbe48f23b	-0.19623654
176	0x3c89edc7	0.016837014
177	0xbe145878	-0.14486873
178	0x3e3215a9	0.17391075
179	0x3e1e462b	0.15456454
180	0x3e2659c2	0.16245177
181	0xbe366f88	-0.17815983
182	0x3ec42137	0.3830659
183	0x3d38fedd	0.04516493
184	0x3e8cf150	0.27527857
185	0x3e73ec3d	0.23820587
186	0x3df2baec	0.11852059
187	0x3dc1b866	0.09458999
188	0x3ddcb22e	0.107761726
189	0xbd920ab3	-0.07130947
190	0xbe03782b	-0.12838809
191	0xbd96488d	-0.07338057
192	0x3e083816	0.13302645
193	0xbde4b8d0	-0.11168063
194	0x3c3b8bad	0.0114468755
195	0x3c4b80f1	0.012420879
196	0x3cb04fcb	0.021522423
197	0xbd3803ec	-0.044925615
198	0xbdd13f2c	-0.10217127
199	0x3e67613e	0.22595689
200	0xbe7ed05f	-0.24884175
201	0x3e0f82fb	0.14014809
202	0xbddcae0c	-0.10775384
203	0x3d9e7f89	0.07739169
204	0xbe1c0638	-0.15236747
205	0x3e3a98eb	0.18222396
206	0x3e6291a5	0.22125871
207	0xbdad2016	-0.084533855
208	0x3e719b58	0.23594415
209	0xbdee77be	-0.11643933
210	0xbcd07ad2	-0.02544919
211	0x3dae29cc	0.08504066
212	0x3e40e647	0.18837844
213	0x3d1108a4	0.03540863
214	0xbdfe7b80	-0.124258995
215	0xbe465abb	-0.19370548
216	0x3efd6255	0.49489084
217	0x3e989ee7	0.29808733
218	0x3eb92bb1	0.36166146
219	0x3e5127dc	0.20425361
220	0x3e851ec1	0.26000026
221	0xbd067c5e	-0.03283345
222	0x3e5c1e3d	0.2149591
223	0xbe1a9595	-0.15096124
224	0x3c30defa	0.010795349
225	0xbe2bbf61	-0.16772224
226	0xbc01fe1c	-0.00793412
227	0x3d88083d	0.06642196
228	0xbe6ce0c5	-0.23132618
229	0xbc5dfa12	-0.013548391
230	0xbe59acf5	-0.21257384
231	0x3e3c8d07	0.18413173
232	0xbe2610cd	-0.16217346
233	0x3d13d5d7	0.036092605
234	0xbe01ad89	-0.12663855
235	0x3d9bc72c	0.076063484
236	0xbbc6274f	-0.0060471664
237	0x3e731194	0.23737174
238	0x3d9a69f7	0.075397424
239	0xbe901ee0	-0.28148556
240	0xbe128762	-0.14309457
241	0x3d4bb190	0.049729884
242	0xbd9b215c	-0.07574722
243	0xbe4cce2d	-0.20000525
244	0x3e4ff6b3	0.20308952
245	0x3e20330d	0.15644474
246	0x3c9fc000	0.019500732
247	0x3e4d287e	0.20034978
248	0xbe350ba4	-0.17680222
249	0x3d7c1c6d	0.061550546
250	0xbf052b9b	-0.5201966
251	0xbe363df0	-0.17797065
252	0x3e271b88	0.16319096
253	0x3c64e0da	0.013969624
254	0x3e5e4444	0.21705729
255	0x3d112027	0.035431053

stack.0.bias f4 [128]
0	0xbe47dee2	-0.19518617
1	0x3e2c9f0d	0.16857548
2	0xbf07cb4f	-0.530446
3	0xbd23df91	-0.04000813
4	0xbecf0b02	-0.40438086
5	0xbe8ed4d5	-0.27896753
6	0xbe28febd	-0.16503425
7	0x3df95d36	0.12175982
8	0xbdffea4d	-0.12495861
9	0xbf02a346	-0.51030385
10	0x3dd3d856	0.10343997
11	0x3e5bdfb4	0.21472055
12	0x3e7c1211	0.24616267
13	0x3c34bdbc	0.011031564
14	0xbf2ef34f	-0.6834001
15	0xbe106993	-0.14102773
16	0xbe339811	-0.17538477
17	0x3edebf85	0.43505493
18	0x3e47983f	0.19491671
19	0x3d59b52b	0.05315129
20	0xbf34d351	-0.70634943
21	0x3e49bdd3	0.19701318
22	0xbe110284	-0.14161116
23	0x3ddc0b95	0.107443966
24	0xbe485d88	-0.1956693
25	0xbf42e106	-0.7612461
26	0xbe8c1ea3	-0.27367124
27	0xbefbfa11	-0.49214223
28	0xbd3cba7a	-0.046076275
29	0x3e9f3aa5	0.3109943
30	0x3c01174d	0.0078790905
31	0xbe60732f	-0.21918939
32	0xbede106b	-0.433719
33	0x3d808911	0.06276143
34	0x3d90afef	0.07064807
35	0xbe6cddb3	-0.23131447
36	0x3ddac799	0.106826015
37	0xbe3bad36	-0.18327793
38	0xbd67ce48	-0.05659321
39	0xbcec44e6	-0.028841447
40	0x3e8ccefd	0.2750167
41	0xbe31b969	-0.17355885
42	0xbf7086fb	-0.93955964
43	0x3ec3c18e	0.38233608
44	0xbec78b2c	-0.38973367
45	0xbc47416d	-0.012161595
46	0x3efba960	0.4915266
47	0x3eb1a92c	0.3469938
48	0x3e261410	0.1621859
49	0x3dc3592d	0.09538493
50	0xbec79f64	-0.38988793
51	0x3dfdc474	0.12390986
52	0xbf4181b8	-0.7558856
53	0xbe66c0c5	-0.22534473
54	0xbebb6e35	-0.3660752
55	0xbee3590d	-0.44403878
56	0xbe01bd2d	-0.12669821
57	0xbd78d2c6	-0.060747884
58	0x3d3151f6	0.043291055
59	0xbe5f1ffc	-0.21789545
60	0x3e363caf	0.17796586
61	0x3f0ba358	0.5454612
62	0x3dc2eefa	0.095182374
63	0x3e046f10	0.12932992
64	0x3e58fce1	0.21190216
65	0xbe90a11a	-0.2824791
66	0x3e2a697e	0.16641805
67	0xbd62f60c	-0.05541043
68	0xbe711adf	-0.23545407
69	0x3ed85b61	0.42257217
70	0x3e985c70	0.29758024
71	0x3e4417f8	0.19149768
72	0xbc695bfb	-0.014243121
73	0xbee699ba	-0.4503916
74	0xbe91462a	-0.28373843
75	0xbd0712c1	-0.03297687
76	0x3e4140b9	0.18872346
77	0x3e70adac	0.2350375
78	0xbea2a4ed	-0.31766453
79	0xbe9c6211	-0.3054357
80	0xbec18222	-0.37794596
81	0xbe4e6984	-0.20157439
82	0xbefaaa31	-0.4895797
83	0xbeb06c77	-0.34457752
84	0xbe1050e6	-0.1409336
85	0xbef6a127	-0.48169824
86	0x3cba6af2	0.022756074
87	0xbf305951	-0.68886286
88	0x3ee7a51a	0.4524315
89	0xbe6d0e13	-0.231499
90	0xbd5edade	-0.054407947
91	0x3d038491	0.032108847
92	0xbf26b355	-0.6511739
93	0xbf545802	-0.8294679
94	0x3ece7eb6	0.40331048
95	0xbe2671b7	-0.16254316
96	0x3f0ae76b	0.54259366
97	0x3e0575ba	0.1303319
98	0xbe208855	-0.15677007
99	0xbebaceeb	-0.3648599
100	0xbed3ed5f	-0.41392037
101	0xbebc7787	-0.36809942
102	0xbe500fc6	-0.20318517
103	0xbed591f1	-0.41712907
104	0xbef4a7c0	-0.47784233
105	0xbea2deed	-0.31810704
106	0x3de11a30	0.10991323
107	0xbf7a0fb5	-0.9768022
108	0xbe8ba58e	-0.27274746
109	0xbe45c2ee	-0.19312641
110	0xbdc5ab35	-0.09651796
111	0xbea1e684	-0.31621182
112	0xbdb69170	-0.08914459
113	0xbd32719a	-0.04356537
114	0xbed56a39	-0.41682604
115	0x3ea2caeb	0.3179544
116	0x3e973715	0.29534212
117	0x3d606ac7	0.05478933
118	0xbe8f332b	-0.27968726
119	0xbeb5b63c	-0.35490596
120	0xbf3d8bd3	-0.7404148
121	0xbe2ee1ec	-0.1707837
122	0xbf5bbaf3	-0.85832137
123	0x3c776436	0.015099576
124	0xbeae9407	-0.3409731
125	0xbec9b515	-0.39395967
126	0x3c5a51d5	0.013325174
127	0x3e0f1716	0.1397365

stack.2.weight f4 [128, 128]
0	0x3db0a402	0.08625032
1	0xbbd0d1ab	-0.0063726506
2	0xbd1cef28	-0.038314015
3	0x3c912e9d	0.017722422
4	0x3c731691	0.014836923
5	0x3d6071fb	0.0547962
6	0xbd0a7ff5	-0.033813436
7	0xbc8a7cff	-0.016905306
8	0xbd26b5dc	-0.04070078
9	0xbccdfaf6	-0.025144082
10	0x3da7c175	0.08191196
11	0x3dac4022	0.0841067
12	0x3d2cefef	0.042221006
13	0x3d066467	0.032810595
14	0xbda8060c	-0.08204278
15	0xbbf4c10a	-0.007469301
16	0xbd2ed380	-0.04268217
17	0xbdb2cb4a	-0.087301806
18	0x3da6120a	0.081089094
19	0x3d678909	0.05652717
20	0x3d98928a	0.07449825
21	0xbd79dc54	-0.061001137
22	0x3a923ba6	0.0011156693
23	0x3d7e4865	0.06208076
24	0x3b93671b	0.004498375
25	0xbd0bdee6	-0.03414812
26	0x3da016d2	0.07816853
27	0x3b0ec900	0.0021787286
28	0x3b9afe53	0.004730025
29	0x3d346bd9	0.044048164
30	0x3cf1209c	0.029434495
31	0xbda6df2f	-0.08148038
32	0x3cd1208e	0.025528219
33	0xbcbe72d0	-0.023248106
34	0xbc480fd5	-0.012210806
35	0xbd11b75a	-0.03557525
36	0xbd12f16c	-0.03587477
37	0xbd76bbe2	-0.060237773
38	0x3d580869	0.052742396
39	0x3d028bd8	0.031871647
40	0xbca5165e	-0.020152267
41	0xbd09a75a	-0.033606865
42	0x3da10afe	0.07863425
43	0x3db3b5c1	0.08774901
44	0x3d9747ab	0.073867165
45	0x3ca6c047	0.020355357
46	0xbc09df3c	-0.00841504
47	0xbdac86c7	-0.08424144
48	0xbd32ccf0	-0.043652475
49	0x3d92c4b1	0.07166422
50	0xbd294e74	-0.041334584
51	0xbd926824	-0.071487695
52	0xbcec20ae	-0.028824177
53	0x3b5f61d9	0.0034085421
54	0x3d43791e	0.04772293
55	0xbda75685	-0.08170799
56	0xbda142ce	-0.0787407
57	0xbd06e9d6	-0.032937847
58	0x3c24ec1c	0.0100660585
59	0x3d860fef	0.06546008
60	0xbd0eed32	-0.034894176
61	0xbd415f0b	-0.04720978
62	0x3ce2ab2c	0.027669512
63	0x3c8b2dc3	0.016989594
64	0xbc6f5476	-0.014607539
65	0xbc7ab83c	-0.015302714
66	0xbcd1caed	-0.025609458
67	0xbda4dfda	-0.08050509
68	0x39f3d8cd	0.000465101
69	0x3c7d4dab	0.015460412
70	0x3cc4b370	0.024011344
71	0x3cacce64	0.021094508
72	0x3cd78ad0	0.026311308
73	0xb9ee923a	-0.00045503845
74	0x3a979a43	0.0011566359
75	0x3d6c6430	0.057712734
76	0x3cc612ac	0.024178825
77	0xbc55ad35	-0.013041784
78	0xbda60901	-0.08107186
79	0x397b4143	0.00023961537
80	0xbd0fc65e	-0.035101287
81	0xbd46ea41	-0.048563246
82	0x3d656b54	0.05601056
83	0xbd67eb47	-0.056620862
84	0xbd2d2a57	-0.042276707
85	0x3d74996c	0.059716627
86	0xbd9215f3	-0.07133093
87	0x3d0fd5b3	0.03511591
88	0x3be1ec1e	0.0068946024
89	0xbda1d6d9	-0.07902307
90	0x3d91e43b	0.0712361
91	0xbd038bd1	-0.03211576
92	0xbd9121d4	-0.0708653
93	0x3d34338c	0.04399447
94	0xbd875280	-0.066075325
95	0xbd972f7a	-0.07382102
96	0xbd7f7d15	-0.062375147
97	0x3c70744c	0.014676165
98	0xbc61ca93	-0.013781208
99	0xbcf0f955	-0.029415766
100	0x3a627919	0.0008639261
101	0x3dadbb5a	0.08483
102	0xbd11b6e0	-0.035574794
103	0xbd6a1591	-0.057149474
104	0x3d6c09b6	0.05762645
105	0xbc181cd0	-0.009284213
106	0xbc8596ee	-0.01630732
107	0x3cb381da	0.021912504
108	0xbd8e54ea	-0.0694979
109	0xbd16ce24	-0.036817685
110	0x3cd9d0c8	0.026588812
111	0x3dac161e	0.08402656
112	0x3b8613ef	0.0040917317
113	0xbd992cd8	-0.074792564
114	0x3cde5af5	0.027142981
115	0x3d815a6f	0.06316077
116	0xbd88e686	-0.06684594
117	0xbc242777	-0.010019175
118	0xbcf978c2	-0.03045309
119	0x3d8e9e8a	0.06963833
120	0xbd1c060c	-0.038091704
121	0xbd636630	-0.055517375
122	0x3d7a0ada	0.061045505
123	0xbd536b23	-0.051615845
124	0xbd3fb683	-0.046804916
125	0xbd277e7f	-0.04089212
126	0xbd8a0ae4	-0.067403585
127	0xbca7d74c	-0.020488404
128	0x3ce986a7	0.02850659
129	0xbd9f64aa	-0.07782872
130	0x3da7eb0b	0.08199128
131	0x3da3e628	0.08002883
132	0x3d2a2e5a	0.04154811
133	0x3d3757d3	0.04476149
134	0xbd261a9f	-0.04055273
135	0x3c7e9fcc	0.015541028
136	0xbd830d15	-0.063989796
137	0xbb92adc2	-0.00447628
138	0xbb9502b0	-0.0045474395
139	0xbd7cf547	-0.061757352
140	0x3d89b5b8	0.06724113
141	0xbcb259a1	-0.021771254
142	0xbd961e36	-0.07329981
143	0xbd0d2ccf	-0.03446656
144	0xbceca6a5	-0.028888056
145	0xbd89373f	-0.066999905
146	0xbcd4a3c1	-0.02595699
147	0x3d05c78c	0.032661006
148	0x3d583309	0.052783046
149	0xbd67226c	-0.05642931
150	0xbd3b5224	-0.045732632
151	0xbd1ba71a	-0.038001157
152	0x3ba10da1	0.004914955
153	0x3d87d6e2	0.066327825
154	0xbd81bcfd	-0.06334875
155	0xbd9d5545	-0.076822795
156	0x3db45cfd	0.088067986
157	0x3ce493ce	0.02790251
158	0x3d94f6c1	0.07273627
159	0xbcd622df	-0.026139675
160	0xbda2aac6	-0.07942729
161	0x3d8dcf18	0.069242656
162	0xbcdd8a2c	-0.027043425
163	0xbd987248	-0.074436724
164	0xbd1ff647	-0.039053228
165	0x3d1028c4	0.035195127
166	0xbd3dc6df	-0.046332236
167	0xbcbf1ff7	-0.023330672
168	0x3cfa67b7	0.030567033
169	0xbb87c4dc	-0.0041433405
170	0x39fde26d	0.0004842462
171	0xbda112ee	-0.07864939
172	0x3cccc250	0.024995
173	0x3d71f751	0.05907375
174	0x3d885ef9	0.066587396
175	0x3d093242	0.033495195
176	0xbd094eb5	-0.033522326
177	0xbce6e139	-0.028183566
178	0x3c41701a	0.011806512
179	0x3d9d87a8	0.0769189
180	0x3c009f66	0.007850504
181	0xbd313e7a	-0.043272473
182	0x3d6e037b	0.058108788
183	0x3c2716bf	0.010198294
184	0xbd67f97d	-0.056634415
185	0x3cb84893	0.022495544
186	0x3b2ad19b	0.0026064876
187	0xbcfb621e	-0.030686434
188	0xbd276795	-0.040870268
189	0xbad1b38c	-0.0015998944
190	0xbd2cd48d	-0.04219489
191	0xbcae9b91	-0.021314414
192	0xbb9c4db7	-0.0047700065
193	0x3da6075c	0.081068724
194	0x3bc32a7c	0.0059559923
195	0xbd047647	-0.03233936
196	0xbcce4acd	-0.025182152
197	0xbca0f613	-0.019648587
198	0x3c860ab3	0.016362524
199	0x3ce03e4f	0.027373461
200	0x3d933785	0.07188324
201	0x3d0782a6	0.03308358
202	0xbd550c6e	-0.052013807
203	0xbcc8a8f4	-0.024494626
204	0xbd860988	-0.06544787
205	0xbd11253f	-0.03543591
206	0xbd1cd6b3	-0.03829069
207	0x3c9cd80b	0.019145986
208	0xbd8ed9a6	-0.06975107
209	0xbcb7e624	-0.022448607
210	0x3d6685ed	0.056280065
211	0x3d0950ee	0.033524446
212	0x3c0199c2	0.007910194
213	0xbd9c7193	-0.0763885
214	0xbc6d819d	-0.014496234
215	0xbd7312dd	-0.05934416
216	0xbae87265	-0.0017734288
217	0x37f464cf	2.913401e-05
218	0xbd10e2cd	-0.035372544
219	0xb9cdd599	-0.0003925979
220	0xbc84539e	-0.016153153
221	0xbca5cb41	-0.02023852
222	0xbda212cf	-0.07913744
223	0x3c0ed5dc	0.00871798
224	0x3cba993d	0.022778148
225	0xbd02bda1	-0.031919125
226	0xbd0d291e	-0.03446304
227	0xbd8cc6ce	-0.068738565
228	0x3c4c21c1	0.012459219
229	0xbd084eec	-0.03327839
230	0xbd5e720e	-0.05430799
231	0xbd05c0ec	-0.032654688
232	0x3c83a625	0.016070435
233	0x3da2b5ac	0.079448074
234	0xbd000f7f	-0.03126478
235	0xbd07f170	-0.033189237
236	0x3a45157b	0.00075181545
237	0x3d8d74d7	0.06907051
238	0xbd1e3115	-0.038621027
239	0xbd3243cb	-0.043521684
240	0xbca1772a	-0.019710142
241	0x3d60e828	0.0549089
242	0x3d7ccabb	0.061716776
243	0x3db46a91	0.088093884
244	0x3d25878d	0.040412474
245	0xbd8fd3d3	-0.07022824
246	0xbd8dedfa	-0.06930156
247	0xbd81fe50	-0.063473344
248	0xbb90b964	-0.0044166315
249	0x3d0b43e2	0.034000285
250	0x3d965350	0.07340109
251	0xbc258e47	-0.010104722
252	0x3da9e998	0.082965076
253	0x3d505c91	0.05086953
254	0xbd9dde91	-0.07708467
255	0xbc461158	-0.012089096

stack.2.bias f4 [128]
0	0x3ac285ff	0.0014840959
1	0x3d1c35ea	0.038137354
2	0xbe393478	-0.18086421
3	0xbe85e74c	-0.26153028
4	0xbe02cb99	-0.12772979
5	0xbe278d75	-0.16362555
6	0xbdcfdbfb	-0.1014938
7	0x3c98e0bb	0.018661847
8	0xbcddbe32	-0.027068231
9	0xbe33b973	-0.17551212
10	0xbd0966a0	-0.033545136
11	0xbb693b07	-0.0035588162
12	0xbd81a9b5	-0.06331197
13	0xbe86e83e	-0.26349062
14	0x3cc83a26	0.02444179
15	0xbe88be0e	-0.267075
16	0xbd7df497	-0.062000837
17	0xbe82e2da	-0.255637
18	0x3e41f7c4	0.18942171
19	0x3cb05e07	0.02152921
20	0xbdd0c61f	-0.101940386
21	0x3ef3887e	0.47565073
22	0x3d12ce2c	0.035841152
23	0xbe067b55	-0.13132985
24	0xbc591805	-0.013250356
25	0x3d54e986	0.051980518
26	0x3c8bb293	0.017052924
27	0xbe3ac42c	-0.18238896
28	0x3b5dfc0d	0.0033872158
29	0x3d8ce090	0.068787694
30	0x3e3ffac9	0.1874801
31	0xbc2cc6e0	-0.010545462
32	0x3c85fa13	0.016354596
33	0x3d24b95d	0.04021584
34	0xbe3ec23c	-0.18628782
35	0xbdbdfe6f	-0.09277045
36	0x3cbf135f	0.023324667
37	0xbe80ad8e	-0.25132412
38	0xbd2fee1c	-0.04295169
39	0xbd877d0c	-0.06615648
40	0xbe32e685	-0.17470749
41	0xbdc57ca7	-0.09642916
42	0x3dc8f8fd	0.09813116
43	0x3d8afee4	0.06786898
44	0x3e04f774	0.12985021
45	0xbe036ff2	-0.12835672
46	0xbe4562ff	-0.19276045
47	0xbe8a73b8	-0.2704141
48	0x3d2792a1	0.04091132
49	0xbc6472e7	-0.0139434105
50	0x3cee6e02	0.02910519
51	0xbd02090d	-0.031746913
52	0xbe814639	-0.25248888
53	0xbe8f2631	-0.27958825
54	0x3e2ecc22	0.17070058
55	0x3d202f88	0.03910783
56	0x3e6a3c58	0.22874582
57	0xbf0db01b	-0.5534684
58	0xbe0f6693	-0.14003973
59	0xbdbf792e	-0.09349285
60	0x3cfdd462	0.030985061
61	0x3e65de1e	0.22448012
62	0xbe4f05cb	-0.20217054
63	0x3e1954f2	0.1497381
64	0x39caa049	0.00038647864
65	0xbe56d5bf	-0.20979975
66	0x3d1dbbbb	0.03850911
67	0x3dcbf972	0.09959687
68	0xbe48233d	-0.19544692
69	0xbde3bddd	-0.11120198
70	0x3c859a6d	0.016308988
71	0xbe26d888	-0.16293538
72	0xbd7198ba	-0.058983542
73	0xbdcd49e5	-0.1002386
74	0xbe1dbddc	-0.15404457
75	0xbe75ad75	-0.2399195
76	0xbe94dd6f	-0.2907519
77	0x3e29f935	0.16598971
78	0x3e2959b8	0.16538131
79	0x3d3a41ec	0.045473024
80	0xbe3f62cd	-0.18690033
81	0x3d54f35c	0.051989898
82	0xbe6b3f19	-0.22973289
83	0xbd387659	-0.04503474
84	0xbe908d7d	-0.28232947
85	0x3deda08c	0.116028875
86	0xbe5b0388	-0.21388066
87	0xbd41e2c2	-0.047335394
88	0x3b2de83b	0.0026536125
89	0xbe4b8f3f	-0.19878863
90	0xbe2d4d26	-0.16923961
91	0x3d8856b7	0.066571645
92	0x3e9816d9	0.2970493
93	0x3e3284c4	0.17433459
94	0xbe5c6ecf	-0.21526645
95	0xbe292f87	-0.16522036
96	0x3d590df1	0.05299181
97	0xbe87b4e8	-0.26505208
98	0x3c6a0c13	0.014285105
99	0xbe8d208e	-0.275639
100	0x3eae36fa	0.3402632
101	0xbe02edf2	-0.12786081
102	0xbe8796a2	-0.2648211
103	0x3bec0a57	0.007203381
104	0x3bffddb0	0.0078084096
105	0xbe164258	-0.14673746
106	0xbc85c3c7	-0.016328705
107	0xbe145efe	-0.14489362
108	0x3c12e237	0.008965067
109	0x3d72d52e	0.059285335
110	0x3d21a361	0.03946245
111	0xbcc58dd4	-0.02411548
112	0xbe04b847	-0.12960921
113	0x3cf34ba4	0.029699154
114	0x3e7e47ad	0.2483203
115	0x3eef4acc	0.46736753
116	0x3c244bf5	0.010027875
117	0xbef54365	-0.4790298
118	0x3ecc21d1	0.3986955
119	0x3d802797	0.06257551
120	0xbb8df823	-0.0043325587
121	0xbe857368	-0.2606461
122	0xbe81062e	-0.25200027
123	0x3d48a5dc	0.0489863
124	0x3e6c561a	0.2307972
125	0xbe7720f4	-0.24133664
126	0xbc4489a3	-0.011995706
127	0xbe5a3eef	-0.2131307

stack.4.weight f4 [1, 128]
0	0xbdacb1ad	-0.084323265
1	0xbd243617	-0.040090647
2	0x3d357f96	0.04431113
3	0x3d4ff90c	0.05077462
4	0x3dae507e	0.085114464
5	0x3d9b3ea9	0.07580311
6	0x3d99b6ad	0.07505546
7	0xbd7cab5c	-0.06168686
8	0x3cfbe1c2	0.030747298
9	0x3de1c65f	0.110241644
10	0xbce217b9	-0.027599202
11	0xbd92a8a5	-0.07161073
12	0xbd8bed15	-0.06832329
13	0x3d9325d7	0.07184952
14	0x3d0d1b61	0.03444994
15	0x3d354462	0.044254668
16	0xbda2a7a2	-0.0794213
17	0x3cfdf13e	0.030998822
18	0xbe0a5602	-0.13509372
19	0xbcba4797	-0.022739215
20	0x3d9ddc88	0.077080786
21	0xbe807497	-0.2508895
22	0x3c662e20	0.014049083
23	0x3d98b72f	0.074568145
24	0x3baab79a	0.0052098753
25	0xbc72f96c	-0.014829975
26	0xbd01e93c	-0.03171657
27	0x3d2e0d9d	0.04249345
28	0x3ad63cf8	0.0016345074
29	0x3b0a5e56	0.0021113358
30	0xbe023563	-0.12715678
31	0xbd8b81f1	-0.06811894
32	0xbd895a53	-0.06706681
33	0xbda527dd	-0.08064244
34	0x3d4ac774	0.04950662
35	0x3dd7d12e	0.10537945
36	0xbc348cc3	-0.011019888
37	0x3de84769	0.113417454
38	0xbeb515fb	-0.35368332
39	0xbceefbda	-0.029172827
40	0x3d08d09c	0.03340207
41	0xbd3ad837	-0.045616355
42	0xbf3d2660	-0.7388668
43	0xbb1c8d36	-0.002388788
44	0xbe749c61	-0.23887779
45	0x3d8c0563	0.06836965
46	0x3d910bf9	0.07082362
47	0x3d8b2d45	0.06795744
48	0xbd044d37	-0.0323002
49	0x3c934777	0.017978413
50	0xbd879a52	-0.06621231
51	0xbd467e85	-0.048460502
52	0x3d85e8cb	0.06538542
53	0x3d081c0c	0.033229873
54	0xbe0ae058	-0.13562143
55	0xbaa9692b	-0.0012925019
56	0xbdbf6a46	-0.09346442
57	0x3f207248	0.6267438
58	0x3d5093c3	0.050922167
59	0x3ddfaa08	0.10921103
60	0xbcd218ec	-0.02564665
61	0xbdc615d8	-0.09672135
62	0x3df1a3f1	0.117988475
63	0xbb4e5edf	-0.0031489653
64	0xbd28fa3d	-0.04125427
65	0x3d1382b6	0.036013328
66	0xbc9af784	-0.018916853
67	0xbe208c68	-0.1567856
68	0x3dcc328c	0.099705786
69	0x3daf43ec	0.08557877
70	0x3f4d6436	0.80231035
71	0x3d0f4d7a	0.034985997
72	0xbd8b37f5	-0.06797782
73	0xbf0ef2c6	-0.5583919
74	0x3d613975	0.054986436
75	0x3dc186bf	0.09449529
76	0x3cbd41a7	0.023102595
77	0xbb7de418	-0.003874069
78	0xbe0abaa3	-0.13547759
79	0xbd89c107	-0.0672627
80	0x3d87c791	0.06629861
81	0xbceff5ce	-0.029292013
82	0x3d01a691	0.03165299
83	0x3a95d99a	0.0011432648
84	0x3dd3b648	0.10337502
85	0x3b3808eb	0.0028081487
86	0x3d908fa6	0.07058649
87	0xbf0c279d	-0.54747945
88	0xbd9485d8	-0.07252091
89	0x3df16d3a	0.117884114
90	0x3db2a969	0.08723719
91	0xbd3c14e8	-0.045918375
92	0xbeaed3eb	-0.34146056
93	0xbe15205d	-0.14563127
94	0x3d5e6254	0.05429299
95	0x3dcfc36d	0.101446964
96	0xbd53d090	-0.051712573
97	0x3da2cd69	0.07949335
98	0xbc491111	-0.012272135
99	0x3d34739f	0.044055577
100	0xbe2cc597	-0.1687225
101	0x3e07a52e	0.13246605
102	0x3d1d3e91	0.038389746
103	0x3d24846e	0.040165357
104	0x3d8d275f	0.06892275
105	0x3dc00d79	0.0937757
106	0x3c02df62	0.007987829
107	0x3d4c2827	0.04984298
108	0xbd8ab22c	-0.06772265
109	0xbcef968e	-0.029246595
110	0x3d260781	0.0405345
111	0xbc1271f6	-0.008938303
112	0x3dc22f47	0.09481674
113	0xbbffbb5d	-0.007804318
114	0xbce798df	-0.028271137
115	0xbeb1cfb6	-0.34728783
116	0x3ae1abea	0.0017217372
117	0x3ec2e785	0.3806726
118	0xbf3779e9	-0.71670395
119	0xbb4b1b54	-0.003099163
120	0xbd1c3cc5	-0.03814389
121	0x3d9ab48e	0.07553969
122	0x3dffed29	0.124964066
123	0x3d82469d	0.06361125
124	0xbe593d8d	-0.21214886
125	0x3e71709d	0.23578115
126	0x3bcdb0b6	0.006277169
127	0x3df73c5b	0.12072059

exp_avg f4 [128, 17]
0	0x00000000	0.0
1	0x00000000	0.0
2	0x00000000	0.0
3	0x00000000	0.0
4	0x00000000	0.0
5	0x00000000	0.0
6	0x00000000	0.0
7	0x00000000	0.0
8	0x00000000	0.0
9	0x00000000	0.0
10	0x00000000	0.0
11	0x00000000	0.0
12	0x00000000	0.0
13	0x00000000	0.0
14	0x00000000	0.0
15	0x00000000	0.0
16	0x00000000	0.0
17	0xbdbc370e	-0.09190188
18	0xbc4dfec9	-0.012572953
19	0xbc021012	-0.007938402
20	0xbcd087bf	-0.025455354
21	0xbd358069	-0.044311915
22	0xbd65db2b	-0.056117218
23	0xbdb7a6ec	-0.08967385
24	0xbc4880b4	-0.0122377165
25	0xbc4100d1	-0.01177998
26	0xbc36cbd4	-0.011156995
27	0xbc641d4c	-0.013923001
28	0xbc6b8372	-0.014374601
29	0xba9dba11	-0.0012033602
30	0xba820b2f	-0.0009921546
31	0xba827d46	-0.0009955547
32	0xbb18bdbe	-0.0023306455
33	0xbb268223	-0.0025407157
34	0x3d3120c7	0.04324415
35	0xbc3a26d2	-0.011361795
36	0x3b0eb1ae	0.0021773386
37	0x3c19ab0a	0.009379158
38	0x3cb3c75f	0.021945653
39	0x3cd0c5fa	0.025485028
40	0x3d331f9d	0.04373132
41	0xbc3e83c5	-0.011628096
42	0xbc4628a4	-0.01209465
43	0xbc40936a	-0.011753896
44	0xbc09094f	-0.008364036
45	0xbbe8924e	-0.007097519
46	0xbabc89f4	-0.0014384375
47	0xbacdc0d1	-0.0015697723
48	0xbaa9794a	-0.0012929824
49	0x3928849a	0.00016071126
50	0x39f40a35	0.00046546911
51	0x00000000	0.0
52	0x00000000	0.0
53	0x00000000	0.0
54	0x00000000	0.0
55	0x00000000	0.0
56	0x00000000	0.0
57	0x00000000	0.0
58	0x00000000	0.0
59	0x00000000	0.0
60	0x00000000	0.0
61	0x00000000	0.0
62	0x00000000	0.0
63	0x00000000	0.0
64	0x00000000	0.0
65	0x00000000	0.0
66	0x00000000	0.0
67	0x00000000	0.0
68	0x3c887cdf	0.016661106
69	0x3bee7f2a	0.0072783427
70	0x3b00c03e	0.0019645835
71	0x3b91957f	0.00444287
72	0x3bf54f7f	0.0074862833
73	0x3c431767	0.011907435
74	0x3c842d3f	0.016134856
75	0x3beed19e	0.007288172
76	0x3beb2a13	0.0071766465
77	0x3be22aeb	0.006902089
78	0x3bdbe3a3	0.006710486
79	0x3bd90e96	0.006624053
80	0x3a3773c6	0.00069981476
81	0x3a2e053b	0.00066383526
82	0x3a1f14ff	0.00060684973
83	0x39db3d89	0.00041816782
84	0x39969548	0.00028721453
85	0xbd37231c	-0.044711217
86	0xbd0832e7	-0.03325167
87	0xbb8abedb	-0.0042341775
88	0xbc5ab1a2	-0.013348015
89	0xbcaed2e5	-0.021340797
90	0xbd06d7e0	-0.03292072
91	0xbd31324b	-0.043260854
92	0xbd084349	-0.033267293
93	0xbd06b090	-0.032883227
94	0xbd02ef1c	-0.031966314
95	0xbcf4ab67	-0.029866887
96	0xbcfe7835	-0.031063179
97	0xbb7c56c1	-0.0038503858
98	0xbb6d8e23	-0.003624805
99	0xbb5a32ad	-0.0033294365
100	0xbb27b328	-0.0025588963
101	0xbb1b7614	-0.0023721503
102	0x00000000	0.0
103	0x00000000	0.0
104	0x00000000	0.0
105	0x00000000	0.0
106	0x00000000	0.0
107	0x00000000	0.0
108	0x00000000	0.0
109	0x00000000	0.0
110	0x00000000	0.0
111	0x00000000	0.0
112	0x00000000	0.0
113	0x00000000	0.0
114	0x00000000	0.0
115	0x00000000	0.0
116	0x00000000	0.0
117	0x00000000	0.0
118	0x00000000	0.0
119	0x3c95e7bb	0.018298974
120	0xbcf61527	-0.030039383
121	0x3a2a136a	0.0006487878
122	0x3b5e5e7c	0.0033930829
123	0x3c16eafe	0.0092113
124	0x3c099984	0.008398417
125	0x3c9a08b1	0.018802973
126	0xbcf368ed	-0.029713118
127	0xbcf41870	-0.029796809
128	0xbce3e451	-0.02781883
129	0xbca6cb32	-0.020360563
130	0xbc72bc92	-0.0148154665
131	0xbb7478bf	-0.0037303416
132	0xbb75737a	-0.0037452863
133	0xbb3ba2a9	-0.0028630889
134	0xba4ea1a3	-0.0007882362
135	0xbabce01d	-0.0014410053
136	0x3d49a8b6	0.04923316
137	0x3c472d6b	0.012156825
138	0x3b92c7b0	0.004479371
139	0x3c6d4712	0.0144822765
140	0x3cc147be	0.02359378
141	0x3d09d804	0.033653274
142	0x3d45292c	0.048134968
143	0x3c42a801	0.011880876
144	0x3c402e5f	0.011729806
145	0x3c35335e	0.01105961
146	0x3c3204e8	0.010865428
147	0x3c300b15	0.01074483
148	0x3aa8f038	0.0012888974
149	0x3aa51369	0.0012594286
150	0x3a89d6e7	0.0010516316
151	0x3aa72f12	0.0012755117
152	0x3ab44dff	0.0013756155
153	0x3d656fba	0.056014754
154	0x3b35a587	0.002771707
155	0x3b8ed1b2	0.0043584937
156	0x3c7098c1	0.014684857
157	0x3ce83f67	0.028350545
158	0x3d10d0d4	0.035355404
159	0x3d619318	0.05507192
160	0x3b301469	0.0026867634
161	0x3b1c23cc	0.0023825048
162	0x3b230949	0.002487736
163	0x3b9bce3c	0.0047548097
164	0x3b8bc4c3	0.004265399
165	0x39b1c827	0.00033909196
166	0x398ff7e7	0.00027459787
167	0x399df05a	0.0003012445
168	0x3a92dd78	0.0011204919
169	0x3aba13a3	0.0014196526
170	0x3d4248e6	0.047432803
171	0x3d4e9a94	0.050440386
172	0x3b83b2d6	0.0040191216
173	0x3c90ff72	0.01769993
174	0x3cc412a1	0.023934664
175	0x3d11baaf	0.035578426
176	0x3d368442	0.044559725
177	0x3d505677	0.05086371
178	0x3d4eb48c	0.05046515
179	0x3d4f6c79	0.050640557
180	0x3d3a5eb5	0.045500476
181	0x3d374494	0.044743136
182	0x3bd17e5c	0.006393237
183	0x3bca01a2	0.0061647454
184	0x3bc2f621	0.005949751
185	0x3b83d4da	0.0040231766
186	0x3b720ec3	0.0036935068
187	0xbc638c6b	-0.013888459
188	0xbbff4f92	-0.007791468
189	0xbac4039d	-0.001495469
190	0xbb878e37	-0.0041368264
191	0xbc037584	-0.008023623
192	0xbc2bb857	-0.010480962
193	0xbc5ae7b7	-0.013360909
194	0xbc02f1a1	-0.007992179
195	0xbc02cb82	-0.00798309
196	0xbc0ab59e	-0.0084661525
197	0xbbecfbea	-0.007232179
198	0xbbc74c87	-0.006082121
199	0xbaa2fee1	-0.0012435579
200	0xbaa11705	-0.0012290186
201	0xbaa59bf5	-0.001263498
202	0xba3669c5	-0.000695851
203	0xba325aee	-0.0006803711
204	0xbc45136b	-0.012028555
205	0xbc7ae84f	-0.015314176
206	0xbb11ee9f	-0.0022267473
207	0xbb8284e0	-0.003983125
208	0xbbc0ffd1	-0.0058898707
209	0xbc29ff5d	-0.010375825
210	0xbc31be58	-0.010848604
211	0xbc7f7437	-0.015591673
212	0xbc7cd912	-0.015432613
213	0xbc7b866e	-0.015351875
214	0xbc66931b	-0.014073159
215	0xbc870929	-0.01648386
216	0xbb08dafd	-0.002088248
217	0xbafee5e4	-0.0019447175
218	0xbafc86b8	-0.0019266224
219	0xbaad22a0	-0.0013209172
220	0xba9c4a3d	-0.001192398
221	0x00000004	6e-45
222	0x00000004	6e-45
223	0x00000000	0.0
224	0x00000004	6e-45
225	0x00000000	0.0
226	0x00000004	6e-45
227	0x00000004	6e-45
228	0x00000004	6e-45
229	0x00000004	6e-45
230	0x00000004	6e-45
231	0x00000004	6e-45
232	0x00000004	6e-45
233	0x00000004	6e-45
234	0x00000004	6e-45
235	0x00000004	6e-45
236	0x00000004	6e-45
237	0x00000004	6e-45
238	0x3e26d77c	0.16293138
239	0x3cfa9571	0.030588837
240	0x3c47ec3e	0.012202321
241	0x3d1c5260	0.038164496
242	0x3dae4099	0.08508415
243	0x3dbc4dc8	0.09194523
244	0x3e26bb30	0.16282344
245	0x3cf73224	0.030175276
246	0x3ce917a7	0.028453661
247	0x3cef1b0f	0.029187707
248	0x3cf602b4	0.030030586
249	0x3cf53bf7	0.02993582
250	0x3b792d0f	0.0038021242
251	0x3b4dcad7	0.003140142
252	0x3b607ab9	0.0034252836
253	0x3b989a7f	0.0046570892
254	0x3b91a088	0.0044441856
255	0x00000000	0.0

exp_avg_sq f4 [128, 17]
0	0x00000000	0.0
1	0x00000000	0.0
2	0x00000000	0.0
3	0x00000000	0.0
4	0x00000000	0.0
5	0x00000000	0.0
6	0x00000000	0.0
7	0x00000000	0.0
8	0x00000000	0.0
9	0x00000000	0.0
10	0x00000000	0.0
11	0x00000000	0.0
12	0x00000000	0.0
13	0x00000000	0.0
14	0x00000000	0.0
15	0x00000000	0.0
16	0x00000000	0.0
17	0x3e752a47	0.23941909
18	0x3d7625ea	0.06009475
19	0x3b43bc11	0.0029866735
20	0x3cae0154	0.021240868
21	0x3d6d7d04	0.057980552
22	0x3de174fa	0.1100864
23	0x3e69e803	0.22842412
24	0x3d7471a8	0.059678704
25	0x3d6c3db4	0.057676032
26	0x3d5bdf6f	0.05367988
27	0x3d423292	0.04741151
28	0x3d299c81	0.04140902
29	0x3a5b9d4b	0.00083776255
30	0x3a3f1677	0.00072894193
31	0x3a12c667	0.0005599022
32	0x39e209b1	0.000431133
33	0x39d930be	0.0004142578
34	0x3e16ef62	0.14739755
35	0x3d3837bf	0.04497504
36	0x3ae88050	0.0017738435
37	0x3c4e041b	0.012574221
38	0x3d1648e1	0.036690596
39	0x3d8fa5e0	0.0701406
40	0x3e0e973e	0.13924882
41	0x3d36d33a	0.044635035
42	0x3d31d165	0.043412585
43	0x3d29eedc	0.04148756
44	0x3d1c34a7	0.03813615
45	0x3d0e8b86	0.03480103
46	0x3a12fe78	0.0005607377
47	0x3a0258df	0.0004972349
48	0x39d942bc	0.00041439186
49	0x39acfc70	0.00032994477
50	0x399bee9e	0.00029741687
51	0x00000000	0.0
52	0x00000000	0.0
53	0x00000000	0.0
54	0x00000000	0.0
55	0x00000000	0.0
56	0x00000000	0.0
57	0x00000000	0.0
58	0x00000000	0.0
59	0x00000000	0.0
60	0x00000000	0.0
61	0x00000000	0.0
62	0x00000000	0.0
63	0x00000000	0.0
64	0x00000000	0.0
65	0x00000000	0.0
66	0x00000000	0.0
67	0x00000000	0.0
68	0x3c5b3d6c	0.013381343
69	0x3b696291	0.0035611729
70	0x39472c60	0.0001899465
71	0x3aaac976	0.0013030011
72	0x3b63e6f1	0.0034775103
73	0x3bd59c8e	0.006518907
74	0x3c4b27e4	0.012399647
75	0x3b68505e	0.0035448293
76	0x3b5f9b18	0.0034119543
77	0x3b4c177d	0.003114193
78	0x3b2cfa40	0.0026394278
79	0x3b149daf	0.0022676995
80	0x384ccb7e	4.8826907e-05
81	0x382e932d	4.16219e-05
82	0x37f722ff	2.946099e-05
83	0x37b41fc7	2.147247e-05
84	0x37bbb6e6	2.2377306e-05
85	0x3d15f792	0.036613055
86	0x3ca847bc	0.020542018
87	0x3a0d4447	0.0005388897
88	0x3b64b7ba	0.0034899549
89	0x3c155c08	0.00911618
90	0x3c95c784	0.018283613
91	0x3d084999	0.033273313
92	0x3ca75b82	0.020429377
93	0x3ca35a81	0.019940617
94	0x3c99bfea	0.01876827
95	0x3c85bcad	0.01632532
96	0x3c60322a	0.013683835
97	0x3986b8de	0.00025696208
98	0x3970b9c2	0.00022957384
99	0x393950f1	0.00017673128
100	0x38f7f549	0.00011823566
101	0x38dd6bac	0.00010558157
102	0x00000000	0.0
103	0x00000000	0.0
104	0x00000000	0.0
105	0x00000000	0.0
106	0x00000000	0.0
107	0x00000000	0.0
108	0x00000000	0.0
109	0x00000000	0.0
110	0x00000000	0.0
111	0x00000000	0.0
112	0x00000000	0.0
113	0x00000000	0.0
114	0x00000000	0.0
115	0x00000000	0.0
116	0x00000000	0.0
117	0x00000000	0.0
118	0x00000000	0.0
119	0x3dbc6402	0.091987625
120	0x3d6fc86f	0.058540758
121	0x3aa21ce1	0.0012368226
122	0x3c055330	0.008137509
123	0x3cbf8a53	0.023381388
124	0x3d3718bc	0.044701323
125	0x3db092d2	0.08621754
126	0x3d6e1f0e	0.058135085
127	0x3d679be3	0.05654515
128	0x3d500379	0.05078456
129	0x3d1fa462	0.038975127
130	0x3cc6f7bb	0.024288049
131	0x3a58d0e1	0.00082708715
132	0x3a4018b0	0.00073278975
133	0x39f3b132	0.00046480593
134	0x3972b1e8	0.00023145194
135	0x3960a68f	0.00021424353
136	0x3d1a14f5	0.037617642
137	0x3c319dbc	0.010840829
138	0x39e6197b	0.00043888003
139	0x3b541fa8	0.0032367501
140	0x3c1be7fe	0.0095157605
141	0x3c960cdc	0.018316679
142	0x3d11d88a	0.0356069
143	0x3c3030c3	0.010753813
144	0x3c2ade9d	0.010429052
145	0x3c20ad7d	0.009806988
146	0x3c10150e	0.008794082
147	0x3c00148d	0.0078174
148	0x39134a8b	0.00014046782
149	0x39010516	0.00012304293
150	0x38cd1a25	9.7800315e-05
151	0x38a2f82c	7.7709876e-05
152	0x389bcd59	7.429225e-05
153	0x3dc2a417	0.09503954
154	0x3cd90f3e	0.026496526
155	0x3a93c025	0.0011272473
156	0x3c02b662	0.007978054
157	0x3cc3b2f5	0.023889044
158	0x3d383191	0.044969145
159	0x3db86d4d	0.090052225
160	0x3cd7bfa2	0.026336495
161	0x3cd08c17	0.025457425
162	0x3cc3fa0d	0.023922944
163	0x3cafee75	0.02147601
164	0x3c996f1b	0.018729737
165	0x39b48c69	0.0003443689
166	0x399c0842	0.0002976079
167	0x3976033c	0.00023461593
168	0x393f683f	0.00018254014
169	0x3934bcb4	0.00017236435
170	0x3dcbe1d9	0.099551864
171	0x3da57312	0.080785885
172	0x3ab0476a	0.0013449017
173	0x3c0d8c49	0.008639404
174	0x3cceb3e3	0.025232261
175	0x3d3363be	0.043796293
176	0x3db908fc	0.09034917
177	0x3da3cd22	0.0799811
178	0x3da0db35	0.078543104
179	0x3d97341c	0.07382986
180	0x3d829097	0.063752346
181	0x3d546b58	0.051860183
182	0x3a7cb955	0.0009640654
183	0x3a679826	0.00088346226
184	0x3a319efc	0.00067757047
185	0x39ed505d	0.00045264038
186	0x39cad193	0.00038684587
187	0x3b397f65	0.0028304693
188	0x3b61f52a	0.0034478405
189	0x382a2335	4.0563948e-05
190	0x398b1d5a	0.00026534015
191	0x3a3553d9	0.00069170963
192	0x3ab81d9f	0.0014046914
193	0x3b2abe7b	0.0026053477
194	0x3b5c6d05	0.0033634317
195	0x3b58417d	0.0032998018
196	0x3b3860ec	0.0028133942
197	0x3b090352	0.002090652
198	0x3a9cfae5	0.0011976628
199	0x384363ff	4.658475e-05
200	0x3833453a	4.2741398e-05
201	0x37c59c02	2.3556877e-05
202	0x3731c704	1.0596359e-05
203	0x37077156	8.073015e-06
204	0x3d9b877b	0.075942
205	0x3cc97e29	0.02459629
206	0x3a84d456	0.0010134082
207	0x3bd9640c	0.006634241
208	0x3c9ddd5b	0.01927059
209	0x3d122281	0.035677437
210	0x3d91eef5	0.071256556
211	0x3cc83588	0.024439588
212	0x3cc2ce00	0.02377987
213	0x3cb8e51c	0.022570185
214	0x3ca8c31b	0.020600846
215	0x3c96caf4	0.018407322
216	0x39a5b013	0.00031602438
217	0x3992d83f	0.00028008406
218	0x396f80a9	0.00022840746
219	0x393afffa	0.00017833701
220	0x39271790	0.00015935139
221	0x000001f4	7e-43
222	0x000001f4	7e-43
223	0x00000000	0.0
224	0x000001f4	7e-43
225	0x00000000	0.0
226	0x000001f4	7e-43
227	0x000001f4	7e-43
228	0x000001f4	7e-43
229	0x000001f4	7e-43
230	0x000001f4	7e-43
231	0x000001f4	7e-43
232	0x000001f4	7e-43
233	0x000001f4	7e-43
234	0x000001f4	7e-43
235	0x000001f4	7e-43
236	0x000001f4	7e-43
237	0x000001f4	7e-43
238	0x40163e29	2.347544
239	0x3f0d19ec	0.5511768
240	0x3cdddebd	0.027083749
241	0x3e4f27f9	0.20230092
242	0x3f13a709	0.5767675
243	0x3f8f1b13	1.1180137
244	0x400ef3e4	2.233636
245	0x3f0c5cc7	0.54829067
246	0x3f085d48	0.53267336
247	0x3f04031d	0.5156725
248	0x3eff191a	0.49823838
249	0x3efa1396	0.48843068
250	0x3bdfa407	0.0068249735
251	0x3bc5deb9	0.0060385135
252	0x3baebdf8	0.0053327046
253	0x3b9dcbe7	0.004815567
254	0x3b97ecbe	0.004636376
255	0x00000000	0.0

exp_avg f4 [128]
0	0x00000000	0.0
1	0xbab72933	-0.001397407
2	0xbaa869b7	-0.0012848888
3	0x00000000	0.0
4	0x3a35dab2	0.000693719
5	0xbb7c1439	-0.0038464202
6	0x00000000	0.0
7	0xbb8141b2	-0.003944599
8	0x3ac03b9c	0.0014666202
9	0x39cbe40a	0.0003888908
10	0x3bcacd6d	0.0061890394
11	0xba9685b0	-0.0011483934
12	0xbafc79b2	-0.0019262342
13	0x00000004	6e-45
14	0x3b85f09c	0.0040875208
15	0x00000000	0.0
16	0xbab12b51	-0.0013516938
17	0x3b844987	0.0040370855
18	0x00000000	0.0
19	0x00000000	0.0
20	0x3adac53b	0.0016690859
21	0x00000000	0.0
22	0x00000000	0.0
23	0x00000000	0.0
24	0xbb39907e	-0.0028314884
25	0x3c61565a	0.013753498
26	0x3ad9b918	0.0016610948
27	0x39ee68e8	0.0004547306
28	0x00000000	0.0
29	0xb9cead5f	-0.00039420553
30	0xbb031a86	-0.0020004823
31	0x3c98fa62	0.01867408
32	0xbb20577f	-0.0024466214
33	0x00000000	0.0
34	0x00000000	0.0
35	0xbbb41886	-0.0054960875
36	0xbca302c8	-0.019898787
37	0x00000000	0.0
38	0xbaa0f227	-0.0012279198
39	0x00000000	0.0
40	0x3b02d948	0.0019965935
41	0x00000000	0.0
42	0xbac89f35	-0.0015306236
43	0xbb54c434	-0.003246558
44	0xbb0e5340	-0.0021717101
45	0x00000000	0.0
46	0xbc114d54	-0.008868534
47	0xbc9797a4	-0.018504925
48	0x3aa7efb3	0.0012812525
49	0xbb1d9f1d	-0.0024051138
50	0x3acef609	0.0015789877
51	0x00000000	0.0
52	0x3b15e17b	0.0022869993
53	0xbaccde52	-0.0015630221
54	0x3b2dfda9	0.0026548898
55	0xbb4b5790	-0.0031027533
56	0xbb9669ab	-0.0045902333
57	0x3b04fd1b	0.0020292464
58	0x3c5f7f75	0.013641228
59	0x3b56750c	0.0032723574
60	0x3b5f9a43	0.0034119047
61	0x3b53af5a	0.0032300563
62	0x00000000	0.0
63	0x00000000	0.0
64	0x00000000	0.0
65	0xba342920	-0.0006872583
66	0x37a24e72	1.9348434e-05
67	0xbc3d5b65	-0.011557435
68	0xbb1d1a47	-0.0023971961
69	0xbb82f7ab	-0.0039968095
70	0xba2c86d3	-0.00065813697
71	0x00000000	0.0
72	0x00000000	0.0
73	0xbb990d47	-0.0046707722
74	0x3bc64663	0.006050871
75	0xba2d9bf8	-0.00066226674
76	0xbae6a40f	-0.0017596501
77	0x00000000	0.0
78	0xbb940400	-0.0045170784
79	0x3bd410d1	0.0064717312
80	0x3a89f486	0.0010525144
81	0x00000000	0.0
82	0xbb73ba0b	-0.0037189748
83	0xba4b5f00	-0.00077579916
84	0x38cf2231	9.876898e-05
85	0xba89f336	-0.0010524753
86	0x00000000	0.0
87	0x3ac298b7	0.0014846538
88	0xbb84af5a	-0.004049224
89	0x00000000	0.0
90	0x00000000	0.0
91	0xbb88dedd	-0.004176958
92	0x3ac7529e	0.0015207117
93	0x3baed570	0.0053355023
94	0x3b3a3acf	0.00284164
95	0xba6a2ad6	-0.00089327747
96	0xbb0de7cd	-0.0021653057
97	0x00000000	0.0
98	0x39ad3208	0.00033034408
99	0xbb98c525	-0.0046621733
100	0x3819588d	3.6560512e-05
101	0xba22d921	-0.00062121643
102	0x3ae7c05f	0.0017681232
103	0x3a791f13	0.00095032266
104	0x3c07ac01	0.008280755
105	0x3a8dd426	0.0010820671
106	0xbaf75830	-0.0018870886
107	0x3c3bd44f	0.0114641925
108	0x3c435b7c	0.011923667
109	0x3cb7851b	0.022402337
110	0x00000000	0.0
111	0x3c0f9ab6	0.008764913
112	0xba71a465	-0.0009217917
113	0x3bcb6445	0.0062070214
114	0xbabdafb0	-0.0014471915
115	0xbb543d59	-0.00323852
116	0x39c0a982	0.00036747387
117	0x00000000	0.0
118	0xbb2d454c	-0.002643901
119	0xbaaf7674	-0.0013386742
120	0x3a2957eb	0.0006459939
121	0xba0943be	-0.00052362296
122	0x3b6ff005	0.0036611569
123	0xbae7cc70	-0.0017684828
124	0x3a510052	0.0007972765
125	0xbb6cd43c	-0.0036137244
126	0xbafe06a4	-0.0019380641
127	0x00000000	0.0

exp_avg_sq f4 [128]
0	0x00000000	0.0
1	0x3a63edb3	0.0008694783
2	0x3a19577e	0.0005849524
3	0x00000000	0.0
4	0x38522d10	5.010987e-05
5	0x398b05ee	0.00026516564
6	0x00000000	0.0
7	0x3a6163ef	0.000859796
8	0x391a2c3b	0.00014703062
9	0x39bafae5	0.00035663616
10	0x3a859b84	0.0010193442
11	0x385d0aeb	5.2700674e-05
12	0x39ab9cb3	0.00032732412
13	0x000001f4	7e-43
14	0x3be69c1a	0.0070376517
15	0x00000000	0.0
16	0x39d1ddc0	0.00040028803
17	0x39b0f5d3	0.0003375249
18	0x00000000	0.0
19	0x00000000	0.0
20	0x3a206299	0.0006118208
21	0x00000000	0.0
22	0x00000000	0.0
23	0x00000000	0.0
24	0x3a4c447c	0.00077921874
25	0x3c3aa424	0.011391673
26	0x380fb384	3.4261044e-05
27	0x385a6926	5.2073177e-05
28	0x00000000	0.0
29	0x38cfcbfc	9.908524e-05
30	0x3a94f33f	0.0011363997
31	0x3b7fc042	0.0039024507
32	0x3a6d73d9	0.0009058095
33	0x00000000	0.0
34	0x00000000	0.0
35	0x3a2011ea	0.0006106185
36	0x3c473f59	0.012161099
37	0x00000000	0.0
38	0x37b794ac	2.188453e-05
39	0x00000000	0.0
40	0x39eee857	0.00045568004
41	0x00000000	0.0
42	0x38a199a4	7.705696e-05
43	0x39bf4f72	0.0003648955
44	0x3a3a6866	0.00071108935
45	0x00000000	0.0
46	0x3ae52452	0.0017482138
47	0x3b4d9ea7	0.0031375082
48	0x37f5e6b1	2.93137e-05
49	0x3aff2a2e	0.0019467527
50	0x37dbf4e5	2.6220872e-05
51	0x00000000	0.0
52	0x39db24f9	0.00041798482
53	0x39e6581e	0.0004393467
54	0x398a9ff0	0.00026440574
55	0x3b1a3352	0.0023529124
56	0x3a204e19	0.0006115153
57	0x37c4b2a6	2.344821e-05
58	0x3b752253	0.0037404492
59	0x381e8090	3.778987e-05
60	0x39a76d23	0.00031934035
61	0x3a2f1197	0.00066783413
62	0x00000000	0.0
63	0x00000000	0.0
64	0x00000000	0.0
65	0x39f2b866	0.00046295224
66	0x38b4edd9	8.6273714e-05
67	0x3b21afdc	0.002467147
68	0x3abe4199	0.0014515399
69	0x3b04d813	0.0020270392
70	0x3a415129	0.00073744595
71	0x00000000	0.0
72	0x00000000	0.0
73	0x3a9144b5	0.0011083098
74	0x39abd96e	0.0003277766
75	0x38507e5b	4.9708742e-05
76	0x382367c2	3.895886e-05
77	0x00000000	0.0
78	0x3a805513	0.0009790979
79	0x3ae2844c	0.0017281859
80	0x3a6867e3	0.0008865578
81	0x00000000	0.0
82	0x3b821b68	0.0039705522
83	0x39d622b2	0.0004084311
84	0x3745058d	1.1743407e-05
85	0x39d00aeb	0.00039680986
86	0x00000000	0.0
87	0x3ca20a97	0.01978044
88	0x3bd26d1f	0.0064216997
89	0x00000000	0.0
90	0x00000000	0.0
91	0x39597211	0.00020737226
92	0x3c4db96a	0.012556413
93	0x3c057f09	0.008147963
94	0x38fa78a5	0.00011943401
95	0x3980c7d2	0.0002456294
96	0x398e6e5d	0.00027166578
97	0x00000000	0.0
98	0x38297f86	4.0411505e-05
99	0x3a16d369	0.00057535485
100	0x398f1c83	0.00027296328
101	0x3a272b43	0.0006376991
102	0x3771b882	1.44076785e-05
103	0x3814498e	3.5354453e-05
104	0x3b1e0b78	0.0024115723
105	0x3b1006b6	0.0021976656
106	0x395103e8	0.00019933248
107	0x3c08d875	0.008352389
108	0x3b3bc73b	0.0028652686
109	0x3bf0f549	0.007353459
110	0x00000000	0.0
111	0x3a8d6897	0.0010788616
112	0x39749159	0.000233238
113	0x3acd922e	0.0015683824
114	0x3956d6a5	0.00020488592
115	0x38f7e69a	0.00011820831
116	0x38660649	5.4842127e-05
117	0x00000000	0.0
118	0x3a54c8e9	0.0008117096
119	0x395d0e7c	0.00021081598
120	0x3799d8e5	1.834002e-05
121	0x3a4f0122	0.0007896592
122	0x3cb14ac6	0.0216421
123	0x399bde0e	0.00029729347
124	0x382e0fca	4.1499537e-05
125	0x3a4fedee	0.00079318776
126	0x39414b6b	0.0001843401
127	0x00000000	0.0

exp_avg f4 [128, 128]
0	0x00000000	0.0
1	0x00000000	0.0
2	0x00000000	0.0
3	0x00000000	0.0
4	0x00000000	0.0
5	0x00000000	0.0
6	0x00000000	0.0
7	0x00000000	0.0
8	0x00000000	0.0
9	0x00000000	0.0
10	0x00000000	0.0
11	0x00000000	0.0
12	0x00000000	0.0
13	0x00000000	0.0
14	0x00000000	0.0
15	0x00000000	0.0
16	0x00000000	0.0
17	0x00000000	0.0
18	0x00000000	0.0
19	0x00000000	0.0
20	0x00000000	0.0
21	0x00000000	0.0
22	0x00000000	0.0
23	0x00000000	0.0
24	0x00000000	0.0
25	0x00000000	0.0
26	0x00000000	0.0
27	0x00000000	0.0
28	0x00000000	0.0
29	0x00000000	0.0
30	0x00000000	0.0
31	0x00000000	0.0
32	0x00000000	0.0
33	0x00000000	0.0
34	0x00000000	0.0
35	0x00000000	0.0
36	0x00000000	0.0
37	0x00000000	0.0
38	0x00000000	0.0
39	0x00000000	0.0
40	0x00000000	0.0
41	0x00000000	0.0
42	0x00000000	0.0
43	0x00000000	0.0
44	0x00000000	0.0
45	0x00000000	0.0
46	0x00000000	0.0
47	0x00000000	0.0
48	0x00000000	0.0
49	0x00000000	0.0
50	0x00000000	0.0
51	0x00000000	0.0
52	0x00000000	0.0
53	0x00000000	0.0
54	0x00000000	0.0
55	0x00000000	0.0
56	0x00000000	0.0
57	0x00000000	0.0
58	0x00000000	0.0
59	0x00000000	0.0
60	0x00000000	0.0
61	0x00000000	0.0
62	0x00000000	0.0
63	0x00000000	0.0
64	0x00000000	0.0
65	0x00000000	0.0
66	0x00000000	0.0
67	0x00000000	0.0
68	0x00000000	0.0
69	0x00000000	0.0
70	0x00000000	0.0
71	0x00000000	0.0
72	0x00000000	0.0
73	0x00000000	0.0
74	0x00000000	0.0
75	0x00000000	0.0
76	0x00000000	0.0
77	0x00000000	0.0
78	0x00000000	0.0
79	0x00000000	0.0
80	0x00000000	0.0
81	0x00000000	0.0
82	0x00000000	0.0
83	0x00000000	0.0
84	0x00000000	0.0
85	0x00000000	0.0
86	0x00000000	0.0
87	0x00000000	0.0
88	0x00000000	0.0
89	0x00000000	0.0
90	0x00000000	0.0
91	0x00000000	0.0
92	0x00000000	0.0
93	0x00000000	0.0
94	0x00000000	0.0
95	0x00000000	0.0
96	0x00000000	0.0
97	0x00000000	0.0
98	0x00000000	0.0
99	0x00000000	0.0
100	0x00000000	0.0
101	0x00000000	0.0
102	0x00000000	0.0
103	0x00000000	0.0
104	0x00000000	0.0
105	0x00000000	0.0
106	0x00000000	0.0
107	0x00000000	0.0
108	0x00000000	0.0
109	0x00000000	0.0
110	0x00000000	0.0
111	0x00000000	0.0
112	0x00000000	0.0
113	0x00000000	0.0
114	0x00000000	0.0
115	0x00000000	0.0
116	0x00000000	0.0
117	0x00000000	0.0
118	0x00000000	0.0
119	0x00000000	0.0
120	0x00000000	0.0
121	0x00000000	0.0
122	0x00000000	0.0
123	0x00000000	0.0
124	0x00000000	0.0
125	0x00000000	0.0
126	0x00000000	0.0
127	0x00000000	0.0
128	0x00000000	0.0
129	0x00000000	0.0
130	0x00000000	0.0
131	0x00000000	0.0
132	0x00000000	0.0
133	0x00000000	0.0
134	0x00000000	0.0
135	0x00000000	0.0
136	0x00000000	0.0
137	0x00000000	0.0
138	0x00000000	0.0
139	0x00000000	0.0
140	0x00000000	0.0
141	0x00000000	0.0
142	0x00000000	0.0
143	0x00000000	0.0
144	0x00000000	0.0
145	0x00000000	0.0
146	0x00000000	0.0
147	0x00000000	0.0
148	0x00000000	0.0
149	0x00000000	0.0
150	0x00000000	0.0
151	0x00000000	0.0
152	0x00000000	0.0
153	0x00000000	0.0
154	0x00000000	0.0
155	0x00000000	0.0
156	0x00000000	0.0
157	0x00000000	0.0
158	0x00000000	0.0
159	0x00000000	0.0
160	0x00000000	0.0
161	0x00000000	0.0
162	0x00000000	0.0
163	0x00000000	0.0
164	0x00000000	0.0
165	0x00000000	0.0
166	0x00000000	0.0
167	0x00000000	0.0
168	0x00000000	0.0
169	0x00000000	0.0
170	0x00000000	0.0
171	0x00000000	0.0
172	0x00000000	0.0
173	0x00000000	0.0
174	0x00000000	0.0
175	0x00000000	0.0
176	0x00000000	0.0
177	0x00000000	0.0
178	0x00000000	0.0
179	0x00000000	0.0
180	0x00000000	0.0
181	0x00000000	0.0
182	0x00000000	0.0
183	0x00000000	0.0
184	0x00000000	0.0
185	0x00000000	0.0
186	0x00000000	0.0
187	0x00000000	0.0
188	0x00000000	0.0
189	0x00000000	0.0
190	0x00000000	0.0
191	0x00000000	0.0
192	0x00000000	0.0
193	0x00000000	0.0
194	0x00000000	0.0
195	0x00000000	0.0
196	0x00000000	0.0
197	0x00000000	0.0
198	0x00000000	0.0
199	0x00000000	0.0
200	0x00000000	0.0
201	0x00000000	0.0
202	0x00000000	0.0
203	0x00000000	0.0
204	0x00000000	0.0
205	0x00000000	0.0
206	0x00000000	0.0
207	0x00000000	0.0
208	0x00000000	0.0
209	0x00000000	0.0
210	0x00000000	0.0
211	0x00000000	0.0
212	0x00000000	0.0
213	0x00000000	0.0
214	0x00000000	0.0
215	0x00000000	0.0
216	0x00000000	0.0
217	0x00000000	0.0
218	0x00000000	0.0
219	0x00000000	0.0
220	0x00000000	0.0
221	0x00000000	0.0
222	0x00000000	0.0
223	0x00000000	0.0
224	0x00000000	0.0
225	0x00000000	0.0
226	0x00000000	0.0
227	0x00000000	0.0
228	0x00000000	0.0
229	0x00000000	0.0
230	0x00000000	0.0
231	0x00000000	0.0
232	0x00000000	0.0
233	0x00000000	0.0
234	0x00000000	0.0
235	0x00000000	0.0
236	0x00000000	0.0
237	0x00000000	0.0
238	0x00000000	0.0
239	0x00000000	0.0
240	0x00000000	0.0
241	0x00000000	0.0
242	0x00000000	0.0
243	0x00000000	0.0
244	0x00000000	0.0
245	0x00000000	0.0
246	0x00000000	0.0
247	0x00000000	0.0
248	0x00000000	0.0
249	0x00000000	0.0
250	0x00000000	0.0
251	0x00000000	0.0
252	0x00000000	0.0
253	0x00000000	0.0
254	0x00000000	0.0
255	0x00000000	0.0
