checkpoints/mlptest/model6_4500.pt (torch, 197451 bytes, 9 tensors)

stack.0.weight f4 [128, 17]
0	0xbdc220a6	-0.094788834
1	0xbe573744	-0.21017176
2	0x3cc346f5	0.023837546
3	0x3e65646c	0.22401589
4	0x3e1afcfc	0.15135568
5	0xbe389b67	-0.18028031
6	0xbe499038	-0.19683921
7	0xbd3ba283	-0.04580928
8	0x3e0f7e64	0.14013058
9	0xbe100963	-0.14066081
10	0x3e446d4c	0.19182318
11	0x3cc65239	0.024209129
12	0x3e18639b	0.14881746
13	0x3de6b1d9	0.112643905
14	0x3e6b3026	0.22967586
15	0x3ca78b36	0.020452123
16	0xbe776b0c	-0.24161929
17	0x3e55e67d	0.20888706
18	0xbe530653	-0.20607881
19	0x3dc14570	0.09437072
20	0x3db3bbaa	0.087760285
21	0x3e2ef2cd	0.17084809
22	0x3d63f473	0.055653047
23	0xbd8fa58c	-0.070139974
24	0xbe20d019	-0.15704383
25	0xbd3ee8eb	-0.046608847
26	0xbdb86315	-0.090032734
27	0x3e3888dc	0.18020958
28	0x3e797e32	0.24364546
29	0xbf1f5aab	-0.62247723
30	0xbef1e95e	-0.47248358
31	0xbe33302a	-0.17498842
32	0x3efc1414	0.49234068
33	0x3b623381	0.0034515562
34	0xbda0f69a	-0.078595355
35	0x3e32bede	0.17455623
36	0x3db45f28	0.08807212
37	0xbe01a6ce	-0.12661287
38	0x3daa565a	0.083172515
39	0x3d6bd40f	0.05757528
40	0xbe37191d	-0.17880674
41	0x3d13b7b2	0.036063857
42	0x3e00bdc0	0.12572384
43	0x3d359890	0.044334948
44	0x3e64c9c0	0.22342587
45	0x3e46ad1d	0.19401975
46	0x3df95b40	0.12175608
47	0x3d0b7308	0.03404525
48	0x3e1582fd	0.1460075
49	0xbe3135ac	-0.1730563
50	0xbcca90ef	-0.024727313
51	0xbe0753d5	-0.13215573
52	0xbd8bb3f4	-0.06821433
53	0xbc316a6f	-0.010828598
54	0xbe43d05b	-0.1912245
55	0x3e03d697	0.12874828
56	0x3d531f46	0.051543497
57	0xbe51f946	-0.20505247
58	0xbab9d274	-0.00141771
59	0xbdb8cf13	-0.09023871
60	0x3c02e954	0.0079902
61	0xbe2bcdbb	-0.16777699
62	0x3e548521	0.2075391
63	0x3d4ddd53	0.0502599
64	0x3e6bf572	0.23042849
65	0x3da15a49	0.07878549
66	0xbe39fa27	-0.18161832
67	0x3d55d6ed	0.052206922
68	0x3e835bff	0.25656125
69	0xbd9f27d8	-0.077712715
70	0x3e9151c2	0.2838269
71	0x3e3e1726	0.18563518
72	0x39d5d323	0.00040783835
73	0x3dbf078b	0.093276106
74	0xbd1788e5	-0.036995787
75	0xbd6c71b4	-0.057725623
76	0x3e62955f	0.22127293
77	0x3e364c8e	0.17802641
78	0x3d406986	0.046975635
79	0x3e38ef92	0.18060139
80	0x3d8a9bee	0.067680225
81	0xbde515a0	-0.11185765
82	0xbd9f6657	-0.07783192
83	0xbe2ea462	-0.17054895
84	0x3e4aa8f5	0.19791014
85	0xbd93e86b	-0.072220646
86	0xbe3daccd	-0.1852295
87	0xbce58888	-0.028019205
88	0xbd851cbf	-0.064996235
89	0xbe5c49b4	-0.2151249
90	0xbd08d263	-0.033403765
91	0xbd161302	-0.03663922
92	0xbe0d44a6	-0.13795719
93	0xbddc3c5a	-0.10753699
94	0xbe0c6e35	-0.13713916
95	0x3e6ea208	0.23303998
96	0xbca5ffa3	-0.020263499
97	0x3e5ac502	0.21364215
98	0xbc142e26	-0.009044206
99	0x3e416d34	0.18889314
100	0xbe45560b	-0.19271104
101	0x3cc3c523	0.023897713
102	0xbe02d4ad	-0.12776442
103	0xbe350bb0	-0.1768024
104	0x3d946af7	0.072469644
105	0x3d867a4f	0.06566297
106	0x3dd7b17a	0.10531898
107	0xbbe3a609	-0.006947283
108	0xbdc0814a	-0.0939966
109	0xbc4f464f	-0.01265104
110	0x3d819147	0.063265376
111	0x3e4ca4f2	0.19984797
112	0xbcc60538	-0.02417241
113	0xbe45db85	-0.19322021
114	0xbd849666	-0.06473999
115	0xbe329c67	-0.17442475
116	0x3e753390	0.23945451
117	0xbe2dc109	-0.16968168
118	0xbe160029	-0.14648499
119	0xbe643746	-0.2228671
120	0xbe4bf720	-0.1991849
121	0x3ddf3869	0.10899431
122	0x3e4844e1	0.19557525
123	0xbe6f0418	-0.23341405
124	0x3cd2999b	0.02570801
125	0xbe3e74ad	-0.18599196
126	0x3d9d5a7c	0.07683274
127	0xbd4d9542	-0.05019117
128	0x3dddc1cc	0.108279794
129	0x3c106b0a	0.008814583
130	0x3b82665c	0.0039794873
131	0xbdaf3706	-0.08555417
132	0x3e1cb29a	0.15302506
133	0xbe540080	-0.20703316
134	0xbd9e6ec9	-0.07735974
135	0x3da01394	0.07816234
136	0xbc7ef6c3	-0.015561762
137	0xbc903c1c	-0.017606787
138	0xbd592a61	-0.05301893
139	0xbe77fa5b	-0.24216597
140	0xbe533453	-0.20625429
141	0xbe13e8c5	-0.14444263
142	0xbe53c25b	-0.2067961
143	0x3db3e3bd	0.08783672
144	0x3e1450f2	0.14484003
145	0xbe5165bd	-0.20448966
146	0xbe0106da	-0.1260027
147	0xbe495431	-0.19661023
148	0x3e14f915	0.14548142
149	0xbe132c37	-0.14372335
150	0xbd49ca77	-0.04926535
151	0x3e495310	0.19660592
152	0xbdd9abe1	-0.106284864
153	0x3e40d127	0.18829785
154	0x3ca2203f	0.019790767
155	0xbd71f72e	-0.05907362
156	0xbdd1ff96	-0.10253827
157	0x3d837beb	0.0642012
158	0x3d343fd8	0.0440062
159	0x3cb87e89	0.022521274
160	0xbd33f429	-0.04393402
161	0xbe5a1bc1	-0.2129965
162	0x3dd2fb0b	0.10301789
163	0x3dc70c20	0.097191095
164	0xbc50d34a	-0.012745688
165	0xbf379f00	-0.7172699
166	0xbf4f7074	-0.81030965
167	0xbf856b05	-1.0423285
168	0xbeae9f3b	-0.34105858
169	0xbf497030	-0.7868681
170	0xbe3314fd	-0.17488475
171	0xbe12b856	-0.14328131
172	0xbe36ffde	-0.17871043
173	0xbd8ac520	-0.0677588
174	0xbd78236a	-0.06058065
175	0x3d87ff05	0.06640438
176	0xbdb3831b	-0.08765241
177	0xbe68b9d5	-0.2272714
178	0x3c542f9d	0.012950805
179	0x3d83d97c	0.06437966
180	0xbd510783	-0.051032554
181	0x3e663471	0.22480942
182	0x3deed6f1	0.116620906
183	0x3e7414d9	0.23836078
184	0x3d6fefd0	0.058578312
185	0x3d3ada74	0.04561849
186	0x3d34d54a	0.04414872
187	0xbe0c2b6e	-0.13688442
188	0x3d896e72	0.06710519
189	0xbe186297	-0.14881359
190	0x3d98c581	0.07459546
191	0x3dbd772f	0.09251248
192	0xbd5c7c64	-0.053829566
193	0x3e0301c0	0.12793636
194	0x3d844801	0.06459046
195	0xbe548e00	-0.20757294
196	0xbe72b8b4	-0.23703271
197	0x3e5a64a7	0.21327458
198	0xbe6b733c	-0.22993177
199	0x3e2865f3	0.1644514
200	0xbda79d06	-0.08184247
201	0xbdb9bdfd	-0.090694405
202	0x3e60a5d0	0.21938252
203	0x3c5e4338	0.013565831
204	0xbcd8c91d	-0.026463086
205	0x3d12e2a1	0.03586066
206	0x3e15623e	0.14588258
207	0xbdfdeb5a	-0.123984054
208	0x3db57a6d	0.088612415
209	0x3e81f60f	0.2538304
210	0xbd8a1496	-0.06742208
211	0x3e5fb7d6	0.21847472
212	0x3e1d2cb8	0.1534909
213	0xbdfebd81	-0.12438489
214	0x3e3a3d11	0.18187357
215	0xbe33dd7b	-0.17564957
216	0x3d8877d2	0.06663479
217	0x3da2adbe	0.07943295
218	0xbd691e64	-0.05691375
219	0x3c0380d7	0.008026323
220	0xbe23cf83	-0.15997128
221	0x3e64c645	0.22341259
222	0xbd5fcb0e	-0.054637007
223	0xbd86d96e	-0.0658444
224	0xbda23a82	-0.07921316
225	0x3cce81df	0.025208412
226	0xbcfec756	-0.03110091
227	0x3d66f068	0.056381613
228	0xbe4ef2b4	-0.20209771
229	0x3dd97d6d	0.10619626
230	0x3da23992	0.07921137
231	0xbc03ab1c	-0.008036401
232	0x3e2ef48f	0.17085479
233	0x3decdca3	0.115655206
234	0x3de1b744	0.11021283
235	0xbd5f904a	-0.054580964
236	0xbd99ba08	-0.07506186
237	0x3e90a86c	0.28253496
238	0x3e6c16ce	0.23055574
239	0xbe180a25	-0.1484762
240	0x3d2f3c5b	0.04278217
241	0x3e4745fe	0.19460294
242	0x3e7498f1	0.23886468
243	0xbdf0b99b	-0.117541514
244	0xbcf36c73	-0.029714799
245	0x3e33f4b4	0.17573816
246	0xbd7af9ff	-0.06127357
247	0xbd76da15	-0.060266573
248	0x3d8bf1e5	0.06833247
249	0x3e386eec	0.18011063
250	0x3e21e14a	0.15808597
251	0x3e926106	0.28589648
252	0x3e057d84	0.13036162
253	0x3e604b62	0.21903756
254	0xbd88d3d4	-0.06681028
255	0x3dbb5750	0.09147513

stack.0.bias f4 [128]
0	0xbdaaa091	-0.08331407
1	0xbfc301e1	-1.5234948
2	0xbf2229e5	-0.63345176
3	0x3da6eb27	0.081503205
4	0xbebb98ff	-0.36640164
5	0x3e4ea4c7	0.20180045
6	0xbd4710fa	-0.048600174
7	0xbd077956	-0.0330747
8	0x3e0346e3	0.1282001
9	0x3d65f0d9	0.056137893
10	0xbe66c657	-0.22536598
11	0xbd0f1ab4	-0.034937575
12	0xbe9b1d79	-0.30295923
13	0xbea8e1f3	-0.32984886
14	0xbed55e8c	-0.41673696
15	0xbfd7467f	-1.6818389
16	0xbe25205c	-0.16125625
17	0xbf904082	-1.1269686
18	0xbfdcbc78	-1.7245016
19	0x3f2b9bfe	0.670349
20	0xbf0135cb	-0.50472707
21	0x3ed0a7c4	0.40752995
22	0xbda84a83	-0.08217337
23	0x3f15aab8	0.5846362
24	0xbe4e1f72	-0.20129183
25	0xbf1fe02c	-0.62451434
26	0xbf186ed9	-0.5954414
27	0x3f2ca910	0.6744547
28	0xbed2f2ef	-0.4120097
29	0x3f8723c0	1.0557785
30	0x3ec4c59f	0.38432023
31	0xbe966027	-0.29370233
32	0x3d65eed2	0.05613596
33	0xbe39726c	-0.18110055
34	0x3e33df31	0.1756561
35	0x3e9a9f0a	0.30199462
36	0xbf003f21	-0.5009633
37	0x3e0ba614	0.13637573
38	0x3e95ef36	0.29284066
39	0x3d799850	0.060936272
40	0x3f4fa99e	0.8111819
41	0x3f568de3	0.8381025
42	0xbe89d656	-0.26921338
43	0xbe38f3ee	-0.18061802
44	0xbedc81fe	-0.43067926
45	0x3da6d599	0.08146209
46	0xbea03f85	-0.31298462
47	0x3dd05a6b	0.10173496
48	0x3d5143c8	0.05109003
49	0xbe90a400	-0.28250122
50	0xbbb8a021	-0.005634323
51	0xbd1bc0ca	-0.038025655
52	0xbd208659	-0.039190624
53	0xbf0703df	-0.5274028
54	0xbda22864	-0.0791786
55	0xbe1f3b52	-0.15549973
56	0xbe218205	-0.15772255
57	0xbeb834ab	-0.35977682
58	0xbed9f972	-0.42573124
59	0x3f4a8122	0.7910329
60	0xbe86bff2	-0.26318318
61	0xbf2831ba	-0.65700877
62	0x3e326fee	0.1742551
63	0xbf2f331d	-0.6843737
64	0xbde9d617	-0.114177875
65	0xbdfa1f45	-0.122129954
66	0xbc7952e6	-0.015217518
67	0xbefd1a09	-0.49433926
68	0xbe437113	-0.19086103
69	0x3f1681d3	0.58791846
70	0xbe31ad2b	-0.17351215
71	0x3ddad75c	0.10685608
72	0xbf28bfed	-0.65917856
73	0xbeb24093	-0.3481489
74	0xbfd9faa6	-1.7029617
75	0x3f364d6a	0.71211874
76	0x3f124fb0	0.57152843
77	0xbdaedc8f	-0.08538162
78	0xbd7b3cc7	-0.06133726
79	0xbece9947	-0.40351316
80	0xbf0d3adc	-0.5516794
81	0xbf0ff3a7	-0.5623116
82	0xbea657dc	-0.32488906
83	0x3eba0135	0.36329046
84	0xbe43a5a7	-0.1910616
85	0xbe69216c	-0.22766656
86	0xbf30c363	-0.69048136
87	0x3f261beb	0.6488635
88	0xbed9dad1	-0.42549756
89	0x3cd76079	0.026291119
90	0x3d9f78c2	0.077867046
91	0xbfcbc7a8	-1.5920305
92	0x3e2ce5ad	0.1688449
93	0x3e65ccbc	0.22441381
94	0xbf13f288	-0.5779195
95	0xbf089f50	-0.5336809
96	0x3da73259	0.081639
97	0x3d1b7d67	0.03796139
98	0xbedfffae	-0.43749756
99	0xbee68135	-0.45020452
100	0x3f897b78	1.0740805
101	0x3d85e9da	0.06538744
102	0xbdc02c6b	-0.09383472
103	0xbece61ff	-0.4030914
104	0xbeabb884	-0.33539212
105	0xbeec8d47	-0.46201536
106	0x3f3c34b6	0.7351793
107	0xbf01ea73	-0.50748366
108	0xbf0014c5	-0.5003169
109	0xbd834e6a	-0.06411441
110	0xbdb3570c	-0.08756837
111	0x3e52ac4e	0.20573542
112	0xbfa9c7b4	-1.326407
113	0x3f135c80	0.5756302
114	0x3c9fc335	0.019502262
115	0x3efa4594	0.4888121
116	0x3eb9cc48	0.36288667
117	0xbe838199	-0.25684813
118	0xbf25d827	-0.6478295
119	0x3f3004a2	0.6875707
120	0xbdf41c6f	-0.11919486
121	0x3e5619b7	0.20908247
122	0xbe35504e	-0.17706415
123	0xbca01e4f	-0.019545702
124	0xbea63f8e	-0.32470363
125	0xbe964b63	-0.2935439
126	0xbc4edebf	-0.012626349
127	0xbe682711	-0.22671153

stack.2.weight f4 [1, 128]
0	0x3cdbc8cc	0.026829146
1	0x3e84d371	0.25942567
2	0x3d35eb2e	0.044413738
3	0xbdb19fa3	-0.086730264
4	0x3d3fbff4	0.04681392
5	0x3d51dfa4	0.05123867
6	0x3c738c1f	0.01486495
7	0x3d384ee2	0.044997104
8	0x3d8bf9ee	0.0683478
9	0xbeff8c18	-0.4991157
10	0xbd8d7ca4	-0.06908539
11	0x3d9b3954	0.07579294
12	0x3c9919cc	0.018689059
13	0x3cf39c60	0.029737651
14	0x3d991eb1	0.07476557
15	0x3fa034d8	1.2516127
16	0x3cd8922b	0.026436886
17	0x3f229c50	0.63519764
18	0x3f68a965	0.90883476
19	0xbd8eb857	-0.06968754
20	0x3e583f6e	0.21117947
21	0xbdae1fac	-0.08502135
22	0x3da7fd3f	0.082026
23	0xbdda70ad	-0.106660224
24	0x3d46ccbe	0.0485351
25	0x3e9d4445	0.30716148
26	0x3e443673	0.19161396
27	0xbc5329af	-0.012888356
28	0x3e636b37	0.22208868
29	0xbfaaf320	-1.3355446
30	0xbe1bcac1	-0.15214063
31	0xbf18e4ac	-0.59723926
32	0x3d0bc91e	0.034127347
33	0x3c8837ec	0.016628228
34	0x3daac3e6	0.08338146
35	0x3ee2100d	0.4415287
36	0x3d1b9b58	0.037989944
37	0xbd99c9ac	-0.07509169
38	0xbd3a2ee4	-0.045454875
39	0xbd39a0db	-0.04531942
40	0xbe8fc72b	-0.2808164
41	0xbe78ddd0	-0.24303365
42	0x3c95e10f	0.018295793
43	0x3d8bc24a	0.06824167
44	0x3e78fa41	0.24314214
45	0x3d503f00	0.05084133
46	0x3d8ae4f1	0.06781948
47	0xbf3ce6b1	-0.7378951
48	0x3e9e8b18	0.30965495
49	0x3dac9528	0.08426887
50	0xbd79c170	-0.060975492
51	0xbd3ff117	-0.04686078
52	0xbe85a4d7	-0.26102325
53	0x3db2d4bc	0.08731982
54	0xbd24d72e	-0.040244274
55	0xbd37a456	-0.044834457
56	0xbd6436b7	-0.055716243
57	0x3d290bfc	0.041271195
58	0x3d56d2fa	0.052447297
59	0x3f0b7b00	0.5448456
60	0x3f0fb3c8	0.561337
61	0x3e2cf703	0.16891102
62	0x3f342029	0.7036157
63	0xbf2518ba	-0.64490855
64	0xbd2a6c42	-0.04160715
65	0xbd421a6a	-0.04738847
66	0x3ed52c9f	0.41635606
67	0x3d833d06	0.06408124
68	0x3c76bba3	0.0150593845
69	0xbd9a8a0e	-0.07545863
70	0xbd4312a3	-0.047625195
71	0x3d9616f3	0.07328596
72	0x3df0ec85	0.117638625
73	0x3dec53ea	0.11539443
74	0x3f11fc8a	0.5702597
75	0x3aa154d3	0.0012308605
76	0xbe98de0a	-0.29856902
77	0x3cbe26c1	0.023211839
78	0x3db4b699	0.0882389
79	0x3eef9a95	0.46797624
80	0x3d8eeea3	0.0697911
81	0x3cafea90	0.021474153
82	0x3dc75b21	0.09734178
83	0xbd4f30b3	-0.050583553
84	0xbd7e546e	-0.062092237
85	0xbf4abb98	-0.79192495
86	0x3d96cdcd	0.07363472
87	0xbd9f09a7	-0.07765513
88	0x3df07d9f	0.1174271
89	0xbd823dd4	-0.06359449
90	0xbbf4a9ea	-0.0074665444
91	0x3fa3710a	1.2768872
92	0x3d2473d8	0.04014954
93	0xbdb231be	-0.08700894
94	0x3e0c2ba9	0.1368853
95	0x3cb97297	0.022637649
96	0xbea5dff5	-0.32397428
97	0xbd6a1f33	-0.05715866
98	0x3dfb0460	0.12256694
99	0x3e0047e6	0.12527427
100	0xbf07dde0	-0.5307293
101	0xbd42c32d	-0.047549415
102	0x3d4684e7	0.04846659
103	0x3c4fc3fc	0.012681004
104	0x3da74de6	0.08169155
105	0x3d9ee7a3	0.07759025
106	0xbf10764d	-0.5643051
107	0xbf3c14d2	-0.7346927
108	0x3da96f60	0.08273196
109	0xbc60a34b	-0.013710807
110	0xbcc8fa6a	-0.02453347
111	0xbca61b12	-0.02027658
112	0x3f111f2f	0.5668821
113	0x3fd3ba48	1.6541224
114	0xbd94ca5c	-0.072651595
115	0x3e66cb3e	0.22538468
116	0xbef9412e	-0.4868254
117	0xbd33fb32	-0.04394073
118	0x3e63fffc	0.22265619
119	0x3c008663	0.00784454
120	0xbb0b97da	-0.0021300227
121	0x3d265171	0.040605012
122	0xbccb6599	-0.024828719
123	0x3da4ca80	0.08046436
124	0x3dbcbdf7	0.092159204
125	0x3e880807	0.26568624
126	0x3c536e1b	0.012904669
127	0x3dc9470a	0.09828003

exp_avg f4 [128, 17]
0	0x00000000	0.0
1	0x00000000	0.0
2	0x00000000	0.0
3	0x00000000	0.0
4	0x00000000	0.0
5	0x00000000	0.0
6	0x00000000	0.0
7	0x00000000	0.0
8	0x00000000	0.0
9	0x00000000	0.0
10	0x00000000	0.0
11	0x00000000	0.0
12	0x00000000	0.0
13	0x00000000	0.0
14	0x00000000	0.0
15	0x00000000	0.0
16	0x00000000	0.0
17	0xbd0022e3	-0.03128327
18	0xbc43a2b2	-0.011940645
19	0xbbc6f342	-0.006071479
20	0xbc01b987	-0.007917768
21	0xbc4e2c25	-0.012583767
22	0xbca085d9	-0.019595074
23	0xbcf4178c	-0.029796384
24	0xbc493271	-0.012280093
25	0xbc40a29e	-0.011757521
26	0xbc2f84a2	-0.0107127745
27	0xbc2f2c13	-0.01069166
28	0xbc22fc62	-0.009947868
29	0xbaf70eae	-0.0018848979
30	0xbaebe5b4	-0.0017997534
31	0xbac5e6e2	-0.0015098716
32	0xbad0cd6f	-0.0015930365
33	0xba91786c	-0.0011098511
34	0xbaecb51e	-0.0018059348
35	0xbba3ed0d	-0.005002624
36	0xb9068bbb	-0.0001283129
37	0xb98c8d6d	-0.0002680825
38	0xb990e84b	-0.00027638892
39	0xb9d06f3b	-0.00039755725
40	0xbacb03db	-0.001548882
41	0xbba0d47e	-0.0049081435
42	0xbba19b51	-0.0049318452
43	0xbb9ab956	-0.004721801
44	0xbb7fe14d	-0.0039044202
45	0xbb8cf43e	-0.004301577
46	0xba053857	-0.00050819427
47	0xba06622f	-0.0005126325
48	0xb9e50cd8	-0.00043687853
49	0xb9ae7392	-0.00033273973
50	0xb895e238	-7.14701e-05
51	0x00000000	0.0
52	0x00000000	0.0
53	0x00000000	0.0
54	0x00000000	0.0
55	0x00000000	0.0
56	0x00000000	0.0
57	0x00000000	0.0
58	0x00000000	0.0
59	0x00000000	0.0
60	0x00000000	0.0
61	0x00000000	0.0
62	0x00000000	0.0
63	0x00000000	0.0
64	0x00000000	0.0
65	0x00000000	0.0
66	0x00000000	0.0
67	0x00000000	0.0
68	0xbbf4d22b	-0.007471343
69	0xbbde7f16	-0.006790052
70	0xba605520	-0.00085576065
71	0xbadeb8f7	-0.001699238
72	0xbb3be515	-0.002867048
73	0xbb81fedd	-0.0039671496
74	0xbbe67a95	-0.007033656
75	0xbbdb1b52	-0.0066866064
76	0xbbd8e639	-0.0066192416
77	0xbbd0dea9	-0.0063741994
78	0xbbb351ef	-0.0054724137
79	0xbbc052fc	-0.0058692675
80	0xba3f87fb	-0.00073063344
81	0xba3b875d	-0.00071536546
82	0xba2378dc	-0.0006235966
83	0xba0319e9	-0.00050011143
84	0xb967487a	-0.00022056876
85	0x00000000	0.0
86	0x00000000	0.0
87	0x00000000	0.0
88	0x00000000	0.0
89	0x00000000	0.0
90	0x00000000	0.0
91	0x00000000	0.0
92	0x00000000	0.0
93	0x00000000	0.0
94	0x00000000	0.0
95	0x00000000	0.0
96	0x00000000	0.0
97	0x00000000	0.0
98	0x00000000	0.0
99	0x00000000	0.0
100	0x00000000	0.0
101	0x00000000	0.0
102	0x00000000	0.0
103	0x00000000	0.0
104	0x00000000	0.0
105	0x00000000	0.0
106	0x00000000	0.0
107	0x00000000	0.0
108	0x00000000	0.0
109	0x00000000	0.0
110	0x00000000	0.0
111	0x00000000	0.0
112	0x00000000	0.0
113	0x00000000	0.0
114	0x00000000	0.0
115	0x00000000	0.0
116	0x00000000	0.0
117	0x00000000	0.0
118	0x00000000	0.0
119	0x00000000	0.0
120	0x00000000	0.0
121	0x00000000	0.0
122	0x00000000	0.0
123	0x00000000	0.0
124	0x00000000	0.0
125	0x00000000	0.0
126	0x00000000	0.0
127	0x00000000	0.0
128	0x00000000	0.0
129	0x00000000	0.0
130	0x00000000	0.0
131	0x00000000	0.0
132	0x00000000	0.0
133	0x00000000	0.0
134	0x00000000	0.0
135	0x00000000	0.0
136	0x00000000	0.0
137	0x00000000	0.0
138	0x00000000	0.0
139	0x00000000	0.0
140	0x00000000	0.0
141	0x00000000	0.0
142	0x00000000	0.0
143	0x00000000	0.0
144	0x00000000	0.0
145	0x00000000	0.0
146	0x00000000	0.0
147	0x00000000	0.0
148	0x00000000	0.0
149	0x00000000	0.0
150	0x00000000	0.0
151	0x00000000	0.0
152	0x00000000	0.0
153	0x3d52e607	0.051488902
154	0x3cde20a0	0.027115166
155	0x3c0792d4	0.008274753
156	0x3c44ba99	0.012007379
157	0x3ca01e53	0.01954571
158	0x3cfa5c4a	0.030561585
159	0x3d46923b	0.0484793
160	0x3ce03968	0.027371123
161	0x3cd9fa27	0.02660854
162	0x3ccdf331	0.025140377
163	0x3cb4c24b	0.022065302
164	0x3c9b6e81	0.01897359
165	0x3b541041	0.003235832
166	0x3b506600	0.0031799078
167	0x3b31bdcb	0.0027121182
168	0x3b064a3c	0.0020491024
169	0x3adb7bc0	0.0016745254
170	0x00000000	0.0
171	0x00000000	0.0
172	0x00000000	0.0
173	0x00000000	0.0
174	0x00000000	0.0
175	0x00000000	0.0
176	0x00000000	0.0
177	0x00000000	0.0
178	0x00000000	0.0
179	0x00000000	0.0
180	0x00000000	0.0
181	0x00000000	0.0
182	0x00000000	0.0
183	0x00000000	0.0
184	0x00000000	0.0
185	0x00000000	0.0
186	0x00000000	0.0
187	0x00000000	0.0
188	0x00000000	0.0
189	0x00000000	0.0
190	0x00000000	0.0
191	0x00000000	0.0
192	0x00000000	0.0
193	0x00000000	0.0
194	0x00000000	0.0
195	0x00000000	0.0
196	0x00000000	0.0
197	0x00000000	0.0
198	0x00000000	0.0
199	0x00000000	0.0
200	0x00000000	0.0
201	0x00000000	0.0
202	0x00000000	0.0
203	0x00000000	0.0
204	0xbb4167eb	-0.0029511403
205	0xbb2f0e7e	-0.002671152
206	0xb9b12b59	-0.00033792367
207	0xba2f727d	-0.00066927803
208	0xba94431a	-0.0011311502
209	0xbacdb672	-0.0015694632
210	0xbb360b2f	-0.0027777662
211	0xbb2c5f78	-0.002630202
212	0xbb2aa049	-0.0026035479
213	0xbb2458c8	-0.0025077332
214	0xbb0d0453	-0.002151747
215	0xbb17a5d2	-0.0023139608
216	0xb996ac96	-0.00028738816
217	0xb993900a	-0.00028145342
218	0xb980c56b	-0.0002456115
219	0xb94ea998	-0.0001970887
220	0xb8b3f991	-8.5818705e-05
221	0xbb9af666	-0.00472908
222	0xbb8dc5fe	-0.004326581
223	0xba0deb35	-0.0005413772
224	0xba8ce72c	-0.0010750047
225	0xbaed4028	-0.0018100785
226	0xbb245f59	-0.0025081246
227	0xbb91df67	-0.0044516805
228	0xbb8b9a4b	-0.0042603365
229	0xbb8a3585	-0.004217806
230	0xbb84ff47	-0.0040587517
231	0xbb6465b5	-0.0034850661
232	0xbb745ea5	-0.0037287858
233	0xb9f3e9c5	-0.00046522744
234	0xb9eee31f	-0.00045564116
235	0xb9cfc6f8	-0.0003963036
236	0xb9a68cff	-0.00031767038
237	0xb9129e74	-0.00013982673
238	0xbc43eedb	-0.011958803
239	0xbc324cfd	-0.010882613
240	0xbab38c25	-0.0013698383
241	0xbb3259f2	-0.0027214256
242	0xbb966a09	-0.004590277
243	0xbbd02387	-0.0063518914
244	0xbc387559	-0.011258447
245	0xbc2f9692	-0.010717051
246	0xbc2dd2e3	-0.010609361
247	0xbc27628c	-0.0102163665
248	0xbc0fba75	-0.008772482
249	0xbc1a1167	-0.009403563
250	0xba997a98	-0.0011709509
251	0xba964616	-0.0011464979
252	0xba82fa41	-0.0009992794
253	0xba521505	-0.00080139964
254	0xb9b9e850	-0.00035459036
255	0xbe28a06d	-0.16467448

exp_avg_sq f4 [128, 17]
0	0x00000000	0.0
1	0x00000000	0.0
2	0x00000000	0.0
3	0x00000000	0.0
4	0x00000000	0.0
5	0x00000000	0.0
6	0x00000000	0.0
7	0x00000000	0.0
8	0x00000000	0.0
9	0x00000000	0.0
10	0x00000000	0.0
11	0x00000000	0.0
12	0x00000000	0.0
13	0x00000000	0.0
14	0x00000000	0.0
15	0x00000000	0.0
16	0x00000000	0.0
17	0x3e9ad9c9	0.30244282
18	0x3d89527e	0.06705187
19	0x3b699ab7	0.0035645196
20	0x3cd31c6f	0.025770394
21	0x3d998222	0.07495524
22	0x3e156be8	0.14591944
23	0x3e92dfd4	0.28686392
24	0x3d888d29	0.06667549
25	0x3d841182	0.06448652
26	0x3d7f3ec7	0.06231573
27	0x3d77fc0b	0.0605431
28	0x3d72a5a8	0.059240013
29	0x3a5b7510	0.00083716307
30	0x3a3e6c68	0.00072640786
31	0x3a2741bb	0.0006380339
32	0x3a172965	0.0005766361
33	0x3a0c746e	0.00053579255
34	0x3c13fbad	0.009032172
35	0x3b6a5068	0.0035753492
36	0x38f01fdb	0.00011450025
37	0x3a4f0eec	0.0007898647
38	0x3b14ba20	0.0022693947
39	0x3b8fdfa6	0.0043906746
40	0x3c0a2cb9	0.008433514
41	0x3b686b58	0.0035464372
42	0x3b627d94	0.0034559714
43	0x3b554ace	0.0032545808
44	0x3b3c4d72	0.0028732684
45	0x3b1ff0b0	0.0024404936
46	0x383fc1ef	4.5718563e-05
47	0x382b2e10	4.0812476e-05
48	0x3805b3cc	3.187712e-05
49	0x37be6459	2.2696493e-05
50	0x37a48747	1.9613317e-05
51	0x00000000	0.0
52	0x00000000	0.0
53	0x00000000	0.0
54	0x00000000	0.0
55	0x00000000	0.0
56	0x00000000	0.0
57	0x00000000	0.0
58	0x00000000	0.0
59	0x00000000	0.0
60	0x00000000	0.0
61	0x00000000	0.0
62	0x00000000	0.0
63	0x00000000	0.0
64	0x00000000	0.0
65	0x00000000	0.0
66	0x00000000	0.0
67	0x00000000	0.0
68	0x3c410e4a	0.011783192
69	0x3b89b243	0.0042021587
70	0x39190b5f	0.00014595453
71	0x3a85b017	0.0010199574
72	0x3b40199c	0.002931214
73	0x3bba6286	0.0056880144
74	0x3c35075e	0.01104912
75	0x3b88997f	0.004168689
76	0x3b84d9b5	0.004054273
77	0x3b7a2d7c	0.0038174083
78	0x3b5db612	0.0033830446
79	0x3b3d98b2	0.0028930125
80	0x3863477f	5.4187603e-05
81	0x38498da4	4.8054048e-05
82	0x381e2789	3.7706955e-05
83	0x37e4d8d6	2.728069e-05
84	0x37c6fe5e	2.3721888e-05
85	0x00000000	0.0
86	0x00000000	0.0
87	0x00000000	0.0
88	0x00000000	0.0
89	0x00000000	0.0
90	0x00000000	0.0
91	0x00000000	0.0
92	0x00000000	0.0
93	0x00000000	0.0
94	0x00000000	0.0
95	0x00000000	0.0
96	0x00000000	0.0
97	0x00000000	0.0
98	0x00000000	0.0
99	0x00000000	0.0
100	0x00000000	0.0
101	0x00000000	0.0
102	0x00000000	0.0
103	0x00000000	0.0
104	0x00000000	0.0
105	0x00000000	0.0
106	0x00000000	0.0
107	0x00000000	0.0
108	0x00000000	0.0
109	0x00000000	0.0
110	0x00000000	0.0
111	0x00000000	0.0
112	0x00000000	0.0
113	0x00000000	0.0
114	0x00000000	0.0
115	0x00000000	0.0
116	0x00000000	0.0
117	0x00000000	0.0
118	0x00000000	0.0
119	0x00000000	0.0
120	0x00000000	0.0
121	0x00000000	0.0
122	0x00000000	0.0
123	0x00000000	0.0
124	0x00000000	0.0
125	0x00000000	0.0
126	0x00000000	0.0
127	0x00000000	0.0
128	0x00000000	0.0
129	0x00000000	0.0
130	0x00000000	0.0
131	0x00000000	0.0
132	0x00000000	0.0
133	0x00000000	0.0
134	0x00000000	0.0
135	0x00000000	0.0
136	0x00000000	0.0
137	0x00000000	0.0
138	0x00000000	0.0
139	0x00000000	0.0
140	0x00000000	0.0
141	0x00000000	0.0
142	0x00000000	0.0
143	0x00000000	0.0
144	0x00000000	0.0
145	0x00000000	0.0
146	0x00000000	0.0
147	0x00000000	0.0
148	0x00000000	0.0
149	0x00000000	0.0
150	0x00000000	0.0
151	0x00000000	0.0
152	0x00000000	0.0
153	0x3f3f1624	0.7464316
154	0x3de8c331	0.11365355
155	0x3c0c92a5	0.008579885
156	0x3d7b8a59	0.061411235
157	0x3e3e7d0f	0.18602394
158	0x3eb81398	0.3595245
159	0x3f367cdf	0.7128429
160	0x3de7287f	0.11287021
161	0x3ddc2a88	0.107503
162	0x3dd26ecd	0.1027504
163	0x3dcbaef8	0.09945482
164	0x3dc5f097	0.096650295
165	0x3ac61b7f	0.0015114396
166	0x3aa28657	0.0012399656
167	0x3a8aaec2	0.0010580646
168	0x3a7cabd7	0.0009638643
169	0x3a6d4f2d	0.00090526306
170	0x00000000	0.0
171	0x00000000	0.0
172	0x00000000	0.0
173	0x00000000	0.0
174	0x00000000	0.0
175	0x00000000	0.0
176	0x00000000	0.0
177	0x00000000	0.0
178	0x00000000	0.0
179	0x00000000	0.0
180	0x00000000	0.0
181	0x00000000	0.0
182	0x00000000	0.0
183	0x00000000	0.0
184	0x00000000	0.0
185	0x00000000	0.0
186	0x00000000	0.0
187	0x00000000	0.0
188	0x00000000	0.0
189	0x00000000	0.0
190	0x00000000	0.0
191	0x00000000	0.0
192	0x00000000	0.0
193	0x00000000	0.0
194	0x00000000	0.0
195	0x00000000	0.0
196	0x00000000	0.0
197	0x00000000	0.0
198	0x00000000	0.0
199	0x00000000	0.0
200	0x00000000	0.0
201	0x00000000	0.0
202	0x00000000	0.0
203	0x00000000	0.0
204	0x3afa38e5	0.0019090442
205	0x3a32c6d5	0.00068197894
206	0x37c68828	2.3666842e-05
207	0x392d36f3	0.00016519036
208	0x39f901b9	0.00047494264
209	0x3a72459a	0.0009241939
210	0x3aea9d86	0.0017899729
211	0x3a315a5a	0.00067654776
212	0x3a2c7d92	0.0006579991
213	0x3a22684b	0.00061953504
214	0x3a0fea15	0.0005489898
215	0x39f60cff	0.0004693046
216	0x37138996	8.793917e-06
217	0x3702dbf5	7.799817e-06
218	0x36cd568b	6.119551e-06
219	0x36947ef2	4.425522e-06
220	0x36811c8b	3.8478224e-06
221	0x3b9eb7b4	0.0048436765
222	0x3ae28f03	0.0017285052
223	0x387b94a4	5.9981496e-05
224	0x39dbd248	0.00041927607
225	0x3a9de431	0.0012046156
226	0x3b1938f5	0.0023379896
227	0x3b94d4c2	0.0045419643
228	0x3ae0bf18	0.0017146794
229	0x3ada94ee	0.0016676465
230	0x3acdc685	0.0015699422
231	0x3ab66035	0.001391417
232	0x3a9be091	0.0011892488
233	0x37baef8c	2.2284476e-05
234	0x37a5caad	1.9763911e-05
235	0x3782063d	1.5500113e-05
236	0x373c2b69	1.121578e-05
237	0x3723948c	9.750143e-06
238	0x3cf66bc2	0.03008068
239	0x3c2fc159	0.01072725
240	0x39c3595d	0.0003725988
241	0x3b2aa4bf	0.0026038138
242	0x3bf53388	0.0074829496
243	0x3c6de7fd	0.014520642
244	0x3ce71204	0.028206833
245	0x3c2e5afa	0.010641808
246	0x3c2991ad	0.010349673
247	0x3c1fa9bd	0.009745059
248	0x3c0d7f0f	0.00863625
249	0x3bf200e4	0.00738536
250	0x39110c59	0.00013832877
251	0x3900a132	0.00012267081
252	0x38c9dde1	9.625755e-05
253	0x38920d71	6.964326e-05
254	0x387e01bb	6.055993e-05
255	0x40d68944	6.704256

exp_avg f4 [128]
0	0x00000000	0.0
1	0xbad92d9c	-0.0016569379
2	0xba148722	-0.00056658883
3	0x00000000	0.0
4	0xba5053b5	-0.00079470436
5	0x00000000	0.0
6	0x00000000	0.0
7	0x00000000	0.0
8	0x00000000	0.0
9	0x3b48c924	0.0030637467
10	0x00000000	0.0
11	0x00000000	0.0
12	0xb9a3f9a1	-0.0003127577
13	0xba04b629	-0.00050625444
14	0xbaa6eb51	-0.0012734925
15	0xbc0aaee9	-0.008464553
16	0xb9f1cd00	-0.0004611984
17	0xbc311717	-0.010808728
18	0xbb565fcf	-0.0032710915
19	0x3a9c874e	0.0011942179
20	0xbafee10c	-0.0019445731
21	0x3ac1db99	0.0014790177
22	0x00000004	6e-45
23	0x3aeee247	0.0018225395
24	0xba579d43	-0.0008225033
25	0x3a5a93ee	0.0008338083
26	0xbb56356f	-0.0032685657
27	0x395a3d00	0.00020812824
28	0xbb160a57	-0.0022894347
29	0x3adad41a	0.0016695291
30	0x3b1bc11a	0.002376622
31	0xbb03d340	-0.0020114928
32	0x00000000	0.0
33	0x00000000	0.0
34	0x00000004	6e-45
35	0xbc066cc7	-0.0082046455
36	0xba28ba80	-0.0006436482
37	0x00000000	0.0
38	0x3a407924	0.000734227
39	0x00000000	0.0
40	0x3bc89cfa	0.0061222287
41	0x3bbeb694	0.005820105
42	0xb97a8501	-0.00023891406
43	0x00000000	0.0
44	0xbba8c1fe	-0.005150079
45	0x00000000	0.0
46	0xba97649d	-0.0011550371
47	0x3b06796a	0.0020519146
48	0x3ab7fe0e	0.0014037506
49	0xbabc6d29	-0.0014375794
50	0x00000000	0.0
51	0x00000004	6e-45
52	0xba422fd2	-0.00074076385
53	0xbac2ea7f	-0.0014870911
54	0x00000004	6e-45
55	0x00000000	0.0
56	0x00000004	6e-45
57	0xba3a0166	-0.00070955453
58	0xb9d5fb4f	-0.00040813765
59	0xbb955f6a	-0.0045584934
60	0xbc5585c2	-0.013032379
61	0xbb3cbd67	-0.0028799416
62	0xbb9d3861	-0.0047979807
63	0xb9561e14	-0.00020419835
64	0x00000004	6e-45
65	0x00000004	6e-45
66	0xbbf9317c	-0.007604776
67	0xba8ee949	-0.0010903265
68	0x00000000	0.0
69	0x3a995263	0.0011697527
70	0x00000004	6e-45
71	0x00000004	6e-45
72	0xbb036dc2	-0.0020054434
73	0xba9e201e	-0.0012064015
74	0xbbbe47b7	-0.005806889
75	0xb77dafbe	-1.5120893e-05
76	0x3b7a445d	0.003818772
77	0x00000000	0.0
78	0x00000000	0.0
79	0x3a5b5555	0.00083669025
80	0xba9b14b2	-0.0011831729
81	0xb9bd20c4	-0.000360733
82	0xb9690e61	-0.00022225968
83	0x3a584b24	0.0008250943
84	0x00000000	0.0
85	0x3c89d8a0	0.016826928
86	0xbaa4914a	-0.0012555507
87	0x3a800589	0.0009767275
88	0xbb031f6a	-0.0020007738
89	0x00000000	0.0
90	0x00000004	6e-45
91	0xbc3d0d15	-0.0115387635
92	0x00000000	0.0
93	0x00000000	0.0
94	0xbb18fa8c	-0.0023342697
95	0xb9c75c71	-0.00038025112
96	0xb94cd494	-0.00019534148
97	0x00000000	0.0
98	0xbb090da8	-0.002091268
99	0xbb0b55e5	-0.0021260914
100	0x3baa7924	0.0052024294
101	0x00000004	6e-45
102	0x00000000	0.0
103	0xb9755418	-0.00023396348
104	0xbab88844	-0.0014078696
105	0xbaadc4e3	-0.0013257529
106	0x3bb3d046	0.0054874746
107	0x3b96ee5e	0.0046060523
108	0xbab8b2ba	-0.0014091351
109	0x00000000	0.0
110	0x00000000	0.0
111	0x00000000	0.0
112	0xbaee85ca	-0.0018197831
113	0x3b36be2f	0.0027884354
114	0x00000000	0.0
115	0xbb050726	-0.002029845
116	0x3b433c19	0.002979046
117	0x39b23afb	0.0003399475
118	0xbb56de50	-0.0032786317
119	0xb98ecff1	-0.0002723928
120	0x00000000	0.0
121	0x00000000	0.0
122	0x00000000	0.0
123	0x00000000	0.0
124	0xbacdc54f	-0.0015699061
125	0xbb6cb693	-0.0036119565
126	0x00000000	0.0
127	0xba56216a	-0.0008168431

exp_avg_sq f4 [128]
0	0x00000000	0.0
1	0x3a62c70e	0.0008650877
2	0x38487ae8	4.779818e-05
3	0x00000000	0.0
4	0x386d6c63	5.6606146e-05
5	0x00000000	0.0
6	0x00000000	0.0
7	0x00000000	0.0
8	0x00000000	0.0
9	0x3acdc8d8	0.0015700115
10	0x00000000	0.0
11	0x00000000	0.0
12	0x371a1f3a	9.186386e-06
13	0x37c34fa4	2.3282897e-05
14	0x3917857b	0.00014450208
15	0x3c967b95	0.018369475
16	0x37994396	1.8270493e-05
17	0x3bd4b0c7	0.0064908
18	0x3c2ce023	0.010551485
19	0x390758e5	0.00012907719
20	0x3a922b56	0.0011151831
21	0x3947597d	0.00019011456
22	0x000001f4	7e-43
23	0x399cc69e	0.0002990262
24	0x3880f0e1	6.148383e-05
25	0x39f54d5e	0.00046787685
26	0x3a789f77	0.00094842113
27	0x369b1e8b	4.6229156e-06
28	0x3a9c1fd1	0.0011911337
29	0x39359d34	0.00017320068
30	0x3a01319d	0.00049283524
31	0x3aabff01	0.0013122262
32	0x00000000	0.0
33	0x00000000	0.0
34	0x000001f4	7e-43
35	0x3a829896	0.0009963687
36	0x381cd54e	3.7391954e-05
37	0x00000000	0.0
38	0x38631c98	5.4147647e-05
39	0x00000000	0.0
40	0x3ac129d0	0.0014737193
41	0x3a99813d	0.001171149
42	0x370b5cef	8.306683e-06
43	0x00000000	0.0
44	0x3aabddf9	0.0013112418
45	0x00000000	0.0
46	0x38f8c734	0.00011862666
47	0x39dc3ffa	0.00042009336
48	0x39b10ac3	0.0003376809
49	0x39407bed	0.00018356713
50	0x00000000	0.0
51	0x000001f4	7e-43
52	0x398b1d1c	0.00026533834
53	0x394efce1	0.00019739896
54	0x000001f4	7e-43
55	0x00000000	0.0
56	0x000001f4	7e-43
57	0x383ae3b0	4.4557906e-05
58	0x3613ac16	2.2004874e-06
59	0x3b818d0c	0.0039535817
60	0x3ba05fa3	0.0048942133
61	0x3a418cd5	0.00073833513
62	0x3b41c2ff	0.002956569
63	0x3b3be847	0.0028672384
64	0x000001f4	7e-43
65	0x000001f4	7e-43
66	0x39f35e17	0.00046418674
67	0x38ddd01a	0.00010576863
68	0x00000000	0.0
69	0x391b650e	0.00014819598
70	0x000001f4	7e-43
71	0x000001f4	7e-43
72	0x39bb4487	0.00035718476
73	0x39ab90e6	0.0003272362
74	0x3b1a7bda	0.0023572356
75	0x3333f0ae	4.1895582e-08
76	0x3ac53bca	0.0015047726
77	0x00000000	0.0
78	0x00000000	0.0
79	0x39c0f0d8	0.00036800536
80	0x3903a200	0.00012553483
81	0x374a3205	1.2051784e-05
82	0x38d7b556	0.00010285775
83	0x388d9106	6.750417e-05
84	0x00000000	0.0
85	0x3c5e7ee3	0.013580057
86	0x39134c50	0.00014047441
87	0x37e99695	2.7845885e-05
88	0x39ba854b	0.00035575996
89	0x00000000	0.0
90	0x000001f4	7e-43
91	0x3c61345c	0.013745394
92	0x00000000	0.0
93	0x00000000	0.0
94	0x39fdef1d	0.00048434074
95	0x37611d9a	1.3417937e-05
96	0x3b0a3221	0.0021087008
97	0x00000000	0.0
98	0x39cb785b	0.0003880885
99	0x39d51081	0.00040638822
100	0x3b579a4d	0.0032898367
101	0x000001f4	7e-43
102	0x00000000	0.0
103	0x368efb73	4.2612023e-06
104	0x3934ab51	0.00017229958
105	0x392321ae	0.00015557438
106	0x3bb12353	0.0054058223
107	0x3b1e8d1a	0.002419299
108	0x3938d80f	0.00017628096
109	0x00000000	0.0
110	0x00000000	0.0
111	0x00000000	0.0
112	0x3b843731	0.0040348996
113	0x3b2870f3	0.0025702089
114	0x00000000	0.0
115	0x3a3513a1	0.0006907527
116	0x3a99d159	0.0011735364
117	0x37e9ac3d	2.785597e-05
118	0x3aa19585	0.0012327885
119	0x34f556f3	4.569807e-07
120	0x00000000	0.0
121	0x00000000	0.0
122	0x00000000	0.0
123	0x00000000	0.0
124	0x3965cbd2	0.00021915071
125	0x3ae1327e	0.0017181186
126	0x00000000	0.0
127	0x3975e02e	0.00023448534

exp_avg f4 [1, 128]
0	0x00000000	0.0
1	0xbc4fe888	-0.012689717
2	0xbd8892af	-0.06668603
3	0x00000000	0.0
4	0xbde2a289	-0.11066157
5	0x00000000	0.0
6	0x00000000	0.0
7	0x00000000	0.0
8	0x00000000	0.0
9	0xbaa008dc	-0.0012209672
10	0x00000000	0.0
11	0x00000000	0.0
12	0xbd3e97d4	-0.046531513
13	0xbd3b725c	-0.04576336
14	0xbd85eebb	-0.06539675
15	0xbbed8105	-0.0072480463
16	0xbcda0c95	-0.026617328
17	0xbc9b47b8	-0.018955097
18	0xbc2ed0fc	-0.010669943
19	0xbd3dff95	-0.04638632
20	0xbda5e22f	-0.08099782
21	0xbd50b23f	-0.05095124
22	0x00000004	6e-45
23	0xbd36bd1b	-0.04461394
24	0xbd1a0e4a	-0.037611283
25	0xbb012e2b	-0.0019711356
26	0xbd717b7f	-0.058955666
27	0xbcedfd46	-0.029051434
28	0xbdb82a15	-0.089924015
29	0x38d9ed84	0.00010391607
30	0xbd9f20a7	-0.077699
31	0xbb78db56	-0.0037972531
32	0x00000000	0.0
33	0x00000000	0.0
34	0x00000004	6e-45
35	0xbc6a61e2	-0.014305564
36	0xbd452c44	-0.048137918
37	0x00000000	0.0
38	0xbd6f479a	-0.058417894
39	0x00000000	0.0
40	0xbd668779	-0.05628154
41	0xbd8bfae3	-0.06834962
42	0xbd07e13f	-0.033173796
43	0x00000000	0.0
44	0xbc98c0c7	-0.01864661
45	0x00000000	0.0
46	0xbdf2729a	-0.11838265
47	0xbbff09b7	-0.0077831405
48	0xbbc5001a	-0.006011975
49	0xbd6995a7	-0.057027485
50	0x00000000	0.0
51	0x80000004	-6e-45
52	0xbbb0c5da	-0.0053946795
53	0xbd8d7ff9	-0.069091745
54	0x80000004	-6e-45
55	0x00000000	0.0
56	0x80000004	-6e-45
57	0xbd3aa0e4	-0.045563594
58	0xbab110c1	-0.0013509021
59	0xbcc4f7a3	-0.024043864
60	0xbcc5c26b	-0.024140557
61	0xbd8c20ac	-0.06842169
62	0xbb0ec709	-0.0021786115
63	0xbc1af1f9	-0.009457105
64	0x80000004	-6e-45
65	0x80000004	-6e-45
66	0xbc412de3	-0.011790725
67	0xbdfa7e14	-0.12231079
68	0x00000000	0.0
69	0xbd3301dc	-0.043702945
70	0x80000004	-6e-45
71	0x00000004	6e-45
72	0xbd9b5797	-0.07585066
73	0xbd411b4b	-0.04714517
74	0xbc1c9891	-0.009557859
75	0xbc260844	-0.010133807
76	0xbce634d3	-0.02810136
77	0x00000000	0.0
78	0x00000000	0.0
79	0xba258850	-0.00063145626
80	0xbdb1619f	-0.08661198
81	0xbd6e8554	-0.05823262
82	0xbb9256d3	-0.0044659167
83	0xbd23ad9c	-0.03996049
84	0x00000000	0.0
85	0xbc460d35	-0.01208811
86	0xbd205e87	-0.03915265
87	0xbc8671b0	-0.016411632
88	0xbe0fe1e5	-0.14051016
89	0x00000000	0.0
90	0x80000004	-6e-45
91	0xbae7492c	-0.0017645708
92	0x00000000	0.0
93	0x00000000	0.0
94	0xbd7505b4	-0.059819892
95	0xbd7dbdf5	-0.061948735
96	0xbd8b024c	-0.067875475
97	0x00000000	0.0
98	0xbd8ac5c8	-0.06776005
99	0xbd6b2fce	-0.057418637
100	0xbd000a57	-0.03125986
101	0x80000004	-6e-45
102	0x00000000	0.0
103	0xbc937d62	-0.018004123
104	0xbdbb7d93	-0.09154811
105	0xbd81f118	-0.06344813
106	0xbcfe40b2	-0.031036709
107	0xbb1d6d67	-0.0024021508
108	0xbe019384	-0.12653929
109	0x00000000	0.0
110	0x00000000	0.0
111	0x00000000	0.0
112	0xbbff81cf	-0.007797457
113	0xb9a2e88d	-0.00031072312
114	0x00000000	0.0
115	0xbcbbce73	-0.022925591
116	0xbbb71bcd	-0.005588031
117	0x3b933a01	0.0044929986
118	0xbd1c9682	-0.038229473
119	0xbc060852	-0.008180695
120	0x00000000	0.0
121	0x00000000	0.0
122	0x00000000	0.0
123	0x00000000	0.0
124	0xbdf17b46	-0.11791091
125	0xbd8efa7c	-0.0698137
126	0x00000000	0.0
127	0xbd8cf134	-0.06881943

exp_avg_sq f4 [1, 128]
0	0x00000000	0.0
1	0x3db415a9	0.08793194
2	0x3e95ce57	0.29258987
3	0x00000000	0.0
4	0x3ff36ced	1.9017617
5	0x00000000	0.0
6	0x00000000	0.0
7	0x00000000	0.0
8	0x00000000	0.0
9	0x3ca0c2be	0.01962411
10	0x00000000	0.0
11	0x00000000	0.0
12	0x3ec106b3	0.37700424
13	0x3ecbffad	0.39843503
14	0x3f4bc445	0.7959636
15	0x3c3258b8	0.01088541
16	0x3e2faf1d	0.17156644
17	0x3d6b2dca	0.057416715
18	0x3d96ec14	0.07369247
19	0x3e2e4da1	0.170218
20	0x3fd37921	1.6521341
21	0x3e291eec	0.16515702
22	0x000001f4	7e-43
23	0x3e09533a	0.13410655
24	0x3e68a8a5	0.22720583
25	0x3d264f38	0.040602893
26	0x3f2b5e9a	0.66941226
27	0x3dd87fc8	0.10571247
28	0x400cbea4	2.1991358
29	0x37c34875	2.3279552e-05
30	0x3e804f3e	0.25060457
31	0x3c3153cd	0.010823202
32	0x00000000	0.0
33	0x00000000	0.0
34	0x000001f4	7e-43
35	0x3b0c267a	0.0021385239
36	0x3ecb30f9	0.396858
37	0x00000000	0.0
38	0x3e93513b	0.2877291
39	0x00000000	0.0
40	0x3e501c58	0.20323312
41	0x3e596f2a	0.21233812
42	0x3da9c658	0.08289784
43	0x00000000	0.0
44	0x3cbc47e0	0.022983491
45	0x00000000	0.0
46	0x403b3d4c	2.9256163
47	0x398fb732	0.00027411577
48	0x3ca8384c	0.020534657
49	0x3f8728eb	1.0559362
50	0x00000000	0.0
51	0x000001f4	7e-43
52	0x3d10b68e	0.035330348
53	0x3f77aba7	0.96746296
54	0x000001f4	7e-43
55	0x00000000	0.0
56	0x000001f4	7e-43
57	0x3ef2f04b	0.47448954
58	0x381f1a8d	3.793328e-05
59	0x3d7396f6	0.05947014
60	0x3c412ca1	0.0117904255
61	0x3f2edd65	0.6830657
62	0x3b4b4539	0.0031016602
63	0x3bb960a7	0.005657274
64	0x000001f4	7e-43
65	0x000001f4	7e-43
66	0x3a9fd64e	0.0012194605
67	0x40306c5f	2.7566144
68	0x00000000	0.0
69	0x3dcb1822	0.09916712
70	0x000001f4	7e-43
71	0x000001f4	7e-43
72	0x3f80294b	1.0012602
73	0x3f3befba	0.7341267
74	0x3d96503d	0.07339523
75	0x3c701066	0.014652347
76	0x3d1c7da4	0.038205758
77	0x00000000	0.0
78	0x00000000	0.0
79	0x38689247	5.544934e-05
80	0x3fe9ff62	1.8281062
81	0x3eec5665	0.46159664
82	0x3b6cfb12	0.0036160392
83	0x3df6dc70	0.12053764
84	0x00000000	0.0
85	0x3cd26e74	0.025687434
86	0x3f08f91b	0.53505105
87	0x3b64523f	0.0034839062
88	0x403b3b47	2.925493
89	0x00000000	0.0
90	0x000001f4	7e-43
91	0x3cc663ea	0.024217565
92	0x00000000	0.0
93	0x00000000	0.0
94	0x3f24b4e2	0.64338505
95	0x3ec0f699	0.3768814
96	0x3fb6e965	1.4289976
97	0x00000000	0.0
98	0x3f92b51b	1.1461519
99	0x3f63dc7d	0.89008313
100	0x3e911c9f	0.2834215
101	0x000001f4	7e-43
102	0x00000000	0.0
103	0x3d9504e0	0.072763205
104	0x3fffd561	1.9986993
105	0x3f94239d	1.1573368
106	0x3e8c0679	0.27348688
107	0x3b90a53a	0.004414228
108	0x403c369f	2.9408338
109	0x00000000	0.0
110	0x00000000	0.0
111	0x00000000	0.0
112	0x3d8e86a1	0.06959272
113	0x38139e7e	3.519514e-05
114	0x00000000	0.0
115	0x3d5d0b68	0.053965956
116	0x3b5dcebf	0.0033845154
117	0x3b38723e	0.0028144266
118	0x3eeedb59	0.46651724
119	0x3be95a5d	0.007121368
120	0x00000000	0.0
121	0x00000000	0.0
122	0x00000000	0.0
123	0x00000000	0.0
124	0x4018fa09	2.390261
125	0x3ea20681	0.31645587
126	0x00000000	0.0
127	0x3fbe07bf	1.4846114
