checkpoints/mlptest/model4_1250.pt (torch, 901267 bytes, 15 tensors)

stack.0.weight f4 [256, 17]
00000000: e5f1 243e ec13 cb3d 846a 9a3b 5953 073e
00000010: 9fce d23d a4d4 8abe 5075 2e3c b078 ce3d
00000020: d0b2 1bbb a8ab d4bd 2218 8e3d 7fed 09be
00000030: 5639 b13c 6abf bbbe 8251 cabe 5e33 dfbe
00000040: bb0b bbbe 0b11 f23d ff12 d2bc 72ce 2ebe
00000050: 9f28 933d 666b 873e 1f3f 51bd 67ef 48be
00000060: ba26 023e 8273 cd3d 9e2b 71bc de8a 6cbe
00000070: c78a eebd 1e75 973e b6cd 693e da58 5abe
00000080: b06e 20be d572 edbd a5a8 57be c662 df3d
00000090: a3d0 23bd 21db 1bbe 8596 e4be b84e bcbd
000000a0: fb99 39be 9411 6ebd 8d14 2ebe d6d4 8f3e
000000b0: a99a 1bbe d650 833e 805a 7d3e 654f 8c3d
000000c0: f9df 7ebe eb3d b43e e1f4 d43b 5d35 0c3d
000000d0: 4042 fabd 60e0 f53d 6c3d 4bbd 65ea 92bd
000000e0: d42f 653e 67f7 76be 9628 41be 7187 9bbd
000000f0: baf9 e1bd ee0f bdbd d35d 95bd 7cda 8ebd
00000100: 0553 bcbc 888b 24be 44bd 63be 7775 00be
00000110: 658b 19be 0318 3cbc 4526 a0bd 19b1 d63d
00000120: b3c1 3abd f1fd 273e 77fc 863d fd37 ffbd
00000130: a7ba 8d3d 915a 533e 738e 2e3d c2f5 5dbe
00000140: 34bb 7d3e be6d 413e 23d7 87be 1614 d2bd
00000150: acb3 a7be 9538 c93d 802b b53c 0cb3 003e
00000160: 5c38 233e ec82 f83d d259 74be ae8f 603e
00000170: b874 cc3d cdc8 2a3e 40f5 893c 86b6 e0bd
00000180: 63fd 0f3e 246b 95bc f899 87ba bfa5 093e
00000190: ee1b 993e 24c1 883e ebac 30be 874c 62be
000001a0: 14dd 16be 8e50 3e3c 6c38 ddbc 8cf8 71be
000001b0: ba50 003e e6bf 103e cb7d e43d 11f4 c7bd
000001c0: 0678 08be 04f7 1e3e 5b8f f7bd 2fe8 723e
000001d0: ae27 db3d 3d19 25be 2acd 9d3d ab34 5dbe
000001e0: 8b31 713e 1104 1bbf af12 3dbe 9afc 473d
000001f0: 34ed c3bd 67e6 bc3d 684b 0fbe 1c94 6d3e
00000200: ebe3 73bd be06 17be 8c6e 4cbd 98f0 9f3e
00000210: 61a6 203e 6794 c0bd 7f1d f8bd 135b 93be
00000220: dc5a 893d 4aa3 4f3d 4767 4b3e 66f4 223d
00000230: 9c2a 223d 89ae 5abe 1cfe 74be d9fd 75be
00000240: 1a2f db3a 7685 e1bd b1a6 31be e47b e4bd
00000250: 4330 5dbd a4e2 56bd 75fd 35bc 6912 a8bd
00000260: 1e5b d03d 2c7f 933b 66e4 5f3e 6f09 663e
00000270: dabc 213e 6522 c53c 22d8 7dbd de36 7d3c
00000280: ce07 cbbd aa62 213e a713 6cbe 23dc ccbd
00000290: 1ef0 9dbd c58b b63e 314e 29be 9bfd 4d3d
000002a0: 2e83 7fbe 691a 10be d5c8 81be d190 013e
000002b0: 8c75 803d 5b55 f83d da74 7c3d 304b eebc
000002c0: f716 ee3d e6d0 493e dda4 063e c396 123e
000002d0: 1c2b 69be 6bdb ad3c 5022 46be 66b5 c93d
000002e0: 4d73 8a3b 4394 40bd 52c0 09be 0050 113e
000002f0: 8b2a 61be b7ed 91bc f73c 34bd fa1f 0abd
00000300: 3d11 afbd 7cf0 88bc 8e41 56be 7074 1c3e
00000310: ba59 903d 8d84 3a3e f792 713d 705a 8abe
00000320: 7e11 57be 4b8d 563d e69c ff3d 57f9 aa3e
00000330: 3458 3bbe c220 33be 5d01 073e 2886 513e
00000340: d1c1 0abe 9a89 ac3d 1d13 333e 4eca dabd
00000350: a17d 2cbe 45fa 4cbe c2b4 69be ecae 9b3d
00000360: 13dc fc3d d7e0 72bd a90f c1bd 7b0e 0cbd
00000370: ad18 2bbe 4846 d1bd 3c03 843e fc29 21bd
00000380: 823d 42be 7961 623e c7ba a4be ebcb f43d
00000390: 6e9f ea3d 2e47 16be 0c21 263e 61ff 17be
000003a0: 183b 96bc 8161 85be 633d 83be 29f9 923a
000003b0: 2b5d c93c 9893 7dbe 2fec 7e3d b48b 3abe
000003c0: db23 8a3d d92f 943c 8732 44be 01c8 0d3e
000003d0: a3cc 033e 9d19 a5bc add1 b6bd 2316 2fbe
000003e0: 144c f4bd 3a38 d8bd bea6 5f3e df77 dd3e
000003f0: 1c1f 973e e65c 013f 4e39 be3e 1d10 4d3d
0.161079 0.09915909 0.0047124047 0.13215388 0.10293316 -0.27115357 0.010648087 0.10081613
-0.0023757704 -0.10384303 0.06938197 -0.13469504 0.021633785 -0.36669475 -0.3951531 -0.43593878
-0.36532387 0.11819657 -0.025643824 -0.1707094 0.07185482 0.26449126 -0.051085588 -0.19622575
0.12710086 0.10031797 -0.014719872 -0.23099849 -0.116475634 0.2958154 0.22832379 -0.21322957
-0.15667224 -0.11594168 -0.21060427 0.109075114 -0.039993893 -0.1522031 -0.44646087 -0.09194702
-0.18125145 -0.058122233 -0.17000027 0.28092068 -0.15195717 0.2564761 0.24741554 0.06851081
-0.24890126 0.3520349 0.0064989184 0.03423058 -0.122196674 0.12005687 -0.049619123 -0.071736135
0.22381526 -0.24117814 -0.18863139 -0.07594193 -0.1103396 -0.09231554 -0.07293286 -0.06975266
-0.022988806 -0.16068852 -0.22240168 -0.1254481 -0.14994581 -0.011480334 -0.07819799 0.104829974
-0.045594882 0.16405465 0.065911226 -0.12461851 0.06920367 0.20640017 0.04261632 -0.2167578
0.24778444 0.1888952 -0.26531324 -0.10257737 -0.32754266 0.09825245 0.022115469 0.12568301
0.15939468 0.12134346 -0.23862389 0.2192981 0.099832 0.16678162 0.016840577 -0.109723136
0.14061503 -0.018239565 -0.0010345569 0.13442133 0.2990412 0.26709855 -0.17253463 -0.22099505
-0.14732772 0.011615885 -0.027004443 -0.2362997 0.12530795 0.14135703 0.111568056 -0.09763349
-0.13327035 0.15523916 -0.1208789 0.23721384 0.10700928 -0.16122909 0.077051476 -0.21602122
0.23554055 -0.6055308 -0.18464158 0.048824884 -0.09566727 0.09223633 -0.13993609 0.2320103
-0.05954353 -0.14748666 -0.049910113 0.31238246 0.15688469 -0.094033055 -0.12115001 -0.28780422
0.06706783 0.050692834 0.19863616 0.039783858 0.039591417 -0.21355642 -0.2392506 -0.24022616
0.0016722411 -0.11011784 -0.17348744 -0.11156443 -0.054001104 -0.052462235 -0.011107792 -0.082066365
0.10173629 0.004501244 0.21864471 0.22464536 0.15794697 0.024064252 -0.0619737 0.015454976
-0.09913598 0.15760294 -0.23054372 -0.10002925 -0.07711814 0.3565351 -0.16533734 0.050290685
-0.24952385 -0.14072575 -0.25348535 0.126529 0.0627242 0.12125655 0.061634876 -0.029088587
0.11625474 0.19708595 0.13148828 0.14315324 -0.22770351 0.02122279 -0.19349027 0.09849052
0.0042251707 -0.047016393 -0.1345227 0.14190674 -0.21988885 -0.017813547 -0.044003453 -0.0337219
-0.0854821 -0.016716234 -0.20923445 0.15278792 0.07048364 0.18214627 0.058978047 -0.27022123
-0.21002766 0.05238084 0.12481098 0.33393356 -0.18295366 -0.17492965 0.13184114 0.20461333
-0.13550498 0.08424683 0.1748776 -0.10683118 -0.16844799 -0.20017345 -0.2282286 0.07601723
0.12346663 -0.059296455 -0.09426815 -0.034193497 -0.16708632 -0.10218483 0.25783718 -0.03934668
-0.18968776 0.22107495 -0.3217375 0.11952957 0.1145619 -0.1467559 0.16223544 -0.14843513
-0.018338725 -0.26050952 -0.25632772 0.0011213172 0.024580559 -0.24763334 0.06223696 -0.18217355
0.0674512 0.018089222 -0.191599 0.13845827 0.12871031 -0.020153815 -0.08926711 -0.17098288
-0.11928573 -0.10557599 0.21840951 0.43255517 0.29515922 0.50532377 0.37153095 0.050064195

stack.0.bias f4 [256]
00000000: 4a86 9e3e ff76 9e3e d311 a73e c38d 4b3e
00000010: 8f2c b03e c4d0 7ebd 0d8e 323e c149 923d
00000020: fb0d 0abe 3125 f73e 83f4 23be 46db 06bf
00000030: dff1 f03d d857 05be 28db 70be 22e8 803d
00000040: a797 cfbe 9559 a7bd 8048 a2bd e4a6 613c
00000050: 77a7 8d3d 5155 e4be f0fe a1bd 97a0 1d3c
00000060: 00a9 d53d ccc4 c5be 42e4 bc3e 0513 d9be
00000070: a918 6d3e bbc2 9a3e a7f3 ccbe 78f4 b5be
00000080: bdc2 3b3d db30 dabe 6c7a 6d3e fcfd d83e
00000090: 97f9 f3be fa5b 463e 39f6 223d cbd4 75be
000000a0: 34ce 173f cd68 a6bd a9f6 debe 4c5a 73bd
000000b0: 5f5a bb3e 4a3a ecbe 3780 f8bd 0062 c7bc
000000c0: a947 ddbd 1525 e9be 8d69 2f3d ce70 003d
000000d0: b240 3ebd fee8 203e 613f 16bf 6c30 6bbd
000000e0: 1d47 b7bd 16b3 abbd 3729 e7bc 9b3d 8a3c
000000f0: c200 b5be 5fa1 5c3e e386 0b3e e595 c3be
00000100: d1d6 57be 8d3d 1b3c 1db2 ef3e 05dc a6bd
00000110: 5eb1 76be 4584 f7bd d66c 9cbe 704a 50be
00000120: 62bf 8dbe 92c0 6cbd ec71 3ebe a477 14bf
00000130: 4d08 80be 5f6b babc bf8f 423e 4557 31be
00000140: 831a d0bd 72de fa3e 9bf9 4c3e 99fa c53e
00000150: 4d61 25be ad9b 98be 99df 4b3e 609d 513d
00000160: adba 80be 10d7 02bd d25d 14be a849 49be
00000170: d451 253e 6472 9d3e 51de b13e 4367 053f
00000180: b029 e03d 592d 54be 14ce 11be 0655 b5be
00000190: 4043 b0be b718 463e 6d5b 19be 801b 8bbe
000001a0: 2f5e 813e ab7a 6abe a434 373d d202 e5bd
000001b0: 8320 a93e a8e6 d83e caf5 803e 095a 563e
000001c0: f4bb 44be 9c78 4bbe e5b9 7ebb e02a f2be
000001d0: e5b0 b53d 9c55 3fbe 2bca d0bd 21b4 d3be
000001e0: f20e 033d f088 01bf c89e 1a3e 5aad 4b3e
000001f0: 7a7a fcbe af6a 16bd fb8c 2d3e 21ec 88be
00000200: bae4 e4bd ca4b e7be 7a34 35be afdc 2a3b
00000210: 4201 18be f2f2 a9be 26b0 933c 4618 a93e
00000220: 3bd1 373e 3e26 383e 5a40 943e 3370 05bf
00000230: 7964 bfbe f693 8c3e 5267 963e 73d2 d0be
00000240: abeb f4bd ee61 e53d 4679 4abe d74c a43d
00000250: 29a4 8abe 4994 503e 4a30 59be b9aa 953e
00000260: 36ac 173e 785c 2e3d ccbe 4dbe 1de7 19bf
00000270: 670f d2be 9e1f f4bd b014 ed3e 4681 e9be
00000280: 207b 4bbe b10c cf3e a6b5 8a3e 528c ffbd
00000290: 0ebd a2be 99ed debe 713e 173e 2e78 de3e
000002a0: f7da 97be 1d43 c7bd c233 8bba 6332 5e3e
000002b0: 9b82 003d a255 9dbc acd3 a3bd 7e2e 0abe
000002c0: 5ac1 383c d7de 9f3c 4d8a 0fbe 6c7f c3ba
000002d0: 4f24 f7be 3846 91be 3a24 83be 3546 ab3d
000002e0: bf48 c5be 0707 f4bc be4c 2a3e 3528 b4be
000002f0: 564e 753e 90d7 e6bd 5f97 05bd baa3 80be
00000300: c3fa eebc dac2 133e a6b4 83be 4a63 e73d
00000310: ee73 9c3e 80fc 6fbd 997b 003e fb41 c13d
00000320: da22 f83d 4041 e8bd 434c 4fbd 7155 6c3e
00000330: 5db2 533e 2430 debe e578 ddbd 96b0 41bd
00000340: 3ce9 5c3e 4185 4b3e 35de f2be a720 1dbc
00000350: 1056 52be 4548 383e 7040 a1be 700a 8d3d
00000360: 9a0a d7be a147 3fbe a575 0ebf b2a4 fabc
00000370: cc5d a73c 498a 45be 556b 75be cf03 96bd
00000380: 26d9 4fbe b149 07bf 5384 a63c b401 a7bd
00000390: 74a5 7ebd 5a04 ec3e f617 2b3e 4b64 d9be
000003a0: d1b8 d3be 6d57 0fbe c7fb 8abd ff3c 61be
000003b0: 3a52 e6bc baf0 1ebe b63d 4bbd 1136 d93d
000003c0: 7550 173e f7e6 febe 59fe aabe 0277 39be
000003d0: 2f5f ca3d 0e25 3f3d e718 b53d b4bd 1abf
000003e0: 9645 fc3e 3375 b8bc 3298 b1be e3cd 9cbc
000003f0: 48eb 5a3e 2425 0c3d be51 24be 5730 19be
0.3096183 0.30950162 0.32630786 0.19878297 0.34408996 -0.062210813 0.17437 0.07142974
-0.13481896 0.48270562 -0.16011243 -0.52678335 0.11764883 -0.13021791 -0.23521101 0.06294276
-0.4054539 -0.08171383 -0.079239845 0.0137727 0.06916707 -0.4459634 -0.079099536 0.009620807
0.10432625 -0.38626707 0.36892897 -0.42397323 0.23153938 0.30226693 -0.40029642 -0.35538077
0.045840014 -0.426154 0.23191231 0.42381275 -0.4765136 0.19371024 0.039785597 -0.24006955
0.59299016 -0.08125458 -0.43547562 -0.059412286 0.36592385 -0.4613822 -0.1213383 -0.024338722
-0.10804684 -0.45536104 0.04282527 0.03135758 -0.046448417 0.1571388 -0.5869046 -0.057419226
-0.08949111 -0.08383767 -0.028217895 0.016875079 -0.3535214 0.21545933 0.13625674 -0.38200298
-0.2107804 0.009475124 0.46815577 -0.08147434 -0.24091098 -0.12085775 -0.30551785 -0.20340896
-0.27685076 -0.057800837 -0.18598145 -0.5799506 -0.25006333 -0.022756277 0.19000147 -0.17318447
-0.10161307 0.48997837 0.20017092 0.38667753 -0.16150399 -0.2980627 0.19909514 0.051175475
-0.25142422 -0.03194338 -0.14488915 -0.19657004 0.16144496 0.30751336 0.34739926 0.5211069
0.10945451 -0.20720424 -0.14238769 -0.3541643 -0.34426308 0.19345365 -0.14976282 -0.27169418
0.2526717 -0.22898357 0.044727936 -0.111821786 0.33032617 0.42363477 0.25187522 0.20932783
-0.19212323 -0.19870228 -0.0038868126 -0.47298336 0.088716306 -0.18685001 -0.101948105 -0.41348365
0.031996675 -0.50599575 0.15099633 0.19890347 -0.49312192 -0.036722835 0.16948311 -0.26742652
-0.11176439 -0.4517501 -0.176958 0.002607148 -0.1484423 -0.33193165 0.01802833 0.33026332
0.17950909 0.17983338 0.28955346 -0.5212433 -0.37381342 0.27456635 0.29375702 -0.4078556
-0.119590126 0.11200319 -0.19772825 0.080224685 -0.2707837 0.20369066 -0.21209827 0.29231814
0.14811787 0.042568654 -0.20092314 -0.60118276 -0.41027376 -0.11920093 0.46304846 -0.4560644
-0.19871187 0.4043937 0.27091712 -0.12477936 -0.31784862 -0.43540648 0.14769913 0.43451065
-0.29659244 -0.09729598 -0.0010620283 0.21698909 0.031374555 -0.019205872 -0.079993576 -0.13494298
0.011276567 0.019515438 -0.14017601 -0.0014915294 -0.4826989 -0.28373885 -0.25613576 0.08363
-0.38532063 -0.029788507 0.16630837 -0.35186926 0.23955664 -0.11271584 -0.03261506 -0.25124913
-0.029172307 0.14429799 -0.2572376 0.11298235 0.30557197 -0.058590412 0.12547149 0.09436413
0.121160224 -0.113405704 -0.05060984 0.23079468 0.20673509 -0.43396103 -0.108140744 -0.047287546
0.21573347 0.19875051 -0.47435156 -0.009590304 -0.20540643 0.17996319 -0.31494474 0.068867564
-0.42000276 -0.18679668 -0.5564826 -0.030596111 0.020430468 -0.19291033 -0.23966725 -0.07324945
-0.2029768 -0.5284682 0.020326769 -0.08154622 -0.062169507 0.4609707 0.16708359 -0.4245933
-0.4135194 -0.13998194 -0.06786304 -0.21995924 -0.02811538 -0.15521517 -0.0496194 0.106060155
0.14776786 -0.49785587 -0.33397177 -0.18111804 0.09881436 0.046666197 0.0884264 -0.60445714
0.4927184 -0.022516822 -0.34686428 -0.019141143 0.21378815 0.034215108 -0.16046807 -0.14959846

stack.2.weight f4 [256, 256]
00000000: 2300 d33c 39a6 973d 6dd8 84bd 6856 2dbd
00000010: 8494 41bc 1267 d23b 6001 21bd aa94 6c3c
00000020: 6c85 fe3c a9c7 043d 7830 813d 96e7 eb3d
00000030: 60b8 303b 7ad0 87bd f4ad 49bd 8483 883d
00000040: bacf 673d 0514 bf3b 1172 d43b 18c5 3d3d
00000050: 3ea0 6abd 0589 053c 4fac 11bd 515e 1c3c
00000060: b8e7 25bd 4089 ec3c fe73 8fbc 14a9 673d
00000070: 5248 f0bb acbe 22bc 7bc7 103b fc01 b13d
00000080: 7067 b2bc 2f63 9bbc b267 99bc dab8 e43c
00000090: fd02 b5bc aedd 793e dd19 bd3d fa6f c9bc
000000a0: 38d1 4bbd 7d91 c23c df8f 833d ca08 09bd
000000b0: ca8a c4bc 1e3d b1bc 86a5 9e3c 409e ffbc
000000c0: 887f 10bd 3b6e b5bc a629 283d 6afd cfbc
000000d0: 5943 f93d 9075 063e c66c 573d 726e 413e
000000e0: 063e 413d a1b8 193d e1b0 70bd 7337 71bc
000000f0: b2e4 223c 03a9 7ebd 0610 643d 1b4e b93d
00000100: 7e60 743d 84c4 9d38 cf82 543d 7486 d33c
00000110: 1e93 bc3c d6e3 ad3c ebb7 02bd 0ac9 29bd
00000120: 3900 37bd 1dfb 38bc 31ca 473d 52f5 18ba
00000130: ca16 713d 740f 1b3d 4b45 29bd eeb6 6cbb
00000140: b092 c53c 5638 40be d005 883d 01c8 62bd
00000150: b0de 833d 3dff 633d 1cb2 f33c 3082 673d
00000160: e1e2 483d c454 d4bc 27d1 6a3d 6f2e 773b
00000170: 806f 58bd 094a 41bd d9e3 8ebc 0be8 3f3d
00000180: 313c 313d 8aa5 ab3d 85a0 8f3d 4ad5 283d
00000190: 6bd9 a6bc 2472 143c dca3 6d3d 2f55 853b
000001a0: ceb1 ff3c 3591 edbc 0092 403d 76be fa3d
000001b0: fc40 08bd 7965 303d 5756 debc a091 de3d
000001c0: 9f3d ef3c 3a3a 32bd 5614 6a3d ca8c 3d3d
000001d0: 8b63 983d cdd9 e1bb d558 c23d 8df6 ab3c
000001e0: eb70 9abd e832 61bc 162c bdbd 28b3 3f3d
000001f0: 340e cb3d 334f 9fbc daba dcbc 8b5a ddba
00000200: 6b37 9f3d dd8f 61bd 06a2 453c d71a 863d
00000210: f7b4 993d bb95 4e3e 50b8 673c 8ff2 4dbc
00000220: 1464 28bd 0918 bb3a e1ea 5abd 9b4b be3d
00000230: 52f0 c13b 36f8 c4bd 2211 55bc 1938 27bd
00000240: 553c 5bbe fe1c 163e 6479 c6bc b8d4 cabc
00000250: 0b18 c53d 6d8d 85bc 912e 15bd ceff 2dbd
00000260: 1e41 273d e06d bbbc dfe2 90bd f87a 123d
00000270: ea22 f53c 40f4 9e3c 1257 10bd ec82 763d
00000280: f0bd 883c 1ee7 04bc 026e 14bc 28a2 293a
00000290: 3226 973d b7da 373d 03ad 0abd 2a77 02bd
000002a0: e1d0 94bc d8de 7e3d 9a33 80bc 8815 e53c
000002b0: b6e3 5ebc 0322 d2bd 6e4c c53d 4856 203d
000002c0: e7a9 973d 8686 4f3d 5722 1dbc 4609 31b9
000002d0: f2c5 393d 522d 803d 7b7d 963c e0be 153d
000002e0: 5098 89bc a8e6 673d 3a7d 4f3d a6f9 3c3b
000002f0: cb73 fbbc e067 033e 8088 933a 1209 803c
00000300: eda8 14bd 9bdf e2bd 6db9 61bb e7a4 d23d
00000310: bb4b 48be 8b1c 483b 20e3 df3b 302d 10bd
00000320: 3250 6a3d 38f0 793d 59e1 6b3c 84e9 b4bc
00000330: 3fa4 1cbc ad12 70bd 12ee e5bb 1589 bc3d
00000340: 3ca3 9e3d 65f1 693d 6d44 d43c 1847 c0bc
00000350: 66fa 833c cccd 023d 6ebd 8a3d 6232 103e
00000360: 490d 8cb9 89e2 513d b573 2d3c 3e64 d23d
00000370: e8ae 9cbb 842d a43c 82a9 2d3d a1d7 473d
00000380: 605e 573c f6e7 783d 631c b13c 4ca2 81bc
00000390: 40a7 6abd c8f4 553d be99 f2bc 7e02 ad3d
000003a0: f77a e6bc d23f 57bd ec00 30bc 2168 00bc
000003b0: a4e0 06bc 7ab9 343d 61dd 70bd eca5 27bd
000003c0: 0c4c 2fbc 01bc dfbb 68e0 c3bc 7c9a 5d3b
000003d0: 8584 fa3b 90bc 96bd b5d2 b6bc f80a 863c
000003e0: 586e 10bc 7023 dabb 4997 0c3c 6306 b33d
000003f0: 2c3e 37bc 7e12 6b3d f940 70bd d8bc 943d
0.025756901 0.07404751 -0.064865924 -0.04231873 -0.011815194 0.0064209783 -0.039307952 0.014439741
0.03106948 0.032416973 0.06308073 0.11518781 0.0026965365 -0.066315606 -0.04923816 0.066657096
0.056594588 0.005831244 0.0064833243 0.04633054 -0.057281725 0.008150344 -0.035564717 0.009543971
-0.040504187 0.02887404 -0.017511364 0.05655773 -0.00733284 -0.009933155 0.0022091556 0.086429566
-0.021777838 -0.018968193 -0.018726204 0.027920175 -0.022096151 0.2440097 0.09233449 -0.024589527
-0.049760073 0.023751015 0.064239256 -0.033455648 -0.023991961 -0.021635588 0.019366037 -0.03120339
-0.035277873 -0.022147289 0.041055344 -0.025389392 0.12171049 0.13130784 0.05259397 0.18889788
0.04717829 0.03752959 -0.058762435 -0.014722693 0.0099422205 -0.0621729 0.055679344 0.090481006
0.059662335 7.522947e-05 0.05188256 0.025820948 0.02301937 0.021226805 -0.03191368 -0.04145149
-0.044677947 -0.011290339 0.04877681 -0.00058348954 0.058859624 0.037856534 -0.04132585 -0.0036119777
0.024117798 -0.1877149 0.06641734 -0.05536652 0.06438959 0.055663336 0.029748015 0.05652064
0.049044494 -0.025919326 0.05732837 0.0037716886 -0.05284071 -0.047189746 -0.01744263 0.046852153
0.043270294 0.083811834 0.070130385 0.041219033 -0.020367345 0.009060416 0.058017597 0.0040689926
0.031212714 -0.028999904 0.047014236 0.12243359 -0.0332651 0.043065522 -0.02714078 0.108676195
0.029204188 -0.04351256 0.0571483 0.046276845 0.07440861 -0.006892419 0.094895996 0.020991588
-0.07541069 -0.013745047 -0.09236924 0.046801716 0.099148184 -0.019446945 -0.026944567 -0.0016887946
0.07774242 -0.05506884 0.012062555 0.06548088 0.075052194 0.20174305 0.014143065 -0.0125700375
-0.041111067 0.0014274131 -0.053446654 0.09291764 0.005918541 -0.09617655 -0.013004573 -0.040824983
-0.21409734 0.14659497 -0.024227805 -0.024759635 0.096237265 -0.016302789 -0.036421362 -0.042480282
0.040833585 -0.02287954 -0.07074522 0.035761803 0.029923875 0.019403577 -0.035239287 0.06018345
0.016692132 -0.008111743 -0.009059431 0.00064710015 0.07380332 0.044886317 -0.033856403 -0.031851925
-0.018166007 0.06222424 -0.015649606 0.027964368 -0.013604095 -0.102603935 0.096337184 0.039144784
0.07405453 0.0506654 -0.009590707 -0.0001688349 0.04535479 0.06258644 0.01837038 0.036558986
-0.016796261 0.056616455 0.050656535 0.0028835326 -0.030694863 0.12832594 0.001125589 0.015629325
-0.036293913 -0.110778056 -0.0034442798 0.10285359 -0.19560139 0.003053459 0.0068324953 -0.035199344
0.057205386 0.061020106 0.014396989 -0.022084005 -0.009560644 -0.05861156 -0.0070169056 0.09205834
0.07745978 0.057114977 0.025911534 -0.0234714 0.01611061 0.031934544 0.06774412 0.1408172
-0.0002671278 0.05124143 0.010586669 0.10273026 -0.0047815926 0.020041235 0.042397983 0.048789624
0.013145059 0.06076809 0.021619981 -0.01582446 -0.05728841 0.052235395 -0.029614326 0.08447741
-0.028134806 -0.0525511 -0.010742407 -0.007837326 -0.008232269 0.044122197 -0.058804873 -0.04092972
-0.010699283 -0.0068278317 -0.023910716 0.0033814004 0.007645192 -0.07360184 -0.02231727 0.016362652
-0.0088153705 -0.0066570565 0.008580991 0.087414525 -0.0111842565 0.057390682 -0.058655713 0.072625816

stack.2.bias f4 [256]
00000000: 5c1b 04be 7c7c 3abd 4511 10be d9bd e33d
00000010: 8738 9fbd 7dc9 cabd 8463 84bd cbc4 71be
00000020: 9823 16bc 2b3b 0abe 5aa5 31be f98a bd3d
00000030: 69da 78bc 9fa4 4f3d 667a 48bd 1789 38be
00000040: 8b3c a93c 3437 dc3c f265 1fbd c5c4 d3bc
00000050: b5ef bebd b5fa c6bd d1c6 d5bd b569 d3bd
00000060: 8cc7 0dbe e049 86ba ee6b 6abd 2fb6 ecbd
00000070: e280 09be 40bd 13bd 57e3 e4bd 6444 0f3d
00000080: 1f30 77bd cbd8 853e 01e2 423d 7971 10be
00000090: c53d 4ebd 7c56 17bc f61a 83bd b3a5 3c3b
000000a0: 715d bcbd f4e2 5fbd c77d 00be 3b20 74bd
000000b0: d7db 75bd a877 b33c fded 453d 546b d03d
000000c0: 6d54 43bd 1618 cf3d 0c83 02bd a4c4 7ebc
000000d0: bec8 703c a7b3 0fbd 8839 d23d d1e9 97bc
000000e0: bf63 0abe c1f0 46bd 58f8 69bd e039 bbbc
000000f0: 74c1 00bd 382b 68bd e2aa be3b 07e5 b33b
00000100: e683 2abe f62a 04be 0702 f8bd dbea ddbe
00000110: 7e28 21bd 68ab e3bb cef5 9cbd b0eb 723c
00000120: 2e83 b53d 82b1 8d3b 2562 f8bc cecd 84bb
00000130: a30b e4bd c0bd 9fbd c053 983a 4366 ddbe
00000140: 135c d5bd da11 4cbd 34eb e53c 4f72 a9b9
00000150: 2fd0 5abd bb21 073e 79ac a7bd 7a1f 153d
00000160: 62c4 16be 03dd 70bd d80d f0bd 059c 923c
00000170: 1086 103c 3819 e8ba 14d6 afbe 9488 d4be
00000180: e349 acbd 211d e0bd 2d0a ab3d 90ff 3f3d
00000190: 2757 14bd 8ffc 3fbd 16b8 1c3d 2dea 8fbd
000001a0: 83e9 73bd f91b 14be 315f d0bd f600 e63d
000001b0: c8c4 08bd 26b5 383d f0ec 2d3d d398 d9bd
000001c0: 551e 043e 95ca 7dbd 0c6f 273d b72e 733d
000001d0: 0c10 29bc 7200 68bd 11cb d1bd da93 23be
000001e0: 0cf2 543d 3a5a bdbd 6df0 bdbe b02e 0ebe
000001f0: 72e3 7a3d 421a 073d a1a8 903e 98a1 0ebe
00000200: 2491 80bd 4918 5b3d 82fa 18be f189 6fbd
00000210: ac5b 25be cae6 293d 72e9 033e 7088 e8bd
00000220: 6b63 233d 0441 66bd 12c8 223b e32b b5be
00000230: 754d 3abe 3d60 e7bc cf33 383d decb d2bd
00000240: 8825 92bd 7863 c4bd 0854 bc3c 8b3f 383c
00000250: 1961 4bbd ec47 06be 650e e7bd 9e5f 29be
00000260: cecc 5ebd 5a83 91bd 1c52 89bd 1065 0a3c
00000270: 3400 353d 7b21 b73b 619b 5ebd 125b 4a3d
00000280: 8055 213a 3345 04be fa66 d63b 5097 663d
00000290: f3ee aabe e8ad 30be 1e86 94bd f707 04be
000002a0: 147b a2bd 240f 8abd 94fc 76bd 2651 edbd
000002b0: 076f 29be 5a0d ebbd 48ca d4bd d87e 21be
000002c0: c4b2 61bc 4f42 6dbd cdc2 13be f677 2c3d
000002d0: d819 49bd 965d c6bc 6fb9 b2bc 11ae a7be
000002e0: 741e 9fbc 92a0 eabd 882b 9dbd 0b61 86bd
000002f0: 2f9b fcbd 998f 213e 17c5 29bd ac11 fe3a
00000300: ed02 c9bc 8f9f 09be ca80 57bd 36a2 fd3d
00000310: 82f2 90bd dac0 073d bbea 30be 931f 573d
00000320: 43e0 543d 7298 333d 1dce cabc 5102 6ebd
00000330: 004a 343b 63b9 61bd bfee 55bd 64ab 31bc
00000340: 68f8 b9be 9e23 80bd 6b2e 75bd 1a88 74bd
00000350: 1c63 cdbb b494 943c 8c34 f3bd 3043 d03b
00000360: f119 13ba 089d 2ebd 2c98 9fbc bd34 28be
00000370: d414 0cbe 5d17 07be 1f0c 16be 1287 593d
00000380: 2adf 39bd 8a18 78bd c7f6 3ebe 0835 16be
00000390: 6bb1 3cbd c78e d9bd 12bc 89bd d37f aebd
000003a0: b42c eabd eef8 7fbd 773d b53c 2cca 3d3d
000003b0: 7fec c8bb 85cf 8bbd 9a09 813d 7625 9abd
000003c0: d4b1 33be e37c 8cbd e370 243d cec7 54bd
000003d0: 8244 08bd 47c3 013e 1a91 b6bd cb15 6bbd
000003e0: a394 7dbd 0663 18be fdf3 973d dec9 d03d
000003f0: e126 4f3d bcb0 80bd deaa d03c 76fa b7be
-0.12901062 -0.045528874 -0.14069088 0.11120195 -0.077744536 -0.09901712 -0.064642936 -0.23610227
-0.00916376 -0.13499133 -0.17348233 0.092550226 -0.015188792 0.050694104 -0.048944853 -0.18021046
0.020658752 0.026881792 -0.038915582 -0.025850663 -0.09323064 -0.09715787 -0.10438312 -0.103228964
-0.13845652 -0.0010245405 -0.057231836 -0.11558186 -0.13428071 -0.036069155 -0.11176174 0.03497733
-0.060348626 0.26141962 0.047578815 -0.14105786 -0.050351877 -0.009236928 -0.06401627 0.0028785288
-0.0919751 -0.0546598 -0.1254798 -0.05960105 -0.06002411 0.021907642 0.048322666 0.10176721
-0.047687937 0.10112016 -0.031863257 -0.0155498125 0.014696298 -0.03508344 0.102648795 -0.01854411
-0.13514613 -0.048569445 -0.057121605 -0.022854745 -0.03143449 -0.05668184 0.0058187107 0.0054899487
-0.16651878 -0.12907013 -0.12109762 -0.43343243 -0.039345257 -0.0069479235 -0.07664071 0.0148267
0.08862911 0.004324139 -0.030320236 -0.004052854 -0.11135032 -0.07799864 0.0011621639 -0.43242082
-0.104179524 -0.049821712 0.028066255 -0.00032319358 -0.053421196 0.13196461 -0.081871934 0.03640697
-0.14723352 -0.058804523 -0.117213905 0.017896662 0.0088210255 -0.0017707711 -0.34343016 -0.4151045
-0.0841253 -0.10943056 0.0835155 0.046874583 -0.036215927 -0.046871718 0.038261496 -0.07027087
-0.059548866 -0.14463796 -0.10174406 0.11230652 -0.03339079 0.04509463 0.04246229 -0.10624852
0.12902196 -0.061960775 0.040877387 0.059370723 -0.010318767 -0.05664105 -0.1024381 -0.1597437
0.051988646 -0.09245725 -0.37097493 -0.13884997 0.061252065 0.032984026 0.28253654 -0.1392883
-0.062776834 0.053489957 -0.14939311 -0.05848116 -0.16148251 0.041479863 0.12882021 -0.113541484
0.039889734 -0.056214347 0.002483849 -0.35385045 -0.1819361 -0.028244132 0.044971284 -0.10292791
-0.07136065 -0.09589285 0.022989288 0.011245619 -0.049653146 -0.13113374 -0.112820424 -0.16540381
-0.054394536 -0.071051314 -0.06705114 0.008446947 0.044189647 0.005588708 -0.0543474 0.049403258
0.0006154403 -0.12917022 0.0065430375 0.056296647 -0.3338543 -0.1725384 -0.07252143 -0.12893663
-0.079336315 -0.06741169 -0.06029947 -0.115877435 -0.1654626 -0.11477156 -0.103901446 -0.15771043
-0.013775531 -0.057924565 -0.1442978 0.04210659 -0.049096912 -0.024214547 -0.021816937 -0.3274999
-0.0194237 -0.114564076 -0.076743186 -0.06561478 -0.123342864 0.15777434 -0.041447725 0.0019383929
-0.024537528 -0.13439773 -0.052613057 0.12384455 -0.07077505 0.033142902 -0.17277043 0.052520346
0.051971685 0.043846555 -0.024756486 -0.058107678 0.0027509928 -0.05510844 -0.05222964 -0.010844085
-0.3632233 -0.062567934 -0.05985872 -0.05970011 -0.0062679183 0.018137313 -0.11875257 0.0063556656
-0.00056114706 -0.042630225 -0.01948174 -0.16426368 -0.1367982 -0.13192506 -0.14653061 0.05310733
-0.04537884 -0.060570277 -0.18648826 -0.14668667 -0.046067636 -0.10622936 -0.06725325 -0.08520474
-0.11434308 -0.062493257 0.022124035 0.046335384 -0.006131708 -0.068266906 0.063006595 -0.07526676
-0.17548305 -0.06859758 0.04014672 -0.05194836 -0.03326846 0.12672149 -0.08914395 -0.05739383
-0.06190933 -0.14881524 0.07419584 0.10194753 0.050574187 -0.062837094 0.0254721 -0.35933274

stack.4.weight f4 [1, 256]
00000000: 2cba 573d 1558 1abc d940 633d 1171 38bf
00000010: 62e4 f33b 2f25 8f3d 5720 5d3d e172 843e
00000020: 27b1 18bd 17c0 173d 500c 373c 39e2 93bd
00000030: c7f1 2abd 4336 31bd 11b1 a9bc 3273 703d
00000040: a6ca e93c 28ef 363c 7684 6d3c 80c2 d3b9
00000050: 486f 363b 297a 7d3d 616f 6b3d ebfc 843d
00000060: b33e 78ba 0ed1 67bd afe3 3dbd 2d4e ae3c
00000070: 0fdb 963d 00d9 473d ad69 ae3e e3bf d6bc
00000080: 0542 19bd c6f3 793e f78c 6bbd 9bcf 703c
00000090: 74d1 a1bb 304d cd3c dbcc 92ba d18a 26bd
000000a0: 21df 303d 987f 5a3d 1611 263d b868 2cbb
000000b0: 8cfd 61bd 1a46 02bd e5fc 8fbb ce75 a0bd
000000c0: 002a 43bb a83a ba3b c12e 6abc 45ce 5abb
000000d0: b657 e63a 1759 c33c d33a a6bd e1db b2bc
000000e0: 3fde 923d 13f5 a0bc 1356 7a3d 0cdb 283d
000000f0: e2b3 42bd c541 893a 25f2 08bd 9270 8bbc
00000100: 27e3 2f3d 11c5 643d ac7e 303d 06f7 453e
00000110: e038 a1bc f8c2 35bf 40ad 923d 16df 6c3c
00000120: 24eb babe 08eb faba 1026 e5bc 3a4d 8cbb
00000130: 3062 843d cf40 7f3c 2e67 22bd 08bd 2d3e
00000140: 2b86 273a d5ea 493d 5bcf de3c cd5f be3c
00000150: 7272 b9bc 5de4 b8bd b724 833a 745d e13a
00000160: 2e6a a83d 6e5e 703a 2f5b 533d 4597 3bbc
00000170: 248d f83c e6ba 67bd 3a7c f13d 7c06 f23d
00000180: d588 1c3b 4d99 773a 894f 20bf c088 a43c
00000190: d4e1 4abd 6ec2 ffbc 6063 26bd 31b2 483d
000001a0: 7aa3 babc 403e 5e3d d002 3b39 d564 c2ba
000001b0: 01f3 4bbc cbc4 a1bc dedc d4bc 5355 8b3d
000001c0: 8e87 b5bd a619 63bc 537a bcbc 8307 cd3b
000001d0: 3447 8c3c 8e16 863d 9cac 2c3b 98c7 403d
000001e0: a110 02bc ea24 063d cb9a cd3d 9724 2f3d
000001f0: 60f4 4c3c 98b7 63bd fb04 ccbe e566 2f3d
00000200: 2542 783d 2f49 9abb bd42 143d baa7 663b
00000210: f4df 8e3d 40f6 243d b57d c93b 4af9 29be
00000220: fe72 06bb 5935 8f3d eb6d acbb 0a45 0b3e
00000230: 52f6 f93c e760 3dbd f24e 08bd e9c1 b23c
00000240: 341c 7b3d f71e 553d f049 c63b 3d94 a8bc
00000250: 9beb 44bd 1cc2 823d 0ead 663d f821 6dbe
00000260: 8665 123d d00d 823d 04ce 163d f1c3 0b3b
00000270: 4098 01be b75a e7bc e325 243d 7a9e a0bb
00000280: e09d e93c 7b52 403c 4c20 f8be 92a2 443d
00000290: b457 9f3e 6672 5e3d 3172 7aba b72e 3e3d
000002a0: 3478 d5b9 a0d9 b93c 7cd8 e1bc db1c 7b3d
000002b0: 9cea 4a3d f735 8f3b 42ff a9b9 6e7d 263d
000002c0: 34a0 febc c79d e2bb e251 3f3c 288b 263c
000002d0: cadd ac3b 923a 3fbb 02b6 043d 4c12 273e
000002e0: bf06 e7bc 5d07 173d 6911 7d3d 1de2 81be
000002f0: 35e4 b03c a6e1 a7bd 4bab 83be 22c3 3cbc
00000300: 7ed9 dabc b765 ff3c e86b 2b3c 7396 90be
00000310: 6f73 783d c17e 2fbd 91d1 093d 17fd 09bb
00000320: c8bb 2bbf 7f40 a8ba 986e ac3c d052 513d
00000330: b8e9 5dbd a46c 8d3c 8064 083d 88af 6e3d
00000340: 4f45 a73d ff3b b3bc 3b89 7fbc 5039 10bd
00000350: f4f6 61bc 8ec6 5d3d 6f08 683d 9416 373d
00000360: 73e8 d9b9 5199 e13c 5c85 453d de99 61ba
00000370: d178 313d 844a 6f3d daeb 523d eaca 1a3d
00000380: cd8a e8bc 38c1 493d 5d5d 3c3c 8c1b 623d
00000390: de91 abbc 5aa4 743d 04e8 2c3d 62a1 7d3d
000003a0: d836 1b3d ac14 ca3c 2096 ebbc 38c2 28bd
000003b0: 50cb 1ebd 7e61 b23c b41f 62bd b40a 42bd
000003c0: 3c26 4cbe ff53 623d f685 8d3b 0b65 83be
000003d0: b49f 3a3b 1635 2d3e d802 09bb 4e8c 05bd
000003e0: cfc6 1dbd a212 6a3d ad3b c4bc 3c82 c6ba
000003f0: 283c 77b9 5bd5 7f3d 0538 47bd 8c75 b43d
0.05266778 -0.009420414 0.055481765 -0.72047526 0.007442997 0.06989514 0.05398592 0.25868896
-0.03727832 0.037048426 0.011172369 -0.07220883 -0.041734483 -0.04326464 -0.020714315 0.05870361
0.028539013 0.011165418 0.014496913 -0.0004038997 0.0027837325 0.06188408 0.057479266 0.06493553
-0.0009469792 -0.056595854 -0.046359714 0.021277511 0.07366001 0.04879093 0.34065 -0.026214546
-0.037416477 0.24409398 -0.05750748 0.0146979345 -0.004938299 0.02506122 -0.0011199968 -0.04065973
0.043181542 0.05334434 0.04054364 -0.0026307534 -0.05517344 -0.031805135 -0.004394161 -0.078349695
-0.0029779673 0.005683262 -0.014293374 -0.0033387106 0.0017573747 0.023846192 -0.081166886 -0.021833362
0.07171296 -0.01964811 0.061117243 0.041224524 -0.04753483 0.0010471871 -0.033434052 -0.017021451
0.04294124 0.055852 0.043089554 0.19332513 -0.01968044 -0.71000624 0.07161951 0.014457485
-0.36507523 -0.0019143531 -0.027972251 -0.004281667 0.0646404 0.015579416 -0.03964918 0.16966641
0.0006390537 0.04929622 0.027198484 0.02323904 -0.02263758 -0.09027932 0.0010005449 0.0017193989
0.08223377 0.00091693446 0.05160063 -0.01144964 0.030340739 -0.056574725 0.117912725 0.11817643
0.002388527 0.0009445146 -0.6262136 0.020084739 -0.049531773 -0.031220641 -0.040622115 0.04899806
-0.02278303 0.054258585 0.00017834757 -0.0014831076 -0.012448073 -0.019747159 -0.025984224 0.06803384
-0.08863746 -0.0138610955 -0.023007547 0.006256999 0.017123796 0.06547271 0.0026348 0.047065347
-0.007938535 0.032750048 0.1003929 0.042759504 0.012509435 -0.05559501 -0.3984755 0.042822737
0.060609955 -0.004708431 0.03619646 0.0035195188 0.069763094 0.040273905 0.0061490186 -0.16599002
-0.0020515318 0.06992597 -0.0052621267 0.13600555 0.030512962 -0.04623499 -0.033278413 0.02182098
0.061306193 0.052031484 0.0060512945 -0.020578498 -0.048076253 0.0638468 0.05631738 -0.2315749
0.03574135 0.06350291 0.036817566 0.0021326507 -0.12655735 -0.028241498 0.040075194 -0.0049017044
0.028517663 0.011738415 -0.4846214 0.0480066 0.311216 0.054308318 -0.0009553759 0.04643127
-0.00040716084 0.02268678 -0.027569048 0.061306816 0.049540147 0.004370447 -0.00032424374 0.040646963
-0.03108225 -0.006915781 0.011677237 0.010165013 0.0052754628 -0.0029179198 0.03240014 0.16315573
-0.028201459 0.036872257 0.06178418 -0.25367823 0.021593193 -0.08197336 -0.25716624 -0.011521133
-0.026715036 0.031176431 0.010462739 -0.28239784 0.06065696 -0.04284549 0.033647124 -0.0021055394
-0.67083406 -0.0012836604 0.021048829 0.051104367 -0.05417797 0.017263718 0.03329897 0.05827287
0.081675164 -0.021879194 -0.015596683 -0.035210907 -0.013791788 0.054144435 0.056648668 0.044699267
-0.00041562653 0.027538927 0.048222885 -0.0008605997 0.04332811 0.058420673 0.051494457 0.03779117
-0.028386498 0.049256533 0.011496869 0.055202052 -0.020943578 0.05972705 0.042213455 0.061921485
0.0378941 0.02466806 -0.028758109 -0.041200846 -0.038768113 0.021775004 -0.055206016 -0.04737349
-0.1993646 0.055255886 0.004318948 -0.25663027 0.0028476538 0.16914782 -0.0020906236 -0.032604508
-0.038519677 0.057146676 -0.023954237 -0.0015145014 -0.00023578166 0.06245933 -0.04863741 0.08811483

exp_avg f4 [256, 17]
00000000: 53f2 703b 9f73 663a f82c 8938 2e31 a43a
00000010: d91d 9b3a 78e2 fa3a 5e0c 893b 8a24 883a
00000020: 5108 8d3a 8d5a 713a d3d2 553b 076b a63a
00000030: f88a 4339 b5bf 7139 55a5 2239 e5c7 113a
00000040: 5927 8539 5521 c8bc f735 85bc 03d3 3fbb
00000050: 3752 e5bb fcf4 58bc 1b20 87bc f19b bfbc
00000060: eb9a 84bc a2e8 82bc 18f7 76bc 10a2 4abc
00000070: 9145 35bc 54ac f3ba 8097 e3ba 797a 9aba
00000080: 8d03 0aba ff67 94b9 44d0 59ba bb71 1e3b
00000090: 0400 0080 7358 c1ba 2e12 ee3a 7358 41bb
000000a0: 44d0 59ba 3cac eb3a 3cac eb3a d2a7 403b
000000b0: 9f9c 91bb a610 a739 9493 5eb8 9493 5eb8
000000c0: e9d9 e939 5feb 4fba 2564 9937 0000 0000
000000d0: 0000 0000 0000 0000 0000 0000 0000 0000
000000e0: 0000 0000 0000 0000 0000 0000 0000 0000
000000f0: 0000 0000 0000 0000 0000 0000 0000 0000
00000100: 0000 0000 0000 0000 0000 0000 0000 0000
00000110: b92a 98bc 0fc6 84ba 01ec e1ba 459b cbbb
00000120: ad9c ffbb 9863 76bc 8d93 95bc d093 82ba
00000130: 9ebc 74ba 6d88 51ba 3899 83ba 4638 99ba
00000140: 0934 bab9 bb36 75b9 d934 46b9 12ef 8cb9
00000150: 3dd2 42b9 52ee 0c3d ec6c af3c 57e2 843b
00000160: 1751 303c a2de 703c 3e78 d03c 0303 033d
00000170: 82f3 ae3c 1e30 ad3c 9d2e ac3c a1c5 b13c
00000180: 61a8 9e3c 560e 273b 3eaa 163b d436 163b
00000190: ca4f 113b 3a56 d83a 0400 0000 0400 0000
000001a0: 0000 0000 0000 0000 0400 0000 0000 0000
000001b0: 0400 0000 0400 0000 0400 0000 0400 0000
000001c0: 0400 0000 0400 0000 0400 0000 0400 0000
000001d0: 0400 0000 0400 0000 0400 0000 0a77 883c
000001e0: 7e32 e83c fdfd 2d3b 4457 ac3b 0eb8 453c
000001f0: f69e 453c 0a77 883c 7714 e63c b01b e13c
00000200: e826 d53c 575d 9a3c 147c 913c a6c0 603b
00000210: 5095 4a3b 2bcf 203b b8b5 843a 6059 ba37
00000220: 0000 0000 0000 0000 0000 0000 0000 0000
00000230: 0000 0000 0000 0000 0000 0000 0000 0000
00000240: 0000 0000 0000 0000 0000 0000 0000 0000
00000250: 0000 0000 0000 0000 0000 0000 0000 0000
00000260: 0000 0000 c4ee dcbd c78e 21bd 0df2 1dbc
00000270: c233 fdbc 16b3 43bd e1b8 a0bd 1f97 d3bd
00000280: 92c0 1fbd b4ac 1fbd 8fa8 20bd f2e4 21bd
00000290: 93bf 2cbd ad9d 8dbb adb4 84bb 5dc5 90bb
000002a0: 77ed 93bb 10af 96bb 01bf b63c e50f 1f3c
000002b0: 60d8 0d3b d458 d43b 1924 1a3c 3780 863c
000002c0: 615e ac3c 04ce 1e3c 701a 1e3c 3f7c 1b3c
000002d0: e5f7 363c 513f 233c b632 963a 63d9 8b3a
000002e0: 14dc 963a 57e2 b53a d835 aa3a d0c2 993e
000002f0: cc6c ee3d cf2e 023d ef56 c23d d533 063e
00000300: c103 6f3e 46bd 923e f21e ed3d 3bce ea3d
00000310: 12b3 e53d 8146 e43d f9f5 e13d f0b2 6e3c
00000320: 6e14 593c b366 533c 5dfe 4a3c 01f1 3d3c
00000330: 0000 0000 0000 0000 0000 0000 0000 0000
00000340: 0000 0000 0000 0000 0000 0000 0000 0000
00000350: 0000 0000 0000 0000 0000 0000 0000 0000
00000360: 0000 0000 0000 0000 0000 0000 0000 0000
00000370: 0000 0000 8f5c c53b f72f e83b cca5 d939
00000380: 27ce ca3a 7256 533b 05b7 d93a 29f0 c63b
00000390: 4b27 e43b d49c e53b a653 f23b ddf3 dd3b
000003a0: edf0 ee3b 8975 3d3a 05af 353a cf61 0a3a
000003b0: 903b e539 bc44 d239 de0d 9a3b 9db7 823b
000003c0: 9172 c73a 3ac2 79ba 9005 813b cc34 263b
000003d0: 2f0d 983b 8bbb 833b d87a 7e3b 79ee 4e3b
000003e0: d241 5b3a 686d 26ba 5446 ef39 6fb6 c539
000003f0: 9c94 3138 11b6 aab9 d51f 9d39 e2ae f63c
0.003676553 0.00087910326 6.541045e-05 0.0012526864 0.0011834457 0.0019140979 0.0041823825 0.0010386866
0.0010759925 0.00092069135 0.0032626882 0.0012696692 0.00018648419 0.00023054967 0.00015511115 0.00055610976
0.00025397053 -0.024429956 -0.016261084 -0.002927006 -0.006998326 -0.013242003 -0.016494801 -0.023389788
-0.016187152 -0.015980069 -0.01507356 -0.01236774 -0.011063949 -0.0018590786 -0.0017363876 -0.0011785767
-0.00052648113 -0.00028306243 -0.0008308927 0.0024176675 -6e-45 -0.0014751091 0.0018163377 -0.0029502183
-0.0008308927 0.0017980407 0.0017980407 0.0029396904 -0.0044437195 0.00031865126 -5.3066367e-05 -5.3066367e-05
0.0004460358 -0.00079314964 1.8285655e-05 0.0 0.0 0.0 0.0 0.0
0.0 0.0 0.0 0.0 0.0 0.0 0.0 0.0
0.0 0.0 0.0 0.0 -0.01857506 -0.0010129827 -0.0017236472 -0.006213578
-0.0078006596 -0.015038393 -0.018258834 -0.0009962264 -0.00093359675 -0.00079930463 -0.001004017 -0.0011689744
-0.00035515454 -0.0002338541 -0.00018902439 -0.00026881002 -0.00018579602 0.034406967 0.021414243 0.004055302
0.010761521 0.014701517 0.025447961 0.031985294 0.021356348 0.021141108 0.02101832 0.021700682
0.019367399 0.0025490723 0.0022989656 0.0022920864 0.0022172802 0.001650519 6e-45 6e-45
0.0 0.0 6e-45 0.0 6e-45 6e-45 6e-45 6e-45
6e-45 6e-45 6e-45 6e-45 6e-45 6e-45 6e-45 0.016658325
0.028344389 0.0026549094 0.0052594263 0.012067808 0.012061825 0.016658325 0.02808593 0.027479023
0.026019529 0.018843336 0.01775936 0.0034294515 0.003091175 0.0024537544 0.0010124957 2.2214546e-05
0.0 0.0 0.0 0.0 0.0 0.0 0.0 0.0
0.0 0.0 0.0 0.0 0.0 0.0 0.0 0.0
0.0 -0.107877284 -0.039442804 -0.009640229 -0.03090847 -0.04777821 -0.07847763 -0.103315584
-0.03900201 -0.038983062 -0.03922325 -0.03952498 -0.042174887 -0.004321775 -0.0040498585 -0.004418059
-0.004514392 -0.004598506 0.022307875 0.009708379 0.0021643862 0.0064803157 0.00940802 0.01641856
0.021041097 0.009692673 0.009649858 0.009490072 0.011167501 0.009963826 0.0011459205 0.0010669645
0.001150968 0.0013876659 0.0012986017 0.30031443 0.11641845 0.03178292 0.094892375 0.1310571
0.23341276 0.2866003 0.11578168 0.114651166 0.112157956 0.1114626 0.11033244 0.014569029
0.0132495 0.012902903 0.0123897465 0.011593104 0.0 0.0 0.0 0.0
0.0 0.0 0.0 0.0 0.0 0.0 0.0 0.0
0.0 0.0 0.0 0.0 0.0 0.0060229967 0.007085796 0.00041512994
0.0015472815 0.003224757 0.001661033 0.00607111 0.006962692 0.0070072208 0.0073952256 0.0067734555
0.007291904 0.0007227292 0.0006930682 0.0005278857 0.0004372266 0.00040105532 0.00470136 0.0039891736
0.0015216639 -0.0009527538 0.0039374307 0.002536106 0.0046402435 0.0040201596 0.0038830545 0.0031575246
0.0008363995 -0.00063487 0.0004563803 0.00037710692 4.233849e-05 -0.00032560577 0.0002996909 0.030112687

exp_avg_sq f4 [256, 17]
00000000: f2d9 8c3b 467a 923b b01d 5e38 2213 c639
00000010: 8543 8c3a 602a 043b 824d 833b 5b85 903b
00000020: 44b7 8e3b 4295 773b 5798 593b b3e1 f83a
00000030: 9203 8638 40e3 7e38 6be9 1438 45e4 ae37
00000040: 3553 eb36 042c 343c b7c3 a73b ac5e 1c39
00000050: c7d5 803a 972f 423b a596 ad3b 7bcb 233c
00000060: 2ab7 a63b f13f a13b 9125 933b 77cc 5a3b
00000070: 469b eb3a de68 9f38 427c 8c38 8da8 3f38
00000080: 2cc1 8d37 f6e2 4137 732f 3d3a 3f88 c73b
00000090: 680f 0d13 542a 8838 e63e a837 542a 8839
000000a0: 732f 3d3a 0364 bd3b 0364 bd3b 704e 983b
000000b0: b9b8 6f3b 8aa2 fe3a 2a27 9e38 2a27 9e38
000000c0: b7aa 0c38 927c b237 1fd1 7136 0000 0000
000000d0: 0000 0000 0000 0000 0000 0000 0000 0000
000000e0: 0000 0000 0000 0000 0000 0000 0000 0000
000000f0: 0000 0000 0000 0000 0000 0000 0000 0000
00000100: 0000 0000 0000 0000 0000 0000 0000 0000
00000110: dad0 783d ee35 2b3c 074b 323a 29c9 ac3b
00000120: 57d0 753c 208b f63c ad7e 6e3d 2c14 2a3c
00000130: eb70 233c c0d4 1d3c df2a 1a3c 8f92 173c
00000140: 6ead 0c39 0d69 ef38 e4da d238 dcd7 c338
00000150: 4364 ba38 32a9 9a3d 1d4d c63c 4058 753a
00000160: d77f d63b 65af 983c fe56 163d 252d 913d
00000170: be4b c53c e2c9 bf3c 04e5 b73c 3fdb ab3c
00000180: 17ca 9c3c a5d6 a139 4444 8f39 fa7b 7039
00000190: 4c0a 4039 8f20 2439 0f1c d90e 930c ef10
000001a0: 0000 0000 0000 0000 64e4 d70d 0000 0000
000001b0: 0f1c d90e 537b ea10 537b ea10 537b ea10
000001c0: 28f0 a310 28f0 a310 11a4 c50d 11a4 c50d
000001d0: 11a4 c50d 292e d80c 292e d80c c9e3 533b
000001e0: ace5 6b3c 68eb ef36 2a5f 7039 42f5 403a
000001f0: 5b93 e03a c9e3 533b be11 673c a95c 663c
00000200: 56c9 453c 4f1e 043c e908 5f3b 4423 5539
00000210: dc22 5239 9927 e638 29ab 1538 fec5 d137
00000220: 0000 0000 0000 0000 0000 0000 0000 0000
00000230: 0000 0000 0000 0000 0000 0000 0000 0000
00000240: 0000 0000 0000 0000 0000 0000 0000 0000
00000250: 0000 0000 0000 0000 0000 0000 0000 0000
00000260: 0000 0000 ba36 183f bc10 ec3d 268d df3b
00000270: a676 513d 410f 173e 94e7 8e3e 5e51 113f
00000280: 14aa ea3d 7d62 e23d c5d5 d93d a3fa d23d
00000290: d4da cc3d 1165 c43a 8ac0 a93a f635 943a
000002a0: 23ee 863a dce2 7f3a a6ad 283d 2985 553c
000002b0: bc9a 013a e399 653b cd83 273c f075 9b3c
000002c0: 8425 1f3d 89f9 533c 39dd 4d3c 3314 413c
000002d0: 6f6e 2d3c 2a28 1a3c 4739 3039 2490 1b39
000002e0: 830a f538 b5bb c338 d119 bd38 1712 c940
000002f0: e7df c23f 25e5 923d 7f85 083f ccaa c53f
00000300: 4de0 3d40 8ba2 be40 79e3 c13f e7ce bc3f
00000310: c533 b83f 3fb3 b43f 2463 b23f a913 963c
00000320: 22f4 853c 9eab 733c f536 633c db3f 573c
00000330: 0000 0000 0000 0000 0000 0000 0000 0000
00000340: 0000 0000 0000 0000 0000 0000 0000 0000
00000350: 0000 0000 0000 0000 0000 0000 0000 0000
00000360: 0000 0000 0000 0000 0000 0000 0000 0000
00000370: 0000 0000 765a 503b 0afa 263b eb34 0f38
00000380: b60d 5439 34e6 4b3a 1841 ff39 2088 433b
00000390: 3b15 253b 6602 223b d66a 123b 0307 023b
000003a0: 3a1e c13a 44ea 1238 161e 0838 662c bf37
000003b0: 729f 8837 7622 4137 14a2 2d3d 3276 973b
000003c0: c48d 0e3a 4244 5e3b fefc 263c 596a aa3c
000003d0: 8e03 273d 57ae 963b ccef 8a3b 1243 7e3b
000003e0: 52d8 693b 69e1 613b 673c 9f38 6c06 7238
000003f0: 2e65 4038 7aa5 3338 54e7 3d38 4676 983d
0.004298442 0.0044701425 5.2956573e-05 0.00037779758 0.0010701275 0.002016686 0.0040070424 0.0044104285
0.004355343 0.0037778174 0.0033202374 0.0018988162 6.390283e-05 6.0769962e-05 3.5503337e-05 2.0848713e-05
7.0132323e-06 0.010996822 0.0051197666 0.00014912587 0.0009829336 0.0029630417 0.0052974992 0.009997244
0.005087753 0.0049209525 0.0044905622 0.003338603 0.0017975352 7.601244e-05 6.698865e-05 4.5694924e-05
1.6898462e-05 1.155654e-05 0.00072168483 0.00608924 1.7804298e-27 6.4928696e-05 2.005645e-05 0.00025971478
0.00072168483 0.0057797446 0.0057797446 0.0046480224 0.003657861 0.0019427103 7.541322e-05 7.541322e-05
3.353759e-05 2.1277261e-05 3.6033523e-06 0.0 0.0 0.0 0.0 0.0
0.0 0.0 0.0 0.0 0.0 0.0 0.0 0.0
0.0 0.0 0.0 0.0 0.06074605 0.01044987 0.0006801341 0.0052730036
0.015003285 0.030095637 0.058226276 0.010380786 0.009975652 0.009633243 0.009409635 0.009251251
0.00013416048 0.00011415975 0.00010054352 9.3385315e-05 8.887846e-05 0.07551803 0.024206692 0.00093591586
0.0065460014 0.018638322 0.036704056 0.07088689 0.024083968 0.023411695 0.02244807 0.020978568
0.019139333 0.00030868236 0.00027325947 0.00022934368 0.00018314383 0.00015652388 5.352165e-30 9.428825e-29
0.0 0.0 1.3305381e-30 0.0 5.352165e-30 9.2486737e-29 9.2486737e-29 9.2486737e-29
6.4662183e-29 6.4662183e-29 1.218056e-30 1.218056e-30 1.218056e-30 3.330785e-31 3.330785e-31 0.0032331815
0.01439802 7.15016e-06 0.00022923635 0.0007360765 0.0017133759 0.0032331815 0.014103351 0.014060178
0.012071928 0.008063867 0.003403241 0.000203264 0.00020040147 0.0001097463 3.5683774e-05 2.5006939e-05
0.0 0.0 0.0 0.0 0.0 0.0 0.0 0.0
0.0 0.0 0.0 0.0 0.0 0.0 0.0 0.0
0.0 0.59458506 0.11526629 0.006822246 0.051138543 0.14751913 0.27911055 0.5676478
0.11458221 0.110539414 0.106364764 0.103017114 0.10002676 0.0014983733 0.0012951058 0.0011307586
0.0010294359 0.00097612827 0.04118123 0.013032236 0.00049440167 0.003503435 0.010224295 0.018977135
0.038854137 0.012937912 0.012564951 0.011784601 0.010585411 0.00940899 0.00016806005 0.00014835648
0.00011684468 9.333288e-05 9.017031e-05 6.283458 1.522458 0.07172612 0.533287 1.5442748
2.9668152 5.9573417 1.5147544 1.4750642 1.4390799 1.4117202 1.3936505 0.018319922
0.016351763 0.01487246 0.013868083 0.013137783 0.0 0.0 0.0 0.0
0.0 0.0 0.0 0.0 0.0 0.0 0.0 0.0
0.0 0.0 0.0 0.0 0.0 0.00317922 0.0025478625 3.414314e-05
0.00020223003 0.00077781384 0.0004868589 0.0029835775 0.0025189656 0.0024720668 0.0022341511 0.0019840605
0.001473374 3.502729e-05 3.2452946e-05 2.2789649e-05 1.628671e-05 1.151172e-05 0.042390898 0.0046222443
0.0005437995 0.0033915197 0.010192154 0.020802664 0.040774874 0.0045984196 0.004240012 0.0038797301
0.0035681915 0.003446663 7.5929616e-05 5.7703277e-05 4.5870598e-05 4.2831038e-05 4.5276553e-05 0.07444434

exp_avg f4 [256]
00000000: d83b b138 4c2f faba 51da 9e39 0000 0000
00000010: 7a92 c3b9 24a4 293b 0400 0000 b793 6a3b
00000020: 0000 0000 1d30 97bb 654d 983a d2f3 753c
00000030: 0000 0000 ff1a 503a d49e e339 848f 013b
00000040: 81f3 d33a bc27 bc38 a207 be3b 0000 0000
00000050: 0400 0000 6c53 a83a 20e3 07bb 3d69 6c3b
00000060: f2c8 4f3a 7f25 58b7 d032 f6ba 987f 603b
00000070: 588b ad39 0f9b ebb8 da9f 123b eada 02bb
00000080: 0000 0000 1ea3 393a 0400 0000 fef7 2a39
00000090: 317b a43a 2f90 a3ba 1c9d 1a3b 0000 0000
000000a0: 8663 baba afc0 9439 d360 f53a 7dbf bbba
000000b0: e658 243b 46c1 033b d5f6 a83a 24fb c83a
000000c0: 0400 0000 8298 0c3a 475e 703a cdc0 fb3a
000000d0: 0af6 c03b b4b1 dfbb 3381 233b 43c4 76bb
000000e0: 0000 0000 808b 813a 0108 9db9 9176 19b9
000000f0: 69f6 44ba 0000 0000 0000 0000 68ff 073b
00000100: 9a39 143b efd1 b83b 1489 6aba 0000 0000
00000110: 6af4 20bb dcf6 9fb9 8f0f 4e3a 5a16 8eb9
00000120: 87b8 ae3a deab b9bb 37fc 1f3b 542d 0c3b
00000130: 6506 883b 0000 0000 670f b239 acce de38
00000140: 0000 0000 98d1 0dbb 0cb9 da3a 498f 56bb
00000150: 89f6 8bba 71ac c53a 0000 0000 0b10 013a
00000160: 8ac8 e03a 0000 0000 c19b 9b3a 2d4f 533b
00000170: 0000 0000 2415 603a 1032 faba 8b4c 07bb
00000180: 9b9f 0cb8 abcb 143b 9706 073b 1caf 2b3b
00000190: 28f9 83bb b81e 883a 0000 0000 0459 2b3a
000001a0: cc34 5e3a b819 bbba 526e 82ba 0342 6b3b
000001b0: cdbc c3b8 7549 1bb9 cb9c 4aba ebf8 c03a
000001c0: a9d5 1f3b 4006 adb8 f9db a73a ec27 383b
000001d0: d335 e139 722e 32ba 3e29 0eba 6fa9 223b
000001e0: 41ae 16bb 5cec 493a a941 6cb8 2baa bd39
000001f0: c36b 023c 7558 2f3b 0400 0000 690c c83a
00000200: 513a 463a 57dc 5cba 3aa8 173b 764f 973a
00000210: aad5 883a a923 90bb 0000 0000 4192 50ba
00000220: 0000 0000 0400 0000 9a21 19ba 40dd 6d3b
00000230: bb07 883b 292e acbb b448 bb3b a75b ceb8
00000240: 61b0 4d3b fdc7 c8ba 0000 0000 0400 0000
00000250: 04fd 93ba f14e b9ba 0000 0000 8b59 9fba
00000260: 0000 0000 0000 0000 5574 50b9 3139 fe3b
00000270: af74 093a c35c 52ba 4468 f8bb f787 1a3b
00000280: 0000 0000 354e 3f39 4ff0 0cbb 63cb 76ba
00000290: 027a e53b 8d52 b83a 0000 0000 d696 0c3c
000002a0: bb92 933a 0000 0000 0000 0000 0000 0000
000002b0: d7a9 e93a 93d9 823b 5daf d139 3a6c 463a
000002c0: a79c 333b 546f 2dbb 37f4 773a 0a1b 33ba
000002d0: 9f18 efba 6c87 193c b4d4 023b f9f4 d13a
000002e0: fb7e 083b f927 ee3a 0000 0000 df40 39bb
000002f0: 81da 19bb c5c9 073a 0000 0000 fa89 7cba
00000300: 0000 0000 f543 4fba 7f6a a13a 2cc5 95b9
00000310: dc56 c63b 9ece 81b9 0000 0000 89d5 a63a
00000320: 0000 0000 0000 0000 cbe3 a03b bb00 f739
00000330: 824b d539 bd80 43ba 6924 70bb f171 ed3a
00000340: 22d8 293a 0400 0000 35ba 3b3b 0000 0000
00000350: 80d4 0fbb 39fd 963a e55d 9939 af49 53b8
00000360: b157 243b 6517 2638 67dd 8c3b c18a 733b
00000370: 0000 0000 0000 0000 0000 0000 216e 863a
00000380: 0000 0000 5a6e 7e3b 1ead e039 6726 85ba
00000390: 0000 0000 a102 1a3b 0000 0000 a3bf a23b
000003a0: 13df 9b3a 0000 0000 0000 0000 0400 0000
000003b0: 0000 0000 0000 0000 0400 0000 f3a0 ceba
000003c0: 0000 0000 11c3 393b 298d b0b8 571c 46ba
000003d0: 0400 0000 dba3 9e3b 5085 2fba eff9 963b
000003e0: b449 023a 0000 0000 035f e63a ee2f 033b
000003f0: 0000 0000 0000 0000 0000 0000 9316 533a
8.4511645e-05 -0.0019087582 0.00030298767 0.0 -0.00037302432 0.002588519 6e-45 0.0035793611
0.0 -0.00461389 0.0011619745 0.015011745 0.0 0.0007938593 0.0004341515 0.001976938
0.0016170592 8.97194e-05 0.0057992497 0.0 6e-45 0.0012842244 -0.0020734742 0.003607347
0.00079263665 -1.28833335e-05 -0.0018783454 0.003425574 0.0003310095 -0.00011234555 0.002237311 -0.0019966909
0.0 0.00070814963 6e-45 0.00016304848 0.0012548921 -0.0012478883 0.002359218 0.0
-0.0014220334 0.0002837232 0.0018720872 -0.0014324036 0.0025077402 0.0020104214 0.0012890944 0.0015333635
6e-45 0.00053633016 0.0009169322 0.0019207239 0.005888705 -0.006826604 0.0024948835 -0.0037653602
0.0 0.0009883493 -0.00029951337 -0.00014635386 -0.00075135246 0.0 0.0 0.00207516
0.002261734 0.0056402604 -0.0008946818 0.0 -0.0024559745 -0.00030510768 0.0007860595 -0.00027101004
0.001333014 -0.00566624 0.0024411806 0.0021389322 0.004151153 0.0 0.0003396228 0.000106242805
0.0 -0.002163982 0.0016687228 -0.0032739213 -0.0010678332 0.0015081299 0.0 0.000492335
0.0017149609 0.0 0.001187198 0.0032243237 0.0 0.0008548072 -0.0019088406 -0.0020644988
-3.3527245e-05 0.0022704403 0.0020603293 0.0026196903 -0.0040275045 0.0010385131 0.0 0.00065363967
0.0008476495 -0.0014274633 -0.0009951091 0.00358975 -9.3334915e-05 -0.00014809317 -0.00077290524 0.0014722621
0.0024388826 -8.250447e-05 0.0012806646 0.0028099967 0.00042955446 -0.0006797082 -0.00054230157 0.0024820229
-0.0022992047 0.0007702762 -5.6327935e-05 0.00036175674 0.007960263 0.0026755605 6e-45 0.0015262488
0.00075617904 -0.0008425167 0.0023141042 0.0011544067 0.0010439653 -0.0043987823 0.0 -0.0007956364
0.0 6e-45 -0.0005841494 0.0036295205 0.004151312 -0.005254526 0.005715454 -9.839917e-05
0.0031385648 -0.001531839 0.0 6e-45 -0.0011290614 -0.0014137906 0.0 -0.0012157423
0.0 0.0 -0.00019879763 0.0077582826 0.00052435225 -0.0008024687 -0.007580789 0.0023579577
0.0 0.00018244314 -0.002150554 -0.0009414462 0.00700307 0.0014062688 0.0 0.008580884
0.0011258939 0.0 0.0 0.0 0.0017827105 0.003993222 0.00039994242 0.00075692276
0.0027406604 -0.0026464062 0.0009458693 -0.0006832337 -0.0018241591 0.009370666 0.0019963207 0.0016018442
0.002082764 0.0018169872 0.0 -0.0028267426 -0.0023476186 0.00051799073 0.0 -0.0009633597
0.0 -0.000790655 0.0012315064 -0.000285664 0.006052835 -0.0002475874 0.0 0.0012728433
0.0 0.0 0.0049099675 0.00047112055 0.00040682784 -0.0007457843 -0.0036642796 0.0018115622
0.00064790447 6e-45 0.0028644924 0.0 -0.0021946728 0.0011519558 0.0002925239 -5.0374943e-05
0.0025076682 3.9599272e-05 0.004298854 0.0037161561 0.0 0.0 0.0 0.001025621
0.0 0.00388231 0.00042853592 -0.001015854 0.0 0.0023500102 0.0 0.0049666925
0.0011892043 0.0 0.0 6e-45 0.0 0.0 6e-45 -0.0015764519
0.0 0.0028345028 -8.418627e-05 -0.00075573236 6e-45 0.0048413104 -0.00066955853 0.004607431
0.0004970089 0.0 0.0017575923 0.0020017582 0.0 0.0 0.0 0.0008052375
