checkpoints/mlptest/model7_best.pt (torch, 247059 bytes, 15 tensors)

stack.0.weight f4 [128, 17]
0.07086524 0.21254712 -0.13147965 0.07939484 0.11157116 0.15938367 0.17432113 -0.0246218
-0.07774073 -0.08506966 0.060255855 -0.04337124 -0.24867697 0.23266736 -0.19563688 0.08538935
0.23685047 0.33241153 -0.08373718 -0.28570864 -0.010357561 -0.06655007 0.08954862 0.028254272
-0.066344105 -0.09383501 -0.009423591 0.053008813 -0.10826673 0.13394669 0.3229994 0.10003464
0.005484188 0.09615229 0.05177604 -0.060797714 -0.20374931 0.2804877 0.040097166 0.014977741
0.27872282 -0.12259029 0.013006578 -0.017781502 0.2872303 -0.025345758 0.13066056 0.18119973
-0.11046637 0.22230355 -0.0063245366 0.14733914 -0.091179304 -0.12715189 0.11478621 0.12565103
-0.105048254 0.3063671 0.1792012 -0.084581554 -0.17857797 -0.03580773 0.47662044 -0.010350603
-0.07510312 -0.110615276 -0.13996957 0.1117102 0.015458116 -0.17383455 -0.16038133 0.08748574
0.19690882 0.1755116 -0.012264555 0.07751247 0.014321925 0.12812322 0.28666568 -0.15006313
0.20012267 0.124222286 -0.09361589 -0.22685586 -0.14284617 0.3102365 -0.0068947403 -0.07459137
-0.018014867 -0.17477655 -0.09147871 -0.103387676 0.1467889 0.09130006 -0.07874172 0.060010474
0.18968298 0.29610315 0.13226302 0.15071657 0.14268662 -0.0220921 -0.07603167 -0.0201927
-0.0059512192 -0.14435083 0.15664664 -0.010445036 -0.08620188 -0.15868026 0.034778476 0.044300713
0.16491047 -0.015738152 0.006131999 -0.12353859 0.105146594 -0.16468793 0.2090067 0.18413676
0.013286117 -0.04458268 0.20447232 -0.1573619 -0.02091608 -0.12643605 -0.04536131 -0.14368062
-0.06634961 0.034856517 0.1280798 0.026862917 0.18334828 -0.113709174 -0.0842217 0.07434065
-0.07108512 0.014301738 -0.113803394 0.26224944 0.23637867 0.20861413 0.2967679 -0.10309198
-0.10904851 -0.1825993 -0.035632692 0.19507748 -0.074717425 -0.0054918285 -0.1269514 0.13293321
0.25054598 0.088940814 -0.091174595 0.08429939 -0.15832338 0.07082899 0.007183155 0.016096935
-0.19876869 0.06223998 0.13763699 0.011844706 -0.13837174 0.14817856 0.20915839 0.25635934
-0.22374374 -0.20510209 -0.06670977 -0.12491658 -0.12289168 0.15274572 0.14760974 -0.05629316
0.07826554 -0.10391551 0.22417282 0.08746367 0.07846584 -0.17692399 0.0064056623 -0.03728772
0.025647268 -0.05169081 -0.04532712 -0.03508704 9.404595e-05 0.20441815 -0.1458545 -0.14845124
0.21771854 -0.031621408 -0.13231796 0.07453019 0.036815852 -0.0371099 -0.078127354 -0.12010803
0.12437968 -0.16114886 -0.17221984 -0.29719943 -0.053979535 0.19431376 -0.2561462 0.0007480624
-0.12847628 0.030166889 -0.13391408 0.23069598 0.043923642 -0.14885655 0.23861995 0.14396353
-0.13689728 -0.14019579 -0.13315278 -0.09483886 0.3825109 0.28368422 0.2679536 0.14712274
0.24016304 0.25289235 -0.07762463 -0.117639706 0.04695129 -0.16100192 -0.21681802 0.13617682
0.08787991 0.076502524 -0.03763568 0.12454357 -0.060559794 0.23019114 -0.10270161 -0.021496678
0.18981172 0.1296523 0.07217494 -0.20883998 -0.07039882 -0.026778204 -0.09358103 0.10199693
-0.21190622 0.05364639 -0.1633875 0.028573863 0.15184788 -0.1597878 -0.10376677 -0.016753277
00000000: cc21 913d f4a5 593e 9aa2 06be c399 a23d
00000010: 6c7f e43d 7935 233e 3d81 323e a8b3 c9bc
00000020: 8836 9fbd 0039 aebd d8ce 763d 0ba6 31bd
00000030: 2da5 7ebe 5a40 6e3e 0955 48be 9de0 ae3d
00000040: ee88 723e d831 aa3e 667e abbd 6748 92be
00000050: c2b2 29bc 674b 88bd 4465 b73d 8175 e73c
00000060: 6bdf 87bd 922c c0bd 6865 1abc c51f 593d
00000070: f3ba ddbd 5229 093e 2d60 a53e f6de cc3d
00000080: b4b4 b33b 7eeb c43d 1d13 543d 0607 79bd
00000090: a9a3 50be 159c 8f3e ed3c 243d 3365 753c
000000a0: c2b4 8e3e 9e10 fbbd 8b19 553c 83aa 91bc
000000b0: da0f 933e e8a1 cfbc e2cb 053e 6c8c 393e
000000c0: 313c e2bd 8ba3 633e 0f3e cfbb 12e0 163e
000000d0: 37bc babd 1b34 02be 0815 eb3d aaaa 003e
000000e0: 8a23 d7bd 26dc 9c3e 8580 373e 1839 adbd
000000f0: 25dd 36be 20ab 12bd 9807 f43e 9395 29bc
00000100: aacf 99bd 438a e2bd 2f54 0fbe 51c8 e43d
00000110: 0a44 7d3c af01 32be 013b 24be b92b b33d
00000120: 77a2 493e 50b9 333e 46f1 48bc dcbe 9e3d
00000130: 82a6 6a3c bc32 033e d8c5 923e 26aa 19be
00000140: f5ec 4c3e 4168 fe3d b0b9 bfbd e74c 68be
00000150: 4446 12be 52d7 9e3e 46ed e1bb 5cc3 98bd
00000160: ea93 93bc a0f8 32be 3159 bbbd ebbc d3bd
00000170: d44f 163e 87fb ba3d 5743 a1bd 8bcd 753d
00000180: 413c 423e d59a 973e f56f 073e 7255 1a3e
00000190: 711c 123e 7efa b4bc 7eb6 9bbd 296b a5bc
000001a0: 7202 c3bb b4d0 13be fa67 203e a821 2bbc
000001b0: 9c8a b0bd 147d 22be e073 0e3d aa74 353d
000001c0: 4ade 283e 4ced 80bc f0ee c83b cd01 fdbd
000001d0: 1957 d73d f4a3 28be da05 563e 598e 3c3e
000001e0: 04ae 593c 549c 36bd 3161 513e 7a23 21be
000001f0: 3358 abbc 7478 01be c8cc 39bd 0321 13be
00000200: 4ee2 87bd b5c5 0e3d 5a27 033e 9f0f dc3c
00000210: a7bf 3b3e 5be0 e8bd 6d7c acbd e93f 983d
00000220: 1395 91bd d651 6a3c c111 e9bd 8f45 863e
00000230: 400d 723e f19e 553e f6f1 973e e321 d3bd
00000240: d354 dfbd 50fb 3abe 96f3 11bd 64c2 473e
00000250: 7305 99bd ccf4 b3bb 8cff 01be a51f 083e
00000260: 9047 803e 9a26 b63d bfb9 babd 29a5 ac3d
00000270: 861f 22be ca0e 913d ac60 eb3b b8dd 833c
00000280: 058a 4bbe 59ef 7e3d b6f0 0c3e 4c10 423c
00000290: 52b1 0dbe 1fbc 173e 9e2d 563e 8841 833e
000002a0: 141d 65be 4806 52be 229f 88bd 44d4 ffbd
000002b0: a2ae fbbd 6069 1c3e 0227 173e a893 66bd
000002c0: af49 a03d a8d1 d4bd 8f8d 653e 2720 b33d
000002d0: b3b2 a03d 902b 35be 97e6 d13b 02bb 18bd
000002e0: 381a d23c beb9 53bd eea8 39bd 6eb7 0fbd
000002f0: 893a c538 fe52 513e e25a 15be 9a03 18be
00000300: 9cf1 5e3e 7385 01bd 5c7e 07be 49a3 983d
00000310: 38cc 163d 8d00 18bd 3c01 a0bd 33fb f5bd
00000320: c6ba fe3d 3504 25be 665a 30be 862a 98be
00000330: a519 5dbd 30fa 463e 9825 83be 9e19 443a
00000340: 498f 03be 8d20 f73c c620 09be 913b 6c3e
00000350: 47e9 333d da6d 18be ca58 743e 2d6b 133e
00000360: cd2e 0cbe 7c8f 0fbe 3459 08be e03a c2bd
00000370: 78d8 c33e 0f3f 913e 3731 893e 58a7 163e
00000380: 4ded 753e 1b7b 813e a9f9 9ebd 16ed f0bd
00000390: ff4f 403d b0dd 24be 8b05 5ebe f071 0b3e
000003a0: 62fa b33d 5bad 9c3d df27 1abd b310 ff3d
000003b0: 8c0d 78bd 3ab7 6b3e 3955 d2bd cd19 b0bc
000003c0: 015e 423e 93c3 043e 74d0 933d 26da 55be
000003d0: 422d 90bd f75d dbbc 69a7 bfbd c4e3 d03d
000003e0: f2fd 58be 51bc 5b3d 0e4f 27be bc13 ea3c
000003f0: 037e 1b3e 6a9f 23be ac83 d4bd 2b3e 89bc

stack.0.bias f4 [128]
0.078712545 -0.08459722 0.06939956 0.13149518 0.16595794 0.15232259 0.38567564 0.44032556
0.028879516 0.41417307 0.38805035 0.20840585 -0.10791245 0.27055964 0.20905797 -0.11792837
-0.1074341 0.2556147 -0.08615858 0.11934069 0.16217756 0.468859 0.10880066 0.23519479
0.3321487 -0.21438088 0.3281627 -0.10680396 0.20516682 -0.30031335 0.13615897 0.30461204
-0.10574979 -0.0068217185 0.40495083 0.41194728 0.12901662 0.36850646 0.36053893 0.20363125
0.2940282 0.39931047 0.0838277 -0.062475294 0.39272642 0.23210898 0.044643078 -0.16363089
-0.040560376 0.17533332 0.27260992 0.09767604 0.003891234 0.36486346 -0.057904627 0.47472233
0.18226457 0.3033263 0.10076649 0.15823142 -0.052547134 0.06211889 0.3233658 0.0429093
0.021652263 0.36153388 -0.04255853 -0.066186704 -0.11009603 0.3437546 -0.22469191 0.16948391
0.1546239 0.2520251 0.32092977 -0.11126991 0.40834412 -0.1432346 -0.07368833 -0.019073682
-0.0026281995 0.3058066 0.055727538 -0.043052256 0.09000136 0.118863344 0.20140803 0.10334265
-0.04969369 0.1938203 0.40019596 -0.024102934 0.29078087 0.21570511 -0.19599602 0.18569215
0.19614916 0.39649278 0.26324713 0.277923 0.19172359 0.061152436 0.2247624 0.097718515
0.28263772 0.18673903 0.3046494 -0.31164545 -0.10370604 0.17590757 0.3409422 0.20726347
0.27512628 0.23459907 0.2115288 0.11004427 -0.032163426 -0.12515314 -0.021496063 0.3823434
0.4164817 -0.08566478 -0.24492155 0.4639142 -0.04138287 -0.0437088 0.15344821 0.3151463
00000000: 0b34 a13d 4f41 adbd 5b21 8e3d aca6 063e
00000010: e1f0 293e 74fa 1b3e 4777 c53e 5a72 e13e
00000020: bc94 ec3c 7e0e d43e 89ae c63e 5868 553e
00000030: 3401 ddbd cb86 8a3e 4b13 563e 6e84 f1bd
00000040: 6906 dcbd eedf 823e e973 b0bd e468 f43d
00000050: e011 263e 490e f03e e1d2 de3d e7d6 703e
00000060: 650f aa3e a986 5bbe f104 a83e 09bc dabd
00000070: 4017 523e acc2 99be 426d 0b3e 1cf6 9b3e
00000080: 5993 d8bd b988 dfbb b755 cf3e c1ea d23e
00000090: ef1c 043e e1ac bc3e 8f98 b83e b684 503e
000000a0: dd8a 963e 6c72 cc3e dbad ab3d 18e6 7fbd
000000b0: 7013 c93e faad 6d3e a9db 363d db8e 27be
000000c0: a322 26bd 948a 333e 8793 8b3e 600a c83d
000000d0: 1304 7f3b 62cf ba3e 672d 6dbd ce0e f33e
000000e0: 90a3 3a3e 964d 9b3e a95e ce3d 6b07 223e
000000f0: aa3b 57bd 6170 7e3d 3490 a53e aac1 2f3d
00000100: 1660 b13c f81a b93e da51 2ebd e58c 87bd
00000110: 077a e1bd 9a00 b03e a315 66be 318d 2d3e
00000120: ba55 1e3e 6f09 813e e850 a43e 7be1 e3bd
00000130: 7b12 d13e 17ac 12be e8e9 96bd 6940 9cbc
00000140: df3d 2cbb af92 9c3e 8f42 643d 9057 30bd
00000150: a252 b83d a06e f33d e83d 4e3e 50a5 d33d
00000160: 9c8b 4bbd d478 463e 7ce6 cc3e 8473 c5bc
00000170: 3be1 943e cde1 5c3e 2eb3 48be 1526 3e3e
00000180: 53db 483e 1a01 cb3e 54c8 863e ec4b 8e3e
00000190: 3053 443e fa7a 7a3d 1d28 663e a520 c83d
000001a0: e4b5 903e 8438 3f3e 02fb 9b3e fe8f 9fbe
000001b0: d563 d4bd 1d21 343e fa8f ae3e e03c 543e
000001c0: 5add 8c3e bd3a 703e 019b 583e e45e e13d
000001d0: ccbd 03bd 2528 00be 8318 b0bc 84c2 c33e
000001e0: 173d d53e 0471 afbd b7cc 7abe 2986 ed3e
000001f0: 1681 29bd 0008 33bd 8721 1d3e db5a a13e

stack.2.weight f4 [128, 128]
0.111785695 -0.09801637 -0.02401787 0.15998487 0.105478816 0.049602795 0.12892804 0.17285043
0.052306626 0.027115854 0.09479045 0.10683202 0.00041916122 0.037090696 -0.019648142 0.12097483
0.048327725 0.15358649 -0.06597147 -0.06493484 0.09051086 0.09841274 -0.023373302 0.15879312
-0.03343637 -0.122708745 0.04345233 0.07101164 0.06540556 -0.12438849 0.111230016 0.07464552
-0.040156502 0.12201989 0.06567998 0.11508386 0.057369087 0.08613708 0.11203629 0.083594315
0.06555991 0.036131073 0.011260938 0.010189745 0.051428672 -0.0097509 0.07544375 -0.047332764
-0.0050725173 0.0391683 0.045372784 0.064696684 0.033471487 0.059725575 0.025265701 0.13938537
0.037452046 0.12653972 -0.0022463736 0.066779025 0.0125760725 0.097856 0.052025132 0.029131876
-0.04465426 0.16832583 0.055343438 0.067942455 -0.10575416 0.05159635 -0.03085173 0.07616774
0.050661504 0.10614964 0.052372072 0.17559068 0.06382191 0.03964542 0.016840305 0.04829897
-0.04423792 0.15397722 -0.006762633 -0.0013035107 0.0053587747 -0.005725796 0.08871935 -0.031848986
-0.0412934 -0.007479867 0.14796205 -0.0016682565 0.03631298 0.099707164 -0.077065885 0.073703356
0.044924915 -0.022297878 0.006230464 0.0960163 0.07540142 0.056571595 0.059163153 0.015644524
-0.017406724 -0.030760242 0.06897465 -0.09816638 0.00733572 0.084996216 0.05560707 0.09976184
0.0501527 0.09402545 0.090244375 0.07556321 0.03354118 0.0029147235 0.059542563 0.08696776
0.13363656 -0.022818003 -0.0049483557 0.1532803 0.05774896 -0.029905306 0.00862753 0.084358476
-0.007815649 0.03342003 0.052678008 0.14760467 0.032340504 0.043718334 0.033696905 0.12698418
0.015948657 0.07948036 0.11503177 0.059938822 0.065103844 -0.04641058 0.053918645 0.061704095
-0.07915671 0.11426192 0.0009219102 -0.024211893 -0.071088836 0.16100244 0.11631262 0.11527481
-0.042315934 -0.06764372 0.030780002 0.05554894 0.045873348 -0.15486391 0.021525802 0.09419743
0.07812979 0.11027739 0.0915986 0.032656662 0.075177215 0.14568189 0.15964068 0.03974641
-0.032218248 0.09828946 -0.0023470665 0.08940777 0.17380644 0.041283205 0.08657552 0.03593038
-0.033921205 0.062548086 -0.034843877 -0.030585697 0.088515356 0.16306445 0.09095656 0.11580848
-0.013793333 0.14834572 -0.009421713 0.007308763 0.09375822 -0.008635905 0.04138657 0.09099208
0.034332342 0.029688835 0.00079707446 -0.03289476 -0.09555081 0.14051078 0.039542057 0.010715246
0.09220474 0.01385419 0.09979754 0.101125926 0.0053746453 -0.043693174 0.0362489 0.049641307
0.026067266 0.12741812 0.114447 0.116155066 0.10553101 -0.06896014 0.08830599 -0.07527261
0.0025477414 0.036253296 -0.012315986 -0.050654083 0.052397322 0.13750589 -0.017353576 0.09345364
0.02519089 0.07052007 -0.039921682 0.046092447 0.0033934142 0.03453241 0.090259954 -0.046754558
0.063530065 -0.0072265402 0.005339442 0.023051368 -0.04291752 0.08474506 -0.0050107953 0.13085476
0.04909273 -0.04221029 0.12755805 0.045439374 0.035158053 -0.056700613 0.034419402 0.03140301
0.08114332 -0.06419924 -0.0024458042 0.064648226 0.018930303 0.065446965 0.048329007 0.12094419
00000000: e6ef e43d cebc c8bd 20c1 c4bc 13d3 233e
00000010: 4705 d83d 4d2c 4b3d b605 043e b4ff 303e
00000020: 793f 563d 1122 de3c 7f21 c23d bfca da3d
00000030: dec2 db39 6aec 173d 24f5 a0bc a7c1 f73d
00000040: 4bf3 453d c745 1d3e 0d1c 87bd 8ffc 84bd
00000050: c25d b93d 9e8c c93d 5e79 bfbc aa9a 223e
00000060: 93f4 08bd b94e fbbd 12fb 313d 8d6e 913d
00000070: 5af3 853d 65bf febd 90cc e33d c0df 983d
00000080: 257b 24bd 90e5 f93d 3a83 863d 16b1 eb3d
00000090: d9fb 6a3d a368 b03d 4873 e53d 7f33 ab3d
000000a0: 4644 863d 2dfe 133d cc7f 383c e3f2 263c
000000b0: dfa6 523d 3dc2 1fbc 4182 9a3d 00e0 41bd
000000c0: 5c37 a6bb f06e 203d d0d8 393d b27f 843d
000000d0: 6619 093d cea2 743d 04fa ce3c 0abb 0e3e
000000e0: 5167 193d a193 013e e537 13bb 71c3 883d
000000f0: df0b 4e3c ba68 c83d 4e18 553d f9a5 ee3c
00000100: 63e7 36bd 9b5d 2c3e cdaf 623d 6a25 8b3d
00000110: a395 d8bd b256 533d c4bc fcbc d5fd 9b3d
00000120: 7082 4f3d fc64 d93d 1984 563d 0bce 333e
00000130: 10b5 823d 3c63 223d aef4 893c 24d5 453d
00000140: d232 35bd 34ac 1d3e 1499 ddbb 90da aaba
00000150: a998 af3b 759f bbbb 7eb2 b53d 1574 02bd
00000160: 4523 29bd ac19 f5bb 5d83 173e 66a9 daba
00000170: ebbc 143d 4533 cc3d b8d4 9dbd c9f1 963d
00000180: 3003 383d 0aaa b6bc ec28 cc3b 32a4 c43d
00000190: 0f6c 9a3d 9eb7 673d 1055 723d f228 803c
000001a0: 8c98 8ebc e7fc fbbc 9542 8d3d 740b c9bd
000001b0: 7b60 f03b 7f12 ae3d 3dc4 633d f04f cc3d
000001c0: eb6c 4d3d 6a90 c03d 0bd2 b83d e2c0 9a3d
000001d0: 7a62 093d f204 3f3b e7e2 733d 271c b23d
000001e0: 06d8 083e d2ec babc d125 a2bb 83f5 1c3e
000001f0: 2c8a 6c3d f9fb f4bc 7c5a 0d3c 23c4 ac3d
00000200: 350d 00bc 71e3 083d e5c4 573d ae25 173e
00000210: 7a77 043d ff11 333d c405 0a3d 2408 023e
00000220: c2a6 823c 99c6 a23d c795 eb3d 6982 753d
00000230: 2a55 853d 0519 3ebd ccd9 5c3d 6fbd 7c3d
00000240: ea1c a2bd 2702 ea3d 59ac 713a 0558 c6bc
00000250: 0697 91bd d3dd 243e 5035 ee3d 3315 ec3d
00000260: 7953 2dbd ca88 8abd 5826 fc3c 4987 633d
00000270: b1e5 3b3d a594 1ebe e156 b03c 95ea c03d
00000280: 8302 a03d 1dd9 e13d 0c98 bb3d fec2 053d
00000290: 83f6 993d a22d 153e d978 233e 22cd 223d
000002a0: 48f7 03bd fc4b c93d 3ed1 19bb 6c1b b73d
000002b0: 51fa 313e 9418 293d 824e b13d bc2b 133d
000002c0: f6f0 0abd 3619 803d 74b8 0ebd db8e fabc
000002d0: 8a47 b53d 5efa 263e 6f47 ba3d ff2c ed3d
000002e0: 6ffd 61bc f1e7 173e 875d 1abc 597e ef3b
000002f0: 4f04 c03d 9c7d 0dbc f784 293d 0e5a ba3d
00000300: 12a0 0c3d 0036 f33c c3f2 503a a8bc 06bd
00000310: 25b0 c3bd 0fe2 0f3e daf6 213d 008f 2f3c
00000320: d7d5 bc3d affc 623c a762 cc3d 1c1b cf3d
00000330: cb1d b03b 9df7 32bd ba79 143d af54 4b3d
00000340: 058b d53c e579 023e 3063 ea3d b5e2 ed3d
00000350: a420 d83d f93a 8dbd c5d9 b43d 8728 9abd
00000360: 02f8 263b 567e 143d fdc8 49bc a87a 4fbd
00000370: 939e 563d 58ce 0c3e 1629 8ebc 9f64 bf3d
00000380: 205d ce3c d46c 903d eb84 23bd 6fcb 3c3d
00000390: 0b64 5e3b db71 0d3d 36da b83d b581 3fbd
000003a0: 0d1c 823d 9dcc ecbb 7cf6 ae3b 39d6 bc3c
000003b0: 48ca 2fbd d18e ad3d 9931 a4bb cafe 053e
000003c0: 7515 493d b2e4 2cbd 949e 023e a31e 3a3d
000003d0: e401 103d e73e 68bd 5cfb 0c3d 71a0 003d
000003e0: 782e a63d e47a 83bd c949 20bb 4a66 843d
000003f0: b913 9b3c 0f09 863d a3f4 453d 96b1 f73d

stack.2.bias f4 [128]
0.14223857 0.15679772 0.114829175 0.004147364 0.100543976 0.02680613 -0.1623416 0.0102894725
0.093857996 0.06198605 0.016221128 -0.021742282 0.030123906 0.23537442 0.08246282 0.033747457
0.14736885 -0.024452168 0.12158604 0.14447562 0.13277881 0.21387403 0.15231861 -0.09215398
0.19954953 -0.047294367 0.04553147 -0.034556296 0.022596952 0.17840879 0.030508917 0.087827295
-0.11645432 -0.14856349 0.004825633 -0.12851259 0.09082876 -0.13783294 -0.15553923 0.049355123
0.07458808 0.04467599 0.007621806 0.0069748275 0.05527693 0.13758944 0.03059638 -0.026318977
0.15604568 -0.016474508 -0.010929151 0.11444631 0.039189156 0.10537913 0.16918112 0.16492793
-0.10004935 -0.124002986 0.20972677 0.12911572 0.025564292 0.1442697 0.099704295 0.120721124
-0.13860369 0.017626837 -0.030593095 0.032173835 0.05845768 -0.07477618 -0.022211 -0.20472623
0.037924964 0.041899752 0.17019211 -0.050189883 0.14673786 0.0520309 0.05162775 0.11675632
0.12753338 0.11007312 -0.20382369 -0.10902766 0.084169075 0.044790436 0.12774336 0.14885937
-0.17196701 0.16448028 0.12114851 0.0020293272 0.01885822 0.0017220982 0.0074775233 0.1914472
0.0739248 -0.043288376 -0.21679349 -0.07826304 0.18784128 0.06328417 0.11288659 0.1425532
0.045177553 0.052680943 -0.114520445 0.073898084 0.18145327 0.10393755 -0.08496028 0.020397536
-0.07087809 -0.12180754 0.20733052 0.022016572 -0.059889857 0.030205654 -0.08158995 0.067150585
0.09700124 0.23291291 -0.078311704 0.037790913 0.04078011 0.10073387 0.07613704 0.13503456
00000000: fda6 113e 958f 203e 8f2b eb3d 9ce6 873b
00000010: 00ea cd3d 8798 db3c e03c 26be 2d95 283c
00000020: 9f38 c03d 16e5 7d3d 2ce2 843c df1c b2bc
00000030: 69c6 f63c fe05 713e 44e2 a83d c63a 0a3d
00000040: dce7 163e ea4f c8bc 1a02 f93d 6bf1 133e
00000050: 2bf7 073e cb01 5b3e 69f9 1b3e 3abb bcbd
00000060: b656 4c3e bdb7 41bd 357f 3a3d e78a 0dbd
00000070: 3e1d b93c cbb0 363e d6ed f93c ccde b33d
00000080: 9a7f eebd 0721 18be 5820 9e3b ce98 03be
00000090: 6e04 ba3d 1424 0dbe ad45 1fbe 9928 4a3d
000000a0: a3c1 983d 2cfe 363d 58c0 f93b 188d e43b
000000b0: 106a 623d 3fe4 0c3e 42a5 fa3c e59a d7bc
000000c0: 70ca 1f3e 8cf5 86bc 2f10 33bc d462 ea3d
000000d0: cf84 203d 03d1 d73d d13d 2d3e dee2 283e
000000e0: ace6 ccbd 47f5 fdbd 9dc2 563e e936 043e
000000f0: 356c d13c 70bb 133e c431 cc3d a33c f73d
00000100: 20ee 0dbe 2866 903c 5f9e fabc b6c8 033d
00000110: 5271 6f3d 4124 99bd d8f3 b5bc c1a3 51be
00000120: 3557 1b3d 139f 2b3d d746 2e3e e893 4dbd
00000130: 7342 163e 5a1e 553d 9f77 533d f01d ef3d
00000140: 1c98 023e 046e e13d 28b7 50be e549 dfbd
00000150: d660 ac3d 2d76 373d 28cf 023e 976e 183e
00000160: 1f18 30be 856d 283e b61c f83d 76fe 043b
00000170: 8e7c 9a3c 07b8 e13a 0306 f53b bc0a 443e
00000180: e365 973d 274f 31bd 1dff 5dbe 5f48 a0bd
00000190: 7759 403e 229b 813d 1631 e73d 77f9 113e
000001a0: 190c 393d f9c7 573d b289 eabd e157 973d
000001b0: e3ce 393e 36dd d43d a8ff adbd bc18 a73c
000001c0: 8828 91bd 3b76 f9bd 744e 543e 195c b43c
000001d0: 114f 75bd d971 f73c a218 a7bd 3f86 893d
000001e0: 96a8 c63d b980 6e3e e361 a0bd a5ca 1a3d
000001f0: 0b09 273d 8f4d ce3d bded 9b3d 8046 0a3e

stack.4.weight f4 [1, 128]
0.13116989 0.15858239 0.10228846 0.15528741 0.11728941 -0.11884738 -0.3547391 -0.45827252
0.08906615 0.15508123 -0.0709605 -0.22146133 -0.15377012 0.0888257 0.07903795 0.13505247
0.10118499 -0.0622626 0.10069253 0.113770254 0.07497695 0.09484796 0.17082876 -0.124315955
0.082585976 -0.25651082 0.14426869 -0.08972797 -0.040640462 0.10469228 -0.07051069 0.10272913
-0.33489105 -0.3314309 -0.22611062 -0.2851856 0.08922215 -0.2605338 -0.30182794 0.15600792
0.10281817 -0.2552926 -0.07517352 -0.0071846256 0.09623414 0.15213014 -0.1661799 -0.32395104
0.08922968 -0.35424808 -0.10862792 0.14259708 -0.19300212 0.12694706 0.09913283 0.13525924
-0.26039043 -0.2326084 0.12214267 0.09113274 -0.52030754 0.11486351 0.15473908 0.11511008
-0.3494896 -0.26225522 -0.29701564 -0.19397925 0.11190806 -0.12757875 -0.31726953 -0.3598881
-0.3442692 -0.05742101 0.10772539 -0.01798321 0.09202494 0.107619725 0.15516602 0.14856742
0.10383201 0.081590295 -0.30244473 -0.33714315 0.123904206 0.14688152 0.16341501 0.091213696
-0.24193457 0.11774578 0.117954165 0.13636117 -0.1399514 -0.1764699 -0.21712528 0.10586118
0.11116976 -0.26641074 -0.30810624 -0.044423938 0.12046181 0.15178621 0.13637753 0.084263906
-0.12403762 0.12626308 -0.25367424 0.0855637 0.08302689 0.14950097 -0.013700818 -0.40555397
-0.045499925 -0.37171698 0.28568286 0.15663236 -0.36260456 0.114978194 -0.33302534 0.13304375
0.09775683 0.21134919 -0.18060616 -0.06234026 -0.11218457 0.13538711 0.13964948 0.14776284
00000000: 6651 063e 6c63 223e 9d7c d13d aa03 1f3e
00000010: 6e35 f03d 4166 f3bd 5da0 b5be b2a2 eabe
00000020: 5068 b63d 9dcd 1e3e bd53 91bd c2c6 62be
00000030: ea75 1dbe 40ea b53d a6de a13d 324b 0a3e
00000040: 133a cf3d 1107 7fbd e337 ce3d 6100 e93d
00000050: 848d 993d a63f c23d bced 2e3e 5d99 febd
00000060: d622 a93d 6355 83be 2cbb 133e 4cc3 b7bd
00000070: 9d76 26bd e868 d63d e967 90bd a663 d23d
00000080: d776 abbe 50b1 a9be 8b89 67be d903 92be
00000090: 1aba b63d b064 85be 3189 9abe 8ac0 1f3e
000000a0: 5592 d23d b6b5 82be 93f4 99bd 026d ebbb
000000b0: 6816 c53d 01c8 1b3e 102b 2abe e9dc a5be
000000c0: 0dbe b63d 0160 b5be 5178 debd f804 123e
000000d0: 59a2 45be 69fe 013e 2706 cb3d 6681 0a3e
000000e0: e551 85be e530 6ebe f025 fa3d cda3 ba3d
000000f0: e032 05bf 8f3d eb3d ec73 1e3e d5be eb3d
00000100: 4df0 b2be 5146 86be 6f12 98be 7fa2 46be
00000110: 0e30 e53d 01a4 02be 2771 a2be 4143 b8be
00000120: 0d44 b0be 4b32 6bbd 219f dc3d 8651 93bc
00000130: 9277 bc3d bb67 dc3d d7e3 1e3e 0f22 183e
00000140: e0a5 d43d d018 a73d 09da 9abe 079e acbe
00000150: 7dc1 fd3d 1c68 163e 4456 273e 3fce ba3d
00000160: b2bd 77be b324 f13d f491 f13d 43a2 0b3e
00000170: 6b4f 0fbe 87b4 34be 1756 5ebe bfcd d83d
00000180: f9ac e33d fd66 88be 1ac0 9dbe e0f5 35bd
00000190: aeb4 f63d d86d 1b3e 8da6 0b3e 8e92 ac3d
000001a0: 7007 febd 1c4b 013e 97e1 81be 053c af3d
000001b0: 010a aa3d c816 193e 6579 60bc c5a4 cfbe
000001c0: 215e 3abd b051 bebe 0645 923e 3c64 203e
000001d0: 4ea7 b9be b079 eb3d 4c82 aabe 9f3c 083e
000001e0: bc34 c83d ec6b 583e d2f0 38be 8058 7fbd
000001f0: 06c1 e5bd eba2 0a3e 4600 0f3e 244f 173e

exp_avg f4 [128, 17]
0.008824021 0.006342471 0.0016472874 0.0149384355 0.0067127985 0.015267163 0.007604166 0.006553723
0.00646208 0.006545722 0.005229315 0.0032122475 0.0028922416 0.0031849365 0.0024522387 0.00036449954
-0.0021635373 -0.009445427 0.0077230236 -0.0058996542 -0.017832732 -0.00568107 -0.017974265 -0.008735042
0.0073704924 0.0072180624 0.0062928945 0.003495502 0.0072844108 -0.00061214494 -0.0016340208 0.002809367
0.005785542 0.013723324 0.004020545 0.0011683523 0.00037364612 0.0058985124 0.0030814838 0.006166425
0.0034646892 0.001121864 0.0010153373 0.0007051481 0.00079548726 -0.00064360007 -0.00013157843 6.7393725e-05
-0.0011682446 -0.00084998197 -0.0015097795 0.0115037365 0.013004112 -0.0005455979 0.022447394 0.007945812
0.02297559 0.009443688 0.013057145 0.013410948 0.01049458 0.00705769 0.0046823327 0.0037552305
0.0062464364 -0.0022263888 -0.0010276865 -0.0013106846 -0.003927586 0.0030465338 -0.0011251065 -0.0050208727
-0.004223298 -0.0038457655 -0.0034796516 0.0028447532 0.002504515 0.0022102157 -0.00011415797 0.002886318
-0.0007504963 -0.00440085 -0.0016509078 -0.0016860655 0.0027391699 -0.0019686522 0.00016300053 -0.0016687602
-0.0057562273 -0.0013818027 -0.0049849674 -0.0016857394 0.00022345717 6.116931e-07 0.001342429 0.0020835958
0.004274743 0.00045031554 -0.00018754919 0.004371682 0.004999175 0.0051755635 0.027089592 -0.00019223317
0.014674136 0.0366926 0.02608569 0.03688822 0.025873726 0.0032881717 0.0027119562 -0.00092895346
0.0091984 0.002899815 0.023629066 0.02418817 0.0017982023 0.0059401398 -0.0033925136 0.023311365
-0.011571191 0.0035719182 0.032599237 0.016352717 0.03318979 0.022197893 -0.0106258355 -0.00901941
-0.015983107 -0.0058629066 -0.014489595 0.0042036236 0.01910785 -0.014192001 -0.0048321774 -0.021178309
0.002907575 0.00083629333 -0.00040319582 0.004509088 0.0018537277 0.0051858327 0.0023654818 0.0008071645
0.0010669614 0.00075778464 0.00010760972 -0.00036939594 -3.1115866e-05 0.0022353556 -0.0003092583 -0.0012612117
-0.001033645 0.021951603 -0.0027512717 0.01241218 0.029299302 0.017869813 0.02744415 0.021712342
-0.002533349 -0.0028045308 -0.0034076136 0.0044013425 -0.0023489434 0.0006488695 0.005064775 -0.0019793417
0.0055481824 -0.0034751284 0.04284478 0.0034407277 0.020250462 0.058066763 0.032557696 0.059742413
0.04061947 0.00868922 0.00932942 -0.0030999843 0.016406802 -0.004857188 0.035810694 0.044650126
-0.0084625585 0.0077150986 -0.015983956 0.013661745 -0.0048859743 0.00671711 0.019472668 0.009326459
0.014860856 0.013584613 -0.001986858 -0.0016067757 -0.006006954 0.005420698 -0.0027368693 0.018459104
0.022150274 -0.0021202893 0.0072940006 -0.004676419 -0.016882451 -0.013898688 -0.014826123 -0.019797478
-0.0141816065 -0.018209714 -0.016345937 -0.017207779 -0.017497256 -0.0085072685 -0.017647576 -0.0067709014
-0.024906656 -0.023432333 0.004629896 -0.009657846 0.0027333777 0.0025241217 -0.0006026131 7.8754965e-05
0.002907621 0.0018220827 0.0033197962 0.002446051 -0.00048750927 -0.0005755579 -0.00032385922 0.00024470393
-0.00038498186 0.0006661731 0.00046999197 0.00043745307 0.0008733876 0.00039941008 0.005795858 -0.002163316
0.0034644443 0.009219191 0.0055124187 0.009225446 0.0056343065 -0.0009950928 -0.00081430946 -0.003539379
0.00062616356 -0.0031643799 0.0074360683 0.008358865 -0.0035795604 -0.0007643024 -0.0052796924 0.010197805
00000000: a092 103c 81d4 cf3b cbe9 d73a 57c0 743c
00000010: 09f7 db3b 1f23 7a3c 5e2c f93b 9dc0 d63b
00000020: dbbf d33b 7f7d d63b ac5a ab3b 9284 523b
00000030: c38b 3d3b 5eba 503b bdb5 203b 4d1a bf39
00000040: 22ca 0dbb fec0 1abc 6b11 fd3b e351 c1bb
00000050: f315 92bc 4528 babb c43e 93bc 6c1d 0fbc
00000060: 2c84 f13b 7f85 ec3b a034 ce3b cb14 653b
00000070: 11b2 ee3b 5a78 20ba a42c d6ba 5b1d 383b
00000080: a594 bd3b cbd7 603c c7be 833b 6623 993a
00000090: efe5 c339 4f48 c13b b8f2 493b b90f ca3b
000000a0: d70f 633b 820b 933a 1115 853a b0d9 383a
000000b0: 3f88 503a 45b7 28ba 51f8 09b9 bb55 8d38
000000c0: c91f 99ba 53d1 5eba cbe3 c5ba 2b7a 3c3c
000000d0: 330f 553c 7506 0fba 99e3 b73c 272f 023c
000000e0: 4e37 bc3c b3b9 1a3c a3ed 553c 98b9 5b3c
000000f0: 75f1 2b3c 3244 e73b 416e 993b 501a 763b
00000100: e8ae cc3b 9be8 11bb 70b3 86ba 47cb abba
00000110: fbb2 80bb 5ba8 473b 4f78 93ba 2286 a4bb
00000120: 9763 8abb 3d09 7cbb de0a 64bb 0a6f 3a3b
00000130: ca22 243b 44d9 103b 1868 efb8 6128 3d3b
00000140: f4bc 44ba 0135 90bb 4663 d8ba f8fe dcba
00000150: a583 333b 8104 01bb 1feb 2a39 4dba daba
00000160: bc9e bcbb 9b1d b5ba f058 a3bb 07f4 dcba
00000170: d44f 6a39 3b33 2435 71f4 af3a f08c 083b
00000180: 2513 8c3b 5418 ec39 daa8 44b9 5440 8f3b
00000190: 1fd0 a33b c697 a93b feea dd3c 3392 49b9
000001a0: ca6b 703c fb4a 163d a8b1 d53c 1a18 173d
000001b0: 23f5 d33c 5e7e 573b 13bb 313b 0385 73ba
000001c0: e3b4 163c d30a 3e3b be91 c13c 4526 c63c
000001d0: a8b1 eb3a 81a5 c23b ef54 5ebb 7af7 be3c
000001e0: 1895 3dbc d816 6a3b c786 053d 22f6 853c
000001f0: 04f2 073d 5bd8 b53c fc17 2ebc 26c6 13bc
00000200: 01ef 82bc a01d c0bb c465 6dbc 8dbe 893b
00000210: 1188 9c3c 9185 68bc 3e57 9ebb 227e adbc
00000220: 048d 3e3b b23a 5b3a 0764 d3b9 f9c0 933b
00000230: c8f8 f23a ebed a93b 3306 1b3b e597 533a
00000240: 49d9 8b3a 11a6 463a 87ac e138 7cab c1b9
00000250: 6882 02b8 0b7f 123b f223 a2b9 3e4f a5ba
00000260: 5f7b 87ba d9d3 b33c ae4e 34bb 755c 4b3c
00000270: 1705 f03c b763 923c 8ed2 e03c 15de b13c
00000280: 8b06 26bb 38cc 37bb 4552 5fbb 2339 903b
00000290: bbf0 19bb e518 2a3a 69f6 a53b d8b7 01bb
000002a0: 87cd b53b fbbe 63bb 027e 2f3d d57d 613b
000002b0: 4ce4 a53c 6ad7 6d3d 385b 053d 76b4 743d
000002c0: 9a60 263d 3b5d 0e3c 6cda 183c 1b29 4bbb
000002d0: 8f67 863c 0c29 9fbb 3cae 123d 0de3 363d
000002e0: 8ba6 0abc f0ce fc3b c9f0 82bc 83d5 5f3c
000002f0: 861a a0bb 341b dc3b 2585 9f3c 01ce 183c
00000300: f37a 733c ff91 5e3c f235 02bb 729a d2ba
00000310: fbd5 c4bb 1ca0 b13b 0c5d 33bb 8c37 973c
00000320: 7e74 b53c 8df4 0abb 8302 ef3b a53c 99bb
00000330: 114d 8abc 53b7 63bc 44e9 72bc 522e a2bc
00000340: f859 68bc 8a2c 95bc eae7 85bc 54f7 8cbc
00000350: 6856 8fbc 1262 0bbc a691 90bc 70de ddbb
00000360: 0b09 ccbc 2af5 bfbc 62b6 973b f13b 1ebc
00000370: 7822 333b bc6b 253b aef8 1dba 4029 a538
00000380: c98d 3e3b f3d2 ee3a f090 593b ed4d 203b
00000390: 6398 ffb9 09e1 16ba a6cb a9b9 9b4b 8039
000003a0: 64d7 c9b9 1fa2 2e3a 4169 f639 f559 e539
000003b0: 0df4 643a ea67 d139 2eeb bd3b 6bc6 0dbb
000003c0: bb0b 633b 170c 173c 85a1 b43b 5326 173c
000003d0: fd9f b83b c66d 82ba 6277 55ba edf4 67bb
000003e0: 2025 243a 7c61 4fbb 43aa f33b 9ff3 083c
000003f0: 0f97 6abb 775b 48ba 4501 adbb b214 273c

exp_avg_sq f4 [128, 17]
0.0037346557 0.0032699676 0.003095958 0.0034289432 0.0037152963 0.0035472286 0.0037868468 0.0031363545
0.0032523193 0.003173076 0.0025408806 0.002564214 0.00046647835 0.001348967 0.0018252244 0.0021009224
0.0019240482 0.008080297 0.0029307737 0.006896969 0.0075885975 0.00809906 0.007448244 0.0081275515
0.0025544174 0.0023530272 0.0024197868 0.002627986 0.005167374 0.00059860287 0.0022071844 0.0034102346
0.004956376 0.0059174253 0.0006263117 0.00060451933 0.0005276189 0.00056084985 0.00061707903 0.00059541425
0.00063688756 0.0005747946 0.00059364765 0.00053814566 0.00037628552 0.00035589913 5.8231926e-05 0.00022207583
0.00020379486 0.00024194088 0.000244939 0.009170265 0.008285836 0.007473325 0.008288305 0.0091364
0.00871287 0.009332613 0.007887032 0.008236317 0.00773141 0.0055377902 0.0053341924 0.00090003683
0.0033898859 0.0038083943 0.004183956 0.0041230717 0.0009932521 0.001328527 0.0008122319 0.00090436905
0.0009642366 0.0009103237 0.0010278351 0.0012533412 0.0012508827 0.0012656281 0.0010870148 0.0014502811
0.00015801626 0.0004716519 0.00090688263 0.0012228582 0.0016148607 0.0008091311 0.0017722128 0.0007078671
0.00080533966 0.0007883819 0.00073919893 0.0008176736 0.0017037373 0.0017131431 0.0015957698 0.0011373473
0.0011351482 0.00016282302 0.00051176874 0.0007275381 0.000827807 0.0012397268 0.017306779 0.009799402
0.015609365 0.015787601 0.01755785 0.01604124 0.017273992 0.009963089 0.010088005 0.012215262
0.013315346 0.016235976 0.0073341806 0.008890045 0.014583483 0.0148599185 0.014594872 0.031593505
0.015903356 0.028102158 0.028724728 0.031997643 0.028808637 0.031650066 0.015007004 0.015648164
0.02199306 0.020832334 0.030484155 0.004881042 0.012314744 0.030990044 0.028111275 0.02912161
0.00057435763 0.00018155947 0.0005159308 0.00053327065 0.00056663225 0.0005469255 0.0005851287 0.00017069539
0.00018715061 0.00018236085 0.00016564707 0.0002152727 6.172251e-05 0.00019531953 0.00020615313 0.00025209284
0.0002470937 0.011365353 0.0052539012 0.010295895 0.010248559 0.0113302 0.010296441 0.01140205
0.0049246075 0.0049825995 0.0067859814 0.007295078 0.01094731 0.0013671555 0.0031379387 0.009774492
0.010634178 0.011936364 0.052482117 0.033762682 0.047317527 0.04828455 0.053032417 0.04863093
0.052377906 0.03390859 0.03423178 0.041669223 0.043006945 0.05231567 0.020350885 0.02571835
0.04860562 0.047642637 0.047659468 0.007735287 0.003406168 0.008147492 0.007155657 0.007699773
0.0072584515 0.00764125 0.003584714 0.0036177298 0.0055124816 0.0067925933 0.00904916 0.004324634
0.0051049087 0.009247716 0.0084672775 0.008479005 0.0048817983 0.0074062743 0.005955254 0.0052118907
0.005461117 0.004788063 0.004570921 0.007972826 0.007777797 0.009738176 0.009367931 0.009014438
0.009400166 0.0060468796 0.011317483 0.007073182 0.0045579406 0.0004095614 7.128183e-05 0.0003363585
0.00034992018 0.00041368775 0.0003848015 0.00041834157 6.259168e-05 8.171651e-05 6.4953485e-05 2.7171991e-05
2.9121997e-05 1.7832426e-05 0.00011615213 5.8598096e-05 4.8213442e-05 4.894527e-05 0.002267311 0.0010262933
0.002367851 0.0021488618 0.002295649 0.0020724304 0.0022368121 0.0010570782 0.001036362 0.0015272476
0.00181126 0.002461166 0.0011309928 0.0011905951 0.0025526728 0.0023983165 0.0025417532 0.008197722
00000000: 20c1 743b f44c 563b 8ee5 4a3b 1fb8 603b
00000010: 547c 733b 9f78 683b bf2c 783b 4c8b 4d3b
00000020: dd24 553b 62f3 4f3b e784 263b 5f0c 283b
00000030: aa91 f439 d2cf b03a 5e3c ef3a a1af 093b
00000040: 5830 fc3a 3963 043c 3912 403b f8ff e13b
00000050: c5a9 f83b ebb1 043c 6610 f43b 6c29 053c
00000060: 0368 273b 3f35 1a3b 4995 1e3b 4a3a 2c3b
00000070: 1353 a93b 8feb 1c3a 69a6 103b 3e7e 5f3b
00000080: 1869 a23b f6e6 c13b 112f 243a 9b78 1e3a
00000090: e84f 0a3a ff05 133a 79c3 213a 9315 1c3a
000000a0: cdf4 263a d0ad 163a 059f 1b3a 5812 0d3a
000000b0: 3048 c539 f997 ba39 0e3e 7438 07dd 6839
000000c0: c4b1 5539 83b1 7d39 286b 8039 e13e 163c
000000d0: 51c1 073c cbe2 f43b accb 073c d7b0 153c
000000e0: 6dc0 0e3c d1e7 183c 9c38 013c 9ef1 063c
000000f0: c557 fd3b 5a76 b53b 73ca ae3b 73f0 6b3a
00000100: d928 5e3b 4196 793b 9119 893b d51a 873b
00000110: 0330 823a f821 ae3a f6eb 543a 2e13 6d3a
00000120: d3c4 7c3a caa2 6e3a 6cb8 863a 2747 a43a
00000130: a9f4 a33a 6fe3 a53a 2a7a 8e3a 5c17 be3a
00000140: 2bb1 2539 0c48 f739 ddbb 6d3a 5048 a03a
00000150: bca9 d33a de1b 543a 9849 e83a 2890 393a
00000160: 6e1d 533a 6aab 4e3a cdc6 413a 2559 563a
00000170: f04f df3a 8b8b e03a 2629 d13a 0b13 953a
00000180: 41c9 943a 79bb 2a39 3828 063a 41b8 3e3a
00000190: 3001 593a 547e a23a f2c6 8d3c ac8d 203c
000001a0: 6cbe 7f3c 0055 813c 7bd5 8f3c eb68 833c
000001b0: 3082 8d3c 393c 233c 2948 253c 8622 483c
000001c0: 9c28 5a3c 4f01 853c 9153 f03b 8da7 113c
000001d0: 90ef 6e3c 0477 733c 541f 6f3c 3168 013d
000001e0: c147 823c 7f36 e63c 1f50 eb3c f60f 033d
000001f0: 1700 ec3c 80a3 013d f0df 753c 9430 803c
00000200: ca2a b43c 92a8 aa3c e8b9 f93c 26f1 9f3b
00000210: c8c3 493c d5de fd3c 9e49 e63c 7190 ee3c
00000220: 7d90 163a 0061 3e39 883f 073a 30cb 0b3a
00000230: 0c8a 143a 8d5f 0f3a 5363 193a b2fc 3239
00000240: dc3d 4439 1e38 3f39 8cb1 2d39 d3ba 6139
00000250: 0571 8138 b0ce 4c39 cf2a 5839 542b 8439
00000260: 5b8c 8139 bf35 3a3c eb28 ac3b 1db0 283c
00000270: 92e9 273c 4ea2 393c 67b2 283c aacf 3a3c
00000280: 9a5e a13b 1345 a33b f05c de3b 8d0b ef3b
00000290: 595c 333c 2032 b33a e0a5 4d3b 3125 203c
000002a0: fa3a 2e3c bd90 433c 7df7 563d bd4a 0a3d
000002b0: 06d0 413d 05c6 453d 8538 593d 3a31 473d
000002c0: 378a 563d bce3 0a3d 9f36 0c3d 59ad 2a3d
000002d0: 0d28 303d f548 563d e6b6 a63c 4aaf d23c
000002e0: b016 473d ed24 433d 9336 433d 4a78 fd3b
000002f0: 043a 5f3b 0f7d 053c 007a ea3b 614e fc3b
00000300: 4ed8 ed3b 7363 fa3b 85ed 6a3b 6f17 6d3b
00000310: 0ca2 b43b 6794 de3b ee42 143c a9b5 8d3b
00000320: 1447 a73b bb83 173c 56ba 0a3c 86eb 0a3c
00000330: 7ef7 9f3b 55b0 f23b 4b24 c33b 82c8 aa3b
00000340: 2bf3 b23b 2fe5 9c3b aac7 953b 75a0 023c
00000350: e4dc fe3b df8c 1f3c f37b 193c 4bb1 133c
00000360: 2703 1a3c e724 c63b f76c 393c 27c6 e73b
00000370: c75a 953b 67ba d639 247d 9538 4659 b039
00000380: 7e75 b739 3be4 d839 2fbf c939 db54 db39
00000390: a743 8338 385f ab38 a337 8838 68ef e337
000003a0: 034b f437 d896 9537 b396 f338 3ac7 7538
000003b0: ca38 4a38 954a 4d38 2b97 143b b084 863a
000003c0: f32d 1b3b ebd3 0c3b 9972 163b 9dd1 073b
000003d0: 7b97 123b a98d 8a3a 8ad6 873a ed2d c83a
000003e0: cd67 ed3a 834b 213b d23d 943a be0d 9c3a
000003f0: be4a 273b 132d 1d3b 8b93 263b bd4f 063c

exp_avg f4 [128]
0.00285476 -0.00447225 0.000727615 0.00032780026 -0.0022262535 0.0022973863 -0.00945285 -0.0031084588
-0.00025975017 -0.0021123872 -0.009233962 0.0014503708 0.014082944 0.002361928 -0.0052955365 -9.284659e-05
0.002512812 -0.002603868 0.0008594063 -0.0011557762 0.007181339 -0.0031568536 0.0022142157 -0.0069913873
0.0023406825 0.005272656 -0.0061110076 3.8460727e-05 0.0017133794 0.017941402 0.008890928 -0.007797446
0.0011677378 0.0010283432 -0.006864893 -0.002960092 0.005034701 -0.0041547352 -0.0034868077 -0.0016387271
-0.004021574 -0.0028759814 0.004624652 -0.00058655825 -0.007307917 0.0015983784 -0.00069622387 -0.002741815
0.00091687025 0.003953758 0.0036345648 0.00340017 -0.0028355785 -0.0057378146 -0.0008708193 -0.012796927
0.0030154765 -0.007874969 0.0069600963 -0.009225671 -0.005031772 -0.00089492765 -0.0006926676 0.006767619
0.0019707452 -0.015868647 0.0006286043 0.01584763 -0.008709243 -0.009413835 -0.0005405035 -0.004100642
0.0016236795 -0.003495628 0.0017774649 0.0043459027 -0.0028796392 0.002688144 0.002446479 -0.0009291753
0.00015694903 -0.003950701 0.0025280584 9.8960554e-05 0.0029279354 0.0018443882 0.00073220226 0.00021344837
0.0013286808 -0.0011637559 -0.004707546 -0.0010663446 -0.0011701478 0.00022415149 0.0019117357 -0.010124873
0.002771735 -0.00063185726 -0.00157738 0.0020275349 -0.0048511503 -0.0038377447 -0.011447794 -0.0015071551
0.0018566774 0.003353212 0.0017323138 0.025901085 0.012313902 0.0055872286 -0.0023735918 0.0031268375
-0.0018378882 7.223301e-05 0.001956223 0.0016818501 0.00741382 -0.0021695087 0.00026042404 -0.0021705322
-0.008964939 -0.008461874 0.0031662087 -0.005308184 0.0010608225 0.0030201136 -0.0005229371 0.0004902737
00000000: ed16 3b3b f48b 92bb 6bbd 3e3a 9bdc ab39
00000010: 56e6 11bb bf8f 163b 20e0 1abc 49b7 4bbb
00000020: 142f 88b9 fa6f 0abb 0b4a 17bc 5e1a be3a
00000030: 26bc 663c 94ca 1a3b 2e86 adbb a2b6 c2b8
00000040: fdad 243b a8a5 2abb c849 613a 6a7d 97ba
00000050: 7051 eb3b 37e3 4ebb 601c 113b 0218 e5bb
00000060: 2366 193b 3fc6 ac3b d93e c8bb e450 2138
00000070: 7993 e03a d9f9 923c 41ab 113c b881 ffbb
00000080: c70e 993a 79c9 863a e5f2 e0bb 1afe 41bb
00000090: 22fa a43b 7224 88bb ed82 64bb 8fca d6ba
000000a0: 68c7 83bb f67a 3cbb 658a 973b 42c3 19ba
000000b0: 4077 efbb ae80 d13a cb82 36ba 06b0 33bb
000000c0: 1f5a 703a 878e 813b e131 6e3b 63d5 5e3b
000000d0: 1dd5 39bb 4704 bcbb b247 64ba 34aa 51bc
000000e0: 4d9f 453b 0406 01bc 8511 e43b 4527 17bc
000000f0: 90e1 a4bb 9499 6aba 2394 35ba e7c2 dd3b
00000100: 9e27 013b f7fe 81bc ecc8 243a e4d2 813c
00000110: 36b1 0ebc 7c3c 1abc 93b0 0dba ae5e 86bb
00000120: a5d1 d43a e816 65bb d3f9 e83a 1368 8e3b
00000130: 54b8 3cbb 932b 303b 1b55 203b e693 73ba
00000140: af92 2439 e274 81bb c8ad 253b 0b89 cf38
00000150: 9be2 3f3b 66bf f13a 43f1 3f3a 1cd1 5f39
00000160: 2127 ae3a 2b89 98ba c241 9abb 96c4 8bba
00000170: a55f 99ba 350a 6b39 3593 fa3a cce2 25bc
00000180: ffa5 353b 39a3 25ba 17c0 ceba 64e0 043b
00000190: 66f6 9ebb ac82 7bbb 878f 3bbc bc8b c5ba
000001a0: c15b f33a 90c1 5b3b ce0e e33a 832e d43c
000001b0: 40c0 493c 1215 b73b 438e 1bbb a1eb 4c3b
000001c0: 4be5 f0ba cd7b 9738 fa33 003b 8671 dc3a
000001d0: a1ef f23b 512e 0ebb 8689 8839 7d3f 0ebb
000001e0: aee1 12bc aca3 0abc 2b80 4f3b 46f0 adbb
000001f0: 4c0b 8b3a 19ed 453b b715 09ba b685 003a

exp_avg_sq f4 [128]
0.0040447623 0.0061482335 0.0006450273 0.009551811 0.0017674994 0.0018212529 0.015158549 0.02930615
0.00060870097 0.011255655 0.050380964 0.006537585 0.005443954 0.00014849554 0.0019431108 0.0061177495
0.009451819 0.008672714 0.0014711928 0.0030185382 0.004097088 0.042012036 0.00050849194 0.0020002224
0.00052147586 0.015484867 0.036341846 0.00068985304 8.279302e-05 0.035221867 0.0017524788 0.010176702
0.0010824092 0.005561644 0.033233836 0.008504319 0.0002852811 0.002720471 0.043807615 0.0047685243
0.00903314 0.010693049 0.0033710937 4.0871855e-05 0.044093937 0.00051827764 0.0002192673 0.00023377212
0.00037511883 0.005703455 0.0019295836 0.002016372 0.0013197495 0.029622486 0.00020502835 0.074251406
0.0029491915 0.008690954 0.0065473723 0.024246898 0.00083922263 0.0052614454 0.0005267125 0.0032646076
0.0013082767 0.031721726 0.0008024068 0.003054829 0.015072862 0.009129157 0.003147801 0.004840979
0.00032823774 0.0016190829 0.00044459515 0.0010089984 0.021959994 0.0049154125 7.417979e-05 0.00010972551
0.0019049797 0.005962924 0.0026290456 0.003057935 0.00014205936 0.0036730503 0.0032149428 0.001175165
0.0031132319 0.000966022 0.03392188 0.0002140676 0.0036668028 0.0044314577 0.013236538 0.0036606751
0.0009929882 0.003640691 0.0008318694 0.0080849705 0.011243456 0.0014745188 0.025400307 0.005367137
0.005622411 0.0029780548 0.0015856358 0.016323825 0.0036281403 0.0062264823 0.010540614 0.016308332
0.0050928225 0.00068991125 0.0012016047 0.00020174067 0.0022873855 0.00020202072 0.0020422046 0.04415061
0.010779551 0.0012945846 0.0047513633 0.057907388 1.486447e-05 0.0007457978 0.0004036966 0.0019235945
00000000: ed89 843b 1f77 c93b 0d17 293a 337f 1c3c
00000010: 70ab e73a 1bb7 ee3a 905b 783c 7313 f03c
00000020: 3b91 1f3a a469 383c 455c 4e3d 3d39 d63b
00000030: 3263 b23b 78b5 1b39 fbaf fe3a 6777 c83b
00000040: cddb 1a3c 0018 0e3c 0ad5 c03a abd2 453b
00000050: dd40 863b d014 2c3d 514c 053a 2a16 033b
00000060: a7b3 083a 3db4 7d3c 30db 143d 41d7 343a
00000070: 2aa1 ad38 ce44 103d 6eb3 e53a 2fbc 263c
00000080: a0df 8d3a 743e b63b 3420 083d b355 0b3c
00000090: c891 9539 ee49 323b 9d6f 333d 4841 9c3b
000000a0: bcff 133c e631 2f3c 91ed 5c3b d26d 2b38
000000b0: d89b 343d 06dd 073a 1eeb 6539 ba20 7539
000000c0: 99ab c439 0ce4 ba3b 15ea fc3a 1c25 043b
000000d0: 72fb ac3a dbaa f23c e1fc 5639 1f11 983d
000000e0: 3947 413b 8164 0e3c 578b d63b 6ea1 c63c
000000f0: 47ff 5b3a 3468 ac3b 1413 0a3a 07f3 553b
00000100: 7b7a ab3a a4ee 013d 9c58 523a 8733 483b
00000110: 2af4 763c 7692 153c 564b 4e3b 13a1 9e3b
00000120: 5317 ac39 6837 d43a 8d18 e939 5e40 843a
00000130: 72e5 b33c 7811 a13b f990 9b38 6f1c e638
00000140: 83b0 f93a a264 c33b 114c 2c3b a367 483b
00000150: c5f5 1439 8fb7 703b cab1 523b fe07 9a3a
00000160: 5d07 4c3b a43c 7d3a abf1 0a3d 5577 6039
00000170: be4e 703b c335 913b 10de 583c f0e7 6f3b
00000180: 2827 823a a998 6e3b cf11 5a3a d376 043c
00000190: 7936 383c a444 c13a 4e14 d03c cfde af3b
000001a0: 343c b83b 782b 433b 1cd5 cf3a 8bb9 853c
000001b0: 18c6 6d3b 8507 cc3b 8ab2 2c3c 0d99 853c
000001c0: b1e1 a63b 29db 343a 2a7f 9d3a 598a 5339
000001d0: f6e7 153b 86d5 5339 82d6 053b 45d7 343d
000001e0: b79c 303c 0daf a93a 53b1 9b3b 4c30 6d3d
000001f0: 6a62 7937 a581 433a 3ea7 d339 1f21 fc3a

exp_avg f4 [128, 128]
0.0015078929 0.0005655674 0.0018248811 0.0010770778 0.0018376161 -0.0005670603 -0.0021025238 0.00089380174
0.0021172564 0.00033042007 0.0006491092 0.00016649388 -0.00032501822 0.001417003 -0.0011529354 0.0012832972
0.00059545576 0.0001748482 0.0018378956 0.0010588263 2.7306216e-05 -0.0012897642 0.0019873553 -0.0023119051
0.0011022502 -9.9311146e-05 -0.00020140337 0.0010280639 0.0010733175 -0.0018271242 -0.0017984302 0.00023511711
0.00016835226 0.0010964106 -0.00067670323 -0.0007071069 0.0005989952 -0.0016658497 -0.0006378568 -0.00063476356
0.0004915919 0.00020534203 -6.970912e-05 0.000784839 0.00016839037 -0.00015585736 -0.0003277339 0.00091584504
0.0016946138 0.0019796004 0.0017468174 0.0014364534 0.0013783476 0.00011281851 0.0007541044 -0.00092624355
0.001957574 1.8055707e-05 0.0014069066 0.00050723227 0.0017866824 0.00090678444 0.00027556 -0.000613351
-0.0010868947 -0.0012321324 0.001342216 -0.0009872462 0.0012435885 -0.0014184741 0.0014357038 -0.00012711898
-0.0010386143 0.00032446577 0.00066871796 0.0008219943 0.0002800055 0.0014413587 0.00030956493 0.0017539391
0.0018775399 -0.00044703626 0.0023898599 0.0015221494 0.0017206204 0.00081245176 0.000112835776 0.0004815327
0.0008715951 0.0010941282 0.0009352252 0.0006535942 0.00020523161 0.0016878422 -0.001311952 -0.0006706044
0.0017122502 0.00065969396 0.00043810686 0.0006743096 8.0783095e-05 0.0007265705 0.00069867796 0.00018948477
0.0011561465 0.0007156781 0.00049309817 -0.001628061 0.002103554 0.00022703478 0.00081624195 0.0004575449
2.2223023e-05 -0.000818844 5.417983e-05 0.0004095606 -0.0015918144 0.0001320926 0.0013711603 -0.0002562055
-0.0004252837 0.0012329771 0.002116946 0.00040493923 0.0018226512 -0.00054722896 0.0019392407 7.53784e-05
0.0018224521 0.0006835861 0.0022056943 0.001301294 0.00222158 -0.00068622467 -0.0025430014 0.0010801442
0.0025587932 0.00039864215 0.0007843276 0.00020124624 -0.00039313926 0.0017114329 -0.0013943815 0.0015509103
0.0007191676 0.0002101506 0.002221373 0.0012796418 3.1998083e-05 -0.0015601527 0.0024025582 -0.0027953184
0.0013308539 -0.00012004155 -0.00024409179 0.0012425124 0.001296393 -0.002208648 -0.0021751528 0.0002833275
0.00020276192 0.0013251528 -0.0008188268 -0.0008561601 0.0007236841 -0.00201392 -0.00077233854 -0.00076914456
0.000592644 0.00024678063 -8.447187e-05 0.00094774057 0.0002031558 -0.0001899912 -0.00039727046 0.0011063927
0.0020476764 0.002391883 0.0021115574 0.0017351068 0.0016652306 0.00013574485 0.0009107823 -0.0011205282
0.0023648506 2.1074826e-05 0.0016992205 0.00061254966 0.002159856 0.0010958108 0.0003324172 -0.0007426077
-0.0013146678 -0.0014908832 0.0016219533 -0.0011939908 0.0015034346 -0.0017164515 0.0017344428 -0.00015374213
-0.0012560887 0.00039142408 0.0008071451 0.0009938779 0.0003377066 0.0017416071 0.00037390296 0.0021190746
0.0022695612 -0.0005414752 0.0028882166 0.0018391014 0.002079814 0.000982042 0.00013443078 0.00058144226
0.001053855 0.001322344 0.0011301094 0.0007894653 0.00024692243 0.0020389853 -0.0015860597 -0.00081099477
0.0020691336 0.00079628103 0.0005285356 0.0008150388 9.6121286e-05 0.0008781232 0.00084434595 0.00022804807
0.0013972032 0.00086459954 0.00059514766 -0.0019683172 0.002542347 0.00027307108 0.000986118 0.00055239524
2.7055536e-05 -0.0009916398 6.434408e-05 0.0004941972 -0.0019252575 0.00015895747 0.0016576021 -0.00031100714
-0.0005155419 0.0014901998 0.0025586388 0.00048909726 0.0022022529 -0.00066227093 0.0023433208 8.9351226e-05
00000000: 7da4 c53a 9642 143a d930 ef3a bc2c 8d3a
00000010: 2adc f03a c6a6 14ba 7fca 09bb 054e 6a3a
00000020: abc1 0a3b 3b3c ad39 fb28 2a3a dc94 2e39
00000030: 3567 aab9 bbba b93a 181e 97ba 4f34 a83a
00000040: 5c18 1c3a 7557 3739 8be5 f03a 51c8 8a3a
00000050: a70f e537 4e0d a9ba 4a3e 023b 5583 17bb
00000060: 6179 903a 4445 d0b8 ce2f 53b9 1ac0 863a
00000070: 8fae 8c3a 1d7c efba 4eb9 ebba c589 7639
00000080: b787 3039 6fb5 8f3a c964 31ba 245d 39ba
00000090: e305 1d3a a458 daba d835 27ba 4366 26ba
000000a0: 2dde 003a 1551 5739 cd30 92b8 a7bd 4d3a
000000b0: f291 3039 a46d 23b9 b3d3 abb9 5215 703a
000000c0: ce1d de3a 2fbc 013b 77f5 e43a 6147 bc3a
000000d0: aca9 b43a fa98 ec38 17af 453a 27cf 72ba
000000e0: a44a 003b 5676 9737 f467 b83a c8f7 043a
000000f0: 1d2f ea3a 46b5 6d3a 0a79 9039 4ac9 20ba
00000100: 2276 8eba 817f a1ba 4ced af3a 7c66 81ba
00000110: e8ff a23a 18ec b9ba 3a2e bc3a 3e4b 05b9
00000120: 1d22 88ba 0f1d aa39 e74c 2f3a 1b7b 573a
00000130: b4cd 9239 f9eb bc3a 1a4d a239 6ee4 e53a
00000140: c917 f63a 3160 eab9 329f 1c3b dc82 c73a
00000150: 7186 e13a b7fa 543a 3fa2 ec38 3a76 fc39
00000160: c27b 643a da68 8f3a e729 753a f755 2b3a
00000170: 7133 5739 963a dd3a cef5 abba 80cb 2fba
00000180: 956d e03a 50ef 2c3a b5b1 e539 27c4 303a
00000190: 186a a938 5277 3e3a 7c27 373a 6eb0 4639
000001a0: d789 973a 589c 3b3a 4243 013a aa64 d5ba
000001b0: c8db 093b 2f10 6e39 12f9 553a a3e2 ef39
000001c0: 946b ba37 b1a7 56ba 263f 6338 4bba d639
000001d0: 6ea4 d0ba 5682 0a39 81b8 b33a 5253 86b9
000001e0: 9df8 deb9 d99b a13a 76bc 0a3b 064e d439
000001f0: 07e6 ee3a ea73 0fba 1f2e fe3a 7814 9e38
00000200: 58df ee3a b032 333a 698d 103b 2e90 aa3a
00000210: ed97 113b c2e3 33ba 7ca8 26bb a093 8d3a
00000220: 6db1 273b d800 d139 569b 4d3a a005 5339
00000230: 421e ceb9 2952 e03a aec3 b6ba ea47 cb3a
00000240: 8586 3c3a df5b 5c39 7494 113b a7b9 a73a
00000250: ae35 0638 0a7e ccba 3d74 1d3b a931 37bb
00000260: 0c70 ae3a d1be fbb8 e4f2 7fb9 ccdb a23a
00000270: bbeb a93a f7be 10bb 028d 0ebb 938b 9439
00000280: 7d9c 5439 c0b0 ad3a 89a6 56ba ef6f 60ba
00000290: 9eb5 3d3a f9fb 03bb c376 4aba 6ba0 49ba
000002a0: aa5b 1b3a 5662 8139 7d26 b1b8 cb71 783a
000002b0: 3806 5539 6038 47b9 bd48 d0b9 6104 913a
000002c0: 4f32 063b 23c1 1c3b 0e62 0a3b 866c e33a
000002d0: de43 da3a bb56 0e39 91c1 6e3a b0de 92ba
000002e0: 9cfb 1a3b d8c9 b037 61b8 de3a 8393 203a
000002f0: 5f8c 0d3b 4fa1 8f3a 4848 ae39 8fab 42ba
00000300: ee50 acba bd69 c3ba b997 d43a af7f 9cba
00000310: e50e c53a 8efa e0ba 3e56 e33a d735 21b9
00000320: 58a3 a4ba 0d38 cd39 9796 533a 0245 823a
00000330: 360e b139 a346 e43a 6808 c439 2ce0 0a3b
00000340: ebbc 143b c9f1 0dba 3c48 3d3b 010e f13a
00000350: 7d4d 083b ddb7 803a fdf5 0c39 ee6b 183a
00000360: 8221 8a3a 8052 ad3a 2e20 943a 1ff4 4e3a
00000370: 5e75 8139 7fa0 053b 55e3 cfba f098 54ba
00000380: 4d9a 073b 84bd 503a 6c8d 0a3a 54a8 553a
00000390: b994 c938 da31 663a 1957 5d3a 3020 6f39
000003a0: 5c22 b73a 4ba6 623a af03 1c3a e2fe 00bb
000003b0: 819d 263b fb2a 8f39 a140 813a 9ece 103a
000003c0: 52f5 e237 e9f9 81ba 77f0 8638 038d 013a
000003d0: ec58 fcba d2ad 2639 e643 d93a ac0e a3b9
000003e0: 6e25 07ba cf52 c33a d6ae 273b c336 003a
000003f0: ac53 103b 409c 2dba 6692 193b 1362 bb38
