checkpoints/mlptest/model2_best.pt (torch, 955411 bytes, 15 tensors)

stack.0.weight f4 [256, 35]
000000 a4 e2 50 3d c1 3f d4 bd 1d bf 7a bd 81 10 f9 3c
       0.05099739 -0.103637226 -0.061217416 0.030403377
000010 7b 60 5e bd a2 43 4d 3d 01 51 9d 3d ac c5 25 be
       -0.05429123 0.050113328 0.07681466 -0.16188687
000020 86 f1 23 be 4e a6 ae bc 6c ea f7 bd 51 1b 4e 3c
       -0.16010103 -0.021319535 -0.12105259 0.012579755
000030 eb 9a 02 be 08 28 08 3e db 93 f4 3c 08 0c ef bd
       -0.12754409 0.1329652 0.02985566 -0.11672217
000040 79 b5 46 bd 21 4e d6 3d 58 3f ce bd 30 3a 09 be
       -0.04851291 0.10464121 -0.100706756 -0.13401103
000050 84 cc 1c 3d d1 7f ec 3d 39 88 f8 bc aa 53 8b bc
       0.03828098 0.115478165 -0.030338394 -0.017007668
000060 79 c9 23 3e ba 04 23 be 3e d1 80 b9 de 54 e2 3d
       0.15994824 -0.15919772 -0.0002456996 0.110513434
000070 79 be ac bd 1f 21 49 bc a3 6f b1 3d 0a ce 83 bd
       -0.08434767 -0.012275963 0.08663871 -0.06435783
000080 18 88 a6 bc ad 3b 13 3e d2 43 ca bd d3 8a c3 3a
       -0.020328566 0.14378233 -0.09876217 0.0014918692
000090 44 30 fb bd 52 0b 99 3b a3 e0 1a 3d 41 d7 c8 3c
       -0.12265065 0.004670539 0.037811887 0.024516704
0000a0 ca 6f 3f 3c 31 aa 2b bd 1b 95 89 3d 5e 8c 05 3d
       0.011684367 -0.041910354 0.06717893 0.032604568
0000b0 f9 48 66 3c 68 53 13 be 12 9e ee bd 1f 6f f4 bd
       0.014055484 -0.14387286 -0.11651243 -0.11935257
0000c0 47 5d 90 bd a8 16 d6 3d 01 03 1e be 87 9e d9 3d
       -0.07049041 0.1045354 -0.15430833 0.1062594
0000d0 ef 44 85 3d 41 b4 2c be 8f e1 fb bd 21 02 d0 bd
       0.06507289 -0.16865636 -0.12298881 -0.10156656
0000e0 30 44 10 3e 07 46 1e be 76 de 7c 3d 8e 73 0b be
       0.14088511 -0.15456401 0.061735593 -0.136183
0000f0 3a 90 01 3d 82 82 ce bb d0 80 c9 3d 45 6f e5 3d
       0.031631686 -0.006302179 0.09839022 0.112028636
000100 17 1b 97 3d 39 23 2a 3e 36 47 28 bd e1 1f 4e 3c
       0.07378214 0.16614999 -0.041083537 0.012580843
000110 63 e1 83 3d 22 7b 1a 3b 63 33 0b 3e ea 93 6d 3d
       0.064394735 0.0023571928 0.13593821 0.05800239
000120 96 55 97 bd 3e 64 f4 bc 7f d5 ee 3d c7 86 bb 3d
       -0.07389371 -0.029832955 0.11661815 0.09156566
000130 25 ff 28 bc 1b e3 a4 bd 3b 98 74 3d 66 2b cc 3d
       -0.010314737 -0.080511294 0.05971549 0.09969215
000140 98 81 4c bd 4d 70 b0 3d 4f 0e 1d bd e6 e7 11 3e
       -0.049928278 0.0861517 -0.038343724 0.14248618
000150 54 b0 30 be 5b b0 0c be ef d1 ac 3d 5d 9f 16 bd
       -0.17254764 -0.1373915 0.08438479 -0.036773074
000160 0b 8b e2 3d 83 33 e1 bc 3e 79 09 be 85 63 fd bd
       0.110616766 -0.027490383 -0.13425156 -0.123724975
000170 94 6f 21 3e 63 f4 5a 3d d5 b7 34 bb 42 39 8b 3c
       0.1576522 0.05345572 -0.0027575393 0.016995076
000180 68 a0 be 3d c3 55 13 be d7 65 fb bd f4 56 67 3d
       0.09307939 -0.14388184 -0.12275284 0.05647941
000190 3c 61 41 bc cf 9d 00 3d 03 94 80 3d 72 48 f6 3d
       -0.011802968 0.031400498 0.06278231 0.120255366
0001a0 14 36 96 3d fb d6 30 3d f5 d7 1a be 2f 57 a5 bd
       0.07334533 0.04317377 -0.15121444 -0.080732696
0001b0 f5 49 19 bd 7b f6 01 3e 06 86 f2 bd 3f b1 8a bc
       -0.037424047 0.12691681 -0.11841969 -0.01693022
0001c0 08 8f d4 bd 09 4a 17 be 04 04 17 be 13 27 00 3e
       -0.103788435 -0.14774336 -0.14747626 0.12514906
0001d0 3d 9a e4 3d 55 ad a6 3d ca 1a b7 bc 2e 2f 07 3e
       0.11162231 0.08138529 -0.022351641 0.13201591
0001e0 13 3d 60 3c 39 d6 12 be 16 ab d9 bd 67 c1 4d bd
       0.013686436 -0.14339532 -0.10628335 -0.05023327
0001f0 c5 b7 49 bd 2d 43 11 be ba f0 d3 3d fa 55 53 3d
       -0.049247522 -0.14185782 0.10348649 0.051595666
000200 ca 13 a2 3c fd f7 02 3e e8 1f 82 bd ac ef 16 be
       0.019784827 0.12789913 -0.06353742 -0.14739865
000210 3f af 97 3d e1 ae 4b bd 46 42 c0 bd 2e a5 ba bd
       0.074064724 -0.049727324 -0.09387641 -0.09113537
000220 c9 d6 08 bd ba 97 01 bc 2e 63 7a 3d 1c 4b 47 bd
       -0.03340796 -0.00790971 0.06112974 -0.048655614
000230 f6 39 cb 3d fd 66 d9 bd 99 c9 57 bd 9f c1 a2 bd
       0.099231645 -0.106153466 -0.052682493 -0.079470865
000240 2d 84 28 bd 59 59 80 bd 49 91 64 bb f9 b7 a0 bd
       -0.041141678 -0.06267042 -0.0034876636 -0.0784759
000250 2b 61 4d bd e0 57 8a 3d 62 97 4f bd 1b cd 0d 3e
       -0.050141495 0.06755042 -0.05068148 0.13847773
000260 dc d6 c6 3d 60 74 01 be f4 ee 68 bd cc e3 b4 3d
       0.0970895 -0.1264205 -0.05686851 0.08832511
000270 62 37 d6 3a 4a 30 0b be 02 4b 09 be af ea b3 3d
       0.001634341 -0.1359264 -0.1340752 0.08784997
000280 75 cd 2c 3e 25 d6 25 3e d0 c4 c1 3d a4 b1 50 3d
       0.1687525 0.16194971 0.09461367 0.05095066
000290 9a b2 03 3e 3f 1a 6b bc 5c be 86 bc d0 2f 6c 3d
       0.128611 -0.014349519 -0.016448192 0.057662785
0002a0 bc cf 25 be 1a f9 0e be 5d 35 b5 bd 58 b3 aa 3b
       -0.16192526 -0.13962212 -0.08848069 0.0052093677
0002b0 d6 54 ca bd 34 a4 b3 3d 1a 36 ff 3d e3 e2 94 3c
       -0.098794624 0.08771554 0.12461491 0.018174594
0002c0 72 2d c9 3d f9 94 ce bd f7 d2 0b be d1 51 2a be
       0.09823121 -0.10087008 -0.13654695 -0.16632773
0002d0 7f 70 db 3d 80 2f e4 3d da 0f 05 3e af 81 c1 3c
       0.10714816 0.111418724 0.12994328 0.023621408
0002e0 20 97 dd 3d 40 58 32 3c 07 8f 38 bd 75 f3 f7 3d
       0.108198404 0.010885298 -0.045058277 0.121069826
0002f0 76 ec 1d 3e 24 51 d1 3c 29 da 6f 3c 0f a2 a5 bd
       0.15422234 0.025551386 0.014639416 -0.08087551
000300 c5 b5 44 be 62 87 12 3d f5 cf e1 3c 06 af a1 3d
       -0.19209965 0.035773642 0.027564982 0.07894711
000310 11 d8 1e 3e e0 1c e6 bc ba 2c 06 3d fa 0e b2 3d
       0.1551211 -0.02808994 0.0327575 0.08694263
000320 18 6b 86 bd 26 bf 82 bd b5 27 af 3c fe 64 91 bd
       -0.06563395 -0.06384115 0.021381238 -0.07099341
000330 aa dd 20 3e 16 55 64 3d 67 12 96 3c d2 7b 77 3c
       0.15709558 0.055745207 0.018319322 0.015105205
000340 28 46 11 3c e4 d2 99 3d 80 ea be bd d7 5d 1a 3d
       0.008866824 0.07510927 -0.09322071 0.03768715
000350 13 1f 8b bd 59 b4 67 3d 46 af 53 3c 66 9d 15 3e
       -0.06793036 0.056568477 0.012920206 0.14610824
000360 18 ad ea 3d 3f 66 f0 3c 0d f5 15 be a9 74 51 3d
       0.11458796 0.02934563 -0.1464426 0.051136646
000370 85 cb cc bd e0 de ac 3d 9c 9d cd bd 31 40 e1 bc
       -0.09999756 0.084409475 -0.10039827 -0.02749643
000380 5f 7b ea bc b9 77 94 bd df f2 2a 3e c7 13 e5 bc
       -0.028623281 -0.07249398 0.1669421 -0.027963532
000390 c8 09 19 3e e5 41 18 3e 6b 05 0b be 5d d1 cf 3c
       0.14945138 0.14868887 -0.13576286 0.025368387
0003a0 eb f4 ab bd f2 bc 95 bd c9 82 24 3e ab 5e 29 3e
       -0.08396324 -0.07311429 0.16065516 0.16540019
0003b0 ad 73 4a bd 44 bb cb 3d b7 25 3c bc f3 74 06 3d
       -0.049426723 0.099478275 -0.011483601 0.032826375
0003c0 a9 c1 53 bd 22 93 15 be ab ed af 3d af f1 ba bd
       -0.05169836 -0.14606908 0.085902534 -0.09128129
0003d0 14 ab ef bd 7c 79 68 bd be e7 06 be 56 cd 0a 3e
       -0.117025524 -0.05675648 -0.1317434 0.13554892
0003e0 cb 39 c3 3d 4e 1d 2d bc 91 65 e4 ba 78 b6 44 3e
       0.095325075 -0.010566069 -0.0017425289 0.19210231
0003f0 b5 51 18 3e a1 bf a4 bd c4 c8 1c 3d 51 77 26 3e
       0.14874919 -0.08044363 0.038277403 0.16256453

stack.0.bias f4 [256]
000000 fc fd 21 be c6 42 20 be a5 d2 78 bd 9b f8 97 bc
       -0.15819544 -0.15650472 -0.06074776 -0.018551162
000010 59 e9 02 bf 86 f0 37 be e2 10 e0 be b7 94 4f bf
       -0.5113731 -0.17962846 -0.4376288 -0.81086296
000020 1c 66 1d bf 8f 49 1d be c3 90 e1 be f0 02 17 bf
       -0.6148393 -0.15360092 -0.44055757 -0.5898886
000030 eb 07 e5 bc 94 53 dd 3e ac 5c 1d 3e 05 7e d3 3e
       -0.027957877 0.43227828 0.15367383 0.41307083
000040 6f 0b d2 bd 05 02 05 3f 20 a2 b7 3e 61 c6 04 be
       -0.10256087 0.51956207 0.3586588 -0.129663
000050 8b 8f ba be 68 48 d4 3e 76 fd c6 be fe af 13 be
       -0.3643764 0.41461492 -0.3886525 -0.14422604
000060 8c af f7 bd 22 09 20 3d 64 16 ad 3d af 16 30 bd
       -0.1209403 0.03907121 0.08451536 -0.042990383
000070 43 01 47 3d d0 38 02 3f 67 33 a7 be 30 b2 33 3f
       0.048585188 0.5086794 -0.32656404 0.7019377
000080 6f 74 c9 3e c5 42 09 be ee 76 3f 3f 03 73 eb be
       0.39346644 -0.13404377 0.7479085 -0.45986184
000090 6a bf 24 3f 94 13 2a bf 13 b2 d6 3e 4f fb 63 3d
       0.64354575 -0.66436124 0.41932735 0.05565959
0000a0 9e cd 03 3e 1f 70 81 bd f5 22 6f be 7d ee a0 3e
       0.12871405 -0.063202135 -0.23353179 0.31431952
0000b0 cc bc 16 be 3c 9c 1d 3e 69 a4 9d 3d ed c2 94 3d
       -0.14720458 0.1539163 0.076973744 0.07263742
0000c0 83 71 c1 be 89 40 df be 29 7f 5a 3e 03 19 1c bf
       -0.37781915 -0.43603924 0.2133757 -0.60975665
0000d0 3f 10 6c bb 0e bf f6 be 1c dc a3 3d 3d e1 d6 3d
       -0.0036020426 -0.48192638 0.08000967 0.104921795
0000e0 d5 03 9f bd ba 28 b4 be 6f 00 18 3f 83 55 0f bd
       -0.07764403 -0.35187322 0.5937566 -0.03499366
0000f0 01 4f 19 3e 36 e8 f3 be ff 64 0b bf b6 4a 00 bf
       0.14971544 -0.476381 -0.5445098 -0.50114
000100 3f ee ff 3d 30 fb 20 be bd a4 65 3d 7f 82 66 be
       0.12496614 -0.1572082 0.05606531 -0.22510718
000110 54 ec 2d bf 39 a5 74 3c e4 7d a3 be 24 18 bb be
       -0.67938733 0.01493197 -0.31931984 -0.36541855
000120 32 56 92 bd a4 76 ce be bb 8e 1a bf 44 eb 6a 3e
       -0.07145347 -0.4032489 -0.6037404 0.22941309
000130 ae f5 3b 3f 38 97 b2 bd b7 02 fb be 5b 17 c3 3d
       0.7342175 -0.08720249 -0.4902551 0.09525939
000140 e2 8a 8c 3d 11 e2 12 bf 5f 48 ab bd 5c 0f e8 3e
       0.06862427 -0.573762 -0.08363413 0.45324218
000150 d5 6d 84 3e a8 84 7f 3d 3b 47 32 3f a1 5b 11 bf
       0.25865045 0.06238237 0.6963994 -0.5678044
000160 53 4a 65 bf e2 01 d4 3d 8e cb 2d 3f 21 29 22 3e
       -0.89566535 0.103519216 0.67888725 0.15836002
000170 bd 01 48 be 1b c0 17 3f 89 fd 3d be a7 9e ff be
       -0.19531913 0.59277505 -0.18553747 -0.4992573
000180 c1 15 b6 3e 67 e5 ed 3e 81 45 a2 bd c9 e3 27 be
       0.35563472 0.46464083 -0.07923413 -0.16395487
000190 f0 25 10 bf 9e 8a 95 3e a0 c1 43 3f db a6 0f bf
       -0.5630789 0.2920732 0.76467323 -0.56113976
0001a0 06 f7 e7 be 4f bb c1 be 1c 7d c5 bd 64 9b 19 3d
       -0.4530565 -0.37838218 -0.09643003 0.037501708
0001b0 99 1e 03 bc c9 4d 25 be 52 63 04 bf 74 d2 26 3f
       -0.0080029005 -0.16142954 -0.5171405 0.65164876
0001c0 fc c8 22 bf d6 21 94 be 19 4d fa bd 8c 47 5a bd
       -0.6358793 -0.28932065 -0.122217365 -0.05329089
0001d0 a5 d3 fa bd ad ad 88 bd d0 0f 29 bd cb 37 11 3f
       -0.12247399 -0.06673751 -0.041274846 0.5672576
0001e0 f7 ff d6 bc 5f 60 1f bf 83 75 8c be 26 d5 0d be
       -0.0262451 -0.62256426 -0.27433404 -0.13850841
0001f0 03 f8 f8 3e f8 09 01 bf 2d e7 f5 be 21 6f 15 3c
       0.48626718 -0.50405836 -0.48027936 0.0091207335
000200 b4 01 61 be 95 3f 3d 3f 00 a6 26 bf c7 65 1d bf
       -0.21973306 0.73925143 -0.65097046 -0.61483425
000210 a3 3e 3b 3f 2c dd 48 3f 6f bf 23 bf d0 4c 15 bf
       0.7314245 0.7846248 -0.6396398 -0.5832033
000220 bb 00 1d 3f d9 4a 11 bf 24 14 52 3d d5 fd 95 3d
       0.6132924 -0.56754833 0.05128874 0.07323805
000230 73 4b e9 be a3 05 08 bf 53 2b 36 be 6d 15 20 be
       -0.45565376 -0.531336 -0.17789964 -0.15633173
000240 ac 57 9f be 8e 09 1c bf d0 68 48 be 59 e3 29 be
       -0.31121576 -0.6095208 -0.19571233 -0.16590632
000250 77 6a ea bd c8 89 08 3d fb cc fc be 0e 3d 59 be
       -0.11446088 0.033334523 -0.49375138 -0.21214697
000260 cf 13 17 bf ec c6 24 bf a9 50 17 3f b6 d4 a2 3c
       -0.590146 -0.6436603 0.5910745 0.01987682
000270 59 97 c7 3e b9 83 96 3c 14 36 81 3e 69 2a cc 3d
       0.38982657 0.018373357 0.2523657 0.099690266
000280 63 c7 0c be 45 58 96 3d b0 3e 08 bf b4 84 3e bf
       -0.13747935 0.07341055 -0.53220654 -0.7442124
000290 3a 5a 1b bf 7b e5 90 3c dc e3 d3 3d 85 4a 10 bf
       -0.6068455 0.01768755 0.10346195 -0.5636371
0002a0 93 27 13 bf 81 bd cd bb ed e1 5f 3e ec e6 6f 3c
       -0.5748226 -0.006278694 0.21863528 0.014642458
0002b0 89 40 1c 3f cd ef 82 3e 8f f3 18 3f 63 df 2d 3f
       0.6103597 0.25573578 0.5974664 0.67918986
0002c0 93 d3 3e be f9 23 d0 bc ad b3 de bd 11 31 03 3e
       -0.18635397 -0.025407778 -0.10874114 0.12811686
0002d0 72 6c 31 bf e1 9d cc bc f4 27 e1 be 37 0c 31 bf
       -0.693061 -0.024977626 -0.43975794 -0.69159263
0002e0 3d 4e b6 be 3d a3 0f 3f b2 1f 1e bf 62 41 3c 3f
       -0.35606566 0.56108457 -0.61767113 0.73537266
0002f0 a2 41 0b 3e 83 fa 06 bf ff 3d bd 3d c8 87 a6 3c
       0.13599256 -0.52726 0.092403404 0.020328417
000300 b7 63 10 3f 61 56 8f bd d2 a0 cd bb fa 0c cc be
       0.5640215 -0.06998897 -0.006275275 -0.3985365
000310 d2 3b 03 3e e8 b7 25 bd 36 9a b7 bd c1 d7 2a be
       0.12815788 -0.04045859 -0.0896496 -0.16683866
000320 a5 85 92 3d 43 47 b0 be e9 03 24 bf 91 43 23 3f
       0.07154397 -0.34429368 -0.64068466 0.63774973
000330 ff 16 26 3f cc e5 cf be 91 94 05 3f c8 67 f9 be
       0.6487884 -0.4060501 0.5217982 -0.4871199
000340 4d b9 19 bf 04 54 29 3e e0 c4 2c 3f e0 31 0c 3f
       -0.6004837 0.16535956 0.6748791 0.54763603
000350 58 b9 ee bd b6 1f 9c 3e a1 6c e0 3e 7b 5b 1b be
       -0.11656445 0.30492944 0.43832877 -0.15171616
000360 d3 4d ad 3d 7d e5 33 be 8b 84 31 be f3 89 ad bd
       0.084621094 -0.17568012 -0.17335717 -0.08473577
000370 49 a9 1b 3f 28 f6 1b 3e 0b 5a 74 3e f7 78 e2 3e
       0.60805184 0.1523062 0.23862474 0.44232914
000380 a0 8b e6 3d bf c8 0c bf c3 eb 65 bd 30 74 18 be
       0.112571 -0.54993814 -0.056133043 -0.14888072
000390 16 72 7e 3e 94 3b 13 be 04 ae a9 bd 81 64 c3 3d
       0.24848208 -0.14378196 -0.08285144 0.09540654
0003a0 89 eb fb 3e 91 7f 07 3f b3 8e 47 3c d4 e7 a6 be
       0.49203137 0.52929026 0.012180018 -0.32598746
0003b0 7a 07 01 be 1b 23 de be a7 18 1b 3f df 23 93 3e
       -0.12600508 -0.43386158 0.6058449 0.28738305
0003c0 29 fe 06 3f ab 85 7a 3c b5 9f 42 be 3e 0b 6f bd
       0.5273157 0.015290658 -0.19006236 -0.05836033
0003d0 c2 dc f0 bd a2 8e 08 bf 5d b7 d9 3d 5c e4 2b bd
       -0.11760856 -0.5334264 0.10630677 -0.041965827
0003e0 a1 6e 4c bf fc 79 28 be 15 c0 52 3e ff 5b 34 bf
       -0.79856306 -0.16452783 0.20581086 -0.70452875
0003f0 d5 d0 20 3f 6a cc 7e be a8 f4 61 3d a8 f4 27 3e
       0.6281865 -0.24882665 0.055164963 0.16401923

stack.2.weight f4 [256, 256]
000000 60 36 6a 3b c8 06 52 bd b4 6f e7 ba f0 d5 09 bb
       0.0035737976 -0.051276 -0.0017657191 -0.0021032058
000010 ea ee 5b bd 62 95 00 bc 42 6e 7e bd d3 a6 08 bd
       -0.053694643 -0.007848116 -0.06211687 -0.03336222
000020 9f 4d a0 3b ec 89 15 bd 3b 16 1c 3c 72 2e a9 bc
       0.0048920657 -0.036508486 0.0095267845 -0.02065203
000030 8e 62 2a 3d 7e 2f d1 bc 37 95 51 bd 2f bc 2a 3d
       0.041597895 -0.025535341 -0.051167693 0.041683372
000040 ae 09 24 bd 36 bb 5d 3d 57 7f 5f bd a0 70 ac bb
       -0.040048294 0.054133616 -0.0545648 -0.0052624494
000050 37 29 75 bc 0b 84 e2 bc ec 7f 6b bd cc 3c 5e bd
       -0.01496344 -0.027650854 -0.057495043 -0.0542572
000060 20 c0 4b bb 33 d5 06 bd 70 47 79 bd 0f 02 41 bd
       -0.0031089857 -0.032918166 -0.060859144 -0.047121104
000070 6c c9 6e bd 80 3c d3 3a 0d 24 91 bd 00 4b 15 3d
       -0.05829756 0.0016116053 -0.07086954 0.03644848
000080 76 22 21 3d cd 3b c9 3c 14 78 91 bd b8 f3 f6 3c
       0.039339505 0.024564648 -0.07102981 0.030145511
000090 bc 08 85 bd 5d 20 61 bd 75 df 34 bd 2c a4 34 bd
       -0.064958066 -0.054962505 -0.044158418 -0.04410188
0000a0 38 9e aa 3c c8 f1 d2 bc a6 70 ea bb 4c 30 e3 bc
       0.020827398 -0.025750056 -0.007154542 -0.02773299
0000b0 78 94 70 3c 99 d1 70 bd 48 22 6c bd 28 30 44 3c
       0.014683835 -0.058793638 -0.05764988 0.011974372
0000c0 c0 5a 34 bd 53 07 2a 3d b2 69 3d bd c8 1b 62 bd
       -0.04403186 0.04151089 -0.046243377 -0.055202276
0000d0 fe 8a 59 3d f1 b6 83 bd 42 a2 99 bc 8c fd 49 3d
       0.05311107 -0.06431378 -0.018754128 0.049314067
0000e0 2c 23 f3 3c 0e bc 86 bd 70 fc 6e bc b0 ad 3f bd
       0.029679857 -0.06578837 -0.014586553 -0.0467965
0000f0 38 38 e6 3c 01 4e ad bc cc 54 e9 3c c0 c0 25 3b
       0.028102979 -0.02115536 0.028482817 0.002529189
000100 60 c3 57 bc 3e 2e 52 3d 06 ee 5a bd 40 5c d1 3c
       -0.01316914 0.05131363 -0.053449653 0.025556684
000110 70 8d 2f 3d be 8c b4 bc e6 c7 f3 39 e4 8c 31 3d
       0.042859495 -0.022039767 0.00046497508 0.043347254
000120 28 ff 1f 3d e1 16 75 bd 59 6d ef bc 20 77 c4 bc
       0.039061695 -0.059836272 -0.029226946 -0.023982584
000130 89 00 e8 bc 47 2d 6e bd a1 08 a9 3c 3e 92 6f bd
       -0.028320568 -0.05814865 0.020633997 -0.058489077
000140 5f 1f 13 bd 51 3d 44 3c 44 e5 15 3d f9 e7 c5 3c
       -0.03591859 0.01197751 0.036595598 0.024158465
000150 e7 e8 3c bd 68 0e ed 3c 07 dc 65 3c 94 ed 61 bd
       -0.04612055 0.028937533 0.014029509 -0.055158213
000160 c1 c8 1b 3d e0 d5 0d 3c fc 56 50 bd 74 c4 4d 3d
       0.03803325 0.008656949 -0.050864205 0.05023618
000170 83 34 87 bd 3f fb 55 bd 1f 09 0f 3d 10 f4 77 3d
       -0.06601813 -0.05224156 0.034920808 0.06053549
000180 d1 57 66 bd ae 3c 0f bd c5 0a 6d bc fa 1a 8e bd
       -0.056236092 -0.034969978 -0.0144679 -0.06938739
000190 0f 6a f3 bc 75 81 41 bd ea f7 3e bc 59 a5 3c bd
       -0.029713659 -0.0472426 -0.011655787 -0.046056125
0001a0 31 7b 1a bd 4b 10 ce b7 3f 40 7f bd 81 86 45 bd
       -0.03771514 -2.45647e-05 -0.06231713 -0.048223976
0001b0 60 2c cb bb 3d db 08 bc 70 d1 b7 3b 7e 5c a6 bc
       -0.0062003583 -0.008353052 0.0056096837 -0.020307776
0001c0 50 13 60 bb 33 ff 25 3d 10 84 eb 3b 06 d3 08 3d
       -0.0034191199 0.04052658 0.007187374 0.033404373
0001d0 a8 22 a7 bb b2 cf 05 bd 20 ec b5 bc bf 36 9e 3b
       -0.005100567 -0.032668777 -0.02220732 0.0048283036
0001e0 0a 56 0b bd 98 a4 58 bd 8b 30 5c bd 7a 26 3c bc
       -0.0340176 -0.052891344 -0.05375723 -0.011483783
0001f0 8c b5 25 bd 53 04 fa bc ae 19 43 3d a0 a9 1a 3b
       -0.04045634 -0.03051964 0.047631912 0.002359964
000200 6f 5d 48 bd f1 7b 7a bd 50 54 53 bb 24 ce e0 3c
       -0.04891723 -0.061153356 -0.00322463 0.027442046
000210 ba 15 42 3c ad 29 39 3d 68 03 3e bd 10 f7 38 bc
       0.011846 0.04520576 -0.046389967 -0.011289373
000220 5c 40 59 bd c0 3f 4c bc ba f4 49 3d 95 e9 75 bd
       -0.053039894 -0.012466371 0.049305655 -0.060037214
000230 a0 a1 18 3d c1 2f 48 3d db 29 45 bd bc 11 6e bc
       0.037263513 0.048873667 -0.04813562 -0.014530595
000240 12 0e 38 3d f2 14 2b bd 1a 32 89 bd 3c 3b 34 bd
       0.044935293 -0.041768022 -0.06699009 -0.044001803
000250 c9 69 1e bd 6e c9 c3 bc 87 30 b5 bb 74 ca 1b bd
       -0.038675103 -0.02389976 -0.0055294666 -0.03803487
000260 ec 57 08 3d 92 de 70 bb 10 da 96 bc 62 f0 64 bd
       0.033286974 -0.0036753756 -0.018414527 -0.05589331
000270 7d a8 86 bd 22 30 05 3d 0a 50 e4 bc 40 81 08 3c
       -0.06575105 0.032516606 -0.027870197 0.008331597
000280 e4 9b 11 3d 68 c6 a1 bb 22 a8 4b bb 64 e9 1b 3d
       0.03554906 -0.004936982 -0.0031075557 0.038064376
000290 20 37 62 3d 95 31 69 bd 10 59 1c bb da 73 b1 3b
       0.055228353 -0.05693205 -0.0023856796 0.005415422
0002a0 f8 2f ec bb 82 72 23 3d 3e d2 8f bd f6 1c 7b bd
       -0.0072078668 0.039904125 -0.070225224 -0.061306916
0002b0 84 eb 65 3d 81 65 9c bc 23 b1 06 3d 1e 8b 36 bc
       0.05613281 -0.01909137 0.032883774 -0.011141567
0002c0 d3 5a 3e 3d a0 f2 88 3c c0 17 2d bd 5c 84 32 bc
       0.046473335 0.016717255 -0.042258978 -0.010895815
0002d0 c8 58 ae 3c d6 6e 85 bc de 4a 5a 3b e2 6e 1a bd
       0.021282569 -0.016288202 0.0033308784 -0.037703402
0002e0 f2 0e c9 3c f2 1c 43 bd 7e 7f 17 bd 30 5d a2 bc
       0.02454326 -0.047635026 -0.03698682 -0.019819826
0002f0 2f 56 91 3c ee af 2d bb 72 d1 25 bd 7a 0f 68 bd
       0.01774129 -0.0026502567 -0.040482946 -0.056655385
000300 71 34 8f 3c 7c 14 b4 3c 32 2e 4b bd 4c 26 42 3d
       0.01748106 0.021982424 -0.049604602 0.047399804
000310 d0 bf 9b 3c f2 d5 1a bd 28 62 36 3c 01 91 37 bd
       0.019012362 -0.03780169 0.011131801 -0.04481602
000320 80 01 ae 3b 08 aa 5d bc f1 da 38 3d 10 2e 4c 3d
       0.0053102374 -0.013529308 0.045130674 0.049848616
000330 a1 4b 00 3d 5c 46 09 37 fb b0 3c bc 04 16 4b 3d
       0.031322125 8.182218e-06 -0.011516805 0.049581543
000340 40 76 24 3c fe 1d 36 3d da aa 47 3d b9 32 8d bc
       0.010037959 0.044462197 0.04874692 -0.0172361
000350 11 8c 2b bd 0a b4 4c bd 7b 70 8a bd 92 f6 1b 3d
       -0.041881625 -0.049976386 -0.06759735 0.038076945
000360 d0 ec 68 3c dc bb 61 bc 3e 38 16 bd e5 1c 58 bd
       0.014216617 -0.013777699 -0.03667473 -0.05276193
000370 35 d4 48 bd 3f e0 74 bd 73 d5 de b9 7c 25 e2 3c
       -0.0490305 -0.05978417 -0.00042502172 0.027605765
000380 a0 81 73 bb 3c ae 2a 3d 15 dc 6b bd 6a aa e2 bc
       -0.003715612 0.04167007 -0.057582933 -0.02766915
000390 78 6c 41 3c d0 7c 4b bc e7 56 35 bd 80 5e dc 3b
       0.011805646 -0.012419894 -0.04427233 0.0067251325
0003a0 41 db 3f 3c d8 4c e7 bc b0 fb af bb 81 fe 73 bd
       0.011709989 -0.028234884 -0.0053705797 -0.059568886
0003b0 ee 6a 1c bd bb 53 61 bd 66 ae 46 3d 13 a6 1f bd
       -0.038187914 -0.055011492 0.048506163 -0.03897674
0003c0 eb 21 02 3d 3c c8 75 3d 02 56 5c bd b0 24 04 bd
       0.031770628 0.06000541 -0.05379296 -0.03226155
0003d0 bc 21 cf 3c d6 5a 95 bc d4 16 74 bd 00 e4 e1 ba
       0.02528464 -0.01823179 -0.059592083 -0.0017234087
0003e0 8a 2d 37 3d f0 fb 7c 3c 2c 77 7f 3d 7b ac 49 bd
       0.044721164 0.015440926 0.06236951 -0.049236756
0003f0 16 b7 70 bc 15 42 ba bc f6 40 cb bc 60 e3 e8 3b
       -0.014692089 -0.022736588 -0.02481125 0.0071071833

stack.2.bias f4 [256]
000000 bf 51 55 3d a1 d7 bf bc 49 b3 81 3e 2e 2c c8 bc
       0.052079912 -0.02341825 0.25332096 -0.024435129
000010 b3 0b dc bd 3b 72 2c be 6c c6 51 3c 51 7f 27 3d
       -0.10744419 -0.1684045 0.012803655 0.040892903
000020 98 20 64 bd f2 e0 04 3d 61 e9 bd bd 24 ec 2f be
       -0.055695146 0.032441087 -0.09273029 -0.17179924
000030 02 7c 29 bf 78 06 19 3e 54 59 a0 3c bd 0a 3d 3c
       -0.66204846 0.14943874 0.019573845 0.011538205
000040 c4 2c 4a be be 91 5f be 94 12 34 be e0 a6 bf 3b
       -0.19743639 -0.2183294 -0.17585212 0.0058487505
000050 69 c8 f0 ba 82 1e 76 be 48 b5 fa 3b 42 3d 81 be
       -0.0018370274 -0.24035075 0.007651005 -0.25242049
000060 a5 ad a1 bc f7 c6 88 be 84 c8 83 3c 6a 3c bd 3c
       -0.01973612 -0.26714298 0.016086824 0.023100097
000070 64 27 1d be fe 18 67 bd 99 10 cc 3e 53 4e 95 bd
       -0.15347058 -0.05642032 0.39856413 -0.0729033
000080 78 2a 21 be f8 d7 b2 3c 1f e3 54 be bd 67 91 bc
       -0.15738857 0.021831498 -0.20789765 -0.017749662
000090 db 87 3d bd d8 0c 0e bd d8 6f 18 be 8d e5 78 3e
       -0.04627214 -0.034680218 -0.14886415 0.24306317
0000a0 28 33 d2 bc 5e f7 f8 bc da 2a 82 be 7c a3 42 be
       -0.025659159 -0.030391391 -0.25423318 -0.19007677
0000b0 8e cd 2e 3e 10 2f 69 be 28 e3 0e bd f0 bb 01 bf
       0.170706 -0.22771859 -0.0348846 -0.50677395
0000c0 fc e6 8d 3e 16 98 65 bd b6 65 c1 bc b3 92 25 ba
       0.2771529 -0.056053244 -0.02360807 -0.00063161104
0000d0 b6 17 35 bd 69 9a ca 3a 8f c0 52 3d c7 8d 2d 3d
       -0.044212066 0.0015457395 0.05145317 0.042371538
0000e0 bf 27 ed 3b 92 2b 7e be 92 c5 27 be 50 44 45 bc
       0.007237404 -0.24821308 -0.16383961 -0.012040213
0000f0 98 7c 38 3d 80 55 5a 3e 0c b2 88 be d9 73 cc 3c
       0.045040697 0.21321678 -0.2669834 0.024957584
000100 91 49 90 bd 96 b3 5b 3e 20 ee 4d 3d 5a 63 a1 bd
       -0.07045282 0.21455225 0.05027592 -0.07880278
000110 26 c4 0b be 5d 5b 75 bd 38 11 3d bd d1 66 30 be
       -0.13649043 -0.059901584 -0.046159 -0.17226721
000120 69 00 06 bd 44 fa 64 be dd bc 78 bc 81 43 1a bd
       -0.032715235 -0.22361094 -0.015181747 -0.037662033
000130 0d 34 18 be 4f fb 07 3f 99 b4 32 bd 8f 6c 0f 3f
       -0.14863606 0.5311784 -0.043629263 0.5602502
000140 91 6b 52 be 7b 0d 66 3d cf e8 14 bd 60 39 42 bd
       -0.20548846 0.0561652 -0.036354836 -0.047418
000150 23 47 5d 3e c8 53 74 bd 70 b3 2f be 08 45 85 bd
       0.21609168 -0.059650213 -0.17158294 -0.06507307
000160 57 7d 19 be 75 d0 72 be 36 01 04 3d 03 f6 9e 3c
       -0.1498922 -0.23712333 0.032227717 0.019404417
000170 8f 88 55 3c f0 97 45 bd 37 2d d3 3c b2 a3 7e be
       0.013033046 -0.048240602 0.025778396 -0.24867132
000180 f7 f8 2d bd 3e 23 d8 bc c8 11 2e 3c f9 d4 27 bd
       -0.04247376 -0.026383992 0.010624357 -0.04097459
000190 4c 4d 40 bd 54 dc 73 bd eb 54 1a bf 24 81 10 3d
       -0.046948716 -0.059536293 -0.60285825 0.035279408
0001a0 0b c9 9b 3c 46 70 1b be 1a c0 26 be b0 bc ed 3b
       0.019016763 -0.15179548 -0.16284218 0.0072551593
0001b0 ed 0a fd bc 9f f1 b0 3c 13 19 57 3e ae 2b 9f 3b
       -0.030888999 0.021599589 0.21005659 0.004857502
0001c0 e4 ff 29 be 60 7d 65 be 03 b4 13 3c 85 5f 54 be
       -0.16601521 -0.22411108 0.009015086 -0.20739563
0001d0 92 1e 5f be e8 cf bc bb 90 e2 47 3c 0c 0d 29 bd
       -0.21789005 -0.005762089 0.012200013 -0.041272208
0001e0 84 2b 4b be 9e fb 3c 3e ba 04 2f bf 94 44 8a 3e
       -0.19840819 0.1845536 -0.6836659 0.27005446
0001f0 b3 ac 4f be 19 7b 84 be 0c 37 4b 3d f6 f4 1e be
       -0.20280723 -0.25875166 0.049613044 -0.15523133
000200 79 71 7f be ba f7 21 bf 3b a7 84 be a8 bf 16 bd
       -0.2494563 -0.63268626 -0.25908837 -0.03680387
000210 38 c7 a7 3c bf af 85 bd df 67 2a be 67 d5 3d 3c
       0.020480737 -0.065276615 -0.16641186 0.011586524
000220 f8 ac 8f bd 27 88 28 bd e5 5b 6a be 98 d3 6d 3c
       -0.07015413 -0.04114547 -0.22886617 0.01451578
000230 ed 5f fe 3c 20 6e 97 bc 38 59 68 be 73 fa dd 3b
       0.0310516 -0.018485129 -0.22690284 0.0067742406
000240 2b 2a a0 3c 03 24 01 be 53 35 44 3c 9a 3a 58 bd
       0.019551357 -0.12611394 0.011975604 -0.05279026
000250 6b 87 fa bb 76 8d 49 3d 85 cc 80 bd 44 46 31 bd
       -0.0076455376 0.049207173 -0.06289009 -0.0432799
000260 7c f5 e7 bd 4b 6c 28 3c 99 9d 70 be dc 1b 4b 3d
       -0.11326119 0.010279725 -0.23497619 0.049587116
000270 e0 ec 46 3e 0e 64 7f be 13 38 4e be 2b f0 5a bd
       0.19426298 -0.24940512 -0.20138578 -0.0534517
000280 94 64 f5 bc 42 5e 52 3d 3a 0b 35 bc af 30 1f bf
       -0.029955186 0.051359423 -0.01105004 -0.6218366
000290 91 12 5e be 2f 13 12 bf 59 cb 61 be 96 78 1e bf
       -0.2168677 -0.5706052 -0.22050227 -0.6190275
0002a0 36 95 bf 3e 6e 4a 4b be ca 4d 0e bd 7f f7 46 be
       0.37418526 -0.19852611 -0.034742154 -0.1943035
0002b0 4a 9d ac bc 6d ec 48 3d d8 2c 0f 3d 47 18 73 be
       -0.021071095 0.0490536 0.034954876 -0.2373973
0002c0 61 8a d7 3c db b5 87 bc 5e 52 82 bd 13 56 60 be
       0.026311101 -0.016566208 -0.063633665 -0.21907835
0002d0 84 e1 bd bc c0 0f 34 be 37 b9 e7 bc 00 4a 12 bf
       -0.023178823 -0.17584133 -0.02828656 -0.57144165
0002e0 a0 a2 27 be 18 53 62 3d bc 43 42 be 13 ca 13 bd
       -0.1637063 0.055255026 -0.18971151 -0.036081385
0002f0 43 36 86 be a1 14 16 3d b7 84 3d be 62 41 38 bd
       -0.26213273 0.036640767 -0.18507658 -0.04498423
000300 cc b2 87 3b f7 b1 64 bd bd 27 82 be 86 2d 13 3d
       0.0041411873 -0.055833783 -0.25420943 0.035932086
000310 59 19 d0 bc 91 e5 8f bc 0e 53 34 bd 9b 38 60 be
       -0.025402712 -0.01756552 -0.04402452 -0.21896593
000320 8f a9 1c be 2a a8 59 3d 80 9f b3 3c c8 62 c6 bd
       -0.15299056 0.05313889 0.021926641 -0.0968681
000330 ba 5c 55 3d 80 75 18 be 37 8e 13 bd 04 80 7d be
       0.052090384 -0.14888573 -0.0360243 -0.24755865
000340 64 a3 32 be 0c 65 ae 3c 33 de ae 3e 78 9c 5a 3e
       -0.17445141 0.021288417 0.341539 0.2134875
000350 32 f2 3f 3d c4 82 4a 3d 08 85 95 bc 17 f6 28 bc
       0.046861835 0.049441114 -0.01825191 -0.010312579
000360 16 38 22 3e be 8f 5c bc 85 a7 10 be 27 17 49 be
       0.15841708 -0.013462005 -0.14126404 -0.19637738
000370 32 b9 82 be 56 08 4c be 3e f4 3c bd 40 83 20 3d
       -0.25531918 -0.19925055 -0.046131365 0.03918767
000380 82 3d 90 bd b2 b4 35 bc f0 e9 23 be c9 f2 8c be
       -0.07042982 -0.011090444 -0.16007209 -0.2752898
000390 71 b4 0c 3d 15 99 09 3d c5 c5 f6 3c f8 c5 4a 3e
       0.03435177 0.033593256 0.0301236 0.19802082
0003a0 90 a3 2a bf b3 ad 17 bc a9 1f 3c 3c f4 91 53 be
       -0.66655827 -0.009257722 0.011482158 -0.20661145
0003b0 0e 95 df bc 54 a7 2a bd 44 45 a7 3c ba 4c e1 3e
       -0.027292755 -0.041663483 0.02041877 0.4400385
0003c0 cf d8 73 be 5d 33 2d be 62 56 87 be a7 58 2b bd
       -0.23813175 -0.16914125 -0.26433092 -0.041832592
0003d0 51 7a 2f be 71 c5 67 be d1 96 57 bc 0e 6b 51 be
       -0.17136504 -0.22633912 -0.013158516 -0.20450994
0003e0 43 52 49 be 48 0b 83 be 55 41 bd 3c 3c 2b 08 bd
       -0.19660287 -0.25594544 0.023102442 -0.033244357
0003f0 0f 06 85 3e ea 5f 4c be 78 5d 3a bc 66 f6 1a bd
       0.25981185 -0.19958463 -0.011374824 -0.03783264

stack.4.weight f4 [1, 256]
000000 73 27 00 bd 2d 6c 55 bd f2 0f 83 bc 6a 14 2b bd
       -0.03128762 -0.052105118 -0.015998814 -0.041767515
000010 16 75 04 bf 41 fb ad 3d ca c3 ee bc 6f d6 83 bd
       -0.5174116 0.084951885 -0.029146094 -0.06437384
000020 ec 5d 1a bc 6d 25 34 b9 88 4b de be 29 2c 1f 3d
       -0.009421807 -0.0001718008 -0.43417 0.038860474
000030 86 8e 45 3e 90 f0 96 bd 6d 9a aa 3c 15 94 c3 bc
       0.1929265 -0.073701024 0.02082559 -0.023874322
000040 f6 1d 40 3d ac 63 43 3d 5b 4c ce 3c 8e 24 20 bd
       0.046903573 0.047702476 0.025182893 -0.03909736
000050 1c 2b 4c bc 9e a9 12 3d 68 13 c8 bb 09 5d 67 3d
       -0.01246145 0.03580629 -0.006105829 0.05648521
000060 56 e0 37 bd 27 d7 ab 3c 27 c6 ac bb 58 a2 02 bc
       -0.044891678 0.020976616 -0.005272645 -0.007973276
000070 ce 25 7c 3d 66 37 36 3d 1d c0 ee 3e 45 66 f9 be
       0.06155949 0.044486426 0.46630946 -0.48710838
000080 1a 4c 9f 3c 96 ea 43 3d 5c dc 8d 3d f1 60 f7 bc
       0.019445468 0.04783114 0.06926796 -0.030197592
000090 2a e8 a1 bc 60 bf 43 3b dc 9d cb 3c 7e 90 b2 bd
       -0.019764025 0.0029868707 0.024855547 -0.08718966
0000a0 aa 2f 81 bc ba ea 75 bd cd fe 96 3d b7 12 d7 3c
       -0.015769798 -0.060038306 0.07372818 0.026254041
0000b0 ac 65 ca bd 86 cb 90 3d 18 04 64 3b 4c 5f 01 3e
       -0.098826736 0.07070069 0.003479248 0.12634009
0000c0 5f 0c fa bc d8 96 87 bc 2a 81 61 3b 1e 2a 7f bc
       -0.030523477 -0.01655142 0.0034409263 -0.015574006
0000d0 39 f0 88 3b 88 f9 2f bd a4 d0 b8 3c 51 0b 54 bc
       0.0041790274 -0.04296258 0.022560425 -0.012942151
0000e0 48 e8 04 bc 7d 14 ea 3c 77 ce 8d 3d d0 34 4c 3d
       -0.008112021 0.028574223 0.06924146 0.049855053
0000f0 de 03 28 3d 37 88 85 bd 3c 15 c3 3c a0 67 20 3d
       0.041019313 -0.065201215 0.023813836 0.039161325
000100 44 76 8a ba 22 ff 7e bd 94 bc 46 bd 71 13 03 bf
       -0.001056381 -0.062255032 -0.048519686 -0.5120154
000110 33 6a 0b 3d b9 6f fd be 37 00 0d 3d 1e 52 ea 3c
       0.034036826 -0.494993 0.034424033 0.02860361
000120 ad 01 ae bc 80 30 4f 3d c2 a7 13 3b 25 b8 34 3d
       -0.021241033 0.050583363 0.0022530411 0.044120926
000130 6c 9e 11 3d ef e7 53 be 0c 53 16 bf b7 8e fd be
       0.035551473 -0.20693944 -0.5872047 -0.49522945
000140 7a f1 88 3d 60 66 44 bd 54 58 e9 3c f0 13 ac bb
       0.06686683 -0.047949195 0.028484501 -0.0052514
000150 70 fe c9 3e 66 17 0e bd 22 f5 0a 3d 1c 0b 8b bc
       0.39451933 -0.034690283 0.033925183 -0.01697307
000160 d8 ba 06 3d 91 ce 14 3d f8 54 c1 b9 93 a8 4a bd
       0.03289303 0.03632981 -0.00036875135 -0.04947717
000170 4a bc 76 3a 70 7d 35 3d f3 f4 40 3d a9 c1 3e 3d
       0.00094122125 0.04430908 0.0471086 0.046571407
000180 a3 4c 98 3b da a1 52 bd 60 b7 24 3c 0f a7 d7 bb
       0.0046478077 -0.051423885 0.010053486 -0.0065811942
000190 12 d0 09 bd fd 88 2f bd af b0 72 3e a5 9f 4d bc
       -0.033645697 -0.04285525 0.23700212 -0.012550269
0001a0 16 69 02 bd 8c 4c 03 3d fc 3c 0d 3c 00 9d 25 3d
       -0.0318385 0.032055423 0.008620497 0.04043293
0001b0 09 f9 4e 3c c8 f7 0b bf a7 69 34 bd ab 81 de bc
       0.012632617 -0.5467496 -0.04404607 -0.02716144
0001c0 68 5d 54 3d ec b4 6a 3d 00 d0 6f bc dc 84 12 3d
       0.05184689 0.057301447 -0.014636993 0.035771236
0001d0 ab 47 84 3d 2c 41 2b bd a7 bf 29 bd d9 1e 17 3b
       0.06458982 -0.0418102 -0.04144254 0.0023059158
0001e0 bb c0 85 3d 2a 58 22 bb 63 d2 3a 3e 56 ce 35 3e
       0.06530901 -0.0024771788 0.18244319 0.17754492
0001f0 d9 9d 1b 3c d5 a8 2a 3d e0 92 14 bd 19 11 4a 3d
       0.009498083 0.041664917 -0.036272883 0.04933271
000200 8a 3c b0 3d a6 6b 28 3e 28 4a af 3c e3 e2 88 bc
       0.08605297 0.16447315 0.021397665 -0.01670975
000210 5c d6 c3 bb fc 3b 38 bf 13 98 e4 3c 5e 71 3b bd
       -0.0059764814 -0.7196653 0.027904546 -0.045762412
000220 bb 9a a9 3b 37 c4 87 bc 41 92 03 39 ac c8 e9 3b
       0.005175916 -0.016573055 0.00012547617 0.0071345177
000230 33 8a 36 bd 83 27 30 bd da ff 70 3d 25 08 62 3d
       -0.04456539 -0.04300643 0.05883775 0.05518355
000240 a7 68 99 bc 46 2c ca be b9 1e 2a bd f9 6b 48 3b
       -0.01872666 -0.39486903 -0.041533206 0.0030581935
000250 3e e7 e9 bc a2 a7 f0 3c 19 7f ae 3a 5c 9f 46 bc
       -0.028552648 0.029376809 0.0013313025 -0.012122955
000260 9e c7 39 bf 3d 6d 24 3b 08 ec a6 3c 16 56 5c bd
       -0.72570217 0.0025089525 0.02037622 -0.053793035
000270 30 34 63 bb 92 ce 5b 3d a5 1b 17 3d 26 78 58 bd
       -0.0034668557 0.053663798 0.0368916 -0.052848957
000280 94 9e 78 3d f1 59 4b 3b 4b 1b 83 3c 5c 52 56 3e
       0.060698107 0.003102895 0.016004225 0.20929855
000290 d7 4f 45 3d 11 8c 38 3e ec 5f 2d 3d fd 2f 6f 3e
       0.048171844 0.18022181 0.042327806 0.2335815
0002a0 ea 9e f0 bd 49 d5 b6 3d ca 35 05 bc c2 5c 94 3d
       -0.117490605 0.089274 -0.0081305 0.07244255
0002b0 cf 67 32 bc ea 0f 6b bd 47 80 84 bc fe 44 bd 3c
       -0.010889008 -0.057388224 -0.016174449 0.023104187
0002c0 f3 e9 cc ba 9e 3d 00 bc f6 ab 54 bc 11 23 b0 ba
       -0.0015633687 -0.007827191 -0.012980452 -0.0013438185
0002d0 06 5b 14 bd 51 3e 9d 3c f0 59 6e bd e8 e0 22 3e
       -0.03621962 0.019194754 -0.05819124 0.15906107
0002e0 2e 58 8a 3d 89 e8 ae bb d8 1d 6f 3c 57 21 e3 bc
       0.067551 -0.005337779 0.014594518 -0.027725859
0002f0 71 b7 4a 3d bb 54 f5 bb 8c 38 37 3d a3 b3 3c 3c
       0.04949135 -0.0074869073 0.04473166 0.011517438
000300 12 b3 0a bf 7c 46 5d 3d 51 08 d2 3a f6 75 ba bc
       -0.5417949 0.054022297 0.0016024207 -0.022761326
000310 57 a8 aa bc 14 86 fb ba c2 13 2c bd 4e 3a 5b 39
       -0.020832224 -0.0019189739 -0.04201103 0.00020907188
000320 db 21 c5 3b dd cb 4e bf c2 99 05 bb 7b e0 b2 be
       0.006015999 -0.8077982 -0.0020385836 -0.3493689
000330 5e 25 66 bd 09 f1 91 3d 2b af 27 bd 10 ec c3 3c
       -0.05618798 0.07126052 -0.040938538 0.023916274
000340 fa cb 74 3d 4d 69 06 3d 93 f2 3f bf 4f 5e 95 bd
       0.05976484 0.032815266 -0.74979514 -0.072933786
000350 d5 c7 0b 3b f4 a3 5b 3d 08 3e 2c bc dc e4 4b bd
       0.0021328826 0.053623155 -0.010512836 -0.049778804
000360 27 3f 79 bd c3 5e fc 3a 82 d4 a2 3e 43 83 b7 3c
       -0.060851242 0.0019254315 0.31802756 0.022401458
000370 d7 7f 1c 3d 80 b8 5b 3d de a3 ee bb 85 5f 66 bd
       0.038207855 0.05364275 -0.007282718 -0.05624344
000380 90 fd 6e 3d e7 ef 26 bd 25 e4 e9 3c 58 66 f4 ba
       0.058347285 -0.040756132 0.02855117 -0.0018646223
000390 9f f1 86 bc 7b f1 37 3d 06 5a aa bc 28 8d e0 bd
       -0.016472636 0.044908028 -0.02079488 -0.109644234
0003a0 67 4b 57 3e 25 bf 42 bb f6 07 9e bc 8a a2 f6 3c
       0.21024857 -0.0029715982 -0.019290905 0.030106802
0003b0 7b 1d 2f bd 89 58 8d 3c 9e 20 ba bc 56 e7 18 be
       -0.042752724 0.01725413 -0.022720631 -0.14931998
0003c0 a1 8d e3 3c b3 5e e7 3c 4b 4a 31 3d ea da 4e bd
       0.027777495 0.028243398 0.043283742 -0.05050174
0003d0 c7 cc 69 ba 53 b8 51 3d f5 78 b3 3a e1 8a 22 b9
       -0.0008918759 0.051201176 0.0013692664 -0.0001550126
0003e0 2f b1 90 3d d5 44 de 3c dc 28 cc ba 7a f1 c8 bc
       0.07065045 0.027132431 -0.0015576142 -0.024529207
0003f0 09 ce 52 bc 3a 3d 19 3d ed 1c e9 bc a5 7f 50 3d
       -0.012866505 0.037411906 -0.028456176 0.05090298

exp_avg f4 [256, 35]
000000 00 00 00 00 00 00 00 00 00 00 00 00 00 00 00 00
       0.0 0.0 0.0 0.0
000010 00 00 00 00 00 00 00 00 00 00 00 00 00 00 00 00
       0.0 0.0 0.0 0.0
000020 00 00 00 00 00 00 00 00 00 00 00 00 00 00 00 00
       0.0 0.0 0.0 0.0
000030 00 00 00 00 00 00 00 00 00 00 00 00 00 00 00 00
       0.0 0.0 0.0 0.0
000040 00 00 00 00 00 00 00 00 00 00 00 00 00 00 00 00
       0.0 0.0 0.0 0.0
000050 00 00 00 00 00 00 00 00 00 00 00 00 00 00 00 00
       0.0 0.0 0.0 0.0
000060 00 00 00 00 00 00 00 00 00 00 00 00 00 00 00 00
       0.0 0.0 0.0 0.0
000070 00 00 00 00 00 00 00 00 00 00 00 00 00 00 00 00
       0.0 0.0 0.0 0.0
000080 00 00 00 00 00 00 00 00 00 00 00 00 00 00 00 00
       0.0 0.0 0.0 0.0
000090 00 00 00 00 00 00 00 00 00 00 00 00 00 00 00 00
       0.0 0.0 0.0 0.0
0000a0 00 00 00 00 00 00 00 00 00 00 00 00 00 00 00 00
       0.0 0.0 0.0 0.0
0000b0 00 00 00 00 00 00 00 00 00 00 00 00 00 00 00 00
       0.0 0.0 0.0 0.0
0000c0 00 00 00 00 00 00 00 00 00 00 00 00 00 00 00 00
       0.0 0.0 0.0 0.0
0000d0 00 00 00 00 00 00 00 00 00 00 00 00 00 00 00 00
       0.0 0.0 0.0 0.0
0000e0 00 00 00 00 00 00 00 00 00 00 00 00 00 00 00 00
       0.0 0.0 0.0 0.0
0000f0 00 00 00 00 00 00 00 00 00 00 00 00 00 00 00 00
       0.0 0.0 0.0 0.0
000100 00 00 00 00 00 00 00 00 00 00 00 00 00 00 00 00
       0.0 0.0 0.0 0.0
000110 00 00 00 00 00 00 00 00 9d 6f dd 3b 22 a5 b0 bb
       0.0 0.0 0.00675769 -0.005390779
000120 b8 6d 64 3a 17 73 16 3b 70 37 84 3b 9f 82 66 3b
       0.0008713859 0.0022956782 0.004034929 0.003517307
000130 2f d6 e1 3b 3d 8d bf bb d1 1b ae bb fc 2c ac bb
       0.0068919878 -0.0058456943 -0.0053133746 -0.005254386
000140 d9 08 0d bb 9a 1f db bb 49 43 e0 bb 70 68 e1 bb
       -0.0021520166 -0.006687117 -0.0068439585 -0.006878905
000150 a2 7e d9 bb 66 22 db bb 33 8d dd bb 14 c2 62 bb
       -0.0066374103 -0.00668745 -0.006761217 -0.0034600543
000160 b7 36 89 bb 8d 93 9e bb a3 f7 b0 bb 87 ef b0 bb
       -0.0041874307 -0.004839367 -0.0054006143 -0.0053996476
000170 68 94 cc bb 9a c5 4b bb 2e 06 57 bb a9 9c 66 bb
       -0.0062432773 -0.0031093122 -0.003281008 -0.0035188592
000180 b7 f6 81 bb da 80 8c bb 53 29 b3 bb 75 a8 92 ba
       -0.0039661783 -0.0042878212 -0.0054675727 -0.001118912
000190 03 1e a7 ba b1 ab f1 ba 36 f9 fd ba 2e 49 ea ba
       -0.0012750033 -0.0018438009 -0.0019376639 -0.0017874592
0001a0 df 0d f7 ba 00 00 00 00 00 00 00 00 00 00 00 00
       -0.0018848738 0.0 0.0 0.0
0001b0 00 00 00 00 00 00 00 00 00 00 00 00 00 00 00 00
       0.0 0.0 0.0 0.0
0001c0 00 00 00 00 00 00 00 00 00 00 00 00 00 00 00 00
       0.0 0.0 0.0 0.0
0001d0 00 00 00 00 00 00 00 00 00 00 00 00 00 00 00 00
       0.0 0.0 0.0 0.0
0001e0 00 00 00 00 00 00 00 00 00 00 00 00 00 00 00 00
       0.0 0.0 0.0 0.0
0001f0 00 00 00 00 00 00 00 00 00 00 00 00 00 00 00 00
       0.0 0.0 0.0 0.0
000200 00 00 00 00 00 00 00 00 00 00 00 00 00 00 00 00
       0.0 0.0 0.0 0.0
000210 00 00 00 00 00 00 00 00 00 00 00 00 00 00 00 00
       0.0 0.0 0.0 0.0
000220 00 00 00 00 00 00 00 00 00 00 00 00 00 00 00 00
       0.0 0.0 0.0 0.0
000230 5f 8b 9c 3d 98 b3 27 3d 6e 76 d7 3b 70 37 b4 3c
       0.076437704 0.04094276 0.006575397 0.02199909
000240 6c 6a 21 3d c7 34 46 3d 9a f7 96 3d 4a e6 21 3d
       0.039408132 0.048390176 0.07371445 0.03952626
000250 61 c6 1e 3d 60 20 16 3d 47 af 12 3d af 7f 03 3d
       0.038763408 0.03665197 0.03581169 0.03210419
000260 84 b1 06 3d 11 17 0a 3d f9 94 0c 3d 72 b9 12 3d
       0.032884136 0.033713404 0.03432176 0.035821386
000270 c0 f6 13 3d b1 a1 f6 3c e0 36 01 3d 2b cc 03 3d
       0.03612399 0.030106397 0.031546474 0.03217713
000280 8c 35 08 3d 37 35 0a 3d 93 72 0d 3d 4f 0d d7 3c
       0.03325419 0.033742156 0.034533095 0.026251463
000290 52 59 db 3c a6 a7 e2 3c b8 56 ed 3c d8 eb f8 3c
       0.02677599 0.027667832 0.028972015 0.030385897
0002a0 19 44 00 3d ce f5 c5 3c da 5c c7 3c e5 d1 cf 3c
       0.031314943 0.02416506 0.024336267 0.02536864
0002b0 ed e3 d2 3c de 5d e0 3c 2c bd ee 3c 56 ed dd 3c
       0.02574345 0.02738851 0.029142939 0.02709071
0002c0 7d 44 a8 3a 70 c7 4a 3b 97 bd 0b 3c 65 20 6c 3c
       0.0012837794 0.0030941628 0.008529088 0.01441202
0002d0 09 68 86 3c 32 59 dd 3c 40 77 0a 3a 36 2a 59 3a
       0.01640703 0.02702007 0.0005282052 0.0008284183
0002e0 13 9f 55 3a e8 3f 4f 3b 1c d6 03 bb 81 88 30 bb
       0.0008149009 0.0031623784 -0.0020116633 -0.0026936831
0002f0 c2 75 03 bb ab 78 b1 ba 8d 0d 91 ba d3 1c 82 ba
       -0.0020059203 -0.001353999 -0.001106666 -0.0009926803
000300 c3 02 50 3a cc a0 f1 39 48 19 84 b9 47 77 80 ba
       0.0007934982 0.00046086905 -0.00025195838 -0.0009801172
000310 3d 27 05 ba 25 03 8e ba 29 f9 01 3b c3 4c 7a 3a
       -0.00050793943 -0.0010834677 0.001983235 0.00095481816
000320 4d e8 a1 3a d9 6c 86 3a 0c ab 59 3a e7 ec d3 b9
       0.0012352556 0.0010255828 0.0008303381 -0.00040421562
000330 25 2a 7f 3b 40 75 76 3b 14 a7 46 3b 24 0e 18 3b
       0.0038935032 0.0037606508 0.0030311989 0.0023201788
000340 8b 9a 24 3b 51 cc 18 3b b3 d4 e4 3c 75 8d aa 3c
       0.002511653 0.0023315141 0.027933454 0.020819405
000350 aa 14 a7 3a c8 48 f9 3b e4 99 5f 3c 32 45 8e 3c
       0.0012747247 0.007607553 0.01364753 0.01736698
000360 42 ef de 3c 61 a0 a6 3c 82 e1 9d 3c 71 07 97 3c
       0.027213696 0.020340146 0.01927257 0.018436166
000370 56 50 80 3c 8e b7 93 3c 21 8f 93 3c bd 61 97 3c
       0.015663307 0.018031862 0.018012585 0.018479222
000380 77 0f 99 3c 68 9d 9e 3c 13 3b 9e 3c f9 db 6f 3c
       0.018684132 0.019362167 0.019315278 0.014639848
000390 d2 1a 80 3c 38 cf 82 3c ff 87 87 3c fb 55 89 3c
       0.015637789 0.01596795 0.01654434 0.016764631
0003a0 27 7d 90 3c 75 d1 40 3c e6 12 60 3c d2 5a 63 3c
       0.017637802 0.011768688 0.013676381 0.013876634
0003b0 2c a2 6b 3c c5 67 7b 3c 32 95 86 3c f9 4a 0e 3c
       0.0143819265 0.015344565 0.016428564 0.008684867
0003c0 de ac 11 3c 1e ac 29 3c a5 a9 3f 3c b1 66 4f 3c
       0.008891312 0.010355977 0.011698161 0.012658761
0003d0 92 fb 5c 3c 74 8a 08 3e aa f0 7b 3d c8 1d 14 3c
       0.013487713 0.13334066 0.061508812 0.0090403035
0003e0 d2 67 1b 3d e1 4e 8c 3d f4 a8 ae 3d e3 04 06 3e
       0.037940808 0.068509825 0.08528319 0.13087802
0003f0 df c5 70 3d f4 42 69 3d d4 57 64 3d d7 15 5f 3d
       0.058782455 0.056948617 0.055747822 0.054464187

exp_avg_sq f4 [256, 35]
000000 00 00 00 00 00 00 00 00 00 00 00 00 00 00 00 00
       0.0 0.0 0.0 0.0
000010 00 00 00 00 00 00 00 00 00 00 00 00 00 00 00 00
       0.0 0.0 0.0 0.0
000020 00 00 00 00 00 00 00 00 00 00 00 00 00 00 00 00
       0.0 0.0 0.0 0.0
000030 00 00 00 00 00 00 00 00 00 00 00 00 00 00 00 00
       0.0 0.0 0.0 0.0
000040 00 00 00 00 00 00 00 00 00 00 00 00 00 00 00 00
       0.0 0.0 0.0 0.0
000050 00 00 00 00 00 00 00 00 00 00 00 00 00 00 00 00
       0.0 0.0 0.0 0.0
000060 00 00 00 00 00 00 00 00 00 00 00 00 00 00 00 00
       0.0 0.0 0.0 0.0
000070 00 00 00 00 00 00 00 00 00 00 00 00 00 00 00 00
       0.0 0.0 0.0 0.0
000080 00 00 00 00 00 00 00 00 00 00 00 00 00 00 00 00
       0.0 0.0 0.0 0.0
000090 00 00 00 00 00 00 00 00 00 00 00 00 00 00 00 00
       0.0 0.0 0.0 0.0
0000a0 00 00 00 00 00 00 00 00 00 00 00 00 00 00 00 00
       0.0 0.0 0.0 0.0
0000b0 00 00 00 00 00 00 00 00 00 00 00 00 00 00 00 00
       0.0 0.0 0.0 0.0
0000c0 00 00 00 00 00 00 00 00 00 00 00 00 00 00 00 00
       0.0 0.0 0.0 0.0
0000d0 00 00 00 00 00 00 00 00 00 00 00 00 00 00 00 00
       0.0 0.0 0.0 0.0
0000e0 00 00 00 00 00 00 00 00 00 00 00 00 00 00 00 00
       0.0 0.0 0.0 0.0
0000f0 00 00 00 00 00 00 00 00 00 00 00 00 00 00 00 00
       0.0 0.0 0.0 0.0
000100 00 00 00 00 00 00 00 00 00 00 00 00 00 00 00 00
       0.0 0.0 0.0 0.0
000110 00 00 00 00 00 00 00 00 b0 36 97 3c 4b c0 40 3c
       0.0 0.0 0.018458694 0.011764596
000120 90 e4 28 39 36 ca c1 3a f5 fd 8c 3b 3d 85 09 3c
       0.00016106875 0.0014784995 0.004302735 0.008393583
000130 bd 53 89 3c ef c4 3a 3c d7 a9 29 3c a9 2d 08 3c
       0.016763562 0.011399492 0.010355434 0.0083116675
000140 f4 7a b3 3b c4 14 0c 3c aa 88 19 3c 5d 81 23 3c
       0.0054773036 0.008549873 0.009370962 0.009979573
000150 b5 e4 2b 3c 74 b1 32 3c 1a 36 36 3c 57 e6 c1 3b
       0.01049154 0.010906566 0.011121297 0.005917351
000160 73 f8 d6 3b e6 c4 f2 3b a3 c8 06 3c c7 fd 14 3c
       0.006560379 0.007408726 0.008226546 0.009093708
000170 4a f4 1d 3c e4 9c 81 3b b2 a5 8d 3b c9 3b a0 3b
       0.009640763 0.0039554704 0.004322731 0.0048899394
000180 ab fc b4 3b cc 9f cc 3b 1a 38 e3 3b da f2 34 3b
       0.0055232844 0.006244635 0.006934178 0.002761057
000190 96 32 3a 3b c2 22 4b 3b 17 b6 60 3b 4d 9f 7a 3b
       0.00284115 0.003099606 0.0034288222 0.0038241923
0001a0 ff 1b 88 3b 00 00 00 00 00 00 00 00 00 00 00 00
       0.004153728 0.0 0.0 0.0
0001b0 00 00 00 00 00 00 00 00 00 00 00 00 00 00 00 00
       0.0 0.0 0.0 0.0
0001c0 00 00 00 00 00 00 00 00 00 00 00 00 00 00 00 00
       0.0 0.0 0.0 0.0
0001d0 00 00 00 00 00 00 00 00 00 00 00 00 00 00 00 00
       0.0 0.0 0.0 0.0
0001e0 00 00 00 00 00 00 00 00 00 00 00 00 00 00 00 00
       0.0 0.0 0.0 0.0
0001f0 00 00 00 00 00 00 00 00 00 00 00 00 00 00 00 00
       0.0 0.0 0.0 0.0
000200 00 00 00 00 00 00 00 00 00 00 00 00 00 00 00 00
       0.0 0.0 0.0 0.0
000210 00 00 00 00 00 00 00 00 00 00 00 00 00 00 00 00
       0.0 0.0 0.0 0.0
000220 00 00 00 00 00 00 00 00 00 00 00 00 00 00 00 00
       0.0 0.0 0.0 0.0
000230 d0 3a 4c 3e b0 a7 41 3d 50 32 d0 3a 1a 13 7f 3c
       0.1994431 0.04727906 0.0015884135 0.015568519
000240 80 9d 40 3d e2 17 ba 3d 4f 88 41 3e 7f d6 3b 3d
       0.047025204 0.090865865 0.18899654 0.045858856
000250 c4 2c 36 3d ec 6b 30 3d c3 97 2b 3d 74 9c 11 3d
       0.044476286 0.043071672 0.041892778 0.035549596
000260 04 87 19 3d b5 b2 1e 3d 7f e8 25 3d 56 7e 2c 3d
       0.037482277 0.038744647 0.04050493 0.04211267
000270 ec 34 32 3d a0 ed 01 3d 54 19 08 3d 3b 9c 0e 3d
       0.0435075 0.031720757 0.03322728 0.03481696
000280 65 6e 16 3d b6 d9 1d 3d 32 42 25 3d 0c 8a ee 3c
       0.036726374 0.038537703 0.040346332 0.02911856
000290 9c f0 f5 3c cc 0b 01 3d c7 d0 09 3d b0 5d 11 3d
       0.030021958 0.03150539 0.03364637 0.035489738
0002a0 4d 89 18 3d 95 71 e0 3c 18 10 e3 3c 4d 0a ee 3c
       0.037240315 0.02739791 0.027717635 0.029057646
0002b0 05 6c 01 3d 47 ba 0a 3d 3f 85 11 3d 39 dc 79 3d
       0.031597156 0.033869054 0.035527464 0.061001036
0002c0 f3 de d2 3c ef 24 07 3a 89 61 9c 3b 80 3d 6b 3c
       0.025741076 0.0005155345 0.0047723693 0.014357924
0002d0 6b c3 e4 3c 3c 38 68 3d b0 ff cb 3c b7 1d c0 3c
       0.027925214 0.056694254 0.024902195 0.02345167
0002e0 0e 6a a6 3c fa 6b 8a 3c 12 0a 9a 3c ec 0e a6 3c
       0.020314243 0.01689719 0.01880363 0.020270787
0002f0 6d 01 b0 3c 7b 9e b8 3c 12 ec bf 3c 18 d9 c4 3c
       0.021485055 0.022536507 0.023427997 0.0240293
000300 23 dc 73 3c d4 74 84 3c dc 8c 90 3c 6a fd 9b 3c
       0.014884028 0.01616899 0.017645292 0.019041736
000310 5e 4a a8 3c a4 42 b1 3c f5 3d 3c 3c fa 53 48 3c
       0.020543274 0.021638222 0.011489381 0.012227053
000320 f0 cb 5a 3c b5 f5 6f 3c 51 df 81 3c aa fb 8b 3c
       0.013354287 0.014645983 0.015853556 0.017087776
000330 fa 59 1b 3c 71 c7 1e 3c e7 3b 2b 3c ad aa 3c 3c
       0.009481901 0.009691105 0.010451294 0.011515302
000340 84 67 4e 3c 91 8e 5c 3c 34 ab 12 3d 14 32 1e 3c
       0.012597922 0.013461725 0.035807803 0.009655494
000350 a7 85 9c 39 e0 f2 39 3b 5e 9d 0a 3c dc a2 89 3c
       0.00029854217 0.0028373525 0.008460371 0.01680129
000360 8e e3 0a 3d 88 3c 19 3c 6e 4d 12 3c bf 1e 0a 3c
       0.03390842 0.009352811 0.0089295935 0.008430182
000370 30 16 01 3c 84 ea ea 3b d4 58 f8 3b a4 7d 01 3c
       0.007878825 0.0071690697 0.0075789485 0.00790349
000380 76 31 07 3c 0b c2 0c 3c 89 8c 11 3c ee 65 c6 3b
       0.0082515385 0.008591185 0.008883604 0.0060546314
000390 fe 24 d2 3b 62 c9 de 3b a6 f4 eb 3b 15 80 f9 3b
       0.006413101 0.006798909 0.007200795 0.0076141455
0003a0 f1 88 03 3c 3c 24 af 3b 93 bd b6 3b 80 50 c2 3b
       0.008028255 0.0053448956 0.005576798 0.0059300065
0003b0 4a bf cf 3b 2b da dc 3b 96 0c ea 3b 75 17 a2 3b
       0.006339942 0.006739875 0.0071426136 0.004946644
0003c0 21 16 a4 3b 20 eb ac 3b ab ae bc 3b eb 8b ca 3b
       0.005007521 0.0052770525 0.0057581267 0.0061812303
0003d0 45 54 d5 3b ac 37 b9 3f 94 59 b8 3e af cc 41 3c
       0.00651029 1.4470115 0.36005843 0.0118285855
0003e0 79 81 e9 3d ff 4d af 3e 9a d9 2a 3f da 4f af 3f
       0.11401648 0.34239194 0.66738284 1.3696244
0003f0 17 7e b2 3e d4 1c ad 3e ed 9d a8 3e 02 f3 a5 3e
       0.34861824 0.33811057 0.32932988 0.32411963
