checkpoints/mlptest/model8_4500.pt (torch, 228235 bytes, 9 tensors)

stack.0.weight f4 [256, 17]
-0.12888174 0.13413979 0.15261611 -0.0060025966 -0.11744069 0.26940495 -0.041375116 -0.22584286
-0.0693461 -0.21214256 0.29520345 0.07743684 0.1297689 0.13410762 -0.053928547 0.08805821
0.12743163 -0.24851876 -0.30884764 -0.12093512 -0.52737623 -0.5672119 0.12957531 -0.069047324
-0.18279575 -0.43083808 -0.41272897 -0.046294883 0.23210509 0.3318336 0.56508917 0.076920986
0.23614505 -0.29249012 -0.22076005 0.19271135 -0.15633893 -0.004784304 0.095026396 0.12882051
0.15348859 -0.25817788 0.1040454 -0.1286309 0.12945582 -0.2815375 -0.019710572 -0.05979249
-0.1790777 0.21767178 0.19683462 0.074509785 -0.49831912 -0.21168123 0.12045268 -0.11222451
-0.050503712 0.0038065494 -0.2373715 -0.3246247 -0.12395672 -0.117184386 -0.26161513 0.0969877
0.12278109 -0.38815403 0.020572959 -0.39707872 -0.05024812 0.058041796 0.28469327 0.20824684
0.03753189 0.13343544 -0.6199352 0.33356607 0.40527472 0.26718447 0.08701181 0.73820716
-0.32450554 0.07913249 0.5075735 0.40451795 0.29758704 -0.09988451 0.04364678 0.05267264
0.10607844 -0.16191857 0.063492194 0.029791152 -0.14355518 0.11950304 -0.229511 0.1792718
0.18827397 0.16655919 0.04658749 -0.21040134 -0.22588909 -0.0253457 0.051564503 0.13258879
-0.13555725 -0.3473669 0.099554785 -0.08285098 0.47939247 0.047721017 0.054189276 0.055962596
-0.16611774 0.20564125 0.24272135 0.28896683 -0.08106314 -0.2137527 -0.29557005 -0.39698705
-0.20198731 -0.15723582 -0.3351594 -0.40797338 -0.32370728 -0.20723966 0.015011658 0.021644177
-0.014172866 0.49685234 0.38492417 -0.24469753 0.74250984 0.26056457 0.62888676 -0.31102133
0.17871338 0.12919785 0.046696957 0.0071899206 -0.07053682 0.016576486 0.6259047 -0.14640266
0.30458504 0.044089716 -0.35976028 -0.11426101 0.009507812 -0.21075235 0.45298204 0.25657055
-0.39282176 0.118012875 -0.4329452 -0.1095306 0.17187281 -0.044142358 -0.052155487 -0.031491388
-0.19025494 -0.29440528 -0.3964591 -0.44214046 -0.27858615 0.3318423 0.1064497 0.08487698
-0.22067434 -0.015442744 0.07287157 -0.08510683 0.34773555 0.12618978 0.28106353 0.29566386
-0.0018264275 0.17504434 -0.033164628 0.0668361 0.27736536 -0.02407929 0.089834265 -0.024471065
0.1434211 0.06558621 -0.14239568 -0.052790627 -0.26319775 -0.18827559 -0.2199795 0.038342513
-0.023276497 0.3447179 -0.084645994 0.07695092 -0.14074995 0.20903622 0.4319607 0.20649225
-0.05775324 0.012032013 -0.044647224 -0.06460255 0.19551155 -0.036295764 0.16475563 -0.0806581
0.06626317 -0.016103955 0.13592105 -0.11162804 -0.012259883 0.14977537 -0.08823252 0.098333344
0.0062012165 0.077367954 0.08779227 0.015955742 -0.051664423 0.22547667 0.024832388 0.09184872
0.18360165 0.05006454 -0.16121589 0.7360222 0.24487983 -0.014282905 0.040421452 -0.20819639
-0.19756304 -0.14070195 -0.025240418 0.15364563 0.014616499 0.08827881 0.11504091 0.22915599
-0.11517526 -0.05964808 0.07063004 -0.12814768 0.21363623 0.1979015 -0.19125861 0.20466292
-0.2858609 0.26626268 0.19382697 -0.09246151 0.034876637 0.28354692 0.08621412 -0.057507463
00000000: 93f9 03be f15b 093e 6647 1c3e 6eb1 c4bb
00000010: bf84 f0bd 72ef 893e f478 29bd 5a43 67be
00000020: 5405 8ebd e63b 59be e824 973e 3597 9e3d
00000030: 23e2 043e 8253 093e 2ee4 5cbd dd57 b43d
00000040: 707d 023e b47b 7ebe 4721 9ebe d5ac f7bd
00000050: 2102 07bf cd34 11bf 64af 043e af68 8dbd
00000060: cf2e 3bbe cf96 dcbe 3651 d3be b49f 3dbd
00000070: f5ac 6d3e 18e6 a93e afa9 103f c088 9d3d
00000080: 02d0 713e 44c1 95be ec0e 62be 2056 453e
00000090: 5017 20be a7c5 9cbb 339d c23d 86e9 033e
000000a0: 1d2c 1d3e e42f 84be c115 d53d d2b7 03be
000000b0: 1190 043e af25 90be 1178 a1bc f8e8 74bd
000000c0: 2560 37be 5ae5 5e3e 048f 493e 9698 983d
000000d0: af23 ffbe f7c2 58be e5af f63d f7d5 e5bd
000000e0: fbdc 4ebd 4d77 793b 8411 73be 3535 a6be
000000f0: 05dd fdbd 5efe efbd 6bf2 85be 7da1 c63d
00000100: a774 fb3d 20bc c6be 9f88 a83c e74d cbbe
00000110: f9d0 4dbd 3cbd 6d3d 51c3 913e a93e 553e
00000120: 0abb 193d 4da3 083e 13b4 1ebf 2cc9 aa3e
00000130: 2b80 cf3e 67cc 883e 3f33 b23d 25fb 3c3f
00000140: 9725 a6be 3710 a23d 56f0 013f fa1c cf3e
00000150: 545d 983e 4090 ccbd f7c6 323d 44bf 573d
00000160: a73f d93d fbcd 25be 3208 823d 930c f43c
00000170: 2100 13be 03be f43d ee04 6bbe 0793 373e
00000180: e4ca 403e 7e8e 2a3e 86d2 3e3d 7373 57be
00000190: 784f 67be c9a1 cfbc 4d35 533d 5bc5 073e
000001a0: 85cf 0abe 13da b1be 61e3 cb3d c6ad a9bd
000001b0: ee72 f53e 1d77 433d 93f5 5d3d 0939 653d
000001c0: c51a 2abe 9f93 523e f28b 783e 76f3 933e
000001d0: 6e04 a6bd fde1 5abe f554 97be e341 cbbe
000001e0: c3d5 4ebe 6d02 21be 039a abbe e3e1 d0be
000001f0: f6bc a5be a236 54be 75f3 753c 214f b13c
00000200: 4f35 68bc 6e63 fe3e c814 c53e fd91 7abe
00000210: 2015 3e3f b868 853e b9fe 203f 303e 9fbe
00000220: a400 373e 714c 043e 4f45 3f3d 6d99 eb3b
00000230: 9c75 90bd 69cb 873c 4a3b 203f 94ea 15be
00000240: 92f2 9b3e 6b97 343d 8032 b8be ad01 eabd
00000250: a7c6 1b3c 77cf 57be 43ed e73e 375d 833e
00000260: ef1f c9be bcb0 f13d feaa ddbe 9451 e0bd
00000270: 6dff 2f3e 9ece 34bd fea0 55bd 1dfd 00bd
00000280: 31d2 42be 4abc 96be b0fc cabe 3c60 e2be
00000290: d8a2 8ebe 3ce7 a93e 4d02 da3d fbd3 ad3d
000002a0: 74f8 61be 9003 7dbc b13d 953d 7d4c aebd
000002b0: 650a b23e e537 013e 8fe7 8f3e 4161 973e
000002c0: bd64 efba d33e 333e a2d7 07bd 5de1 883d
000002d0: d502 8e3e ee41 c5bc 07fb b73d 8b77 c8bc
000002e0: fbdc 123e 1052 863d 2cd0 11be fc3a 58bd
000002f0: dbc1 86be 51cb 40be 4e42 61be 0a0d 1d3d
00000300: 5aae bebc dd7e b03e e15a adbd 7298 9d3d
00000310: c120 10be 970d 563e f429 dd3e b472 533e
00000320: a98e 6cbd ec21 453c 02e0 36bd 574e 84bd
00000330: 2e34 483e deaa 14bd b3b5 283e 1330 a5bd
00000340: fcb4 873d 71ec 83bc e32e 0b3e 3e9d e4bd
00000350: addd 48bc b75e 193e 40b3 b4bd fe62 c93d
00000360: 9333 cb3b 1773 9e3d 6fcc b33d 9eb5 823c
00000370: 139e 53bd 5be3 663e 4b6d cb3c 2f1b bc3d
00000380: 1202 3c3e 7a10 4d3d c715 25be f36b 3c3f
00000390: c7c1 7a3e d802 6abc f790 253d 6f31 55be
000003a0: f74d 4abe 2c14 10be fec4 cebc 4855 1d3e
000003b0: 0a7a 6f3c 85cb b43d 929a eb3d dea7 6a3e
000003c0: 02e1 ebbd 8c51 74bd 7ba6 903d 2539 03be
000003d0: 75c3 5a3e b1a6 4a3e 4cd9 43be 2893 513e
000003e0: 5c5c 92be 9553 883e 947a 463e 765c bdbd
000003f0: ceda 0e3d 102d 913e 0791 b03d f28c 6bbd

stack.0.bias f4 [256]
0.2754096 -0.28815404 0.51672554 0.19350521 -0.2754681 0.41521323 0.27065 0.5278296
-0.11811783 0.49454126 0.17899215 0.629241 0.10225428 -0.24584888 0.26118565 -0.0020616618
0.45755345 0.3067923 0.36925825 -0.030105133 0.40203604 0.55855215 0.005209935 0.5151298
0.46073306 0.5292353 0.628795 0.5631647 -0.25292435 0.33121127 0.42340136 0.20489563
0.32522362 0.24169944 0.14294913 0.69194615 0.24136375 -0.06809715 0.29674515 0.4014198
0.14425418 0.33244565 0.31999192 0.18424217 -0.17572284 0.50257754 0.025044668 -0.5650786
0.41593096 0.6216821 0.31867054 0.36369866 0.28554127 0.3225924 0.07572172 0.29424447
0.11929912 -0.7266972 0.24972998 0.07591653 0.2788413 0.5954694 -0.08651321 0.70394176
0.37614968 0.17664397 0.13186778 0.18870221 0.26319873 -0.45811608 0.13744013 0.6868064
0.27548805 0.54468906 0.41382545 0.39597458 0.31604004 -0.8370087 0.32675418 0.23640947
0.16375159 0.38674554 0.29480115 0.5288306 0.4869668 0.5084535 -0.21260165 0.46217224
0.54190105 0.4116538 0.3303348 0.13941558 0.55575055 0.6630976 0.3151676 0.5627861
0.5249259 0.5319477 0.64236593 0.049132794 0.39130747 0.454622 0.54944164 0.5888691
0.22459425 0.40361556 0.19955659 0.22811817 0.19673736 0.33697286 0.51150167 0.3934851
0.5348536 0.2770473 0.45476028 0.26119637 0.11411181 0.4159795 -0.6564039 0.3281797
-0.5904657 0.42508966 0.30174804 -0.043910515 0.5752001 -0.102563776 0.49895093 -0.17581375
0.13650979 -0.042306643 0.4149788 0.11599836 0.6001024 0.3801045 0.26751974 0.2345078
0.09208397 0.23071073 0.358304 -0.04416916 -0.08411819 0.008501509 0.32318497 0.39668933
0.44163126 0.5106174 0.46395835 -0.0600545 0.45222652 0.32549948 -0.7330637 0.049152818
0.31507927 0.5935657 0.7005696 -0.782539 0.454571 0.31757978 0.23911059 0.07592699
0.11330557 0.07022963 0.20032564 0.6031735 0.43657842 0.23905562 0.48228243 0.18400659
-0.085376315 -0.23920013 0.59642124 0.04691601 0.39172387 0.39280748 0.7209328 -0.49696305
0.27489367 -0.13294911 -0.051022276 0.49095234 0.07950444 0.10905539 0.29740423 0.57504284
-0.23616056 0.38375786 0.13429993 0.21988803 0.60592973 -1.005646 0.5101877 0.54357547
-0.008657151 0.2525473 0.41879374 -0.42468685 0.2888627 0.22442049 0.19544597 0.20615157
0.51825774 0.34196994 -0.58095485 0.538298 0.29651323 0.4843885 0.13677661 0.20166473
0.3893721 -0.42974707 0.5337162 -0.90128434 -0.101428345 0.5003091 0.27991176 0.5884273
-0.35101882 -1.1742375 0.31527168 -0.75961185 0.22090243 0.47924152 0.66577953 0.20220767
0.36226287 0.3232088 0.21603943 0.32414934 0.41230702 -0.34876144 0.5768402 -0.067992575
-0.21306595 0.3568222 0.035500724 0.22050016 0.28292722 -0.17596853 0.4345476 0.12855724
0.499234 -0.1955065 0.008800352 0.33269253 0.07141943 0.60006773 0.6092381 0.4889435
0.23601507 0.88489467 0.10832298 0.031855293 0.50119317 0.4797627 0.25861254 0.4581515
00000000: 7d02 8d3e ed88 93be 2048 043f 3b26 463e
00000010: 280a 8dbe d496 d43e a392 8a3e d71f 073f
00000020: c3e7 f1bd 8334 fd3e b849 373e f015 213f
00000030: b16a d13d cfbf 7bbe 20ba 853e f21c 07bb
00000040: 7244 ea3e e113 9d3e 6b0f bd3e 0a9f f6bc
00000050: abd7 cd3e 46fd 0e3f 1ab8 aa3b 8cdf 033f
00000060: 34e5 eb3e f77b 073f b6f8 203f 902b 103f
00000070: 4d7f 81be 8694 a93e 10c8 d83e 29d0 513e
00000080: b683 a63e 0f80 773e 4261 123e 6223 313f
00000090: 0f28 773e 8576 8bbd fbee 973e e586 cd3e
000000a0: 5eb7 133e 5136 aa3e fbd5 a33e fba9 3c3e
000000b0: b0f0 33be eca8 003f 7a2a cd3c fea8 10bf
000000c0: e7f4 d43e 8f26 1f3f c928 a33e b636 ba3e
000000d0: 7732 923e d52a a53e fd13 9b3d 36a7 963e
000000e0: 1953 f43d d408 3abf 37b9 7f3e 207a 9b3d
000000f0: 49c4 8e3e af70 183f d62d b1bd 8735 343f
00000100: b196 c03e 28e2 343e 5908 073e 273b 413e
00000110: fcc1 863e 318e eabe 1bbd 0c3e 8bd2 2f3f
00000120: c50c 8d3e be70 0b3f eee0 d33e 2ebd ca3e
00000130: 00d0 a13e 3446 56bf 534c a73e 5315 723e
00000140: 7fae 273e 8303 c63e 2df0 963e 7161 073f
00000150: b653 f93e 022a 023f 3fb4 59be d7a1 ec3e
00000160: 07ba 0a3f 49c4 d23e a521 a93e f5c2 0e3e
00000170: ab45 0e3f c4c0 293f a65d a13e c012 103f
00000180: 8b61 063f b92d 083f 1872 243f 783f 493d
00000190: 7459 c83e 37c4 e83e 35a8 0c3f 20c0 163f
000001a0: 09fc 653e b3a6 ce3e 9058 4c3e cf97 693e
000001b0: 8575 493e b587 ac3e c6f1 023f e176 c93e
000001c0: 2aec 083f 25d9 8d3e 57d6 e83e 88bb 853e
000001d0: 74b3 e93d 44fb d43e 160a 28bf 2b07 a83e
000001e0: c328 17bf 5aa5 d93e b87e 9a3e 83db 33bd
000001f0: 5040 133f f50c d2bd 7f76 ff3e 8508 34be
00000200: 39c9 0b3e bb49 2dbd 1a78 d43e 8c90 ed3d
00000210: 50a0 193f 0f9d c23e 59f8 883e d022 703e
00000220: 8596 bc3d 6f3f 6c3e 9f73 b73e b9ea 34bd
00000230: 2846 acbd ea49 0b3c 8078 a53e dd1a cb3e
00000240: 7e1d e23e d2b7 023f f38b ed3e b5fb 75bd
00000250: 3c8a e73e dea7 a63e 10aa 3bbf 7754 493d
00000260: 1252 a13e ecf3 173f 8858 333f 7a54 48bf
00000270: 88bd e83e d199 a23e 68d9 743e 9c7f 9b3d
00000280: c00c e83d 8dd4 8f3d 2a22 4d3e 9469 1a3f
00000290: 3587 df3e ffca 743e b9ed f63e 396c 3c3e
000002a0: c7d9 aebd e1f0 74be 10af 183f 012b 403d
000002b0: 0890 c83e 101e c93e 0d8f 383f f171 febe
000002c0: ddbe 8c3e d023 08be bcfc 50bd 1b5e fb3e
000002d0: 39d3 a23d 6f58 df3d 5e45 983e 0236 133f
000002e0: 13d4 71be e97b c43e ec85 093e 542a 613e
000002f0: 361e 1b3f 02b9 80bf a99b 023f c327 0b3f
00000300: b9d6 0dbc e14d 813e 226c d63e 8e70 d9be
00000310: d0e5 933e 7cce 653e fd22 483e 6619 533e
00000320: 8aac 043f af16 af3e 75b9 14bf e6cd 093f
00000330: 95d0 973e c501 f83e 2b0f 0c3e 3381 4e3e
00000340: c85b c73e cf07 dcbe a0a1 083f 92ba 66bf
00000350: aab9 cfbd 4214 003f 9850 8f3e 2ca3 163f
00000360: bdb8 b3be 6a4d 96bf 4a6b a13e ec75 42bf
00000370: 3f34 623e 255f f53e 8770 2a3f 870f 4f3e
00000380: 857a b93e a07b a53e 7139 5d3e e7f6 a53e
00000390: e819 d33e dc90 b2be cdab 133f b13f 8bbd
000003a0: f62d 5abe 66b1 b63e 3569 113d cbca 613e
000003b0: d6db 903e 1831 34be 067d de3e 82a4 033e
000003c0: 999b ff3e db32 48be 5a2f 103c ad56 aa3e
000003d0: 5a44 923d 0a9e 193f 07f7 1b3f cd56 fa3e
000003e0: efad 713e 7588 623f 70d8 dd3d b27a 023d
000003f0: 324e 003f 75a3 f53e dd68 843e d592 ea3e

stack.2.weight f4 [1, 256]
0.07888763 -0.4226659 0.061339095 0.20958377 -0.5235175 0.016529694 -0.31324494 0.55163944
0.27970603 0.26744875 0.13502505 0.20234932 0.006507282 0.35350335 0.08908817 0.12898147
0.22772942 0.06072393 0.13038993 -0.4774057 0.1840647 -0.22348903 0.13432129 0.045533862
0.37357017 0.3222449 0.17149723 0.30252236 0.26980275 0.122374944 0.069204785 0.2052135
0.25056753 0.32176885 0.07882395 0.1560035 0.1779121 0.25103787 0.3006832 0.1585896
-0.6992281 0.3923518 0.044735383 -0.9145882 -0.43317518 0.23148078 0.09540851 -0.21781075
0.16424416 0.28509527 0.41023454 0.16008598 0.39646667 0.1641729 0.35946044 0.1045736
0.40319195 -0.46722007 0.31317955 0.31821218 0.3870667 0.2100784 0.47692984 0.2846949
0.22810413 0.3347148 0.16936919 0.08562189 0.19416954 -0.48944497 0.1071047 0.42042226
0.26981598 0.11771998 0.19106734 0.1506939 0.20666678 -0.7326559 0.076343805 0.35189262
0.5679428 0.23511319 0.24724667 0.24877478 0.0264734 0.099596076 0.42401034 0.37491792
0.21226688 0.16848543 0.26464075 0.09215523 0.05870867 0.12889636 0.36396682 0.01656093
0.22187209 0.5501359 0.15255904 0.110287964 0.33437586 0.15839961 0.2083441 0.2731936
0.21558891 0.17010906 0.025839102 0.30778882 0.084147885 0.7136975 0.10145785 0.07192031
-0.56501406 0.04429474 0.17266801 0.13599017 0.15757304 0.07603009 -1.6912227 0.24127693
-0.36537415 -0.64591956 0.15581444 0.11861208 0.23992077 0.44354627 0.4379827 0.2420898
0.099011526 0.017698316 0.22962625 0.051679898 0.33554113 0.06548792 0.39439946 -0.53673005
0.23674805 0.12830359 0.2994692 0.6550084 -0.87710065 0.34812358 0.12368075 0.15630685
0.35795033 0.0605834 0.06507348 -0.36379445 0.37647814 0.3881624 -0.37880695 -0.7841033
0.18080652 0.26878786 0.15219638 -0.3385406 0.14401683 0.1901165 0.18567248 -0.6555599
-0.42694995 0.13394299 0.068266876 0.25794503 0.12351897 0.12407321 0.030894985 0.21243002
0.21165165 -0.79309523 0.3177332 0.41900542 0.3345259 0.29293412 0.19577797 -0.43955013
0.15949208 0.1653823 0.04461668 0.19062684 0.18540986 0.43834746 0.14828172 0.2919206
0.4037088 0.2160788 0.37486327 0.45374107 0.31276196 -0.8256051 0.49826646 0.28401047
0.30742982 0.25387913 0.27205095 -1.2674613 0.1287563 0.13091834 0.3772786 0.07305211
0.15548617 0.086335234 -0.43533596 0.11494576 0.1589406 0.31979632 0.3978035 -0.0972317
0.02074984 -0.84255093 0.20759715 -0.42292053 0.23040037 0.19871345 0.2091393 0.25759783
-0.5708259 -1.192903 0.23829266 -0.59827834 0.08372093 0.19879009 0.18471445 -0.5608251
-0.063030586 0.4003662 0.10352022 0.20014955 0.22470817 -0.42193595 0.07583168 0.17581055
0.21127549 0.116435 0.37136737 0.120073594 -0.54718924 1.0737607 0.18002029 0.02573307
0.12358887 -0.44936445 0.42374098 0.2147095 0.1532136 0.07131318 0.14255999 0.32079566
0.06671899 0.61542517 0.079732694 0.25144017 0.24223506 0.1912867 0.16414636 0.43117985
00000000: d68f a13d aa67 d8be b43e 7b3d 219d 563e
00000010: 3e05 06bf 4869 873c a461 a0be 3e38 0d3f
00000020: a135 8f3e 0bef 883e 0244 0a3e a934 4f3e
00000030: 0a3b d53b 64fe b43e dc73 b63d b813 043e
00000040: e731 693e a8b9 783d f084 053e 856e f4be
00000050: 757b 3c3e 4fda 64be 858b 093e b781 3a3d
00000060: 9744 bf3e 49fd a43e f89c 2f3e 36e4 9a3e
00000070: 9623 8a3e b79f fa3d 3dbb 8d3d 7d23 523e
00000080: 634a 803e e3be a43e 736e a13d 62bf 1f3e
00000090: 972e 363e 0988 803e 26f3 993e 5065 223e
000000a0: 9d00 33bf 56e2 c83e 733c 373d 7422 6abf
000000b0: 23c9 ddbe 4c09 6d3e 8965 c33d c809 5fbe
000000c0: 9f2f 283e 02f8 913e 430a d23e 94ed 233e
000000d0: aefd ca3e f11c 283e 330b b83e af2a d63d
000000e0: 2d6f ce3e 7837 efbe 1259 a03e b5ec a23e
000000f0: 9b2d c63e cb1e 573e 2630 f43e 88c3 913e
00000100: 2194 693e bd5f ab3e 1e6f 2d3e 885a af3d
00000110: 61d4 463e 8898 fabe b559 db3d 9641 d73e
00000120: 5225 8a3e 2c17 f13d 28a7 433e 804f 1a3e
00000130: 75a0 533e 568f 3bbf 245a 9c3d 452b b43e
00000140: b364 113f 83c1 703e 3b2e 7d3e d1be 7e3e
00000150: bede d83c 07f9 cb3d e217 d93e 3ef5 bf3e
00000160: 7d5c 593e 7287 2c3e fe7e 873e e2bb bc3d
00000170: 8178 703d 68fd 033e dc59 ba3e caaa 873c
00000180: 7032 633e b5d5 0c3f 7038 1c3e a8de e13d
00000190: 5033 ab3e 8233 223e 2858 553e 08e0 8b3e
000001a0: 57c3 5c3e 1231 2e3e 86ac d33c 7f96 9d3e
000001b0: ba55 ac3d e1b4 363f 22c9 cf3d f54a 933d
000001c0: c3a4 10bf 676e 353d e2cf 303e 0241 0b3e
000001d0: d45a 213e aab5 9b3d fc79 d8bf 4d11 773e
000001e0: 5212 bbbe fc5a 25bf d28d 1f3e e4ea f23d
000001f0: caad 753e 7f18 e33e 453f e03e 63e6 773e
00000200: 8ec6 ca3d 0ffc 903c 2523 6b3e 4dae 533d
00000210: 0ccc ab3e 881e 863d baee c93e 2467 09bf
00000220: 156e 723e 0462 033e 0754 993e a1ae 273f
00000230: ab89 60bf 413d b23e 554c fd3d e70e 203e
00000240: 4445 b73e 4d26 783d 3f45 853d 4443 babe
00000250: bec1 c03e 39bd c63e fcf2 c1be feba 48bf
00000260: 5825 393e 909e 893e 5ed9 1b3e 3255 adbe
00000270: 2679 133e e6ad 423e ed20 3e3e c6d2 27bf
00000280: 2f99 dabe 5a28 093e 81cf 8b3d 5f11 843e
00000290: 84f7 fc3d 181a fe3d 7b17 fd3c 4187 593e
000002a0: 36bb 583e 4a08 4bbf edad a23e e187 d63e
000002b0: fb46 ab3e 76fb 953e 057a 483e b70c e1be
000002c0: e451 233e fa59 293e fbbf 363d af33 433e
000002d0: 15dc 3d3e 146f e03e 2ad7 173e 9e76 953e
000002e0: ebb2 ce3e c343 5d3e 14ee bf3e c050 e83e
000002f0: 5622 a03e db5a 53bf c81c ff3e d269 913e
00000300: 7167 9d3e 72fc 813e 434a 8b3e 2c3c a2bf
00000310: b1d8 033e 750f 063e a92a c13e 589c 953d
00000320: c437 1f3e 87d0 b03d 5be4 debe af68 eb3d
00000330: 53c1 223e 58bc a33e e6ac cb3e 6a21 c7bd
00000340: 92fb a93c 6bb1 57bf 5994 543e 0a89 d8be
00000350: 13ee 6b3e 8a7b 4b3e 9d28 563e dde3 833e
00000360: a521 12bf 0cb1 98bf fe02 743e c528 19bf
00000370: e175 ab3d a18f 4b3e c925 3d3e 3c92 0fbf
00000380: 2e16 81bd ccfc cc3e 6902 d43d 01f4 4c3e
00000390: e619 663e fd07 d8be a44d 9b3d ae07 343e
000003a0: 9a58 583e 7975 ee3d dd23 be3e 25e9 f53d
000003b0: 9814 0cbf fe70 893f 3d57 383e 29ce d23c
000003c0: 291c fd3d 1913 e6be 94f4 d83e cfdc 5b3e
000003d0: 07e4 1c3e a50c 923d 3ffb 113e 543f a43e
000003e0: f7a3 883d 818c 1d3f e54a a33d c4bc 803e
000003f0: 780c 783e a9e0 433e fc15 283e 9bc3 dc3e

exp_avg f4 [256, 17]
-0.0020560042 0.0006626232 -0.0022092233 -0.0016605371 -0.001933833 -0.0019259441 -0.0020274413 0.000646833
0.0007457916 0.0006642292 0.00021000407 -0.00047943532 5.6308014e-05 0.00031838054 -5.3957607e-05 -0.00052259775
-0.0010126553 -0.0021362277 -0.0004381506 -0.0070967446 -0.0027388937 -0.002843314 -0.003492196 -0.0019200994
-0.0015366072 -0.0013198422 -0.0014069021 -0.0033553757 -0.00011584709 -0.00831085 -0.005739866 -0.0031031803
-0.0033840458 -0.0015714356 -0.00074522686 0.0016218314 -0.0005737322 -0.00029967824 -0.0006271799 -0.00047109806
-0.0007509945 0.0016745474 0.0016827715 0.0017112017 0.0015623822 0.00073187007 0.00083461526 0.0007666707
0.0007647787 0.0009704031 0.00023116726 -0.0009920816 0.001237307 0.0009703132 9.038165e-05 -0.00062012504
-0.00034453842 -0.0011704052 0.0016397976 0.0015435334 0.0019524451 0.0026533992 0.0008161177 0.0034970227
0.0017042246 0.0018601908 0.0026125503 0.0003020237 0.0023694653 -0.011621769 0.0056619816 0.0011796813
0.0015716809 0.0014523285 0.002046621 -0.011138307 -0.010879343 -0.009846594 -0.007030528 -0.0041699354
0.0009065102 0.00015259348 -0.0002484951 -0.0009640403 0.00046800033 -0.00018952531 0.0003492744 -0.00012435438
-0.00012854079 -0.00015681973 -0.00014338625 -0.00019547461 0.0003629808 0.0003657822 0.00038885925 0.0003451065
0.00016560321 0.00019613252 0.00018931841 0.00022392998 0.00018014939 -3.437913e-06 0.0011062463 -0.0069557177
-0.002032189 -0.00056632934 0.00017202186 -8.175889e-05 0.0012548789 -0.007097669 -0.0070476662 -0.00767916
-0.0067149973 -0.0034234726 -0.0030128276 -0.0034742488 -0.0051902225 -0.0038746574 -0.00016951091 0.0014274111
0.009861602 0.005253303 0.0038245243 0.0022444085 0.0038139177 0.0010766359 0.01072583 0.010445596
0.008814146 0.009298881 0.0035044579 0.008768271 0.0069214846 0.0020892448 0.0049341456 -8.757722e-05
-0.0058859247 0.005137429 -0.0060251863 -0.004399573 -0.0055956775 -0.004860389 -0.005964934 0.004910112
0.004801878 0.0047440846 0.0030510281 0.00043502654 -0.00041989656 -0.0010699568 3.738705e-05 -0.00091999065
-0.003070158 -0.0036491852 0.0020278022 -0.00079405867 -0.0019183304 -0.0032777574 -0.0022145566 -0.0038875127
0.0024305375 0.002498301 0.0027770845 0.0031042516 0.0004020864 0.003733 0.0026706508 0.001347533
0.0018292192 -0.001488426 -0.0031090707 0.0038296075 -0.0036451074 -0.0023589449 -0.002909682 -0.0026663255
-0.0030773785 0.003638529 0.0036788797 0.0035789895 0.002235162 0.00086314126 -0.00052040105 -0.00019627319
0.0005627056 -0.00013176019 -0.000800148 -0.003193488 0.0050241733 -0.0025392585 -0.0017077983 -0.0027399573
-0.002215136 -0.0032401541 0.0050928835 0.0051402235 0.0049458765 0.003651701 0.0013395827 0.0018098876
0.0018645867 0.001118633 0.0010226228 -0.00061095966 -0.00013854665 8.298702e-05 -0.00016022944 -0.00010023533
-0.00012734442 -0.00011610379 -0.00013577826 7.645669e-05 7.904442e-05 8.369638e-05 4.693089e-05 9.238354e-06
-2.954594e-05 -2.312922e-05 1.3656398e-05 -1.6677617e-05 -2.885234e-05 -0.0069798725 0.007978882 -0.008202168
-0.0050867624 -0.0067268354 -0.0058687846 -0.007085457 0.0074549816 0.007342692 0.006980931 0.004276548
0.0019414705 -0.001946876 -0.0022456283 -0.00089136726 -0.0012643238 -0.0016917535 -0.0016903991 0.0021755905
-0.0019586938 -0.0012360888 -0.0015787544 -0.0014020244 -0.0016705308 0.0020531213 0.0020721264 0.00195757
0.0012213325 0.00046755196 -0.00038798034 -0.00028376403 -6.5626184e-05 -3.8125763e-05 -0.00028225832 -0.0026712895
00000000: 07be 06bb e4b3 2d3a 9ec8 10bb 61a6 d9ba
00000010: ab78 fdba f66f fcba d2de 04bb 3a90 293a
00000020: 3a81 433a ab1f 2e3a 8a34 5c39 b85c fbb9
00000030: 452c 6c38 50ec a639 8a50 62b8 f1fe 08ba
00000040: 13bb 84ba f4ff 0bbb 94b7 e5b9 cf8b e8bb
00000050: 037f 33bb e556 3abb 54dd 64bb d8ab fbba
00000060: fb67 c9ba 8efe acba cd67 b8ba dde5 5bbb
00000070: eff2 f2b8 3b2a 08bc 7c15 bcbb ba5e 4bbb
00000080: dec6 5dbb a1f8 cdba 545b 43ba a293 d43a
00000090: 8466 16ba 221e 9db9 5569 24ba b6fd f6b9
000000a0: 63de 44ba 7d7c db3a 7190 dc3a 674a e03a
000000b0: d9c8 cc3a f8da 3f3a 15ca 5a3a 66fa 483a
000000c0: 6e7b 483a a662 7e3a 7d65 7239 bc08 82ba
000000d0: 222d a23a 9e5c 7e3a 478b bd38 e38f 22ba
000000e0: 2aa3 b4b9 4868 99ba 7aee d63a 6350 ca3a
000000f0: 30e9 ff3a a7e4 2d3b bbf0 553a 4e2e 653b
00000100: 4a60 df3a a5d1 f33a 5237 2b3b ef58 9e39
00000110: 0849 1b3b 3b69 3ebc 2588 b93b 899f 9a3a
00000120: dc00 ce3a 0f5c be3a 9a20 063b 727d 36bc
00000130: 463f 32bc 9c53 21bc 5860 e6bb f4a3 88bb
00000140: dfa2 6d3a 8001 2039 7348 82b9 a6b7 7cba
00000150: f15d f539 50bb 46b9 d11e b739 2065 02b9
00000160: e8c8 06b9 fa6f 24b9 f459 16b9 51f8 4cb9
00000170: 754e be39 75c6 bf39 cedf cb39 69ef b439
00000180: c6a5 2d39 eca8 4d39 c683 4639 bfce 6a39
00000190: 7ce6 3c39 e5b6 66b6 77ff 903a caec e3bb
000001a0: 792e 05bb b875 14ba c460 3439 f875 abb8
000001b0: c07a a43a 9093 e8bb 1cf0 e6bb 77a1 fbbb
000001c0: 7b09 dcbb 575c 60bb dc72 45bb 39b0 63bb
000001d0: be12 aabb f7ed 7dbb bdbe 31b9 f817 bb3a
000001e0: 8f92 213c e623 ac3b dfa4 7a3b ed16 133b
000001f0: ecf2 793b e81d 8d3a 64bb 2f3c 0124 2b3c
00000200: 3569 103c 555a 183c 0cab 653b cba8 0f3c
00000210: 9fcd e23b b6eb 083b 9dae a13b a9a9 b7b8
00000220: b7de c0bb e157 a83b ed6e c5bb 4b2a 90bb
00000230: f25b b7bb e643 9fbb 7e75 c3bb 01e5 a03b
00000240: 1259 9d3b 4474 9b3b c2f3 473b 4614 e439
00000250: 9025 dcb9 cb3d 8cba 0ad0 1c38 872b 71ba
00000260: b434 49bb 2b27 6fbb e0e4 043b 6028 50ba
00000270: 7d70 fbba a5cf 56bb 1822 11bb a4c5 7ebb
00000280: a749 1f3b 89ba 233b bfff 353b b370 4b3b
00000290: 20cf d239 59a5 743b 1606 2f3b b49f b03a
000002a0: 69c2 ef3a 4a17 c3ba 8dc1 4bbb 27fa 7a3b
000002b0: c1e2 6ebb 8798 1abb 5db0 3ebb 85bd 2ebb
000002c0: d8ad 49bb 6374 6e3b 5c19 713b 7b8d 6a3b
000002d0: cc7b 123b 6e44 623a 866b 08ba afce 4db9
000002e0: 8982 133a 1b29 0ab9 06c1 51ba d749 51bb
000002f0: d2a1 a43b b069 26bb 34d8 dfba db90 33bb
00000300: d12b 11bb c458 54bb 34e2 a63b 526f a83b
00000310: 0511 a23b 6051 6f3b f094 af3a c039 ed3a
00000320: 2665 f43a 189f 923a 8709 863a cf28 20ba
00000330: d546 11b9 5109 ae38 4303 28b9 6f35 d2b8
00000340: c287 05b9 bf7c f3b8 b35f 0eb9 5f57 a038
00000350: a6c4 a538 2786 af38 a9d7 4438 6efe 1a37
00000360: 6cd9 f7b7 9f05 c2b7 c81d 6537 e9e6 8bb7
00000370: ee07 f2b7 6ab7 e4bb dbb9 023c 6362 06bc
00000380: dbae a6bb c96c dcbb ef4e c0bb 1f2d e8bb
00000390: eb48 f43b f79a f03b 4bc0 e43b 4922 8c3b
000003a0: f178 fe3a 512e ffba 642b 13bb a5aa 69ba
000003b0: abb7 a5ba d4bd ddba 6290 ddba 5a94 0e3b
000003c0: 6e5d 00bb 4204 a2ba 35ee ceba 22c4 b7ba
000003d0: b6f5 daba a98d 063b 83cc 073b 934a 003b
000003e0: 1e15 a03a c321 f539 d769 cbb9 2ac6 94b9
000003f0: caa0 89b8 3ae9 1fb8 12fc 93b9 cd10 2fbb

exp_avg_sq f4 [256, 17]
5.8536425e-05 4.038179e-05 4.9488262e-05 5.1536117e-05 5.874691e-05 5.6350807e-05 5.989275e-05 3.7496757e-05
3.9762206e-05 3.7585814e-05 2.3275943e-05 2.7103433e-05 4.992607e-06 2.1735646e-05 2.3662324e-05 2.2349914e-05
3.0965697e-05 0.0009920206 0.00059124944 0.00091619947 0.00091684674 0.0009629797 0.00088261743 0.0009839308
0.00055520155 0.00053014 0.00083609985 0.00092419103 0.0014564896 0.00023882942 0.0004648992 0.0013935447
0.0013986911 0.0016239979 5.5028228e-05 4.1685744e-05 4.8902573e-05 4.966856e-05 5.449403e-05 5.148555e-05
5.5252433e-05 4.098152e-05 4.2459775e-05 4.6712557e-05 4.3215103e-05 5.142093e-05 1.6043492e-05 2.7218002e-05
4.5161807e-05 4.444731e-05 4.744023e-05 0.0004146791 0.00020130526 0.0003816579 0.00037388326 0.00041045094
0.00038354815 0.0004139223 0.0001976034 0.00020763869 0.00026919678 0.00028992764 0.00039820225 0.00015587667
0.00023491967 0.00040714876 0.00038714524 0.00042289964 0.0007265504 0.0013460033 0.0006494218 0.00071755314
0.00071482087 0.00069952256 0.0007346465 0.0013003723 0.0013019905 0.00123058 0.0009183972 0.0008462173
0.00011516757 0.00032700188 0.00053581095 0.0006250645 0.00059587636 4.164444e-06 3.2145454e-06 3.670885e-06
3.7508344e-06 4.0971877e-06 3.8740977e-06 4.2045867e-06 3.0008875e-06 3.1491984e-06 3.566265e-06 2.895113e-06
3.844554e-06 4.6636868e-07 1.7367746e-06 3.4052343e-06 3.3254544e-06 3.7177947e-06 0.00091651804 0.0007918549
0.0007940563 0.0007996128 0.00091149117 0.0008344508 0.00092394266 0.0007401472 0.0007422039 0.00084729155
0.0007296224 0.0009693312 9.428594e-05 0.0003079186 0.00077640027 0.0008097055 0.0009990528 0.0013521155
0.002158252 0.001334083 0.0012997375 0.0013530798 0.0012407096 0.0013548324 0.0020620693 0.0019765084
0.0020222059 0.0015786474 0.0021181789 0.00037269693 0.0006448106 0.0013550401 0.0016221768 0.002501301
0.00061077025 0.0003433204 0.00052062643 0.000541481 0.0006121382 0.00058249576 0.00062217255 0.00031856587
0.00034492672 0.00029544308 0.0001751371 0.0001736917 3.3951652e-05 0.00018991363 0.00013355308 0.00015763238
0.0001771294 0.0007844101 0.00033569965 0.00073237054 0.000708251 0.0007794473 0.0007271125 0.0007859535
0.00032657437 0.00034644172 0.0004436341 0.0004723166 0.0006531803 0.00024534675 0.0004065264 0.0006710546
0.0006547814 0.00071194215 0.00014262949 0.0001176167 0.00012431615 0.00012594773 0.0001423946 0.00013588982
0.00014538455 0.00011033328 0.000117671414 0.000103438906 6.297019e-05 5.8077396e-05 1.0321735e-05 5.141334e-05
4.185356e-05 4.5302066e-05 4.8236314e-05 0.0005266442 0.0004032907 0.00045430177 0.00046693915 0.0005251974
0.0004887582 0.00053359364 0.00037669006 0.00039621827 0.0004239685 0.00030462368 0.00039549783 5.8857317e-05
0.00021335471 0.0003736938 0.00035527698 0.00047037264 3.9436367e-07 2.869475e-07 3.4204558e-07 3.522552e-07
3.9402684e-07 3.7706988e-07 4.0167055e-07 2.6812612e-07 2.8676382e-07 2.508133e-07 1.5612149e-07 1.5042943e-07
2.929566e-08 1.4279429e-07 1.1882875e-07 1.3247443e-07 1.3690789e-07 0.00096522056 0.0004905982 0.0008348077
0.00085748907 0.0009680047 0.00092304795 0.0009808886 0.00045338046 0.00049396366 0.0004187426 0.00023311438
0.0002124702 4.8719732e-05 0.0002713132 0.00017910835 0.00020172645 0.000204939 6.364396e-05 5.1307325e-05
5.256165e-05 5.5972865e-05 6.357135e-05 6.035914e-05 6.482465e-05 4.853305e-05 5.1822735e-05 4.611425e-05
2.9046172e-05 2.6071692e-05 5.387886e-06 2.4216888e-05 2.1343556e-05 2.2261263e-05 2.2149337e-05 0.0001267072
00000000: 0285 7538 9e5f 2938 9e91 4f38 7c28 5838
00000010: 0467 7638 385a 6c38 5a35 7b38 d645 1d38
00000020: 58c6 2638 76a5 1d38 b540 c337 2e5c e337
00000030: 2b86 a736 f254 b637 747e c637 137c bb37
00000040: 2ae1 0138 b006 823a 14fe 1a3a 1b2d 703a
00000050: 8b58 703a 7970 7c3a 745f 673a 3df7 803a
00000060: f28a 113a 18f9 0a3a b62d 5b3a 6945 723a
00000070: aee7 be3a 496e 7a39 b7bd f339 9aa7 b63a
00000080: 4954 b73a 54dc d43a 1cce 6638 bad7 2e38
00000090: bd1c 4d38 3653 5038 8590 6438 30f2 5738
000000a0: d9be 6738 92e3 2b38 d616 3238 3aed 4338
000000b0: dd41 3538 ceac 5738 2395 8637 3752 e437
000000c0: 1f6c 3d38 f06c 3a38 8ffa 4638 4969 d939
000000d0: 7815 5339 4219 c839 c305 c439 cb31 d739
000000e0: f616 c939 b603 d939 c233 4f39 96b9 5939
000000f0: fb22 8d39 6e01 9839 cdc5 d039 d372 2339
00000100: c554 7639 9576 d539 c1f9 ca39 a1b8 dd39
00000110: f975 3e3a 606c b03a f63d 2a3a 2d1a 3c3a
00000120: d162 3b3a 2a60 373a 4b95 403a 4171 aa3a
00000130: 8da7 aa3a 6a4b a13a 98c0 703a afd4 5d3a
00000140: 1e86 f138 7371 ab39 aa75 0c3a 5edb 233a
00000150: 9634 1c3a 4dbc 8b36 78b9 5736 5359 7636
00000160: d8b6 7b36 937a 8936 3ffe 8136 2015 8d36
00000170: db62 4936 d156 5336 f753 6f36 aa49 4236
00000180: 7800 8136 3961 fa34 1f1b e935 7b85 6436
00000190: df2a 5f36 3a7f 7936 7c42 703a 7c94 4f3a
000001a0: 3728 503a 1b9d 513a 23f1 6e3a 0cbf 5a3a
000001b0: be34 723a 7006 423a 7690 423a c61c 5e3a
000001c0: 2144 3f3a b71a 7e3a 61bb c538 2370 a139
000001d0: 5787 4b3a 6b42 543a a6f2 823a 7839 b13a
000001e0: 7671 0d3b 66dc ae3a f45b aa3a d359 b13a
000001f0: 4e9f a23a a294 b13a c823 073b 4f88 013b
00000200: fc86 043b 9eea ce3a 25d1 0a3b 8966 c339
00000210: 8208 293a 9a9b b13a 399f d43a deec 233b
00000220: 191c 203a afff b339 a67a 083a 2df2 0d3a
00000230: e677 203a a1b2 183a 4b19 233a 3005 a739
00000240: 48d7 b439 b3e5 9a39 02a5 3739 0321 3639
00000250: 4f67 0e38 8d23 4739 620a 0c39 1f4a 2539
00000260: d0bb 3939 dfa0 4d3a d800 b039 8efc 3f3a
00000270: eca9 393a d353 4c3a b29b 3e3a 7208 4e3a
00000280: 1238 ab39 9fa2 b539 9097 e839 43a1 f739
00000290: 303a 2b3a e2a1 8039 0d23 d539 b6e9 2f3a
000002a0: a3a5 2b3a a1a1 3a3a d08e 1539 fca8 f638
000002b0: dd5a 0239 d610 0439 c24f 1539 a57d 0e39
000002c0: 5e72 1839 bb62 e738 5cc6 f638 57ed d838
000002d0: dd0e 8438 2198 7338 842b 2d37 a7a4 5738
000002e0: eb8b 2f38 b902 3e38 5951 4a38 7e0e 0a3a
000002f0: c370 d339 5a2f ee39 83cf f439 67ad 093a
00000300: 0220 003a dde0 0b3a 7c7e c539 84bb cf39
00000310: 1748 de39 e6b5 9f39 d25a cf39 90dd 7638
00000320: f8b7 5f39 55ec c339 7844 ba39 599c f639
00000330: eeb8 d334 c40d 9a34 63a2 b734 961d bd34
00000340: a38a d334 1770 ca34 2ea5 d734 f9f2 8f34
00000350: 85f4 9934 84a7 8634 59a2 2734 ba85 2134
00000360: d6a5 fb32 ff52 1934 cc2e ff33 4b3e 0e34
00000370: f400 1334 db06 7d3a 7d9b 003a ffd6 5a3a
00000380: 1ec9 603a b2c1 7d3a b3f8 713a 2991 803a
00000390: b2b3 ed39 577d 013a ae8a db39 2a70 7439
000003a0: 89ca 5e39 6a58 4c38 0b3f 8e39 08cf 3b39
000003b0: 8886 5339 e5e4 5639 9778 8538 d232 5738
000003c0: a475 5c38 68c4 6a38 9c51 8538 222a 7d38
000003d0: 78f2 8738 f78f 4b38 3d5c 5938 cd6a 4138
000003e0: 2ea8 f337 88b4 da37 97c9 b436 5f25 cb37
000003f0: f00a b337 b3bd ba37 57cd b937 b4dc 0439

exp_avg f4 [256]
-0.00021716823 0.0016681791 -0.0007630613 -0.001810913 -0.0006378022 -0.00011210847 0.0014911669 0.0035334118
-0.0017467218 -0.0039674933 -0.0004165767 -0.0015927322 -4.3306245e-05 -0.0042070174 -0.0008132586 -0.0012352343
0.0001502299 -0.00011306028 -0.0011546084 0.0013105483 -0.0005010784 0.00199481 -0.0010389055 -0.00048010063
-0.0032848103 -0.0036864046 -0.0019914631 -0.0022643504 -0.0022825086 -0.00085756206 5.1137256e-05 0.0009681915
-0.003426153 -0.0034574762 -0.0008919434 -0.0019165211 -0.0019121394 -0.003150936 -0.0047065727 -5.47794e-05
0.0072629023 0.0017965535 -9.94946e-05 0.005258004 0.0072284504 -0.0026415968 -0.0008655152 -0.00046743278
-0.0024392565 -0.002454822 -0.008526251 0.00053710106 -0.0022273748 -0.0003539585 -0.0015005976 -0.00032591735
-0.0024917992 0.009094544 -0.0015967368 -0.0016970609 -0.0054495293 0.0006144942 0.00060509244 -0.0038480356
-0.0026497224 -0.0024524303 -0.0013816978 -0.0009143762 -0.0018080568 -0.00245789 -0.0020057107 -0.0027877016
-0.0007890974 -0.0012711465 0.00046900153 0.0006346985 -0.0013216807 -0.0028697876 -0.000991976 -0.00031504242
-0.0074535175 -0.0010027471 -0.003908562 0.0024741886 -0.00027764754 -0.001007657 -0.0046729622 -0.0074704066
-0.0017305152 -0.0031120388 0.0013647024 -0.00074739644 -0.0006104558 -0.0007006981 0.001652664 -0.0001462499
-0.001960073 -0.0048925495 -0.0014504846 -0.0008246515 -0.0059869676 -0.0023594284 -0.0005629442 -0.00094423053
-0.0012964081 -0.0020546303 -0.00018462485 0.0013899169 -0.00052261056 0.0007163045 -0.0009539081 -0.00053088175
0.0063379505 -0.0005058336 -0.0022224651 -0.001278176 -0.0014998748 -0.001312508 0.010753788 -0.00065516547
0.00053405226 -0.001822099 -7.294353e-06 -0.0006745476 -0.0019030707 -0.0029420075 -0.0012705544 -0.002248749
-0.0005721716 -0.00018666126 -0.00093633874 -0.0003344311 -0.0031548876 -0.0007645139 -0.0031012062 -0.007343507
-0.0015079406 -0.000947962 -0.003459324 -0.005045529 -0.00034567737 0.00016156197 -0.0013143052 -0.001716434
-0.0031267619 -0.00070985156 -0.00053134345 0.004719404 -0.0020088155 0.0020135052 0.0002643776 0.0009735563
-0.0021391755 -0.0037354766 -0.0015337007 0.00083532825 -0.0013840463 -0.0014717156 -0.0023873143 0.0038538587
-0.0033347956 -0.0017379178 -0.00045825835 -0.003404044 -0.00026056072 -0.00080595666 -0.00013880512 -0.0017998973
0.00030694882 0.0029903858 0.0009466904 0.0040372396 -0.0041233744 -0.0035156715 -0.0014189304 0.0016651698
-0.0020792633 -0.0019886687 -0.0004356291 -0.0012809075 -0.0017958634 -0.0012370795 -0.0012835398 -0.0016988163
-0.0058929822 -0.0016731735 0.001006081 -0.0059587345 -0.003363677 0.0036009178 -0.0004425265 0.0004793983
-0.002065239 -0.003959272 -0.003968343 0.0099317 -0.00085461675 -0.0011648199 -0.004504482 -0.0007164914
-0.0011274366 -0.0005401317 -0.0010714462 -0.000545098 -0.0013895832 -0.0022930366 -0.0009836986 0.00051308057
-0.00021676287 0.0043237857 -0.0020420828 0.002262045 -0.0038212235 -0.0017554207 -0.0014915938 -0.0010033842
-0.004645877 0.01392645 -6.9501846e-05 0.0022875739 -0.0008908567 -0.002187175 -0.002766848 0.0077147237
-1.5437256e-05 -0.0018961483 -0.00056459283 -0.0025195114 -0.0020545956 0.0012240069 -0.00091633113 -0.0016917383
-0.0027500484 -0.0009260509 -0.0066210045 -0.0006665504 0.0010572711 0.0039684856 -0.0018893526 -0.00014060021
-0.0012089412 0.0055026035 0.00042214972 -0.001981919 -0.0013264341 -0.0006152228 -0.002023192 -0.0041778027
-0.0005567338 -0.005390851 -0.0005782558 -0.0012058098 -0.002119769 -0.0017409694 -0.0020868569 -0.007468742
00000000: a7b7 63b9 cda6 da3a 2d08 48ba 285c edba
00000010: 2e32 27ba c71b ebb8 4273 c33a d090 673b
00000020: 42f2 e4ba bf01 82bb fa67 dab9 39c3 d0ba
00000030: baa3 35b8 05db 89bb dc30 55ba 96e7 a1ba
00000040: 0887 1d39 c71a edb8 3b56 97ba b4c6 ab3a
00000050: cd5a 03ba 5cbb 023b e22b 88ba 04b6 fbb9
00000060: f945 57bb 9b97 71bb 3583 02bb 7f65 14bb
00000070: 2496 15bb 04ce 60ba 367c 5638 3bce 7d3a
00000080: 4f89 60bb d396 62bb 4fd1 69ba c733 fbba
00000090: c0a0 faba ef7f 4ebb 9839 9abb efc2 65b8
000000a0: a4fd ed3b 557a eb3a c2a7 d0b8 564b ac3b
000000b0: a3dc ec3b a41e 2dbb bee3 62ba c411 f5b9
000000c0: efdb 1fbb 14e1 20bb b0b1 0bbc 3ecc 0c3a
000000d0: 26f9 11bb 8193 b9b9 b3af c4ba e3df aab9
000000e0: 744d 23bb 4801 153c 9949 d1ba ea6f deba
000000f0: f791 b2bb 0216 213a 119f 1e3a 532f 7cbb
00000100: f7a6 2dbb f4b8 20bb 161a b5ba c0b2 6fba
00000110: 52fc ecba 8d14 21bb 3e72 03bb dfb1 36bb
00000120: 6edb 4eba 999c a6ba 52e4 f539 e561 263a
00000130: 3f3c adba 0c13 3cbb 3105 82ba 472c a5b9
00000140: a33c f4bb 9c6e 83ba 6513 80bb ff25 223b
00000150: 3991 91b9 5c13 84ba a61f 99bb 50ca f4bb
00000160: 74d2 e2ba 59f3 4bbb d0df b23a edec 43ba
00000170: ff06 20ba 0eaf 37ba 349e d83a a95a 19b9
00000180: 9174 00bb ae51 a0bb 301e beba 6d2d 58ba
00000190: 532e c4bb a4a0 1abb 8c92 13ba 3d86 77ba
000001a0: 3dec a9ba faa6 06bb db97 41b9 df2d b63a
000001b0: cdff 08ba 62c6 3b3a b00f 7aba df2a 0bba
000001c0: 95ae cf3b eb99 04ba c7a6 11bb 7888 a7ba
000001d0: 7297 c4ba 7608 acba a830 303c 69bf 2bba
000001e0: a4ff 0b3a 7fd3 eeba 04c2 f4b6 20d4 30ba
000001f0: 7570 f9ba b2ce 40bb bb88 a6ba bf5f 13bb
00000200: c9fd 15ba 80ba 43b9 a174 75ba 9556 afb9
00000210: 3bc2 4ebb a969 48ba 9b3d 4bbb cda1 f0bb
00000220: 17a6 c5ba a780 78ba d3b5 62bb f754 a5bb
00000230: 083c b5b9 f668 2939 c444 acba f8f9 e0ba
00000240: 5cea 4cbb 5515 3aba db49 0bba 3ba5 9a3b
00000250: 55a6 03bb 03f5 033b 299c 8a39 4236 7f3a
00000260: 6931 0cbb e6ce 74bb 7506 c9ba eef9 5a3a
00000270: e368 b5ba 95e6 c0ba 7d74 1cbb 0591 7c3b
00000280: 968c 5abb d8ca e3ba 6542 f0b9 6216 5fbb
00000290: de9b 88b9 d646 53ba 378c 11b9 88ea ebba
000002a0: f9ed a039 59fa 433b 512b 783a d24a 843b
000002b0: 5f1d 87bb 2e67 66bb 67fb b9ba d441 da3a
000002c0: 4044 08bb 5354 02bb 2665 e4b9 20e4 a7ba
000002d0: 2d63 ebba 8025 a2ba 733c a8ba d1aa deba
000002e0: eb19 c1bb 634e dbba 7ade 833a 7d41 c3bb
000002f0: 2371 5cbb 60fd 6b3b e702 e8b9 c057 fb39
00000300: f658 07bb c8bc 81bb e008 82bb 92b8 223c
00000310: 5c08 60ba dfac 98ba 559a 93bb edd2 3bba
00000320: 7fc6 93ba a097 0dba c56f 8cba e8e4 0eba
00000330: ad22 b6ba c546 16bb 73ef 80ba 4180 063a
00000340: d74a 63b9 8bae 8d3b 77d4 05bb d13e 143b
00000350: 7e6d 7abb 2516 e6ba 9581 c3ba fd83 83ba
00000360: 713c 98bb c42b 643c 85c1 91b8 1feb 153b
00000370: 6288 69ba b556 0fbb 0254 35bb cbcb fc3b
00000380: 417f 81b7 2e88 f8ba 2f01 14ba 631e 25bb
00000390: 65a6 06bb db6e a03a f135 70ba 51bd ddba
000003a0: 283a 34bb 39c2 72ba 03f5 d8bb 71bb 2eba
000003b0: 2294 8a3a 120a 823b 27a4 f7ba 156e 13b9
000003c0: 5675 9eba 2f4f b43b fa53 dd39 15e3 01bb
000003d0: bedb adba e746 21ba 8797 04bb f3e5 88bb
000003e0: c6f1 11ba bca5 b0bb 1796 17ba 430c 9eba
000003f0: d3eb 0abb 3d31 e4ba a6c3 08bb 59bc f4bb

exp_avg_sq f4 [256]
4.9261573e-05 0.0010228452 4.4443368e-05 0.00030676473 0.0012250411 3.5548671e-06 0.0008463377 0.0020330031
0.00035445453 0.0005893581 0.000109294975 0.00043555922 3.0413585e-07 0.0005329918 5.3546533e-05 9.089764e-05
0.00047566416 3.0156905e-05 0.000115676885 0.0012415723 0.00025934627 0.00054431625 8.514114e-05 2.35483e-05
0.0010966187 0.0011021553 0.0003309832 0.0008951869 0.00030451856 8.5568914e-05 3.6431982e-05 0.00029565181
0.00047500516 0.00080083177 3.459239e-05 0.00027969817 0.00020090156 0.00029813082 0.0007412257 0.0002390024
0.0037897697 0.0011101484 1.2873532e-05 0.006450173 0.00076724496 0.0005920081 4.956734e-05 0.00024926988
0.0002593962 0.0007079047 0.0011999899 0.00021699507 0.0013989575 0.00015720363 0.0006930998 6.3976346e-05
0.0010108764 0.00062611187 0.00064459105 0.00054347055 0.0011702474 0.00041814466 0.0008451737 0.00092057255
0.00033705446 0.0005996958 0.00016248554 4.4892015e-05 0.00023384177 0.0013692479 8.283778e-05 0.001894954
0.0005226286 0.00016017734 0.00025570986 0.00017206266 0.0003015006 0.0009996283 4.863128e-05 0.000584365
0.0019032928 0.0005744348 0.0004666003 0.0005901483 8.3888635e-06 0.000111003974 0.0007750019 0.0012554597
0.0004634178 0.0002589537 0.00053272356 4.8597634e-05 3.9721697e-05 0.0001773317 0.0009458558 3.4971413e-06
0.0004878636 0.0027688718 0.00025970288 6.6716566e-05 0.00088412967 0.00024341245 0.0004502806 0.0005923242
0.0002758239 0.0003075203 4.1945245e-06 0.0006643821 4.1333027e-05 0.004500447 0.00012045066 3.4567092e-05
0.003037697 1.2331698e-05 0.00023016389 0.000105562794 0.00013351406 5.5504814e-05 0.008799475 0.0003377623
0.0007068829 0.0028245605 0.00016704503 7.8020785e-05 0.0006107691 0.0007202681 0.0018968694 0.00026223148
5.5966157e-05 1.6448258e-06 0.00032238505 1.528546e-05 0.0012378303 3.0578278e-05 0.0010116801 0.0018233544
0.00034812777 0.00010425543 0.0005468847 0.0020790268 0.0043161446 0.0009469527 9.785175e-05 0.00024580376
0.0010602527 4.325344e-05 5.0783437e-05 0.00093972875 0.0013348876 0.0010751763 0.00073702954 0.0034575632
0.00020465524 0.00080479606 0.00025939796 0.0005771991 0.0002293725 0.0002298433 0.00032358002 0.002862326
0.0012595359 9.659801e-05 2.7742746e-05 0.000583345 0.00012289171 8.997202e-05 9.8677565e-06 0.0002858837
0.0002922471 0.0029277103 0.0009711873 0.0009531222 0.00075856736 0.000593453 0.00042096528 0.0010572928
0.00022102929 0.000115681534 1.0737714e-05 0.00040835963 0.00022113098 0.0011079513 0.00013755479 0.00094437035
0.0006636613 0.00047699874 0.0010365715 0.0014239071 0.0010484889 0.0027366513 0.0020427282 0.0008242667
0.00051102863 0.0005132408 0.0005834102 0.004548604 9.326744e-05 9.615047e-05 0.0009905082 3.6819085e-05
0.00026075332 4.4260058e-05 0.000990459 0.00013043075 0.00016679974 0.0010871706 0.0007620044 8.859611e-05
4.5938896e-06 0.0014813324 0.0004978759 0.00078491896 0.00020340423 0.0002591891 0.0002537987 0.00063879095
0.0014305852 0.0051395404 0.00032565766 0.0015503623 4.1995434e-05 0.00035163268 0.0003651268 0.0018702985
3.6903923e-05 0.0011739547 7.3098294e-05 0.0003180061 0.00034674542 0.00095519517 6.301549e-05 0.00015147244
0.00019006863 9.680762e-05 0.0009029534 8.644482e-05 0.0022976045 0.0033904684 0.00034288273 4.7480817e-06
0.0001702489 0.0012693313 0.0009929572 0.00030501527 0.00013059976 6.0065355e-05 0.00022973311 0.00079763116
2.9154562e-05 0.0040848246 3.949355e-05 0.00034352133 0.0003783762 0.0004074439 0.00017078775 0.0015826874
00000000: 369e 4e38 fd10 863a b468 3a38 44d5 a039
00000010: 8f91 a03a 2790 6e36 c3dc 5d3a 223c 053b
00000020: 15d6 b939 277f 1a3a 4b35 e538 c55b e439
00000030: 1d48 a334 79b8 0b3a 2797 6038 4da0 be38
00000040: 9062 f939 76f9 fc37 8e97 f238 41bc a23a
00000050: def8 8739 72b0 0e3a cd8d b238 9789 c537
00000060: 6bbc 8f3a 3276 903a d087 ad39 faaa 6a3a
00000070: caa7 9f39 7673 b338 8bce 1838 b701 9b39
00000080: 1d0a f939 e9ee 513a 4c17 1138 74a4 9239
00000090: 1aa9 5239 714e 9c39 d14e 423a b89c 7a39
000000a0: c95d 783b 6682 913a 66fb 5737 f95b d33b
000000b0: f020 493a fe30 1b3a 87e6 4f38 70b0 8239
000000c0: 92ff 8739 ae92 393a fb48 9d3a 2c89 6339
000000d0: 395d b73a 07d7 2439 24b1 353a 0a2b 8638
000000e0: 627f 843a a821 243a c6f9 283a b177 0e3a
000000f0: fd62 993a 6d3a db39 a68e 5d3a 9452 713a
00000100: afb6 b039 e734 1d3a e160 2a39 6f4a 3c38
00000110: 6c33 7539 5678 b33a 32b9 ad38 1b60 f83a
00000120: 0301 093a 47f5 2739 cc10 8639 b86b 3439
00000130: ba12 9e39 f605 833a 70f9 4b38 1230 193a
00000140: e977 f93a ab95 163a 08a2 f439 2fb4 1a3a
00000150: e5bd 0c37 ceca e838 7f29 4b3a 3d8e a43a
00000160: e2f6 f239 2dc4 8739 79a6 0b3a 50d5 4b38
00000170: d99a 2638 1ef2 3939 4ff3 773a 6eb0 6a36
00000180: f2c7 ff39 f675 353b bb28 8839 2fea 8b38
00000190: f0c4 673a 883c 7f39 a413 ec39 3446 1b3a
000001a0: 759c 9039 ad3a a139 b1be 8c36 ee29 2e3a
000001b0: 005d 2d38 7c78 933b 759a fc38 22fc 1038
000001c0: 1914 473b 3de4 4e37 2658 7139 9861 dd38
000001d0: e8ff 0b39 d7cd 6838 ac2b 103c b015 b139
000001e0: 1c4e 393a 431c 393b cf28 2f39 179f a338
000001f0: 051c 203a 60d0 3c3a 60a0 f83a 1d7c 8939
00000200: 34bd 6a38 c9c3 dc35 ca05 a939 4739 8037
00000210: b13e a23a 2d41 0038 5a9a 843a 9ffd ee3a
00000220: eb84 b639 b5a3 da38 d05c 0f3a 4840 083b
00000230: 726e 8d3b ec3c 783a c235 cd38 39df 8039
00000240: 2df8 8a3a 076b 3538 4d00 5538 2158 763a
00000250: 65f7 ae3a eeec 8c3a 3735 413a 4998 623b
00000260: b998 5639 f3f8 523a ceff 8739 2d4f 173a
00000270: b683 7039 1702 7139 2da6 a939 dd95 3b3b
00000280: 0317 a53a a994 ca38 18b9 e837 9feb 183a
00000290: 7edc 0039 5caf bc38 b18d 2537 a9e2 9539
000002a0: be38 9939 d4de 3f3b 4797 7e3a f3da 793a
000002b0: 98da 463a f591 1b3a 01b5 dc39 dc94 8a3a
000002c0: 19c4 6739 0d9a f238 2126 3437 1a19 d639
000002d0: 65df 6739 ad38 913a 953c 1039 9f8f 773a
000002e0: 8ef9 2d3a b015 fa39 91dd 873a 65a2 ba3a
000002f0: 736d 893a 6459 333b 4bdf 053b 9a13 583a
00000300: 8df6 053a 028b 063a ffef 183a 750c 953b
00000310: 9398 c338 64a4 c938 f1d3 813a 316e 1a38
00000320: b8b5 8839 e0a3 3938 4ad2 813a 3dc4 0839
00000330: f7e6 2e39 647f 8e3a 40c1 473a adcc b938
00000340: 3625 9a36 4429 c23a e383 023a 05c3 4d3a
00000350: e848 5539 c6e3 8739 4910 8539 8974 273a
00000360: 7982 bb3a 9769 a83b 08bd aa39 8735 cb3a
00000370: 4124 3038 575b b839 7d6e bf39 ce24 f53a
00000380: 49c9 1a38 62df 993a 594c 9938 0eba a639
00000390: 62cb b539 1066 7a3a 2f27 8438 93d4 1e39
000003a0: 294d 4739 3205 cb38 2db4 6c3a b649 b538
000003b0: 6893 163b 9f32 5e3b f1c4 b339 b651 9f36
000003c0: d784 3239 b15f a63a 1d26 823a 75ea 9f39
000003d0: 9bf1 0839 afee 7b38 83e4 7039 1f18 513a
000003e0: f290 f437 fed9 853b e0a5 2538 a71a b439
000003f0: cb60 c639 329e d539 7d15 3339 2d72 cf3a
