notebooks/checkpoints/mlptest/model5_best.pt (torch, 299411 bytes, 15 tensors)

stack.0.weight f4 [128, 17]
000000 56 19 c1 3d 82 6a c2 bd 7a 20 8b bd 3d 7e 9e bc
       0.094286606 -0.09492971 -0.06793304 -0.019347304
000010 5b a9 a0 3d 8d 90 1e 3d fc 51 ef bd 97 f3 4d bd
       0.07844802 0.038712073 -0.11685559 -0.050281134
000020 85 be b4 3c fc c6 5f be c7 00 4b be 78 b0 d1 3d
       0.022063503 -0.2185325 -0.19824515 0.10238737
000030 9f a3 4b 3e 23 dc 2d bd 74 e4 3e be 9b 0a 60 be
       0.19886635 -0.042446267 -0.18641835 -0.21879046
000040 f5 21 e8 3c b0 b1 7f 3c 88 a6 00 3e 82 b0 fd 3d
       0.028336504 0.015606329 0.12563527 0.12387182
000050 60 f9 32 3e 21 9a 97 be 6f f3 26 be 14 94 44 3e
       0.17477942 -0.2960978 -0.163038 0.19197112
000060 a6 7e eb 3d 84 37 89 3d d6 8f d2 3c 87 ed 86 be
       0.11498766 0.06700042 0.025703352 -0.26353094
000070 f3 a7 59 be ee ff 81 3e f5 4d d0 3e f2 74 55 3d
       -0.21255474 0.2539057 0.40684476 0.05211348
000080 a6 19 5d 3d e5 d1 5a 3e bf 03 35 be d1 60 32 3e
       0.05397954 0.21369131 -0.1767721 0.17419745
000090 bf 9e ff 3c c3 9f 1d 3d a0 9b 41 3c 99 c9 77 bd
       0.031203626 0.03848244 0.011816889 -0.060494993
0000a0 38 a4 e1 3d 30 65 6a 3e 57 e0 29 3d 51 e7 ac bd
       0.1101765 0.22890162 0.041473713 -0.084425576
0000b0 99 d4 cb 3d 22 82 88 3b 5c e6 ca bd 8b b8 16 be
       0.09952659 0.0041659037 -0.09907219 -0.14718835
0000c0 18 4e f6 3c 12 da 0d 3e 48 05 73 3d dc a5 1f bc
       0.030066535 0.13852718 0.05933121 -0.009744134
0000d0 35 c7 e2 3c 3f 6d f8 bd 31 27 6f be a2 97 db bc
       0.02768288 -0.12130212 -0.23354794 -0.026805703
0000e0 60 8a ee bc 33 f2 3a be d7 b6 26 be 03 7c 35 3e
       -0.029118717 -0.18256454 -0.16280685 0.17723088
0000f0 74 a4 92 3c 77 3d 59 be b1 11 c9 bd b3 4d 1d 3e
       0.017900683 -0.21214853 -0.098178275 0.15361671
000100 7c f8 6a be 4f 87 70 3e 5b b1 74 3e f5 b1 d1 bd
       -0.22946352 0.23489116 0.2389578 -0.10239021
000110 89 e8 70 3a 3b 89 77 3e 85 d4 5d bd 37 06 3c 3e
       0.0009189924 0.24173443 -0.054157753 0.18361746
000120 ed f9 86 3e aa 31 82 bd 3f 63 a7 3d bc 05 0b bd
       0.26362553 -0.06357129 0.081732266 -0.033941016
000130 72 b3 3d be fd 78 00 be c0 6d 29 be d7 d1 d2 3c
       -0.18525484 -0.12546153 -0.16545773 0.025734825
000140 df d4 c4 be f2 48 63 bd 54 f3 cf be 10 ca 4e 3e
       -0.38443658 -0.055489488 -0.40615332 0.20194268
000150 7e 1e 5f be b8 92 17 3a be 13 1d 3d 4d 78 76 3d
       -0.21788976 0.00057820557 0.038348906 0.06017332
000160 ca 2e 61 be 02 57 c3 bd 15 d6 28 3e a2 f6 64 be
       -0.21990505 -0.0953808 0.16487916 -0.22359708
000170 08 c8 36 3e 14 df 05 3e 8a bc 5a 3e dc fe 82 bd
       0.17849743 0.13073379 0.21360984 -0.06396267
000180 f5 e8 12 3d 09 ad f5 bd c3 72 4f be 30 57 9d be
       0.035866696 -0.119958945 -0.20258622 -0.3073058
000190 79 a4 24 3d 6e 5f 55 be 44 f6 bb 3d d3 0f e9 3d
       0.040195916 -0.20837185 0.09177831 0.11379971
0001a0 ef ae c4 bd f8 a7 76 be a6 58 fd bd 78 f0 59 3d
       -0.096036784 -0.24087512 -0.12370424 0.053207844
0001b0 86 68 8e bd a1 10 0f 3e d3 f2 6c be 16 0d 18 bc
       -0.0695353 0.13971187 -0.23139505 -0.009280464
0001c0 b0 c9 76 be e0 31 43 be 0a 1e 0e 3c e2 2f 8e 3d
       -0.24100375 -0.19061995 0.008674154 0.06942727
0001d0 57 12 07 3e a9 6f ae 3b 3e 44 2c be 0f 88 97 3d
       0.1319059 0.0053233695 -0.16822907 0.07398998
0001e0 64 d5 5f be d7 c4 cc bc 5a 6d 8c 3e dc d9 5c 3d
       -0.21858746 -0.024996204 0.2742718 0.053918704
0001f0 88 3e 82 3e 0a 95 11 3e 79 08 c2 bc 31 72 9c bd
       0.25438333 0.1421701 -0.02368568 -0.07638968
000200 7e 02 20 3e fa b2 ee bd a5 2c 58 bd 32 a6 06 be
       0.1562595 -0.11655231 -0.05277695 -0.13149336
000210 e5 ef 93 3e 8f 39 1c 3d 6d 37 16 bd f0 62 0e 3e
       0.28893963 0.03814083 -0.036673952 0.13904929
000220 6e b7 ed 3d b8 c8 4c be 64 10 17 be 60 c4 5e 3d
       0.11607252 -0.19998443 -0.14752346 0.054386497
000230 df 16 88 3e a0 38 59 bd 11 76 5b be 7a e1 7c 3e
       0.2657995 -0.053032517 -0.21431758 0.24695387
000240 89 40 34 be 6c 1b 8c 3d 41 38 45 3e 7b bd f3 bd
       -0.17602743 0.06841168 0.1925974 -0.11901375
000250 72 42 36 3e d2 52 01 3e 27 a0 f7 3a ef a5 aa 3d
       0.17798784 0.1262925 0.0018892334 0.083324306
000260 f5 ee 1c 3e ec 11 20 3e 8a ed c0 bd 9a a6 03 bd
       0.1532553 0.15631837 -0.09420307 -0.032141306
000270 b7 b0 53 3e a5 f0 3d 3e 46 e6 56 3e 83 d0 58 be
       0.2067288 0.1854883 0.2098628 -0.21173291
000280 78 de 36 be 49 e0 26 bc 6c ff 04 3e f9 2d 41 3e
       -0.17858303 -0.01018531 0.1298806 0.18865193
000290 d4 d6 2f 3e c1 1e d7 bc 6b 81 5c be 88 22 6c bd
       0.17171794 -0.026259782 -0.21533744 -0.05765012
0002a0 1c 6a 25 3e b6 c5 0e be d7 ff 21 be 16 55 3a 3e
       0.16153759 -0.13942608 -0.15820251 0.1819652
0002b0 14 ee 2b be 16 fb 76 be 6c bb 28 3e ad 7b 44 be
       -0.16790038 -0.24119219 0.16477746 -0.19187804
0002c0 22 03 3a 3c 9b a4 14 be 3b 45 31 3e 01 ed 1c 3e
       0.011353286 -0.14515917 0.17311566 0.15324785
0002d0 30 de 24 3e fd fa 33 be d8 d0 c6 3e e0 87 47 3d
       0.16100383 -0.17576213 0.3883121 0.048713565
0002e0 97 b0 8f 3e ce 5e 79 3e 66 02 e3 3d d2 48 bd 3d
       0.28064415 0.24352571 0.11084442 0.09242405
0002f0 30 06 e5 3d 9d 5d 8b bd f3 84 07 be 02 b0 8a bd
       0.11182821 -0.06804965 -0.1323431 -0.06771852
000300 d4 87 fc 3d 29 0b ea bd 13 20 93 3c b7 fa a5 3c
       0.12330595 -0.1142791 0.01795963 0.020261152
000310 11 42 ec 3c 9a cf 1d bd 88 c8 d3 bd b1 f6 6e 3e
       0.028840097 -0.038528062 -0.10340983 0.23336293
000320 4f 29 6e be 86 3d 11 3e d2 95 c2 bd 7f 2f 55 3d
       -0.23257945 0.14183626 -0.09501232 0.05204725
000330 a0 d9 1c be ee c1 3c 3e 89 20 5f 3e 46 a7 b5 bd
       -0.15317392 0.18433353 0.21789755 -0.088697955
000340 db f8 6e 3e cb a6 ea bd 93 96 d0 bc ca 45 ad 3d
       0.23337118 -0.114575945 -0.025462424 0.08460577
000350 81 1c 44 3e 5d 1b 2c 3d 08 48 f5 bd 6f d5 43 be
       0.19151498 0.042018283 -0.119766295 -0.19124387
000360 f4 89 f4 3e ea e2 95 3e e3 9b b9 3e cf 71 36 3e
       0.477615 0.29274684 0.36251745 0.17816852
000370 9f 0e 7c 3e 5e 7c 06 bd 3d 1e 5c 3e 95 95 1a be
       0.24614953 -0.03283345 0.2149591 -0.15096124
000380 fa de 30 3c 61 bf 2b be 1c fe 01 bc 3d 08 88 3d
       0.010795349 -0.16772224 -0.00793412 0.06642196
000390 c5 e0 6c be 12 fa 5d bc f5 ac 59 be 07 8d 3c 3e
       -0.23132618 -0.013548391 -0.21257384 0.18413173
0003a0 cd 10 26 be d7 d5 13 3d 89 ad 01 be 2c c7 9b 3d
       -0.16217346 0.036092605 -0.12663855 0.076063484
0003b0 4f 27 c6 bb 94 11 73 3e 91 03 9c 3d 27 e8 8e be
       -0.0060471664 0.23737174 0.07617868 -0.27911493
0003c0 8e e5 0d be ee 54 3b 3d 5e 53 9d bd 18 dd 4c be
       -0.138571 0.045735292 -0.07681917 -0.20006216
0003d0 4d 58 52 3e 56 79 1e 3e 6f 9c 93 3c 22 2b 4d 3e
       0.20541497 0.15475973 0.01801893 0.20035985
0003e0 09 1c 35 be dd 98 87 3d 8a 91 05 bf 6d 83 41 be
       -0.17686476 0.06620953 -0.521752 -0.18897791
0003f0 9a 33 24 3e b9 b8 0f 3c 0d 95 4d 3e 27 20 11 3d
       0.1603531 0.008772069 0.2007639 0.035431053

stack.0.bias f4 [128]
000000 e2 de 47 be 3b 38 23 3e 10 e0 03 bf 91 df 23 bd
       -0.19518617 0.15939419 -0.5151377 -0.04000813
000010 a3 2d dd be 1b 17 8d be bd fe 28 be b5 20 ec 3d
       -0.4319888 -0.2755669 -0.16503425 0.11529676
000020 5c 6e eb bd df 88 01 bf 6b 18 d8 3d 37 7a 51 3e
       -0.11495659 -0.50599474 0.10551532 0.20456778
000030 dd c0 78 3e bc bd 34 3c 79 44 29 bf 93 69 10 be
       0.24292322 0.011031564 -0.66120106 -0.14102773
000040 9d 3d 29 be 0c 4d d7 3e 3f 98 47 3e 2b b5 59 3d
       -0.1652741 0.4205097 0.19491671 0.05315129
000050 d9 17 2e bf d3 bd 49 3e 84 02 11 be 95 0b dc 3d
       -0.6800514 0.19701318 -0.14161116 0.107443966
000060 dd 63 3d be 7f f8 3a bf 2f b0 7c be 6f 11 f2 be
       -0.18495126 -0.73035425 -0.24676584 -0.47278926
000070 7a ba 3c bd 95 f8 91 3e 69 02 05 bb 1e fd 57 be
       -0.046076275 0.28509966 -0.0020295626 -0.2109265
000080 f5 65 d7 be 11 89 80 3d ef af 90 3d 73 e3 6a be
       -0.42069975 0.06276143 0.07064807 -0.22938327
000090 57 64 e7 3d 36 ad 3b be b7 07 21 bd e6 44 ec bc
       0.11298435 -0.18327793 -0.039313998 -0.028841447
0000a0 fa f5 87 3e 69 b9 31 be 88 ae 66 bf e5 80 ba 3e
       0.26554853 -0.17355885 -0.90110064 0.36426464
0000b0 58 4c c4 be 6d 41 47 bc 44 61 f4 3e 9b 38 a8 3e
       -0.38339496 -0.012161595 0.47730458 0.32855687
0000c0 77 ba 1a 3e 54 f1 e4 3d ae 48 cd be 74 c4 fd 3d
       0.15110193 0.11178842 -0.40094513 0.12390986
0000d0 37 aa 3b bf 66 b1 5c be a3 dc b2 be b3 69 de be
       -0.733066 -0.21552047 -0.34933957 -0.43440017
0000e0 27 c3 fc bd 1b 52 4e bd 84 da 15 3d c2 bd 56 be
       -0.1234191 -0.05037127 0.036585346 -0.20970824
0000f0 cc fc 1e 3e 75 1f 07 3f fa ee c2 3d 10 6f 04 3e
       0.15526122 0.52782375 0.095182374 0.12932992
000100 e1 fc 58 3e d6 77 89 be 16 1c 2b 3e b3 99 78 bd
       0.21190216 -0.2684924 0.16709933 -0.060693454
000110 c8 a2 65 be 99 37 da 3e 3a 31 97 3e f8 17 44 3e
       -0.22425377 0.42620543 0.29529744 0.19149768
000120 fb 5b 69 bc f6 7c e2 be 0c 34 93 be 7c af 41 bd
       -0.014243121 -0.44235963 -0.28750646 -0.047286496
000130 5c af 33 3e ac ad 70 3e 41 dc 9e be 45 cb 97 be
       0.17547363 0.2350375 -0.31027415 -0.2964727
000140 0a d7 b9 be 84 69 4e be 1f e2 f2 be c0 ed aa be
       -0.36296874 -0.20157439 -0.47438142 -0.33384514
000150 87 e5 09 be 53 58 f0 be f2 6a ba 3c 20 83 2a bf
       -0.13466464 -0.46942386 0.022756074 -0.6660633
000160 af 5c dd 3e 13 0e 6d be de da 5e bd 6f b4 d0 3c
       0.43234774 -0.231499 -0.054407947 0.025476662
000170 72 13 21 bf 20 64 50 bf 2c cf c1 3e 8f e4 15 be
       -0.62920296 -0.8140278 0.37853372 -0.1463797
000180 52 0d 04 3f ba 75 05 3e bc 66 26 be 88 e8 b3 be
       0.51582825 0.1303319 -0.16250128 -0.35138345
000190 59 a3 c3 be a7 9d b7 be 2a a8 48 be 03 b7 cc be
       -0.38210562 -0.35862467 -0.195954 -0.39983377
0001a0 e2 7c f8 be 76 a7 95 be 11 6f cc 3d 89 3e 72 bf
       -0.48532778 -0.29229325 0.09982122 -0.9462667
0001b0 40 c8 87 be a4 e3 3c be 35 ab c5 bd 32 78 9f be
       -0.26519966 -0.18446213 -0.09651796 -0.3114639
0001c0 60 17 b3 bd 05 69 f8 bc 0d 24 d0 be b6 56 99 3e
       -0.08744693 -0.030323515 -0.40652505 0.29948968
0001d0 12 33 96 3e c7 6a 60 3d d8 83 8a be 28 7f b1 be
       0.2933584 0.05478933 -0.27053714 -0.34667325
0001e0 6c 31 37 bf 8a 87 34 be 02 68 54 bf e1 77 0b 3c
       -0.71559787 -0.17629829 -0.82971203 0.008512468
0001f0 da a8 ab be 51 99 c4 be 56 b1 b7 3c 16 17 0f 3e
       -0.3352726 -0.3839822 0.022423428 0.1397365

stack.2.weight f4 [128, 128]
000000 02 a4 b0 3d ab d1 d0 bb 28 ef 1c bd 9d 2e 91 3c
       0.08625032 -0.0063726506 -0.038314015 0.017722422
000010 91 16 73 3c fb 71 60 3d f5 7f 0a bd ff 7c 8a bc
       0.014836923 0.0547962 -0.033813436 -0.016905306
000020 dc b5 26 bd f6 fa cd bc 75 c1 a7 3d 22 40 ac 3d
       -0.04070078 -0.025144082 0.08191196 0.0841067
000030 ef ef 2c 3d 67 64 06 3d 0c 06 a8 bd 0a c1 f4 bb
       0.042221006 0.032810595 -0.08204278 -0.007469301
000040 80 d3 2e bd 4a cb b2 bd 0a 12 a6 3d 09 89 67 3d
       -0.04268217 -0.087301806 0.081089094 0.05652717
000050 8a 92 98 3d 54 dc 79 bd a6 3b 92 3a 65 48 7e 3d
       0.07449825 -0.061001137 0.0011156693 0.06208076
000060 1b 67 93 3b e6 de 0b bd d2 16 a0 3d 00 c9 0e 3b
       0.004498375 -0.03414812 0.07816853 0.0021787286
000070 53 fe 9a 3b d9 6b 34 3d 9c 20 f1 3c 2f df a6 bd
       0.004730025 0.044048164 0.029434495 -0.08148038
000080 8e 20 d1 3c d0 72 be bc d5 0f 48 bc 5a b7 11 bd
       0.025528219 -0.023248106 -0.012210806 -0.03557525
000090 6c f1 12 bd e2 bb 76 bd 69 08 58 3d d8 8b 02 3d
       -0.03587477 -0.060237773 0.052742396 0.031871647
0000a0 5e 16 a5 bc 5a a7 09 bd fe 0a a1 3d c1 b5 b3 3d
       -0.020152267 -0.033606865 0.07863425 0.08774901
0000b0 ab 47 97 3d 47 c0 a6 3c 3c df 09 bc c7 86 ac bd
       0.073867165 0.020355357 -0.00841504 -0.08424144
0000c0 f0 cc 32 bd b1 c4 92 3d 74 4e 29 bd 24 68 92 bd
       -0.043652475 0.07166422 -0.041334584 -0.071487695
0000d0 ae 20 ec bc d9 61 5f 3b 1e 79 43 3d 85 56 a7 bd
       -0.028824177 0.0034085421 0.04772293 -0.08170799
0000e0 ce 42 a1 bd d6 e9 06 bd 1c ec 24 3c ef 0f 86 3d
       -0.0787407 -0.032937847 0.0100660585 0.06546008
0000f0 32 ed 0e bd 0b 5f 41 bd 2c ab e2 3c c3 2d 8b 3c
       -0.034894176 -0.04720978 0.027669512 0.016989594
000100 76 54 6f bc 3c b8 7a bc ed ca d1 bc da df a4 bd
       -0.014607539 -0.015302714 -0.025609458 -0.08050509
000110 cd d8 f3 39 ab 4d 7d 3c 70 b3 c4 3c 64 ce ac 3c
       0.000465101 0.015460412 0.024011344 0.021094508
000120 d0 8a d7 3c 3a 92 ee b9 43 9a 97 3a 30 64 6c 3d
       0.026311308 -0.00045503845 0.0011566359 0.057712734
000130 ac 12 c6 3c 35 ad 55 bc 01 09 a6 bd 43 41 7b 39
       0.024178825 -0.013041784 -0.08107186 0.00023961537
000140 5e c6 0f bd 41 ea 46 bd 54 6b 65 3d 47 eb 67 bd
       -0.035101287 -0.048563246 0.05601056 -0.056620862
000150 57 2a 2d bd 6c 99 74 3d f3 15 92 bd b3 d5 0f 3d
       -0.042276707 0.059716627 -0.07133093 0.03511591
000160 1e ec e1 3b d9 d6 a1 bd 3b e4 91 3d d1 8b 03 bd
       0.0068946024 -0.07902307 0.0712361 -0.03211576
000170 d4 21 91 bd 8c 33 34 3d 80 52 87 bd 7a 2f 97 bd
       -0.0708653 0.04399447 -0.066075325 -0.07382102
000180 15 7d 7f bd 4c 74 70 3c 93 ca 61 bc 55 f9 f0 bc
       -0.062375147 0.014676165 -0.013781208 -0.029415766
000190 19 79 62 3a 5a bb ad 3d e0 b6 11 bd 91 15 6a bd
       0.0008639261 0.08483 -0.035574794 -0.057149474
0001a0 b6 09 6c 3d d0 1c 18 bc ee 96 85 bc da 81 b3 3c
       0.05762645 -0.009284213 -0.01630732 0.021912504
0001b0 ea 54 8e bd 24 ce 16 bd c8 d0 d9 3c 1e 16 ac 3d
       -0.0694979 -0.036817685 0.026588812 0.08402656
0001c0 ef 13 86 3b d8 2c 99 bd f5 5a de 3c 6f 5a 81 3d
       0.0040917317 -0.074792564 0.027142981 0.06316077
0001d0 86 e6 88 bd 77 27 24 bc c2 78 f9 bc 8a 9e 8e 3d
       -0.06684594 -0.010019175 -0.03045309 0.06963833
0001e0 0c 06 1c bd 30 66 63 bd da 0a 7a 3d 23 6b 53 bd
       -0.038091704 -0.055517375 0.061045505 -0.051615845
0001f0 83 b6 3f bd 7f 7e 27 bd e4 0a 8a bd 4c d7 a7 bc
       -0.046804916 -0.04089212 -0.067403585 -0.020488404
000200 a7 86 e9 3c aa 64 9f bd 0b eb a7 3d 28 e6 a3 3d
       0.02850659 -0.07782872 0.08199128 0.08002883
000210 5a 2e 2a 3d d3 57 37 3d 9f 1a 26 bd cc 9f 7e 3c
       0.04154811 0.04476149 -0.04055273 0.015541028
000220 15 0d 83 bd c2 ad 92 bb b0 02 95 bb 47 f5 7c bd
       -0.063989796 -0.00447628 -0.0045474395 -0.061757352
000230 b8 b5 89 3d a1 59 b2 bc 36 1e 96 bd cf 2c 0d bd
       0.06724113 -0.021771254 -0.07329981 -0.03446656
000240 a5 a6 ec bc 3f 37 89 bd c1 a3 d4 bc 8c c7 05 3d
       -0.028888056 -0.066999905 -0.02595699 0.032661006
000250 09 33 58 3d 6c 22 67 bd 24 52 3b bd 1a a7 1b bd
       0.052783046 -0.05642931 -0.045732632 -0.038001157
000260 a1 0d a1 3b e2 d6 87 3d fd bc 81 bd 45 55 9d bd
       0.004914955 0.066327825 -0.06334875 -0.076822795
000270 fd 5c b4 3d ce 93 e4 3c c1 f6 94 3d df 22 d6 bc
       0.088067986 0.02790251 0.07273627 -0.026139675
000280 c6 aa a2 bd 18 cf 8d 3d 2c 8a dd bc 48 72 98 bd
       -0.07942729 0.069242656 -0.027043425 -0.074436724
000290 47 f6 1f bd c4 28 10 3d df c6 3d bd f7 1f bf bc
       -0.039053228 0.035195127 -0.046332236 -0.023330672
0002a0 b7 67 fa 3c dc c4 87 bb 6d e2 fd 39 ee 12 a1 bd
       0.030567033 -0.0041433405 0.0004842462 -0.07864939
0002b0 50 c2 cc 3c 51 f7 71 3d f9 5e 88 3d 42 32 09 3d
       0.024995 0.05907375 0.066587396 0.033495195
0002c0 b5 4e 09 bd 39 e1 e6 bc 1a 70 41 3c a8 87 9d 3d
       -0.033522326 -0.028183566 0.011806512 0.0769189
0002d0 66 9f 00 3c 7a 3e 31 bd 7b 03 6e 3d bf 16 27 3c
       0.007850504 -0.043272473 0.058108788 0.010198294
0002e0 7d f9 67 bd 93 48 b8 3c 9b d1 2a 3b 1e 62 fb bc
       -0.056634415 0.022495544 0.0026064876 -0.030686434
0002f0 95 67 27 bd 8c b3 d1 ba 8d d4 2c bd 91 9b ae bc
       -0.040870268 -0.0015998944 -0.04219489 -0.021314414
000300 b7 4d 9c bb 5c 07 a6 3d 7c 2a c3 3b 47 76 04 bd
       -0.0047700065 0.081068724 0.0059559923 -0.03233936
000310 cd 4a ce bc 13 f6 a0 bc b3 0a 86 3c 4f 3e e0 3c
       -0.025182152 -0.019648587 0.016362524 0.027373461
000320 85 37 93 3d a6 82 07 3d 6e 0c 55 bd f4 a8 c8 bc
       0.07188324 0.03308358 -0.052013807 -0.024494626
000330 88 09 86 bd 3f 25 11 bd b3 d6 1c bd 0b d8 9c 3c
       -0.06544787 -0.03543591 -0.03829069 0.019145986
000340 a6 d9 8e bd 24 e6 b7 bc ed 85 66 3d ee 50 09 3d
       -0.06975107 -0.022448607 0.056280065 0.033524446
000350 c2 99 01 3c 93 71 9c bd 9d 81 6d bc dd 12 73 bd
       0.007910194 -0.0763885 -0.014496234 -0.05934416
000360 65 72 e8 ba cf 64 f4 37 cd e2 10 bd 99 d5 cd b9
       -0.0017734288 2.913401e-05 -0.035372544 -0.0003925979
000370 9e 53 84 bc 41 cb a5 bc cf 12 a2 bd dc d5 0e 3c
       -0.016153153 -0.02023852 -0.07913744 0.00871798
000380 3d 99 ba 3c a1 bd 02 bd 1e 29 0d bd ce c6 8c bd
       0.022778148 -0.031919125 -0.03446304 -0.068738565
000390 c1 21 4c 3c ec 4e 08 bd 0e 72 5e bd ec c0 05 bd
       0.012459219 -0.03327839 -0.05430799 -0.032654688
0003a0 25 a6 83 3c ac b5 a2 3d 7f 0f 00 bd 70 f1 07 bd
       0.016070435 0.079448074 -0.03126478 -0.033189237
0003b0 7b 15 45 3a d7 74 8d 3d 15 31 1e bd cb 43 32 bd
       0.00075181545 0.06907051 -0.038621027 -0.043521684
0003c0 2a 77 a1 bc 28 e8 60 3d bb ca 7c 3d 91 6a b4 3d
       -0.019710142 0.0549089 0.061716776 0.088093884
0003d0 8d 87 25 3d d3 d3 8f bd fa ed 8d bd 50 fe 81 bd
       0.040412474 -0.07022824 -0.06930156 -0.063473344
0003e0 64 b9 90 bb e2 43 0b 3d 50 53 96 3d 47 8e 25 bc
       -0.0044166315 0.034000285 0.07340109 -0.010104722
0003f0 98 e9 a9 3d 91 5c 50 3d 91 de 9d bd 58 11 46 bc
       0.082965076 0.05086953 -0.07708467 -0.012089096

stack.2.bias f4 [128]
000000 ff 85 c2 3a ea 35 1c 3d 8a 13 36 be 03 1d 83 be
       0.0014840959 0.038137354 -0.17780891 -0.25608072
000010 43 f0 fb bd a1 98 22 be 2d 08 c6 bd bb e0 98 3c
       -0.12301686 -0.15878536 -0.09669528 0.018661847
000020 32 be dd bc d3 48 2f be a0 66 09 bd 07 3b 69 bb
       -0.027068231 -0.17117624 -0.033545136 -0.0035588162
000030 b5 a9 81 bd 34 6b 84 be 26 3a c8 3c c1 c3 85 be
       -0.06331197 -0.2586304 0.02444179 -0.2612591
000040 97 f4 7d bd 4b d3 7e be 11 4c 3c 3e 07 5e b0 3c
       -0.062000837 -0.2488529 0.18388392 0.02152921
000050 0e d0 cd bd f3 fd e9 3e 2c ce 12 3d 6f 69 01 be
       -0.10049449 0.4570156 0.035841152 -0.12637876
000060 05 18 59 bc 86 e9 54 3d 93 b2 8b 3c d7 c7 34 be
       -0.013250356 0.051980518 0.017052924 -0.17654358
000070 0d fc 5d 3b 90 e0 8c 3d 08 ec 38 3e e0 c6 2c bc
       0.0033872158 0.068787694 0.18058789 -0.010545462
000080 6a ad d3 3c 5d b9 24 3d f1 24 39 be ab dd b4 bd
       0.025839526 0.04021584 -0.18080498 -0.08831342
000090 5f 13 bf 3c 6d 70 7f be 54 10 22 bd 0c 7d 87 bd
       0.023324667 -0.24945231 -0.039566353 -0.06615648
0000a0 65 37 2c be a7 7c c5 bd 04 a3 e7 3d e4 fe 8a 3d
       -0.16818006 -0.09642916 0.1131039 0.06786898
0000b0 74 60 0a 3e 86 97 fc bd b5 57 40 be f4 0e 89 be
       0.13513356 -0.12333588 -0.18783458 -0.2676922
0000c0 a1 92 27 3d e7 72 64 bc 02 6e ee 3c 0d 09 02 bd
       0.04091132 -0.0139434105 0.02910519 -0.031746913
0000d0 a1 62 7d be 91 d5 8b be 70 cc 28 3e 88 2f 20 3d
       -0.24744655 -0.27311376 0.16484237 0.03910783
0000e0 0f 5b 63 3e a3 d9 08 bf 2a d3 09 be 6d 86 b6 bd
       0.22202705 -0.5345709 -0.13459459 -0.089123584
0000f0 05 e5 25 3d 03 71 5c 3e 2a 9c 4a be 28 2b 20 3e
       0.040501613 0.21527486 -0.19786134 0.15641463
000100 49 a0 ca 39 0d 7c 50 be bb bb 1d 3d c1 a5 cb 3d
       0.00038647864 -0.20359822 0.03850911 0.099437244
000110 53 8f 43 be c8 3f da bd af 8c da 3c 24 20 20 be
       -0.19097643 -0.106566966 0.026678411 -0.1563726
000120 bc 1d 4b bd cf 91 ce bd a3 5c 18 be 62 19 6d be
       -0.049588904 -0.100864045 -0.14879088 -0.23154214
000130 05 11 91 be a0 fc 31 3e fd 2e 23 3e ec 41 3a 3d
       -0.28333297 0.17381525 0.15935893 0.045473024
000140 99 4b 3a be 5c f3 54 3d 7c 92 64 be 59 76 38 bd
       -0.181929 0.051989898 -0.22321504 -0.04503474
000150 d0 73 8e be 1f a1 e7 3d 5d 08 56 be 9c 3d 33 bd
       -0.27822733 0.11310028 -0.20901628 -0.043759927
000160 3b e8 2d 3b 07 1c 47 be a8 90 28 be b7 56 88 3d
       0.0026536125 -0.19444285 -0.16461432 0.066571645
000170 8c 51 93 3e a8 ba 2c 3e ab fa 56 be 8d 9c 24 be
       0.28773153 0.16868079 -0.2099406 -0.16075344
000180 f1 0d 59 3d 07 46 85 be 13 0c 6a 3c e2 26 8a be
       0.05299181 -0.2602999 0.014285105 -0.2698279
000190 1a eb a6 3e cb 95 01 be 37 8c 84 be 57 0a ec 3b
       0.32601243 -0.12654798 -0.25888225 0.007203381
0001a0 b0 dd ff 3b 10 63 11 be c7 c3 85 bc c2 b0 0e be
       0.0078084096 -0.14197946 -0.016328705 -0.13934615
0001b0 37 e2 12 3c 2e d5 72 3d 61 a3 21 3d d4 8d c5 bc
       0.008965067 0.059285335 0.03946245 -0.02411548
0001c0 b4 ff ff bd a4 4b f3 3c ad 47 7e 3e d1 72 e6 3e
       -0.124999434 0.029699154 0.2483203 0.45009473
0001d0 cf 39 9f 3c 98 5a e9 be 33 81 cb 3e 97 27 80 3d
       0.019436745 -0.4557693 0.3974701 0.06257551
0001e0 23 f8 8d bb 5a 06 83 be b7 ae 7d be dc a5 48 3d
       -0.0043325587 -0.25590783 -0.2477368 0.0489863
0001f0 b3 1c 6d 3e dc 6f 67 be a3 89 44 bc 2f d9 55 be
       0.23155479 -0.22601265 -0.011995706 -0.2088363

stack.4.weight f4 [1, 128]
000000 ad b1 ac bd 17 36 24 bd 01 a8 33 3d af 0e 52 3d
       -0.084323265 -0.040090647 0.043861393 0.051283535
000010 6d 2c b0 3d 1d 72 9b 3d 3f f4 99 3d 5c ab 7c bd
       0.086022235 0.07590125 0.07517289 -0.06168686
000020 c2 e1 fb 3c 62 73 e1 3d b9 17 e2 bc a5 a8 92 bd
       0.030747298 0.11008336 -0.027599202 -0.07161073
000030 15 ed 8b bd 29 20 94 3d 61 1b 0d 3d 1c f9 35 3d
       -0.06832329 0.072326966 0.03444994 0.044427022
000040 a2 a7 a2 bd 8c 8c 04 3d 10 aa 0c be 97 47 ba bc
       -0.0794213 0.0323606 -0.13736749 -0.022739215
000050 56 f3 98 3d 13 10 7a be 20 2e 66 3c cd 8c 99 3d
       0.07468288 -0.24420194 0.014049083 0.07497559
000060 9a b7 aa 3b 6c f9 72 bc 3c e9 01 bd 9f d9 2f 3d
       0.0052098753 -0.014829975 -0.03171657 0.04293215
000070 f8 3c d6 3a 56 5e 0a 3b f9 8d 02 be f1 81 8b bd
       0.0016345074 0.0021113358 -0.12749471 -0.06811894
000080 b6 5d 9b bd dd 27 a5 bd 92 a7 4e 3d d2 51 d8 3d
       -0.07586233 -0.08064244 0.050452776 0.10562481
000090 c3 8c 34 bc e2 1f e6 3d 87 25 8a be da fb ee bc
       -0.011019888 0.1123655 -0.26981756 -0.029172827
0000a0 39 c8 08 3d 37 d8 3a bd 42 ca 2a bf 36 8d 1c bb
       0.033394072 -0.045616355 -0.6671487 -0.002388788
0000b0 50 6d 5b be 73 40 8c 3d 57 de 92 3d 81 9a 8c 3d
       -0.21428418 0.0684823 0.07171314 0.06865407
0000c0 37 4d 04 bd 77 47 93 3c 52 9a 87 bd 85 7e 46 bd
       -0.0323002 0.017978413 -0.06621231 -0.048460502
0000d0 7e 09 87 3d 3e e8 0f 3d c6 30 0c be 2b 69 a9 ba
       0.06593607 0.035133593 -0.1369048 -0.0012925019
0000e0 2c f4 1a bd e1 01 23 3f 15 32 55 3d ce 3b de 3d
       -0.037830517 0.6367474 0.052049715 0.108512506
0000f0 93 38 0e bd 52 c3 b8 bd b7 85 f1 3d 61 66 13 bc
       -0.034721922 -0.090216294 0.11793082 -0.008996577
000100 3d fa 28 bd 42 40 1d 3d 84 f7 9a bc 5f ca 16 be
       -0.04125427 0.03839136 -0.018916853 -0.14725636
000110 99 30 d0 3d 2e d1 ae 3d bb 32 3d 3f e5 02 10 3d
       0.10165519 0.085359916 0.73905534 0.03515901
000120 e9 fd 9a bd 4c d4 04 bf 94 a3 65 3d ed 4d c2 3d
       -0.07567961 -0.5188644 0.056064203 0.094875194
000130 3a 80 e4 3c 12 03 28 bc d9 2e 0d be 07 c1 89 bd
       0.027893174 -0.010254638 -0.13787402 -0.0672627
000140 e6 e8 87 3d ce f5 ef bc 97 5d 08 3d 9a d9 95 3a
       0.06636219 -0.029292013 0.03329238 0.0011432648
000150 46 3b d2 3d 93 3e ab bb c8 13 93 3d 43 9d ef be
       0.10265212 -0.0052259653 0.07181507 -0.4679967
000160 d8 85 94 bd b1 5f f0 3d a7 03 b2 3d e8 14 3c bd
       -0.07252091 0.11737002 0.08692103 -0.045918375
000170 0c 09 aa be a7 f4 18 be d3 59 62 3d 4f f4 cf 3d
       -0.33210027 -0.14937077 0.055261444 0.1015402
000180 90 d0 53 bd 95 ff a4 3d 11 11 49 bc 1d 38 38 3d
       -0.051712573 0.08056561 -0.012272135 0.04497539
000190 cf ee 23 be 3f 64 05 3e ed 4a 26 3d 6e 84 24 3d
       -0.16009067 0.13026522 0.0405988 0.040165357
0001a0 5f 27 8d 3d af 29 c1 3d 62 df 02 3c 02 5f 4b 3d
       0.06892275 0.09431779 0.007987829 0.049651153
0001b0 2c b2 8a bd 8e 96 ef bc 81 07 26 3d f6 71 12 bc
       -0.06772265 -0.029246595 0.0405345 -0.008938303
0001c0 f2 97 c0 3d 5d bb ff bb df 98 e7 bc 92 4b a9 be
       0.09403981 -0.007804318 -0.028271137 -0.33065468
0001d0 e0 17 f2 bb dd d7 b6 3e e6 c4 3a bf 54 1b 4b bb
       -0.0073881 0.35711566 -0.72956693 -0.003099163
0001e0 c5 3c 1c bd bb 47 9c 3d 83 db fd 3d 9d 46 82 3d
       -0.03814389 0.07630869 0.12395384 0.06361125
0001f0 df f4 1b be 3a 9c d1 3c b6 b0 cd 3b 20 08 f7 3d
       -0.1523013 0.02558719 0.006277169 0.120620966

exp_avg f4 [128, 17]
000000 00 00 00 00 00 00 00 00 00 00 00 00 00 00 00 00
       0.0 0.0 0.0 0.0
000010 00 00 00 00 00 00 00 00 00 00 00 00 00 00 00 00
       0.0 0.0 0.0 0.0
000020 00 00 00 00 00 00 00 00 00 00 00 00 00 00 00 00
       0.0 0.0 0.0 0.0
000030 00 00 00 00 00 00 00 00 00 00 00 00 00 00 00 00
       0.0 0.0 0.0 0.0
000040 00 00 00 00 e1 66 0f bb 9e 86 19 3b 56 50 b4 ba
       0.0 -0.002188139 0.0023426185 -0.0013756852
000050 2f 94 85 ba 99 c9 e4 3a 7f 54 ad 3b 34 b5 1a bb
       -0.0010191257 0.00174551 0.0052896137 -0.002360654
000060 e6 71 0f 3b 2b 2a 15 3b 65 57 a3 39 87 96 b5 ba
       0.0021887957 0.002276073 0.00031154897 -0.0013854065
000070 17 33 c6 bb 3b 76 ec 39 e7 be 2e 3a e4 e3 97 b9
       -0.006048571 0.00045101516 0.000666602 -0.00028970756
000080 04 6b fb b9 f0 68 bb 39 b6 41 41 bb 15 c5 2e 3c
       -0.00047954184 0.00035745604 -0.002948863 0.010667105
000090 05 8a 1a ba 12 4b 7c ba c0 bb 37 bb f8 93 b9 bb
       -0.00058952003 -0.00096242235 -0.0028035492 -0.005663391
0000a0 92 2d 6f bb d1 09 2d 3c 00 22 33 3c 6a 13 44 3c
       -0.0036495668 0.010561422 0.010933399 0.011967519
0000b0 59 15 3b 3c a5 11 39 3c 1f e0 6b 3a fb fb 8a 3a
       0.011418664 0.011295711 0.0008997935 0.001060366
0000c0 1f cf bc 3a b0 6d 93 3a b9 61 f2 39 00 00 00 00
       0.0014404989 0.0011247899 0.00046230646 0.0
0000d0 00 00 00 00 00 00 00 00 00 00 00 00 00 00 00 00
       0.0 0.0 0.0 0.0
0000e0 00 00 00 00 00 00 00 00 00 00 00 00 00 00 00 00
       0.0 0.0 0.0 0.0
0000f0 00 00 00 00 00 00 00 00 00 00 00 00 00 00 00 00
       0.0 0.0 0.0 0.0
000100 00 00 00 00 00 00 00 00 00 00 00 00 00 00 00 00
       0.0 0.0 0.0 0.0
000110 a0 33 05 3c 25 91 59 3b 89 43 d0 3a 28 d3 13 3b
       0.008129984 0.0033198085 0.0015889268 0.002255628
000120 7d a4 86 3b ee 36 da 3b 68 d9 05 3c 7c eb 5f 3b
       0.004108964 0.00665938 0.0081695095 0.003416746
000130 0c 88 4c 3b e3 6b 51 3b 39 d3 83 3b 26 83 6f 3b
       0.003120902 0.0031955175 0.0040229824 0.0036546676
000140 e8 85 e6 39 33 1f 86 39 14 c2 9f 39 f0 b3 66 39
       0.00043968786 0.00025581717 0.00030471443 0.00022001541
000150 e4 f1 e8 39 2b 54 5c 3c 49 3e 1c 3c e9 a8 0f 3b
       0.0004443071 0.013447802 0.009536334 0.0021920747
000160 b2 26 95 3b 8e 22 f3 3b 9c 1e 0c 3c 1d fa 47 3c
       0.004551732 0.0074198907 0.00855222 0.012205628
000170 65 21 1b 3c 07 e4 19 3c 17 76 22 3c b3 a4 02 3c
       0.009468411 0.009392745 0.00991585 0.007973838
000180 a3 fc f8 3b e1 d8 6e 3a 82 a8 7e 3a 4d d7 96 3a
       0.007598476 0.0009111297 0.00097144407 0.0011508256
000190 92 af 08 3a 62 49 1b 3a 00 00 00 00 00 00 00 00
       0.00052141503 0.00059237157 0.0 0.0
0001a0 00 00 00 00 00 00 00 00 00 00 00 00 00 00 00 00
       0.0 0.0 0.0 0.0
0001b0 00 00 00 00 00 00 00 00 00 00 00 00 00 00 00 00
       0.0 0.0 0.0 0.0
0001c0 00 00 00 00 00 00 00 00 00 00 00 00 00 00 00 00
       0.0 0.0 0.0 0.0
0001d0 00 00 00 00 00 00 00 00 00 00 00 00 0c 87 6a bc
       0.0 0.0 0.0 -0.014314424
0001e0 73 03 3b bc a3 79 b9 39 02 ff 68 bb e0 75 01 bc
       -0.011414397 0.00035376576 -0.0035552387 -0.007901639
0001f0 35 5e 59 bc 88 a9 7d bc 96 97 36 bc 5e fd 32 bc
       -0.01326709 -0.015482314 -0.011144539 -0.010924665
000200 19 a3 0b bc 76 09 39 bb 8f a8 a0 3b 25 37 cb ba
       -0.008522772 -0.00282344 0.0049029063 -0.0015504105
000210 d8 68 c1 ba 39 70 ad b9 4a ef 09 3a 1e f7 bf ba
       -0.0014755977 -0.00033080744 0.0005261792 -0.001464579
000220 32 d8 96 39 6e 80 97 3a 8a aa 36 39 0e a5 f6 39
       0.00028771308 0.0011558661 0.00017420403 0.00047043752
000230 a6 5b 80 ba de b3 7b 39 74 12 7f 38 76 5b 96 3a
       -0.0009792938 0.00024004231 6.0813923e-05 0.0011471349
000240 52 3f b3 3a 0b 48 05 3b e8 ed 8d 3b 81 e9 d0 3b
       0.0013675487 0.002033713 0.004331339 0.006375492
000250 db 51 8e b8 0c 0a 51 b7 69 cc 8d 39 a1 b0 27 3a
       -6.7863344e-05 -1.245971e-05 0.00027045913 0.0006396864
000260 ce dd 81 39 31 ea 2d ba 91 63 ff 3b 11 6e 87 b8
       0.00024770055 -0.00066343235 0.0077938517 -6.457803e-05
000270 ea e0 9a 38 f7 73 b2 ba 4f 0c 52 bb f9 be aa ba
       7.385186e-05 -0.0013614882 -0.0032050794 -0.0013026885
000280 59 3f 01 3c b2 9a 07 3c f1 1b 15 3c 6c 9e 1f 3c
       0.007888638 0.008276628 0.0091009 0.009742361
000290 8e e6 3d 3c a8 52 2f 3a 7d a4 55 3a 0f c3 91 3a
       0.011590613 0.0006688037 0.0008149816 0.0011120754
0002a0 4b f1 90 3a b0 6b c8 39 b0 c7 2d bd 20 86 22 bd
       0.0011058239 0.00038227206 -0.042426765 -0.039678693
0002b0 aa 08 d2 bb f7 e0 59 bc 68 30 b7 bc f2 04 cd bc
       -0.0064097242 -0.013298265 -0.02236195 -0.025026772
0002c0 7d 27 25 bd 3e d0 21 bd 24 30 1f bd c6 38 23 bd
       -0.040320862 -0.039505236 -0.03886427 -0.039849065
0002d0 f6 1a 22 bd a1 ef 25 bd 58 49 77 bb 7d 63 65 bb
       -0.039576493 -0.04051173 -0.0037732925 -0.0035001927
0002e0 66 62 7e bb 5f 68 57 bb 9f f5 04 bb 72 67 67 bc
       -0.0038815974 -0.0032868607 -0.0020288003 -0.014123784
0002f0 84 8b 20 bc 3e ec 90 ba 71 18 8e bb 7e 63 e7 bb
       -0.009798888 -0.0011056734 -0.0043364097 -0.007061421
000300 8f ee 29 bc 60 c9 68 bc 7b d8 1f bc 31 de 1e bc
       -0.010371818 -0.014208168 -0.009756203 -0.009696529
000310 63 0f 16 bc 1c 45 06 bc 1d 50 d6 bb 7b e1 8c ba
       -0.009158942 -0.008195188 -0.006540312 -0.0010748351
000320 2f 9d 85 ba 6c f1 51 ba d9 34 2f ba 67 40 90 ba
       -0.0010193939 -0.0008008692 -0.0006683595 -0.0011005522
000330 aa b8 c6 bc f5 36 9e bb 9d a2 1a bb a6 f0 ec bb
       -0.024257977 -0.0048283287 -0.002359546 -0.007230836
000340 9b 87 4d bc 71 81 9f bc d6 55 c6 bc ff 76 a3 bb
       -0.012544538 -0.019470902 -0.024210852 -0.0049885507
000350 59 2c 81 bb 59 ac 33 bb de 65 55 bb 27 70 50 bb
       -0.003942054 -0.002741596 -0.0032561938 -0.003180513
000360 8b 5c 89 ba 90 f2 ef b9 c0 3a 30 b9 81 fa ed b9
       -0.001047985 -0.00045766355 -0.00016806554 -0.00045390803
000370 9a fd 26 ba 04 00 00 00 04 00 00 00 00 00 00 00
       -0.0006370187 6e-45 6e-45 0.0
000380 04 00 00 00 00 00 00 00 04 00 00 00 04 00 00 00
       6e-45 0.0 6e-45 6e-45
000390 04 00 00 00 04 00 00 00 04 00 00 00 04 00 00 00
       6e-45 6e-45 6e-45 6e-45
0003a0 04 00 00 00 04 00 00 00 04 00 00 00 04 00 00 00
       6e-45 6e-45 6e-45 6e-45
0003b0 04 00 00 00 04 00 00 00 f8 28 7c be aa 43 ef bd
       6e-45 6e-45 -0.24625003 -0.11682828
0003c0 11 cb eb bc c7 ac 95 bd be cd 07 be a7 cc 3f be
       -0.028783353 -0.07308345 -0.13262078 -0.18730412
0003d0 cd 14 75 be 20 3d ef bd 7d a9 e6 bd 5a 36 df bd
       -0.23933716 -0.116815805 -0.11262796 -0.108990386
0003e0 69 70 e2 bd 9b 3e de bd f1 ab 68 bc 5f 01 4a bc
       -0.11056597 -0.10851785 -0.01420115 -0.012329428
0003f0 67 23 38 bc f0 44 33 bc 91 02 37 bc 00 00 00 00
       -0.011238909 -0.010941729 -0.0111700455 0.0

exp_avg_sq f4 [128, 17]
000000 00 00 00 00 00 00 00 00 00 00 00 00 00 00 00 00
       0.0 0.0 0.0 0.0
000010 00 00 00 00 00 00 00 00 00 00 00 00 00 00 00 00
       0.0 0.0 0.0 0.0
000020 00 00 00 00 00 00 00 00 00 00 00 00 00 00 00 00
       0.0 0.0 0.0 0.0
000030 00 00 00 00 00 00 00 00 00 00 00 00 00 00 00 00
       0.0 0.0 0.0 0.0
000040 00 00 00 00 64 d1 49 3e d6 1e 50 3d d4 f2 1e 3b
       0.0 0.19708782 0.050810657 0.0024253624
000050 ae 27 8e 3c 95 c7 42 3d 95 db b6 3d 7b 27 40 3e
       0.017352905 0.047553618 0.08928601 0.1876506
000060 66 a5 4e 3d fc bf 47 3d 8b ad 39 3d 85 31 23 3d
       0.050450705 0.048767075 0.04533152 0.039842147
000070 bb b2 0c 3d 7e 95 39 3a f8 d0 21 3a 1d 39 f7 39
       0.03435014 0.0007079466 0.00061728014 0.00047154064
000080 a4 49 bd 39 c4 9f b5 39 9f af 0e 3e e2 8c 2d 3d
       0.00036103756 0.00034642045 0.13934182 0.042370684
000090 93 a8 d9 3a 21 68 42 3c 2d c0 0d 3d 01 6b 87 3d
       0.0016606025 0.011865647 0.0346071 0.06612206
0000a0 bd ad 06 3e 76 42 2c 3d 13 77 27 3d 65 fd 1f 3d
       0.13152213 0.04205557 0.040885042 0.039060015
0000b0 c2 df 12 3d 5b 61 05 3d 5b 1b 0b 3a 6b a1 f6 39
       0.035857923 0.03256355 0.00053065055 0.00047041042
0000c0 eb 30 cd 39 70 cb a2 39 e5 a2 90 39 00 00 00 00
       0.00039137094 0.0003105062 0.00027587186 0.0
0000d0 00 00 00 00 00 00 00 00 00 00 00 00 00 00 00 00
       0.0 0.0 0.0 0.0
0000e0 00 00 00 00 00 00 00 00 00 00 00 00 00 00 00 00
       0.0 0.0 0.0 0.0
0000f0 00 00 00 00 00 00 00 00 00 00 00 00 00 00 00 00
       0.0 0.0 0.0 0.0
000100 00 00 00 00 00 00 00 00 00 00 00 00 00 00 00 00
       0.0 0.0 0.0 0.0
000110 83 90 1f 3c a1 73 26 3b 72 c0 0f 39 c9 7a 78 3a
       0.009739044 0.002539851 0.00013709234 0.00094787456
000120 ac 33 23 3b 37 d3 9c 3b c8 da 13 3c 71 a9 25 3b
       0.0024902625 0.004785921 0.0090243295 0.0025277997
000130 f9 b5 1f 3b 5e b3 12 3b 51 d1 f9 3a 92 c6 d8 3a
       0.0024369939 0.0022384743 0.0019059574 0.0016538671
000140 db 5c 12 38 05 cb fb 37 e6 94 b5 37 8a a1 85 37
       3.489559e-05 3.001607e-05 2.1646218e-05 1.5930058e-05
000150 27 30 8e 37 bb 9c 1d 3d df 07 af 3c 74 6a 11 3a
       1.6950142e-05 0.038479548 0.021366058 0.0005547174
000160 2b 0c 6d 3b 19 03 1c 3c 86 e3 9c 3c 78 47 0f 3d
       0.0036170583 0.009522223 0.01915146 0.034980267
000170 89 0f ae 3c eb 1f aa 3c cc c3 a0 3c 08 cb 8d 3c
       0.021247642 0.020767173 0.019624613 0.017308727
000180 0e 70 71 3c bf 06 8b 39 36 14 7a 39 45 ad 43 39
       0.014736189 0.00026517172 0.00023849387 0.00018661197
000190 45 c2 06 39 8f 10 eb 38 00 00 00 00 00 00 00 00
       0.00012851607 0.000112087575 0.0 0.0
0001a0 00 00 00 00 00 00 00 00 00 00 00 00 00 00 00 00
       0.0 0.0 0.0 0.0
0001b0 00 00 00 00 00 00 00 00 00 00 00 00 00 00 00 00
       0.0 0.0 0.0 0.0
0001c0 00 00 00 00 00 00 00 00 00 00 00 00 00 00 00 00
       0.0 0.0 0.0 0.0
0001d0 00 00 00 00 00 00 00 00 00 00 00 00 c2 82 bc 3d
       0.0 0.0 0.0 0.092046276
0001e0 62 4b 4c 3d a2 57 9e 3a e5 0f 04 3c 29 4c be 3c
       0.04987658 0.001208056 0.00806043 0.023229675
0001f0 bd 6b 35 3d 58 85 b0 3d 54 ea 4a 3d a9 55 45 3d
       0.0442922 0.08619183 0.04953988 0.048177395
000200 55 20 33 3d 91 26 0d 3d 59 83 bf 3c 36 e0 34 3a
       0.043732006 0.034460608 0.023378061 0.0006899865
000210 b1 62 20 3a 2d 27 d5 39 68 2a 68 39 5e 4f 56 39
       0.0006118222 0.00040655714 0.00022141042 0.00020438197
000220 39 e9 f3 3c 75 9f 02 3c 79 2e b4 39 ff 3b 27 3b
       0.029774295 0.007972588 0.000343669 0.0025517938
000230 39 5c f7 3b 8f 8c 6c 3c be 2b e7 3c b8 b3 01 3c
       0.0075488356 0.014437809 0.0282191 0.007916383
000240 67 1a fb 3b 98 f5 ed 3b 14 e7 d7 3b a5 a1 c2 3b
       0.0076630595 0.007261943 0.006588826 0.0059396797
000250 c3 70 d7 38 5e f0 ba 38 6d b2 98 38 e8 98 76 38
       0.000102730024 8.913943e-05 7.281159e-05 5.8793376e-05
000260 e7 48 6b 38 c3 b7 cc 3d 4b b3 e7 3c 9b ff 9a 3a
       5.609626e-05 0.09995987 0.028283736 0.0011825444
000270 20 93 09 3c f4 7b cd 3c 5a d4 40 3d 71 a7 c1 3d
       0.008396894 0.02508352 0.047077514 0.09455765
000280 fe 53 e6 3c 0f cb de 3c 97 87 d1 3c 75 cd bb 3c
       0.028116222 0.027196435 0.02557735 0.022925118
000290 5f 82 a3 3c 6c ca bf 39 ef 4b a6 39 ef 3f 83 39
       0.019959627 0.00036581175 0.00031718562 0.000250339
0002a0 a1 25 4b 39 98 eb 3f 39 15 47 c6 3d 12 13 a0 3d
       0.00019373606 0.00018302945 0.096815266 0.078161374
0002b0 ca c7 aa 3a 6a 16 09 3c 61 b9 c7 3c 80 6f 2c 3d
       0.0013029512 0.00836716 0.024380388 0.042098522
0002c0 14 e5 b3 3d a0 7d 9e 3d 7a c9 9b 3d 31 56 93 3d
       0.087839276 0.07738805 0.07606788 0.07194174
0002d0 83 76 80 3d b5 35 54 3d b1 75 72 3a af 59 5f 3a
       0.06272604 0.05180903 0.0009249105 0.0008520139
0002e0 0a 9b 2e 3a 94 c6 ec 39 18 de c2 39 a4 93 9e 3b
       0.0006660676 0.0004516138 0.00037168036 0.0048393775
0002f0 a7 f5 5b 3b ac ac 83 38 15 53 e3 39 cb 65 9e 3a
       0.0033563168 6.2787294e-05 0.00043358715 0.001208478
000300 82 96 1d 3b a7 ed 93 3b f3 9d 57 3b e2 42 53 3b
       0.0024046008 0.0045144144 0.0032900542 0.003223591
000310 a2 32 3b 3b e0 9a 13 3b 23 85 cf 3a c9 4e 37 38
       0.0028564115 0.0022522733 0.0015832525 4.3703974e-05
000320 ea 55 27 38 36 f2 d2 37 0d ea 70 37 3c f3 55 37
       3.9895916e-05 2.5146739e-05 1.4359609e-05 1.2752422e-05
000330 8a fd 96 3d 48 01 cb 3c db 63 7f 3a 27 ec d1 3b
       0.073725775 0.024780884 0.00097423577 0.0064063254
000340 28 e5 98 3c 24 39 0d 3d 75 5f 8d 3d a3 b4 c9 3c
       0.018663958 0.03447832 0.069029726 0.024622267
000350 7c 4a c4 3c 56 6d ba 3c e8 07 aa 3c f8 e4 96 3c
       0.023961298 0.022757214 0.020755723 0.018419728
000360 c0 7c a7 39 0c 95 94 39 13 3d 72 39 0d 66 3b 39
       0.00031945668 0.00028339808 0.0002310167 0.00017871727
000370 1d d2 22 39 e2 f5 00 00 46 45 06 00 00 00 00 00
       0.00015527797 8.8206e-41 5.75864e-40 0.0
000380 5d 1b 00 00 00 00 00 00 4a 6d 00 00 e2 f5 00 00
       9.816e-42 0.0 3.9206e-41 8.8206e-41
000390 99 70 05 00 99 70 05 00 77 2d 01 00 77 2d 01 00
       4.9957e-40 4.9957e-40 1.08145e-40 1.08145e-40
0003a0 5d 1b 00 00 26 0d 00 00 26 0d 00 00 f4 01 00 00
       9.816e-42 4.717e-42 4.717e-42 7e-43
0003b0 f4 01 00 00 5d 1b 00 00 4c 83 30 40 39 81 25 3f
       7e-43 9.816e-42 2.7580137 0.64650303
0003c0 2f c5 01 3d 47 4e 72 3e 76 34 2d 3f 7d e2 a7 3f
       0.03168219 0.23662673 0.67658174 1.3115994
0003d0 c1 b7 27 40 8f aa 24 3f f7 e6 1f 3f c0 a0 1a 3f
       2.6205904 0.6432275 0.624618 0.60401535
0003e0 06 4b 15 3f 40 8f 12 3f 49 57 03 3c 06 21 e8 3b
       0.583176 0.5724983 0.008016416 0.007084015
0003f0 d4 4b cc 3b 28 36 b8 3b 9e c1 b0 3b 00 00 00 00
       0.0062346254 0.0056216903 0.0053941747 0.0

exp_avg f4 [128]
000000 00 00 00 00 8a fd 12 3a e0 74 7a 3a 00 00 00 00
       0.0 0.0005607238 0.0009554159 0.0
000010 18 37 c5 39 b8 0b 79 3a 00 00 00 00 26 7d e2 ba
       0.00037615816 0.00095003424 0.0 -0.0017279729
000020 3c c9 84 b8 a5 2a 20 3a af 04 7d bb 7f 6c 92 ba
       -6.331733e-05 0.000610987 -0.0038607528 -0.001117125
000030 46 0d 7a ba 04 00 00 00 1f c5 68 bc 00 00 00 00
       -0.0009538721 6e-45 -0.014207154 0.0
000040 c8 f4 e6 b9 db 73 aa ba 00 00 00 00 00 00 00 00
       -0.00044051395 -0.0013004498 0.0 0.0
000050 d7 d2 51 bb 00 00 00 00 00 00 00 00 00 00 00 00
       -0.003201654 0.0 0.0 0.0
000060 48 e1 8a 39 fc 57 75 bc be cb 85 39 f0 6d d1 b7
       0.0002648926 -0.01497459 0.00025519537 -2.4965935e-05
000070 00 00 00 00 59 26 86 39 83 05 04 3c e3 18 02 3c
       0.0 0.00025587043 0.008057955 0.007940504
000080 01 23 b2 38 00 00 00 00 00 00 00 00 c4 3e ad 3a
       8.4942214e-05 0.0 0.0 0.0013217558
000090 a7 79 ee ba 00 00 00 00 8c 7f 37 3a 00 00 00 00
       -0.0018194214 0.0 0.0006999902 0.0
0000a0 73 d0 5e 39 00 00 00 00 ab cf d6 b9 f6 27 02 bb
       0.00021249223 0.0 -0.00040971985 -0.0019860244
0000b0 a4 dc 8d 3a 00 00 00 00 01 99 88 39 46 78 c9 3a
       0.0010823202 0.0 0.00026053938 0.0015370927
0000c0 53 7b af ba 3b 77 83 b9 10 1d 43 b9 00 00 00 00
       -0.0013388194 -0.000250751 -0.00018607476 0.0
0000d0 4c 05 26 bb be 6f 1e 39 2c d2 7d 3a 33 6f df ba
       -0.0025332747 0.00015109681 0.0009682502 -0.001704669
0000e0 75 02 d1 3a 94 45 68 ba ac 91 11 bb 9b 70 55 b9
       0.0015946167 -0.00088604656 -0.0022212071 -0.00020355212
0000f0 b3 ee e0 3a c8 fd fe b9 00 00 00 00 00 00 00 00
       0.0017160982 -0.00048635737 0.0 0.0
000100 00 00 00 00 a0 39 48 b8 b9 95 a6 ba 85 34 cd bb
       0.0 -4.7737383e-05 -0.0012709416 -0.0062623643
000110 4d e6 a8 b7 41 67 16 ba a1 dc ec 3b 00 00 00 00
       -2.0134403e-05 -0.0005737432 0.0072284495 0.0
000120 00 00 00 00 f2 fb c1 ba d1 39 f3 3a 80 43 85 ba
       0.0 -0.0014799817 0.0018556659 -0.0010167211
000130 9f ad 58 ba 00 00 00 00 1f fe 1b 3a fa d1 0c bc
       -0.00082656177 0.0 0.0005950648 -0.008594984
000140 f9 b2 b5 b9 00 00 00 00 1f c0 99 3a 95 78 8c 3a
       -0.00034656355 0.0 0.001173023 0.0010717089
000150 6c fd db b7 29 d1 cb b9 00 00 00 00 3c 1e 13 3c
       -2.6224843e-05 -0.00038875014 0.0 0.008979376
000160 16 66 02 3c 00 00 00 00 00 00 00 00 2e 67 14 bb
       0.0079589095 0.0 0.0 -0.0022644508
000170 95 24 72 bb aa ad 4d bc c5 00 b8 3a 29 af c6 39
       -0.0036948074 -0.012553612 0.0014038315 0.00037896007
000180 89 3c 04 bb 00 00 00 00 c1 a9 61 ba c1 74 90 3b
       -0.0020177683 0.0 -0.0008608364 0.0044084494
000190 8c 5b a6 ba 2a ae e3 b8 51 26 38 b9 3e bb 0b ba
       -0.0012692078 -0.00010856644 -0.00017561881 -0.00053303305
0001a0 0b 7e e6 3a f8 74 a6 b9 3c ef ab ba 03 94 90 bb
       0.0017585171 -0.00031749136 -0.0013117562 -0.0044121756
0001b0 31 c1 80 bb 2f e3 75 bc 00 00 00 00 2c f7 1d bb
       -0.00392928 -0.015007778 0.0 -0.0024103625
0001c0 77 f2 6a 39 bd d5 94 b9 78 ca 22 ba a5 6c 6f ba
       0.00022406304 -0.00028388007 -0.000620998 -0.0009133316
0001d0 66 6b ce ba 00 00 00 00 9d 30 39 ba b9 03 ae b8
       -0.001574856 0.0 -0.0007064434 -8.29766e-05
0001e0 77 b4 80 39 97 56 62 3a a4 0b 93 3b d5 6b 41 3a
       0.0002454852 0.0008634119 0.0044874717 0.0007378434
0001f0 f2 1e 25 ba ce ce 16 3a b7 e7 e8 b9 00 00 00 00
       -0.00062988617 0.0005752862 -0.0004442313 0.0

exp_avg_sq f4 [128]
000000 00 00 00 00 5f ba 40 3a e5 fe 10 3a 00 00 00 00
       0.0 0.000735199 0.00055311463 0.0
000010 d6 4d 16 38 c3 89 8f 39 00 00 00 00 fe e2 3b 3a
       3.5835277e-05 0.00027377726 0.0 0.00071673084
000020 e2 55 e0 38 60 83 c6 39 45 2e 80 3a 57 4e 4b 38
       0.00010697149 0.00037863385 0.0009779414 4.847193e-05
000030 b1 7b ad 39 5d 1b 00 00 75 52 07 3c 00 00 00 00
       0.0003308929 9.816e-42 0.008259405 0.0
000040 8c 20 e2 39 60 5a 68 39 00 00 00 00 00 00 00 00
       0.00043130328 0.00022158911 0.0 0.0
000050 da 89 2c 3a 00 00 00 00 00 00 00 00 00 00 00 00
       0.0006581821 0.0 0.0 0.0
000060 32 cc 48 3a 62 d5 38 3c 10 7f 18 38 70 8a e5 38
       0.0007659822 0.011281343 3.635796e-05 0.00010945357
000070 00 00 00 00 69 23 19 38 0f 76 6e 3a 84 f2 78 3b
       0.0 3.651102e-05 0.00090965716 0.0037986347
000080 5d 4e 82 3a 00 00 00 00 00 00 00 00 19 26 15 3a
       0.0009941567 0.0 0.0 0.0005689576
000090 60 15 5d 3c 00 00 00 00 79 2c a6 37 00 00 00 00
       0.013493866 0.0 1.9809451e-05 0.0
0000a0 cb ac 04 3a 00 00 00 00 87 69 8a 38 bc a9 97 39
       0.00050611485 0.0 6.600009e-05 0.00028927426
0000b0 87 15 3d 3a 00 00 00 00 ef 70 a2 3a eb 3e 5a 3b
       0.00072129857 0.0 0.0012393276 0.0033301662
0000c0 5b 61 34 38 79 89 cc 3a 5f b3 92 37 00 00 00 00
       4.3006014e-05 0.0015604935 1.7488082e-05 0.0
0000d0 53 4f 07 3a fa a0 e3 39 c2 a2 6f 39 d4 15 1d 3b
       0.00051616615 0.0004341675 0.00022853448 0.002396931
0000e0 c1 1c 93 39 28 38 b8 37 27 d6 80 3b 88 cc 8f 38
       0.00028059448 2.1960659e-05 0.003931779 6.856868e-05
0000f0 e7 b2 8e 39 7a 62 7b 3a 00 00 00 00 00 00 00 00
       0.00027217643 0.0009589564 0.0 0.0
000100 00 00 00 00 0e ca f8 39 70 6f e5 38 30 ad 0b 3b
       0.0 0.0004745279 0.00010940328 0.0021312945
000110 7d bd d8 3a a2 63 d6 3a 24 cc f6 39 00 00 00 00
       0.0016535964 0.0016356597 0.00047072873 0.0
000120 00 00 00 00 a4 ac 3b 3a 0b a2 b5 39 bd da 46 38
       0.0 0.00071592093 0.00034643742 4.7410595e-05
000130 48 77 b6 38 00 00 00 00 f2 a4 7c 3a d2 4c 03 3b
       8.700654e-05 0.0 0.0009637616 0.0020034802
000140 f4 9e 5a 3a 00 00 00 00 42 c5 7b 3b 04 96 01 3a
       0.0008339726 0.0 0.0038417135 0.00049433135
000150 36 bc 17 37 06 a0 e4 39 00 00 00 00 a8 ea b0 3c
       9.044123e-06 0.00043606776 0.0 0.021596268
000160 de 77 cf 3b 00 00 00 00 00 00 00 00 69 e9 51 39
       0.006331428 0.0 0.0 0.00020018745
000170 2d c3 48 3c 80 dd 11 3c 5b 0a eb 38 b7 8b 9b 39
       0.012253565 0.008902907 0.00011207602 0.00029668
000180 3c dd c5 39 00 00 00 00 70 14 6d 38 2e 5c 0d 3a
       0.000377396 0.0 5.6524237e-05 0.0005392459
000190 b5 e4 ad 39 9d 60 2d 3a 9e 45 84 37 08 9e 17 38
       0.0003316753 0.0006613823 1.5768044e-05 3.6148384e-05
0001a0 92 dd f6 3a 44 9f b4 3a f5 59 ab 38 99 86 11 3c
       0.0018834344 0.0013780375 8.170671e-05 0.008882188
0001b0 47 2c 43 3b f4 51 d4 3b 00 00 00 00 2f 3a 80 3a
       0.002978103 0.006479496 0.0 0.0009782965
0001c0 2f cc 58 39 bd fa b5 3a 5e e1 77 39 5a 89 3f 39
       0.0002067543 0.001388393 0.00023639711 0.00018266347
0001d0 61 b3 ec 38 00 00 00 00 12 6c 4e 3a 70 82 71 39
       0.00011286769 0.0 0.000787438 0.00023032143
0001e0 82 cc f6 37 22 1d 1b 3a 42 b3 ac 3c 8a 12 89 39
       2.9420717e-05 0.0005917122 0.02108157 0.0002614449
0001f0 34 a8 18 38 38 5d 57 3a 56 25 58 39 00 00 00 00
       3.6396275e-05 0.000821549 0.00020613274 0.0

exp_avg f4 [128, 128]
000000 00 00 00 00 00 00 00 00 00 00 00 00 00 00 00 00
       0.0 0.0 0.0 0.0
000010 00 00 00 00 00 00 00 00 00 00 00 00 00 00 00 00
       0.0 0.0 0.0 0.0
000020 00 00 00 00 00 00 00 00 00 00 00 00 00 00 00 00
       0.0 0.0 0.0 0.0
000030 00 00 00 00 00 00 00 00 00 00 00 00 00 00 00 00
       0.0 0.0 0.0 0.0
000040 00 00 00 00 00 00 00 00 00 00 00 00 00 00 00 00
       0.0 0.0 0.0 0.0
000050 00 00 00 00 00 00 00 00 00 00 00 00 00 00 00 00
       0.0 0.0 0.0 0.0
000060 00 00 00 00 00 00 00 00 00 00 00 00 00 00 00 00
       0.0 0.0 0.0 0.0
000070 00 00 00 00 00 00 00 00 00 00 00 00 00 00 00 00
       0.0 0.0 0.0 0.0
000080 00 00 00 00 00 00 00 00 00 00 00 00 00 00 00 00
       0.0 0.0 0.0 0.0
000090 00 00 00 00 00 00 00 00 00 00 00 00 00 00 00 00
       0.0 0.0 0.0 0.0
0000a0 00 00 00 00 00 00 00 00 00 00 00 00 00 00 00 00
       0.0 0.0 0.0 0.0
0000b0 00 00 00 00 00 00 00 00 00 00 00 00 00 00 00 00
       0.0 0.0 0.0 0.0
0000c0 00 00 00 00 00 00 00 00 00 00 00 00 00 00 00 00
       0.0 0.0 0.0 0.0
0000d0 00 00 00 00 00 00 00 00 00 00 00 00 00 00 00 00
       0.0 0.0 0.0 0.0
0000e0 00 00 00 00 00 00 00 00 00 00 00 00 00 00 00 00
       0.0 0.0 0.0 0.0
0000f0 00 00 00 00 00 00 00 00 00 00 00 00 00 00 00 00
       0.0 0.0 0.0 0.0
000100 00 00 00 00 00 00 00 00 00 00 00 00 00 00 00 00
       0.0 0.0 0.0 0.0
000110 00 00 00 00 00 00 00 00 00 00 00 00 00 00 00 00
       0.0 0.0 0.0 0.0
000120 00 00 00 00 00 00 00 00 00 00 00 00 00 00 00 00
       0.0 0.0 0.0 0.0
000130 00 00 00 00 00 00 00 00 00 00 00 00 00 00 00 00
       0.0 0.0 0.0 0.0
000140 00 00 00 00 00 00 00 00 00 00 00 00 00 00 00 00
       0.0 0.0 0.0 0.0
000150 00 00 00 00 00 00 00 00 00 00 00 00 00 00 00 00
       0.0 0.0 0.0 0.0
000160 00 00 00 00 00 00 00 00 00 00 00 00 00 00 00 00
       0.0 0.0 0.0 0.0
000170 00 00 00 00 00 00 00 00 00 00 00 00 00 00 00 00
       0.0 0.0 0.0 0.0
000180 00 00 00 00 00 00 00 00 00 00 00 00 00 00 00 00
       0.0 0.0 0.0 0.0
000190 00 00 00 00 00 00 00 00 00 00 00 00 00 00 00 00
       0.0 0.0 0.0 0.0
0001a0 00 00 00 00 00 00 00 00 00 00 00 00 00 00 00 00
       0.0 0.0 0.0 0.0
0001b0 00 00 00 00 00 00 00 00 00 00 00 00 00 00 00 00
       0.0 0.0 0.0 0.0
0001c0 00 00 00 00 00 00 00 00 00 00 00 00 00 00 00 00
       0.0 0.0 0.0 0.0
0001d0 00 00 00 00 00 00 00 00 00 00 00 00 00 00 00 00
       0.0 0.0 0.0 0.0
0001e0 00 00 00 00 00 00 00 00 00 00 00 00 00 00 00 00
       0.0 0.0 0.0 0.0
0001f0 00 00 00 00 00 00 00 00 00 00 00 00 00 00 00 00
       0.0 0.0 0.0 0.0
000200 00 00 00 00 00 00 00 00 00 00 00 00 00 00 00 00
       0.0 0.0 0.0 0.0
000210 00 00 00 00 00 00 00 00 00 00 00 00 00 00 00 00
       0.0 0.0 0.0 0.0
000220 00 00 00 00 00 00 00 00 00 00 00 00 00 00 00 00
       0.0 0.0 0.0 0.0
000230 00 00 00 00 00 00 00 00 00 00 00 00 00 00 00 00
       0.0 0.0 0.0 0.0
000240 00 00 00 00 00 00 00 00 00 00 00 00 00 00 00 00
       0.0 0.0 0.0 0.0
000250 00 00 00 00 00 00 00 00 00 00 00 00 00 00 00 00
       0.0 0.0 0.0 0.0
000260 00 00 00 00 00 00 00 00 00 00 00 00 00 00 00 00
       0.0 0.0 0.0 0.0
000270 00 00 00 00 00 00 00 00 00 00 00 00 00 00 00 00
       0.0 0.0 0.0 0.0
000280 00 00 00 00 00 00 00 00 00 00 00 00 00 00 00 00
       0.0 0.0 0.0 0.0
000290 00 00 00 00 00 00 00 00 00 00 00 00 00 00 00 00
       0.0 0.0 0.0 0.0
0002a0 00 00 00 00 00 00 00 00 00 00 00 00 00 00 00 00
       0.0 0.0 0.0 0.0
0002b0 00 00 00 00 00 00 00 00 00 00 00 00 00 00 00 00
       0.0 0.0 0.0 0.0
0002c0 00 00 00 00 00 00 00 00 00 00 00 00 00 00 00 00
       0.0 0.0 0.0 0.0
0002d0 00 00 00 00 00 00 00 00 00 00 00 00 00 00 00 00
       0.0 0.0 0.0 0.0
0002e0 00 00 00 00 00 00 00 00 00 00 00 00 00 00 00 00
       0.0 0.0 0.0 0.0
0002f0 00 00 00 00 00 00 00 00 00 00 00 00 00 00 00 00
       0.0 0.0 0.0 0.0
000300 00 00 00 00 00 00 00 00 00 00 00 00 00 00 00 00
       0.0 0.0 0.0 0.0
000310 00 00 00 00 00 00 00 00 00 00 00 00 00 00 00 00
       0.0 0.0 0.0 0.0
000320 00 00 00 00 00 00 00 00 00 00 00 00 00 00 00 00
       0.0 0.0 0.0 0.0
000330 00 00 00 00 00 00 00 00 00 00 00 00 00 00 00 00
       0.0 0.0 0.0 0.0
000340 00 00 00 00 00 00 00 00 00 00 00 00 00 00 00 00
       0.0 0.0 0.0 0.0
000350 00 00 00 00 00 00 00 00 00 00 00 00 00 00 00 00
       0.0 0.0 0.0 0.0
000360 00 00 00 00 00 00 00 00 00 00 00 00 00 00 00 00
       0.0 0.0 0.0 0.0
000370 00 00 00 00 00 00 00 00 00 00 00 00 00 00 00 00
       0.0 0.0 0.0 0.0
000380 00 00 00 00 00 00 00 00 00 00 00 00 00 00 00 00
       0.0 0.0 0.0 0.0
000390 00 00 00 00 00 00 00 00 00 00 00 00 00 00 00 00
       0.0 0.0 0.0 0.0
0003a0 00 00 00 00 00 00 00 00 00 00 00 00 00 00 00 00
       0.0 0.0 0.0 0.0
0003b0 00 00 00 00 00 00 00 00 00 00 00 00 00 00 00 00
       0.0 0.0 0.0 0.0
0003c0 00 00 00 00 00 00 00 00 00 00 00 00 00 00 00 00
       0.0 0.0 0.0 0.0
0003d0 00 00 00 00 00 00 00 00 00 00 00 00 00 00 00 00
       0.0 0.0 0.0 0.0
0003e0 00 00 00 00 00 00 00 00 00 00 00 00 00 00 00 00
       0.0 0.0 0.0 0.0
0003f0 00 00 00 00 00 00 00 00 00 00 00 00 00 00 00 00
       0.0 0.0 0.0 0.0
