notebooks/checkpoints/mlptest/model2_1441.pt (torch, 963475 bytes, 15 tensors)

stack.0.weight f4 [256, 35]
000000 a4 e2 50 3d c1 3f d4 bd 1d bf 7a bd 81 10 f9 3c
       0.05099739 -0.103637226 -0.061217416 0.030403377
000010 7b 60 5e bd a2 43 4d 3d 01 51 9d 3d ac c5 25 be
       -0.05429123 0.050113328 0.07681466 -0.16188687
000020 86 f1 23 be 4e a6 ae bc 6c ea f7 bd 51 1b 4e 3c
       -0.16010103 -0.021319535 -0.12105259 0.012579755
000030 eb 9a 02 be 08 28 08 3e db 93 f4 3c 08 0c ef bd
       -0.12754409 0.1329652 0.02985566 -0.11672217
000040 79 b5 46 bd 21 4e d6 3d 58 3f ce bd 30 3a 09 be
       -0.04851291 0.10464121 -0.100706756 -0.13401103
000050 84 cc 1c 3d d1 7f ec 3d 39 88 f8 bc aa 53 8b bc
       0.03828098 0.115478165 -0.030338394 -0.017007668
000060 79 c9 23 3e ba 04 23 be 3e d1 80 b9 de 54 e2 3d
       0.15994824 -0.15919772 -0.0002456996 0.110513434
000070 79 be ac bd 1f 21 49 bc a3 6f b1 3d 0a ce 83 bd
       -0.08434767 -0.012275963 0.08663871 -0.06435783
000080 18 88 a6 bc ad 3b 13 3e d2 43 ca bd d3 8a c3 3a
       -0.020328566 0.14378233 -0.09876217 0.0014918692
000090 44 30 fb bd 52 0b 99 3b a3 e0 1a 3d 41 d7 c8 3c
       -0.12265065 0.004670539 0.037811887 0.024516704
0000a0 ca 6f 3f 3c 31 aa 2b bd 1b 95 89 3d 5e 8c 05 3d
       0.011684367 -0.041910354 0.06717893 0.032604568
0000b0 f9 48 66 3c 68 53 13 be 12 9e ee bd 1f 6f f4 bd
       0.014055484 -0.14387286 -0.11651243 -0.11935257
0000c0 47 5d 90 bd a8 16 d6 3d 01 03 1e be 87 9e d9 3d
       -0.07049041 0.1045354 -0.15430833 0.1062594
0000d0 ef 44 85 3d 41 b4 2c be 8f e1 fb bd 21 02 d0 bd
       0.06507289 -0.16865636 -0.12298881 -0.10156656
0000e0 30 44 10 3e 07 46 1e be 76 de 7c 3d 8e 73 0b be
       0.14088511 -0.15456401 0.061735593 -0.136183
0000f0 3a 90 01 3d 82 82 ce bb d0 80 c9 3d 45 6f e5 3d
       0.031631686 -0.006302179 0.09839022 0.112028636
000100 17 1b 97 3d 39 23 2a 3e 36 47 28 bd e1 1f 4e 3c
       0.07378214 0.16614999 -0.041083537 0.012580843
000110 63 e1 83 3d 22 7b 1a 3b 4b 63 07 3e 6d f7 6c 3d
       0.064394735 0.0023571928 0.13221471 0.05785315
000120 99 fc aa bd 0a 2c fd bc 86 e0 e9 3d c3 29 b7 3d
       -0.083489604 -0.030904789 0.114197776 0.08943512
000130 6f 2e 46 bc 49 91 a2 bd 51 22 78 3d 9b 6e d0 3d
       -0.012096032 -0.07937867 0.0605796 0.10177346
000140 af 88 50 bd 87 88 b5 3d e8 9b 1c bd df 3f 12 3e
       -0.0509116 0.08863931 -0.03823462 0.14282177
000150 a1 e4 31 be 87 7c 0b be c1 5c af 3d ff 09 1e bd
       -0.17372371 -0.13621722 0.08562613 -0.03858375
000160 25 98 dd 3d d6 1b e5 bc 7d ca 0a be ef 0a fc bd
       0.10820035 -0.027967375 -0.13553806 -0.12306773
000170 44 c2 21 3e f5 da 5b 3d 22 33 8e bb 92 e0 9f 3c
       0.15796763 0.05367561 -0.0043395916 0.019516263
000180 e0 b2 be 3d 57 04 16 be 60 66 fc bd 90 40 54 3d
       0.093114614 -0.14650093 -0.12324214 0.051819384
000190 11 29 80 bc 66 c5 df 3c 1a d7 72 3d 35 00 f2 3d
       -0.015644582 0.027315807 0.059287168 0.11816446
0001a0 85 75 92 3d fb d6 30 3d f5 d7 1a be 2f 57 a5 bd
       0.07151321 0.04317377 -0.15121444 -0.080732696
0001b0 f5 49 19 bd 7b f6 01 3e 06 86 f2 bd 3f b1 8a bc
       -0.037424047 0.12691681 -0.11841969 -0.01693022
0001c0 08 8f d4 bd 09 4a 17 be 04 04 17 be 13 27 00 3e
       -0.103788435 -0.14774336 -0.14747626 0.12514906
0001d0 3d 9a e4 3d 55 ad a6 3d ca 1a b7 bc 2e 2f 07 3e
       0.11162231 0.08138529 -0.022351641 0.13201591
0001e0 13 3d 60 3c 39 d6 12 be 16 ab d9 bd 67 c1 4d bd
       0.013686436 -0.14339532 -0.10628335 -0.05023327
0001f0 c5 b7 49 bd 2d 43 11 be ba f0 d3 3d fa 55 53 3d
       -0.049247522 -0.14185782 0.10348649 0.051595666
000200 ca 13 a2 3c fd f7 02 3e e8 1f 82 bd ac ef 16 be
       0.019784827 0.12789913 -0.06353742 -0.14739865
000210 3f af 97 3d e1 ae 4b bd 46 42 c0 bd 2e a5 ba bd
       0.074064724 -0.049727324 -0.09387641 -0.09113537
000220 c9 d6 08 bd ba 97 01 bc 2e 63 7a 3d 1c 4b 47 bd
       -0.03340796 -0.00790971 0.06112974 -0.048655614
000230 c8 7a cc 3d fb b1 de bd 3e e9 6e bd 54 6c 9d bd
       0.09984356 -0.10873791 -0.058327906 -0.076866776
000240 9e 2d 30 bd 54 4f 83 bd 50 fb 8b ba 2c 4d a3 bd
       -0.043012254 -0.06411615 -0.0010679755 -0.07973704
000250 c1 7c 4e bd 54 c7 89 3d 19 4f 54 bd c1 84 0e 3e
       -0.050411943 0.06727472 -0.051833246 0.13917829
000260 fa 22 c9 3d 7d 67 01 be 64 71 65 bd 09 60 b7 3d
       0.098211244 -0.12637134 -0.05601634 0.08953864
000270 85 4c 3f ba 80 7a 0b be 84 0c 07 be 8c 09 b2 3d
       -0.0007297474 -0.13620949 -0.13188368 0.08693227
000280 03 76 2f 3e 17 dd 28 3e ca 6f bd 3d 37 85 4a 3d
       0.17134862 0.16490589 0.09249838 0.04944345
000290 d6 47 05 3e 03 99 81 bc 33 c3 89 bc be 1e 6e 3d
       0.13015684 -0.015820032 -0.016816711 0.058134787
0002a0 5d fc 25 be dc 40 10 be a5 65 b8 bd c9 c5 6c 3b
       -0.1620955 -0.14087242 -0.09003762 0.0036128631
0002b0 a9 c8 cb bd 58 49 b5 3d aa 4d 00 3e c8 67 90 3c
       -0.09950382 0.0885188 0.12529626 0.017627612
0002c0 0c 1d c5 3d 7b 96 d6 bd 29 a4 0b be 6e de 29 be
       0.09624681 -0.104779206 -0.13636841 -0.16588756
0002d0 ed 1d d9 3d a2 5f e8 3d 08 c8 03 3e f4 db b8 3c
       0.10601411 0.113463655 0.12869275 0.02256582
0002e0 8f c9 dc 3d f9 91 3b 3c a4 08 37 bd 8f 48 f6 3d
       0.10780632 0.011448377 -0.044685975 0.12025558
0002f0 c1 24 1d 3e 9c 3a c3 3c bc ed 64 3c da ca a8 bd
       0.15346052 0.023831658 0.013972696 -0.08241816
000300 63 b9 45 be a4 ee 07 3d f9 09 ce 3c 5a 86 9f 3d
       -0.19309 0.03318657 0.02515124 0.077892974
000310 eb 44 1e 3e f5 fe ea bc 65 0d 07 3d d7 58 ad 3d
       0.15455978 -0.028686026 0.03297176 0.084642105
000320 23 8c 87 bd c6 d7 86 bd f9 f8 ab 3c 40 62 92 bd
       -0.06618526 -0.06584124 0.020992743 -0.07147646
000330 19 76 20 3e 4e bb 63 3d bb 65 8f 3c a2 fe 82 3c
       0.1567005 0.05559855 0.017504564 0.015990559
000340 ff 0f f5 3b d9 09 99 3d 3d c1 c2 bd a9 38 12 3d
       0.0074787135 0.074725814 -0.095095135 0.035698567
000350 60 9f 90 bd 1a 12 66 3d a9 90 0e 3c d8 8c 10 3e
       -0.07061648 0.056169607 0.008701482 0.14116228
000360 b8 0e eb 3d 04 a0 ec 3c bf 5e 15 be eb cf 4a 3d
       0.11477417 0.028884895 -0.14586924 0.049514692
000370 72 00 cc bd 13 21 ad 3d b5 2a c8 bd 88 19 d2 bc
       -0.099610224 0.08453574 -0.09773771 -0.02564694
000380 77 47 ef bc 08 23 9a bd 25 df 29 3e a7 19 f0 bc
       -0.029208882 -0.07526213 0.16589029 -0.029309107
000390 58 a0 1f 3e a8 0f 20 3e c0 01 09 be 3c 2b 00 3d
       0.1558851 0.15630972 -0.13379574 0.03129123
0003a0 e6 da a7 bd cc de 99 bd 34 b8 27 3e d0 34 2c 3e
       -0.081960484 -0.07513198 0.16378862 0.16817021
0003b0 23 88 4d bd e1 90 d0 3d d5 2d 48 bc 8f 04 02 3d
       -0.05017866 0.101838835 -0.012217958 0.03174263
0003c0 58 d6 5c bd 0a 71 16 be 22 07 aa 3d f9 57 ba bd
       -0.05391535 -0.14691558 0.08302142 -0.09098811
0003d0 93 58 ee bd 17 95 63 bd ad 7d 07 be 9f e8 0b 3e
       -0.11637988 -0.055562105 -0.13231535 0.13662957
0003e0 1b 07 c8 3d 03 5b 14 bc b2 cd 3d ba a2 2f 48 3e
       0.0976698 -0.009054902 -0.0007240429 0.1954942
0003f0 a2 8c 18 3e e2 93 a3 bd e8 22 1b 3d fd 98 27 3e
       0.14897397 -0.07987191 0.037875086 0.16366954

stack.0.bias f4 [256]
000000 fc fd 21 be c6 42 20 be 87 4f 84 bd 9b f8 97 bc
       -0.15819544 -0.15650472 -0.06460481 -0.018551162
000010 e7 3f 09 bf d9 2d 3e be c3 d4 e9 be 3f 17 54 bf
       -0.5361313 -0.18572177 -0.45670137 -0.8284797
000020 b8 1a 22 bf 8f 49 1d be 35 8b e7 be fa 95 1a bf
       -0.6332202 -0.15360092 -0.45223394 -0.60385096
000030 eb 07 e5 bc d4 56 ed 3e ac 5c 1d 3e f3 04 db 3e
       -0.027957877 0.46355307 0.15367383 0.42777213
000040 6f 0b d2 bd e9 74 0b 3f d0 2f bd 3e 61 c6 04 be
       -0.10256087 0.54475266 0.3695054 -0.129663
000050 3e e0 bc be 54 eb da 3e d8 10 d4 be fe af 13 be
       -0.36889833 0.42757666 -0.414191 -0.14422604
000060 8c af f7 bd eb 1d 2c 3d 66 79 c5 3d a4 95 47 bd
       -0.1209403 0.04202072 0.096422955 -0.048726693
000070 43 01 47 3d cb 86 0c 3f 64 7d ad be 6a 72 3a 3f
       0.048585188 0.5489318 -0.33884728 0.7283083
000080 b6 a2 d1 3e 66 e9 15 be 0b db 44 3f 3d 7d f4 be
       0.4094445 -0.14639816 0.76896733 -0.477518
000090 fa c1 2b 3f 7e 6b 2f bf 88 47 dc 3e 4f fb 63 3d
       0.6709286 -0.68523395 0.43023324 0.05565959
0000a0 ee 21 0e 3e 1f 70 81 bd 84 fd 74 be 92 5d ad 3e
       0.1388013 -0.063202135 -0.23924834 0.3386045
0000b0 cc bc 16 be 3c 9c 1d 3e 28 38 9a 3d ed c2 94 3d
       -0.14720458 0.1539163 0.07530242 0.07263742
0000c0 cb 87 c8 be 19 ca e5 be cd b9 74 3e c4 ac 21 bf
       -0.39166102 -0.4488075 0.23899002 -0.63154244
0000d0 3f 10 6c bb 30 45 fd be 1c dc a3 3d 3d e1 d6 3d
       -0.0036020426 -0.49466848 0.08000967 0.104921795
0000e0 d5 03 9f bd ff ef b4 be a9 08 20 3f 83 55 0f bd
       -0.07764403 -0.35339352 0.62513214 -0.03499366
0000f0 01 4f 19 3e 9b 5b fd be b5 18 10 bf e2 9d 04 bf
       0.14971544 -0.49483952 -0.562877 -0.5180341
000100 3f ee ff 3d 30 fb 20 be 52 73 89 3d d9 2d 6d be
       0.12496614 -0.1572082 0.06711449 -0.2316202
000110 ef 7d 31 bf 39 a5 74 3c 90 d7 a7 be 96 df c2 be
       -0.69332784 0.01493197 -0.3278165 -0.38061208
000120 32 56 92 bd 38 0c d5 be 3c 92 1f bf 26 e4 64 3e
       -0.07145347 -0.41610885 -0.6233251 0.22352657
000130 19 6c 44 3f aa be bb bd 54 c9 01 bf 5b 17 c3 3d
       0.76727444 -0.09167226 -0.5069783 0.09525939
000140 e2 8a 8c 3d 20 31 17 bf 5f 48 ab bd f7 0e f7 3e
       0.06862427 -0.59059334 -0.08363413 0.48253605
000150 21 41 93 3e ac aa 8c 3d 44 85 3a 3f 78 24 17 bf
       0.28760627 0.068684906 0.728596 -0.5904002
000160 67 41 6c bf e2 01 d4 3d 75 6b 36 3f 21 29 22 3e
       -0.92287296 0.103519216 0.71257716 0.15836002
000170 4a 8a 4f be 64 06 1c 3f e4 5d 43 be 07 ca 08 bf
       -0.20267597 0.6094725 -0.19078785 -0.5343327
000180 fc 86 ba 3e 6e f6 fc 3e ee 90 c3 bd ae 9f 27 be
       0.3643111 0.4940676 -0.095491275 -0.16369507
000190 ac f8 13 bf 08 3a 9e 3e de b1 4b 3f d0 ba 14 bf
       -0.5780132 0.3090365 0.7956828 -0.58097553
0001a0 a9 49 f0 be 28 00 cd be 5c 59 c7 bd e0 df 18 3d
       -0.46931198 -0.40039182 -0.09733841 0.03732288
0001b0 0a 27 5d bc 5b 59 24 be cd ed 06 bf 04 3a 2c 3f
       -0.013498077 -0.16049711 -0.52706605 0.67276025
0001c0 6c ff 27 bf 02 07 9c be 19 4d fa bd 8c 47 5a bd
       -0.6562412 -0.30474097 -0.122217365 -0.05329089
0001d0 a5 d3 fa bd ad ad 88 bd f2 0a 45 bc d1 b7 17 3f
       -0.12247399 -0.06673751 -0.012026535 0.59264857
0001e0 76 d3 ad bc 42 fb 23 bf 1b 5f 8f be 49 f0 06 be
       -0.021218996 -0.64055264 -0.28002247 -0.13177599
0001f0 1f 81 01 3f 4f d2 03 bf 87 c2 fb be 6b f5 8f 3b
       0.5058765 -0.5149278 -0.4917185 0.00439327
000200 f5 9d 5c be d9 a7 48 3f 37 a7 30 bf c5 f8 1f bf
       -0.21544631 0.78381115 -0.6900515 -0.6248897
000210 64 a4 40 3f 65 03 51 3f 2c 6f 2a bf 2b 08 1a bf
       0.7525084 0.81645805 -0.66575885 -0.60168713
000220 23 40 24 3f 80 48 13 bf 24 14 52 3d 75 0c 9f 3d
       0.64160365 -0.575325 0.05128874 0.07766048
000230 51 d0 ee be c7 25 0d bf 86 dc 3b be 6d 15 20 be
       -0.46643308 -0.5513577 -0.18345842 -0.15633173
000240 94 00 a4 be dc 88 20 bf a1 19 4b be 59 e3 29 be
       -0.3203169 -0.6270883 -0.19833995 -0.16590632
000250 77 6a ea bd c8 89 08 3d 6f ef 02 bf 3a 10 58 be
       -0.11446088 0.033334523 -0.51146597 -0.2109994
000260 83 d1 1a bf d8 64 2c bf 1b 7b 1a 3f ac cf 29 3d
       -0.6047594 -0.67341375 0.60344094 0.041457817
000270 fc 4d cb 3e b9 83 96 3c b0 56 89 3e f9 87 d7 3d
       0.39707935 0.018373357 0.2682395 0.105239816
000280 91 d4 2c be 6c 94 73 3d 12 3a 0e bf f8 a8 43 bf
       -0.16877963 0.059467718 -0.5555736 -0.764297
000290 fa 3a 22 bf 7b e5 90 3c dc e3 d3 3d 51 d0 14 bf
       -0.6337124 0.01768755 0.10346195 -0.58130366
0002a0 5c dc 16 bf 81 bd cd bb 5d 8c 63 3e ec e6 6f 3c
       -0.5892999 -0.006278694 0.22221513 0.014642458
0002b0 28 69 21 3f 12 80 85 3e 58 99 1d 3f ff a4 34 3f
       0.6305108 0.26074272 0.6156211 0.70564264
0002c0 21 6e 45 be f9 23 d0 bc c9 fe e4 bd 4a 2e fd 3d
       -0.19280292 -0.025407778 -0.11181409 0.123623446
0002d0 48 ed 37 bf e1 9d cc bc 8b 05 e2 be 75 3a 36 bf
       -0.7184644 -0.024977626 -0.44144854 -0.7118295
0002e0 23 14 bb be 6e 77 14 3f 3c ab 22 bf 86 0c 43 3f
       -0.365388 0.57994735 -0.6354253 0.76190984
0002f0 6b f1 29 3e 66 b8 08 bf ff 3d bd 3d 79 b7 16 3d
       0.16596 -0.5340637 0.092403404 0.036796067
000300 2d 57 12 3f 61 56 8f bd 41 47 9a 3b 93 53 d0 be
       0.5716427 -0.06998897 0.004708201 -0.40688762
000310 d2 3b 03 3e 8e c7 29 bd 36 9a b7 bd 0c e1 2c be
       0.12815788 -0.041450076 -0.0896496 -0.16882724
000320 a5 85 92 3d 3f 1c b3 be 0d 60 29 bf 7f c2 29 3f
       0.07154397 -0.34982488 -0.66162187 0.663124
000330 08 83 2d 3f 89 d6 d7 be 22 c7 0b 3f 9f 68 00 bf
       0.6777806 -0.42155865 0.5460073 -0.5015964
000340 8c 0d 1e bf 5b 86 46 3e 10 6e 32 3f 6f 6f 13 3f
       -0.6173942 0.1938719 0.6969919 0.5759191
000350 58 b9 ee bd 25 97 99 3e 93 c7 ed 3e 7b 5b 1b be
       -0.11656445 0.29998127 0.46441326 -0.15171616
000360 5c 53 ab 3d 5a c7 45 be af c7 32 be f3 89 ad bd
       0.08365509 -0.19314328 -0.17458986 -0.08473577
000370 f0 b5 1e 3f 28 f6 1b 3e 38 db 83 3e a1 82 ea 3e
       0.61996365 0.1523062 0.25753188 0.45802787
000380 a0 8b e6 3d 63 c7 12 bf c3 eb 65 bd 29 d5 1a be
       0.112571 -0.5733549 -0.056133043 -0.15120377
000390 6c 70 87 3e 94 3b 13 be 63 51 a1 bd f9 75 fc 3d
       0.2645296 -0.14378196 -0.078768514 0.12327189
0003a0 78 64 01 3f b8 6c 0a 3f b3 8e 47 3c 5f 3e ad be
       0.5054393 0.5407214 0.012180018 -0.33836648
0003b0 7a 07 01 be b4 ba e5 be 96 47 20 3f 8a 93 96 3e
       -0.12600508 -0.44869006 0.6260923 0.29409438
0003c0 21 66 0c 3f cd ca 27 bc d5 6f 4d be 3e 0b 6f bd
       0.54843336 -0.010241223 -0.20062192 -0.05836033
0003d0 c2 dc f0 bd e0 70 0e bf 2e ef ec 3d 5c e4 2b bd
       -0.11760856 -0.55640984 0.115690574 -0.041965827
0003e0 68 fd 51 bf fc 79 28 be 47 7a 53 3e 0d 4a 3b bf
       -0.8202729 -0.16452783 0.20652114 -0.7315987
0003f0 ed 56 29 3f 64 39 7e be a8 f4 61 3d a8 f4 27 3e
       0.66148263 -0.2482658 0.055164963 0.16401923

stack.2.weight f4 [256, 256]
000000 60 36 6a 3b c8 06 52 bd b4 6f e7 ba f0 d5 09 bb
       0.0035737976 -0.051276 -0.0017657191 -0.0021032058
000010 ea ee 5b bd 62 95 00 bc 42 6e 7e bd d3 a6 08 bd
       -0.053694643 -0.007848116 -0.06211687 -0.03336222
000020 9f 4d a0 3b ec 89 15 bd 3b 16 1c 3c 72 2e a9 bc
       0.0048920657 -0.036508486 0.0095267845 -0.02065203
000030 8e 62 2a 3d 7e 2f d1 bc 37 95 51 bd 2f bc 2a 3d
       0.041597895 -0.025535341 -0.051167693 0.041683372
000040 ae 09 24 bd 36 bb 5d 3d 57 7f 5f bd a0 70 ac bb
       -0.040048294 0.054133616 -0.0545648 -0.0052624494
000050 37 29 75 bc 0b 84 e2 bc ec 7f 6b bd cc 3c 5e bd
       -0.01496344 -0.027650854 -0.057495043 -0.0542572
000060 20 c0 4b bb 33 d5 06 bd 70 47 79 bd 0f 02 41 bd
       -0.0031089857 -0.032918166 -0.060859144 -0.047121104
000070 6c c9 6e bd 80 3c d3 3a 0d 24 91 bd 00 4b 15 3d
       -0.05829756 0.0016116053 -0.07086954 0.03644848
000080 76 22 21 3d cd 3b c9 3c 14 78 91 bd b8 f3 f6 3c
       0.039339505 0.024564648 -0.07102981 0.030145511
000090 bc 08 85 bd 5d 20 61 bd 75 df 34 bd 2c a4 34 bd
       -0.064958066 -0.054962505 -0.044158418 -0.04410188
0000a0 38 9e aa 3c c8 f1 d2 bc a6 70 ea bb 4c 30 e3 bc
       0.020827398 -0.025750056 -0.007154542 -0.02773299
0000b0 78 94 70 3c 99 d1 70 bd 48 22 6c bd 28 30 44 3c
       0.014683835 -0.058793638 -0.05764988 0.011974372
0000c0 c0 5a 34 bd 53 07 2a 3d b2 69 3d bd c8 1b 62 bd
       -0.04403186 0.04151089 -0.046243377 -0.055202276
0000d0 fe 8a 59 3d f1 b6 83 bd 42 a2 99 bc 8c fd 49 3d
       0.05311107 -0.06431378 -0.018754128 0.049314067
0000e0 2c 23 f3 3c 0e bc 86 bd 70 fc 6e bc b0 ad 3f bd
       0.029679857 -0.06578837 -0.014586553 -0.0467965
0000f0 38 38 e6 3c 01 4e ad bc cc 54 e9 3c c0 c0 25 3b
       0.028102979 -0.02115536 0.028482817 0.002529189
000100 60 c3 57 bc 3e 2e 52 3d 06 ee 5a bd 40 5c d1 3c
       -0.01316914 0.05131363 -0.053449653 0.025556684
000110 70 8d 2f 3d be 8c b4 bc e6 c7 f3 39 e4 8c 31 3d
       0.042859495 -0.022039767 0.00046497508 0.043347254
000120 28 ff 1f 3d e1 16 75 bd 59 6d ef bc 20 77 c4 bc
       0.039061695 -0.059836272 -0.029226946 -0.023982584
000130 89 00 e8 bc 47 2d 6e bd a1 08 a9 3c 3e 92 6f bd
       -0.028320568 -0.05814865 0.020633997 -0.058489077
000140 5f 1f 13 bd 51 3d 44 3c 44 e5 15 3d f9 e7 c5 3c
       -0.03591859 0.01197751 0.036595598 0.024158465
000150 e7 e8 3c bd 68 0e ed 3c 07 dc 65 3c 94 ed 61 bd
       -0.04612055 0.028937533 0.014029509 -0.055158213
000160 c1 c8 1b 3d e0 d5 0d 3c fc 56 50 bd 74 c4 4d 3d
       0.03803325 0.008656949 -0.050864205 0.05023618
000170 83 34 87 bd 3f fb 55 bd 1f 09 0f 3d 10 f4 77 3d
       -0.06601813 -0.05224156 0.034920808 0.06053549
000180 d1 57 66 bd ae 3c 0f bd c5 0a 6d bc fa 1a 8e bd
       -0.056236092 -0.034969978 -0.0144679 -0.06938739
000190 0f 6a f3 bc 75 81 41 bd ea f7 3e bc 59 a5 3c bd
       -0.029713659 -0.0472426 -0.011655787 -0.046056125
0001a0 31 7b 1a bd 4b 10 ce b7 3f 40 7f bd 81 86 45 bd
       -0.03771514 -2.45647e-05 -0.06231713 -0.048223976
0001b0 60 2c cb bb 3d db 08 bc 70 d1 b7 3b 7e 5c a6 bc
       -0.0062003583 -0.008353052 0.0056096837 -0.020307776
0001c0 50 13 60 bb 33 ff 25 3d 10 84 eb 3b 06 d3 08 3d
       -0.0034191199 0.04052658 0.007187374 0.033404373
0001d0 a8 22 a7 bb b2 cf 05 bd 20 ec b5 bc bf 36 9e 3b
       -0.005100567 -0.032668777 -0.02220732 0.0048283036
0001e0 0a 56 0b bd 98 a4 58 bd 8b 30 5c bd 7a 26 3c bc
       -0.0340176 -0.052891344 -0.05375723 -0.011483783
0001f0 8c b5 25 bd 53 04 fa bc ae 19 43 3d a0 a9 1a 3b
       -0.04045634 -0.03051964 0.047631912 0.002359964
000200 6f 5d 48 bd f1 7b 7a bd 50 54 53 bb 24 ce e0 3c
       -0.04891723 -0.061153356 -0.00322463 0.027442046
000210 ba 15 42 3c ad 29 39 3d 68 03 3e bd 10 f7 38 bc
       0.011846 0.04520576 -0.046389967 -0.011289373
000220 5c 40 59 bd c0 3f 4c bc ba f4 49 3d 95 e9 75 bd
       -0.053039894 -0.012466371 0.049305655 -0.060037214
000230 a0 a1 18 3d c1 2f 48 3d db 29 45 bd bc 11 6e bc
       0.037263513 0.048873667 -0.04813562 -0.014530595
000240 12 0e 38 3d f2 14 2b bd 1a 32 89 bd 3c 3b 34 bd
       0.044935293 -0.041768022 -0.06699009 -0.044001803
000250 c9 69 1e bd 6e c9 c3 bc 87 30 b5 bb 74 ca 1b bd
       -0.038675103 -0.02389976 -0.0055294666 -0.03803487
000260 ec 57 08 3d 92 de 70 bb 10 da 96 bc 62 f0 64 bd
       0.033286974 -0.0036753756 -0.018414527 -0.05589331
000270 7d a8 86 bd 22 30 05 3d 0a 50 e4 bc 40 81 08 3c
       -0.06575105 0.032516606 -0.027870197 0.008331597
000280 e4 9b 11 3d 68 c6 a1 bb 22 a8 4b bb 64 e9 1b 3d
       0.03554906 -0.004936982 -0.0031075557 0.038064376
000290 20 37 62 3d 95 31 69 bd 10 59 1c bb da 73 b1 3b
       0.055228353 -0.05693205 -0.0023856796 0.005415422
0002a0 f8 2f ec bb 82 72 23 3d 3e d2 8f bd f6 1c 7b bd
       -0.0072078668 0.039904125 -0.070225224 -0.061306916
0002b0 84 eb 65 3d 81 65 9c bc 23 b1 06 3d 1e 8b 36 bc
       0.05613281 -0.01909137 0.032883774 -0.011141567
0002c0 d3 5a 3e 3d a0 f2 88 3c c0 17 2d bd 5c 84 32 bc
       0.046473335 0.016717255 -0.042258978 -0.010895815
0002d0 c8 58 ae 3c d6 6e 85 bc de 4a 5a 3b e2 6e 1a bd
       0.021282569 -0.016288202 0.0033308784 -0.037703402
0002e0 f2 0e c9 3c f2 1c 43 bd 7e 7f 17 bd 30 5d a2 bc
       0.02454326 -0.047635026 -0.03698682 -0.019819826
0002f0 2f 56 91 3c ee af 2d bb 72 d1 25 bd 7a 0f 68 bd
       0.01774129 -0.0026502567 -0.040482946 -0.056655385
000300 71 34 8f 3c 7c 14 b4 3c 32 2e 4b bd 4c 26 42 3d
       0.01748106 0.021982424 -0.049604602 0.047399804
000310 d0 bf 9b 3c f2 d5 1a bd 28 62 36 3c 01 91 37 bd
       0.019012362 -0.03780169 0.011131801 -0.04481602
000320 80 01 ae 3b 08 aa 5d bc f1 da 38 3d 10 2e 4c 3d
       0.0053102374 -0.013529308 0.045130674 0.049848616
000330 a1 4b 00 3d 5c 46 09 37 fb b0 3c bc 04 16 4b 3d
       0.031322125 8.182218e-06 -0.011516805 0.049581543
000340 40 76 24 3c fe 1d 36 3d da aa 47 3d b9 32 8d bc
       0.010037959 0.044462197 0.04874692 -0.0172361
000350 11 8c 2b bd 0a b4 4c bd 7b 70 8a bd 92 f6 1b 3d
       -0.041881625 -0.049976386 -0.06759735 0.038076945
000360 d0 ec 68 3c dc bb 61 bc 3e 38 16 bd e5 1c 58 bd
       0.014216617 -0.013777699 -0.03667473 -0.05276193
000370 35 d4 48 bd 3f e0 74 bd 73 d5 de b9 7c 25 e2 3c
       -0.0490305 -0.05978417 -0.00042502172 0.027605765
000380 a0 81 73 bb 3c ae 2a 3d 15 dc 6b bd 6a aa e2 bc
       -0.003715612 0.04167007 -0.057582933 -0.02766915
000390 78 6c 41 3c d0 7c 4b bc e7 56 35 bd 80 5e dc 3b
       0.011805646 -0.012419894 -0.04427233 0.0067251325
0003a0 41 db 3f 3c d8 4c e7 bc b0 fb af bb 81 fe 73 bd
       0.011709989 -0.028234884 -0.0053705797 -0.059568886
0003b0 ee 6a 1c bd bb 53 61 bd 66 ae 46 3d 13 a6 1f bd
       -0.038187914 -0.055011492 0.048506163 -0.03897674
0003c0 eb 21 02 3d 3c c8 75 3d 02 56 5c bd b0 24 04 bd
       0.031770628 0.06000541 -0.05379296 -0.03226155
0003d0 bc 21 cf 3c d6 5a 95 bc d4 16 74 bd 00 e4 e1 ba
       0.02528464 -0.01823179 -0.059592083 -0.0017234087
0003e0 8a 2d 37 3d f0 fb 7c 3c 2c 77 7f 3d 7b ac 49 bd
       0.044721164 0.015440926 0.06236951 -0.049236756
0003f0 16 b7 70 bc 15 42 ba bc f6 40 cb bc 60 e3 e8 3b
       -0.014692089 -0.022736588 -0.02481125 0.0071071833

stack.2.bias f4 [256]
000000 bf 51 55 3d a1 d7 bf bc 31 2f 85 3e 2e 2c c8 bc
       0.052079912 -0.02341825 0.26012567 -0.024435129
000010 a9 07 e6 bd 46 4d 32 be 6c c6 51 3c 51 7f 27 3d
       -0.1123193 -0.1741229 0.012803655 0.040892903
000020 98 20 64 bd f2 e0 04 3d 5a 59 c4 bd 93 16 33 be
       -0.055695146 0.032441087 -0.09587355 -0.1748908
000030 6b a0 2e bf 37 69 1e 3e 54 59 a0 3c bd 0a 3d 3c
       -0.6821353 0.15469824 0.019573845 0.011538205
000040 a3 76 4d be c7 58 62 be 79 5e 38 be e0 a6 bf 3b
       -0.20064788 -0.22104178 -0.18004788 0.0058487505
000050 69 c8 f0 ba 7c 74 79 be 48 b5 fa 3b 72 82 82 be
       -0.0018370274 -0.24360842 0.007651005 -0.25490147
000060 a5 ad a1 bc 5b 26 8b be 84 c8 83 3c 6a 3c bd 3c
       -0.01973612 -0.271777 0.016086824 0.023100097
000070 f3 92 1f be fe 18 67 bd ba 99 d2 3e 8b 88 91 bd
       -0.155834 -0.05642032 0.4113291 -0.07106122
000080 68 3b 26 be f8 d7 b2 3c 03 30 57 be bd 67 91 bc
       -0.16233599 0.021831498 -0.21014409 -0.017749662
000090 db 87 3d bd d8 0c 0e bd ca a4 1c be d4 af 80 3e
       -0.04627214 -0.034680218 -0.15297237 0.25134146
0000a0 28 33 d2 bc 5e f7 f8 bc 0a f8 83 be 3c 9b 46 be
       -0.025659159 -0.030391391 -0.25775176 -0.19395155
0000b0 26 13 33 3e 4f 14 6c be 28 e3 0e bd 17 bd 06 bf
       0.17487773 -0.23054622 -0.0348846 -0.5263228
0000c0 9d 19 94 3e 16 98 65 bd b6 65 c1 bc b3 92 25 ba
       0.2892579 -0.056053244 -0.02360807 -0.00063161104
0000d0 b6 17 35 bd 69 9a ca 3a 8f c0 52 3d c7 8d 2d 3d
       -0.044212066 0.0015457395 0.05145317 0.042371538
0000e0 74 5d d9 3b 52 fb 80 be c7 5f 2d be 50 44 45 bc
       0.006633455 -0.25191742 -0.16931067 -0.012040213
0000f0 98 7c 38 3d 15 d1 5d 3e 52 db 8a be d9 73 cc 3c
       0.045040697 0.2166179 -0.27120453 0.024957584
000100 91 49 90 bd d3 84 61 3e 20 ee 4d 3d 26 e9 a0 bd
       -0.07045282 0.22023325 0.05027592 -0.078569695
000110 03 24 0f be ec 26 91 bd 38 11 3d bd 14 24 34 be
       -0.13978581 -0.07087502 -0.046159 -0.17591888
000120 69 00 06 bd 7a b2 67 be dd bc 78 bc 81 43 1a bd
       -0.032715235 -0.22626677 -0.015181747 -0.037662033
000130 0b 82 1b be 95 27 0c 3f db ae 24 bd b3 71 15 3f
       -0.15186326 0.547479 -0.040205818 0.58376616
000140 e9 c3 54 be 7b 0d 66 3d cf e8 14 bd 60 39 42 bd
       -0.20777859 0.0561652 -0.036354836 -0.047418
000150 b2 bc 55 3e c8 53 74 bd 2a 2a 33 be 08 45 85 bd
       0.20872763 -0.059650213 -0.17496553 -0.06507307
000160 3c 00 1d be 78 23 76 be 36 01 04 3d 03 f6 9e 3c
       -0.1533212 -0.24036968 0.032227717 0.019404417
000170 8f 88 55 3c f0 97 45 bd 37 2d d3 3c bc bb 80 be
       0.013033046 -0.048240602 0.025778396 -0.2514323
000180 f7 f8 2d bd 3e 23 d8 bc c8 11 2e 3c f9 d4 27 bd
       -0.04247376 -0.026383992 0.010624357 -0.04097459
000190 4c 4d 40 bd 54 dc 73 bd 9f 7c 1e bf 24 81 10 3d
       -0.046948716 -0.059536293 -0.61908907 0.035279408
0001a0 0b c9 9b 3c 15 70 1f be b1 82 32 be b0 bc ed 3b
       0.019016763 -0.155701 -0.17432667 0.0072551593
0001b0 ed 0a fd bc ea 44 a2 3c f9 97 5a 3e ae 2b 9f 3b
       -0.030888999 0.019808251 0.21347035 0.004857502
0001c0 98 ae 2c be c1 09 68 be 03 b4 13 3c 59 bd 57 be
       -0.16863477 -0.22659971 0.009015086 -0.21068324
0001d0 f5 84 61 be 69 44 7a bc 90 e2 47 3c 0c 0d 29 bd
       -0.22023375 -0.015275099 0.012200013 -0.041272208
0001e0 6d 84 4f be 9e fb 3c 3e 1f c3 34 bf e8 42 87 3e
       -0.2026536 0.1845536 -0.7061023 0.26418233
0001f0 a1 88 59 be f6 c6 86 be 0c 37 4b 3d f6 9f 22 be
       -0.21243526 -0.2632367 0.049613044 -0.15881333
000200 cf c5 80 be 8e 41 27 bf a4 d5 86 be a8 bf 16 bd
       -0.25150916 -0.65334404 -0.2633487 -0.03680387
000210 38 c7 a7 3c 81 3a 84 bd 42 47 2e be 67 d5 3d 3c
       0.020480737 -0.06456471 -0.1701937 0.011586524
000220 f8 ac 8f bd 27 88 28 bd 28 3f 6f be 98 d3 6d 3c
       -0.07015413 -0.04114547 -0.23363936 0.01451578
000230 bc 00 c2 3c 20 6e 97 bc c7 d8 6a be 73 fa dd 3b
       0.02368199 -0.018485129 -0.22934256 0.0067742406
000240 2b 2a a0 3c 0c 08 07 be 53 35 44 3c 9a 3a 58 bd
       0.019551357 -0.13186663 0.011975604 -0.05279026
000250 6b 87 fa bb 76 8d 49 3d 85 cc 80 bd 44 46 31 bd
       -0.0076455376 0.049207173 -0.06289009 -0.0432799
000260 c1 40 eb bd 4b 6c 28 3c ba 18 76 be dc 1b 4b 3d
       -0.1148696 0.010279725 -0.2403287 0.049587116
000270 20 f6 46 3e 10 5c 82 be 1f 76 51 be 2b f0 5a bd
       0.19429827 -0.25460863 -0.20455216 -0.0534517
000280 94 64 f5 bc 42 5e 52 3d 3a 0b 35 bc ec ad 23 bf
       -0.029955186 0.051359423 -0.01105004 -0.6393726
000290 51 d1 60 be 87 8d 16 bf 3c c0 65 be 90 fc 22 bf
       -0.21954848 -0.58809704 -0.22436613 -0.6366663
0002a0 ff d1 c7 3e 83 5c 51 be ca 4d 0e bd 00 3d 49 be
       0.39027402 -0.20445447 -0.034742154 -0.19652176
0002b0 4a 9d ac bc 6d ec 48 3d d8 2c 0f 3d 18 74 77 be
       -0.021071095 0.0490536 0.034954876 -0.2416538
0002c0 61 8a d7 3c db b5 87 bc 5e 52 82 bd af 3a 64 be
       0.026311101 -0.016566208 -0.063633665 -0.22288011
0002d0 84 e1 bd bc c3 0f 39 be 37 b9 e7 bc 03 f3 15 bf
       -0.023178823 -0.18072419 -0.02828656 -0.5857393
0002e0 92 fe 29 be 18 53 62 3d 25 e6 36 be 13 ca 13 bd
       -0.16601017 0.055255026 -0.1786123 -0.036081385
0002f0 eb b8 88 be a1 14 16 3d 9d 59 41 be 62 41 38 bd
       -0.2670358 0.036640767 -0.18881841 -0.04498423
000300 82 d0 08 3c f7 b1 64 bd 12 23 84 be e9 71 d8 3c
       0.008350493 -0.055833783 -0.25808007 0.026421504
000310 59 19 d0 bc 91 e5 8f bc 0e 53 34 bd 94 5f 6d be
       -0.025402712 -0.01756552 -0.04402452 -0.23180991
000320 8b 0d 27 be 1c 0f 4d 3d 80 9f b3 3c 8c 6b cf bd
       -0.1631376 0.050063238 0.021926641 -0.10127935
000330 ba 5c 55 3d 7f c3 1a be 37 8e 13 bd 47 e4 80 be
       0.052090384 -0.15113638 -0.0360243 -0.25174162
000340 83 23 35 be 0c 65 ae 3c 72 54 b3 3e ef e9 5f 3e
       -0.17689328 0.021288417 0.35025364 0.21866582
000350 32 f2 3f 3d c4 82 4a 3d 08 85 95 bc 17 f6 28 bc
       0.046861835 0.049441114 -0.01825191 -0.010312579
000360 11 82 2b 3e be 8f 5c bc 93 1a 0b be 3d e5 4d be
       0.16748835 -0.013462005 -0.13584356 -0.20106979
000370 bc 5a 84 be a4 b2 4e be 3e f4 3c bd 40 83 20 3d
       -0.25850475 -0.20185333 -0.046131365 0.03918767
000380 82 3d 90 bd b2 b4 35 bc a9 b7 27 be f3 18 91 be
       -0.07042982 -0.011090444 -0.16378655 -0.28339347
000390 71 b4 0c 3d 15 99 09 3d c5 c5 f6 3c 4f df 53 3e
       0.03435177 0.033593256 0.0301236 0.20690654
0003a0 e7 80 30 bf b3 ad 17 bc a9 1f 3c 3c 0d 4b 57 be
       -0.6894669 -0.009257722 0.011482158 -0.21024723
0003b0 0e 95 df bc 54 a7 2a bd 44 45 a7 3c f5 ca e8 3e
       -0.027292755 -0.041663483 0.02041877 0.45467344
0003c0 e6 df 77 be c9 0e 31 be 18 e4 89 be a7 58 2b bd
       -0.24206504 -0.17290796 -0.26931834 -0.041832592
0003d0 51 7a 2f be 9f 76 6a be d1 96 57 bc 0e 6b 51 be
       -0.17136504 -0.22896813 -0.013158516 -0.20450994
0003e0 1c a2 4b be 10 07 85 be 71 26 92 3c 3c 2b 08 bd
       -0.19886059 -0.2598195 0.017840596 -0.033244357
0003f0 12 26 87 3e 26 8f 50 be 78 5d 3a bc 66 f6 1a bd
       0.26396233 -0.20367107 -0.011374824 -0.03783264

stack.4.weight f4 [1, 256]
000000 73 27 00 bd 2d 6c 55 bd 8f 91 a1 bc 6a 14 2b bd
       -0.03128762 -0.052105118 -0.019722728 -0.041767515
000010 ba f5 0f bf ce 48 ae 3d ca c3 ee bc 6f d6 83 bd
       -0.56234324 0.0850998 -0.029146094 -0.06437384
000020 ec 5d 1a bc 6d 25 34 b9 40 3d eb be 5e b7 16 3d
       -0.009421807 -0.0001718008 -0.45945168 0.036795966
000030 88 25 46 3e 2d e5 88 bd 6d 9a aa 3c 15 94 c3 bc
       0.19350255 -0.06684337 0.02082559 -0.023874322
000040 04 cf 39 3d f4 05 45 3d f0 6d bf 3c 8e 24 20 bd
       0.04536344 0.04810138 0.023367852 -0.03909736
000050 1c 2b 4c bc 66 30 0f 3d 68 13 c8 bb 39 a6 67 3d
       -0.01246145 0.034958266 -0.006105829 0.056555007
000060 56 e0 37 bd 34 7d 9f 3c 27 c6 ac bb 58 a2 02 bc
       -0.044891678 0.019468881 -0.005272645 -0.007973276
000070 ee fa 7b 3d 66 37 36 3d a4 00 f1 3e b5 08 09 bf
       0.061518602 0.044486426 0.470708 -0.5352891
000080 bd d5 94 3c 96 ea 43 3d 06 97 8d 3d f1 60 f7 bc
       0.018168325 0.04783114 0.06913571 -0.030197592
000090 2a e8 a1 bc 60 bf 43 3b e7 bc c0 3c cd 4c c4 bd
       -0.019764025 0.0029868707 0.023527576 -0.09584961
0000a0 aa 2f 81 bc ba ea 75 bd 4a 5f 96 3d 05 85 d6 3c
       -0.015769798 -0.060038306 0.07342394 0.026186476
0000b0 9c 06 d1 bd 55 ff 90 3d 18 04 64 3b 55 a6 fa 3d
       -0.10206339 0.07079951 0.003479248 0.122387566
0000c0 7e fa 55 bd d8 96 87 bc 2a 81 61 3b 1e 2a 7f bc
       -0.05224084 -0.01655142 0.0034409263 -0.015574006
0000d0 39 f0 88 3b 88 f9 2f bd a4 d0 b8 3c 51 0b 54 bc
       0.0041790274 -0.04296258 0.022560425 -0.012942151
0000e0 a3 58 bf bb 1b 19 e4 3c 98 40 8e 3d d0 34 4c 3d
       -0.0058394237 0.027844002 0.06945914 0.049855053
0000f0 de 03 28 3d 1c 18 80 bd 56 3b b3 3c a0 67 20 3d
       0.041019313 -0.062545985 0.02187888 0.039161325
000100 44 76 8a ba 06 8e 62 bd 94 bc 46 bd 73 1b 0e bf
       -0.001056381 -0.055311225 -0.048519686 -0.55510634
000110 f1 36 0b 3d b9 ef 2b bf 37 00 0d 3d 24 63 e2 3c
       0.033987943 -0.6716266 0.034424033 0.027635165
000120 ad 01 ae bc 9e ac 51 3d c2 a7 13 3b 25 b8 34 3d
       -0.021241033 0.05119001 0.0022530411 0.044120926
000130 51 4d 11 3d fd 74 5e be ed bd 23 bf a9 0a 08 bf
       0.035474125 -0.21724315 -0.6396168 -0.53141266
000140 f8 9a 87 3d 60 66 44 bd 54 58 e9 3c f0 13 ac bb
       0.06621355 -0.047949195 0.028484501 -0.0052514
000150 25 f9 01 3f 66 17 0e bd df d9 03 3d 1c 0b 8b bc
       0.5077079 -0.034690283 0.0321902 -0.01697307
000160 39 f6 02 3d 3a 5c 14 3d f8 54 c1 b9 93 a8 4a bd
       0.031973097 0.036220767 -0.00036875135 -0.04947717
000170 4a bc 76 3a 70 7d 35 3d f3 f4 40 3d 34 a1 3e 3d
       0.00094122125 0.04430908 0.0471086 0.046540454
000180 a3 4c 98 3b da a1 52 bd 60 b7 24 3c 0f a7 d7 bb
       0.0046478077 -0.051423885 0.010053486 -0.0065811942
000190 12 d0 09 bd fd 88 2f bd 1d 5f 80 3e a5 9f 4d bc
       -0.033645697 -0.04285525 0.25072566 -0.012550269
0001a0 16 69 02 bd 21 cf fc 3c e2 e2 9c 3a 00 9d 25 3d
       -0.0318385 0.030860486 0.0011969472 0.04043293
0001b0 09 f9 4e 3c f9 af 28 bf 79 6e 12 bd ab 81 de bc
       0.012632617 -0.6589351 -0.035749886 -0.02716144
0001c0 0c fc 53 3d 1c 28 6a 3d 00 d0 6f bc 77 54 0f 3d
       0.051754043 0.057167158 -0.014636993 0.03499266
0001d0 91 cb 83 3d e8 3b 05 bd a7 bf 29 bd d9 1e 17 3b
       0.064353116 -0.032527834 -0.04144254 0.0023059158
0001e0 36 1c 88 3d 2a 58 22 bb 03 02 3d 3e d3 47 45 3e
       0.06646006 -0.0024771788 0.18457799 0.1926568
0001f0 ca 5d 9a 3b c7 94 37 3d e0 92 14 bd f4 d3 45 3d
       0.0047108876 0.04481962 -0.036272883 0.048297837
000200 ea d5 b1 3d c3 6f 2b 3e 75 fd 8d 3c e3 e2 88 bc
       0.08683379 0.16741852 0.017332772 -0.01670975
000210 5c d6 c3 bb 86 df 41 bf 8c 57 d9 3c 5e 71 3b bd
       -0.0059764814 -0.75731695 0.026531003 -0.045762412
000220 bb 9a a9 3b 37 c4 87 bc 9c a1 d1 bb ac c8 e9 3b
       0.005175916 -0.016573055 -0.006397439 0.0071345177
000230 27 53 11 bd 83 27 30 bd 88 17 72 3d 25 08 62 3d
       -0.03547969 -0.04300643 0.059104472 0.05518355
000240 a7 68 99 bc 49 5a d8 be b9 1e 2a bd f9 6b 48 3b
       -0.01872666 -0.42256382 -0.041533206 0.0030581935
000250 3e e7 e9 bc a2 a7 f0 3c 19 7f ae 3a 5c 9f 46 bc
       -0.028552648 0.029376809 0.0013313025 -0.012122955
000260 ec 9d 3f bf 3d 6d 24 3b 4c 93 93 3c 16 56 5c bd
       -0.74850345 0.0025089525 0.018014573 -0.053793035
000270 22 ad be bc 63 20 5a 3d bc a5 12 3d 26 78 58 bd
       -0.023275916 0.053253543 0.035802588 -0.052848957
000280 94 9e 78 3d f1 59 4b 3b 4b 1b 83 3c 80 66 51 3e
       0.060698107 0.003102895 0.016004225 0.20449257
000290 e6 d7 45 3d 8b 0d 43 3e d4 55 29 3d 34 61 6a 3e
       0.0483016 0.19048135 0.041341618 0.22888643
0002a0 50 6d 0b be 06 52 bc 3d ca 35 05 bc 1d 2e 95 3d
       -0.13615918 0.09195332 -0.0081305 0.07284186
0002b0 cf 67 32 bc ea 0f 6b bd 47 80 84 bc 62 59 b5 3c
       -0.010889008 -0.057388224 -0.016174449 0.022137348
0002c0 f3 e9 cc ba 9e 3d 00 bc f6 ab 54 bc 9b 4c 26 bc
       -0.0015633687 -0.007827191 -0.012980452 -0.0101501
0002d0 06 5b 14 bd f6 f7 8e 3c f0 59 6e bd 67 c2 21 3e
       -0.03621962 0.017452221 -0.05819124 0.15796815
0002e0 f3 5f 8a 3d 89 e8 ae bb 7d 12 90 3e 57 21 e3 bc
       0.06756582 -0.005337779 0.28139105 -0.027725859
0002f0 d1 f2 47 3d bb 54 f5 bb 1b 49 31 3d a3 b3 3c 3c
       0.048815552 -0.0074869073 0.04328261 0.011517438
000300 76 ca 14 bf 7c 46 5d 3d 6b c6 39 ba 38 da 9d bc
       -0.5812143 0.054022297 -0.00070867565 -0.019269094
000310 57 a8 aa bc 14 86 fb ba c2 13 2c bd 90 cd 39 bd
       -0.020832224 -0.0019189739 -0.04201103 -0.045362055
000320 3f 92 1c 3a b3 d7 70 bf c2 99 05 bb bd bf ce be
       0.000597272 -0.9407913 -0.0020385836 -0.4038066
000330 5e 25 66 bd a9 22 93 3d 2b af 27 bd 4b 9a b1 3c
       -0.05618798 0.07184345 -0.040938538 0.021680018
000340 b6 ef 75 3d 4d 69 06 3d 8a a3 61 bf 34 3d 8e bd
       0.06004306 0.032815266 -0.88140166 -0.06945267
000350 d5 c7 0b 3b f4 a3 5b 3d 08 3e 2c bc dc e4 4b bd
       0.0021328826 0.053623155 -0.010512836 -0.049778804
000360 2c 70 85 bd c3 5e fc 3a 66 2c 12 3f 8c 5a a9 3c
       -0.06515536 0.0019254315 0.57098997 0.020673059
000370 9b cc 14 3d e9 c8 5c 3d de a3 ee bb 85 5f 66 bd
       0.03632794 0.05390254 -0.007282718 -0.05624344
000380 90 fd 6e 3d e7 ef 26 bd 5c da d6 3c 1e a3 d3 ba
       0.058347285 -0.040756132 0.026227169 -0.0016146635
000390 9f f1 86 bc 7b f1 37 3d 06 5a aa bc 30 c7 f3 bd
       -0.016472636 0.044908028 -0.02079488 -0.119032264
0003a0 58 2a 5a 3e 25 bf 42 bb f6 07 9e bc 2c df e8 3c
       0.21305215 -0.0029715982 -0.019290905 0.02842673
0003b0 7b 1d 2f bd 89 58 8d 3c 9e 20 ba bc 82 9e 19 be
       -0.042752724 0.01725413 -0.022720631 -0.15001872
0003c0 9c df d0 3c 17 a4 e3 3c e5 54 33 3d ea da 4e bd
       0.02549725 0.027788205 0.043782134 -0.05050174
0003d0 c7 cc 69 ba 83 77 51 3d f5 78 b3 3a e1 8a 22 b9
       -0.0008918759 0.051139366 0.0013692664 -0.0001550126
0003e0 6d be 90 3d 3f 65 d2 3c 22 ee 19 3a 7a f1 c8 bc
       0.07067571 0.025683044 0.00058719714 -0.024529207
0003f0 56 93 b1 bb fc 36 17 3d ed 1c e9 bc a5 7f 50 3d
       -0.005419175 0.03691767 -0.028456176 0.05090298

exp_avg f4 [256, 35]
000000 00 00 00 00 00 00 00 00 00 00 00 00 00 00 00 00
       0.0 0.0 0.0 0.0
000010 00 00 00 00 00 00 00 00 00 00 00 00 00 00 00 00
       0.0 0.0 0.0 0.0
000020 00 00 00 00 00 00 00 00 00 00 00 00 00 00 00 00
       0.0 0.0 0.0 0.0
000030 00 00 00 00 00 00 00 00 00 00 00 00 00 00 00 00
       0.0 0.0 0.0 0.0
000040 00 00 00 00 00 00 00 00 00 00 00 00 00 00 00 00
       0.0 0.0 0.0 0.0
000050 00 00 00 00 00 00 00 00 00 00 00 00 00 00 00 00
       0.0 0.0 0.0 0.0
000060 00 00 00 00 00 00 00 00 00 00 00 00 00 00 00 00
       0.0 0.0 0.0 0.0
000070 00 00 00 00 00 00 00 00 00 00 00 00 00 00 00 00
       0.0 0.0 0.0 0.0
000080 00 00 00 00 00 00 00 00 00 00 00 00 00 00 00 00
       0.0 0.0 0.0 0.0
000090 00 00 00 00 00 00 00 00 00 00 00 00 00 00 00 00
       0.0 0.0 0.0 0.0
0000a0 00 00 00 00 00 00 00 00 00 00 00 00 00 00 00 00
       0.0 0.0 0.0 0.0
0000b0 00 00 00 00 00 00 00 00 00 00 00 00 00 00 00 00
       0.0 0.0 0.0 0.0
0000c0 00 00 00 00 00 00 00 00 00 00 00 00 00 00 00 00
       0.0 0.0 0.0 0.0
0000d0 00 00 00 00 00 00 00 00 00 00 00 00 00 00 00 00
       0.0 0.0 0.0 0.0
0000e0 00 00 00 00 00 00 00 00 00 00 00 00 00 00 00 00
       0.0 0.0 0.0 0.0
0000f0 00 00 00 00 00 00 00 00 00 00 00 00 00 00 00 00
       0.0 0.0 0.0 0.0
000100 00 00 00 00 00 00 00 00 00 00 00 00 00 00 00 00
       0.0 0.0 0.0 0.0
000110 00 00 00 00 00 00 00 00 cb 80 48 bc 9e aa b5 bc
       0.0 0.0 -0.012237738 -0.022176083
000120 1b ac 6f ba c6 92 7b bb e7 b1 b9 bb c3 e5 06 bc
       -0.0009142772 -0.0038387044 -0.0056669596 -0.00823349
000130 a1 cc 31 bc b7 24 b4 bc 42 9f ab bc 4c 62 8c bc
       -0.01085201 -0.021990163 -0.020949963 -0.017136715
000140 0e 6a 46 bc ef 27 99 bc d8 0b a8 bc f4 57 a9 bc
       -0.012110246 -0.0186958 -0.02051346 -0.020671822
000150 e4 c5 ae bc 5f 18 b3 bc fc 6d b1 bc f7 a1 74 bc
       -0.021334596 -0.021862207 -0.02165889 -0.014931194
000160 32 6e 89 bc 4e 12 92 bc 7e 89 9b bc 19 30 a7 bc
       -0.016776178 -0.017830994 -0.01898646 -0.020408677
000170 ef 81 a8 bc 1d 41 20 bc 24 80 30 bc 5e 0d 42 bc
       -0.02056977 -0.009781149 -0.010772739 -0.011844007
000180 3c c0 47 bc 69 aa 63 bc 66 9f 7b bc e7 33 da bb
       -0.012191828 -0.013895609 -0.015357828 -0.0066590193
000190 54 30 e6 bb 24 42 f4 bb 91 8e 0d bc 19 e5 1b bc
       -0.007024804 -0.0074541736 -0.0086399475 -0.00951507
0001a0 d5 6c 28 bc 00 00 00 00 00 00 00 00 00 00 00 00
       -0.010279854 0.0 0.0 0.0
0001b0 00 00 00 00 00 00 00 00 00 00 00 00 00 00 00 00
       0.0 0.0 0.0 0.0
0001c0 00 00 00 00 00 00 00 00 00 00 00 00 00 00 00 00
       0.0 0.0 0.0 0.0
0001d0 00 00 00 00 00 00 00 00 00 00 00 00 00 00 00 00
       0.0 0.0 0.0 0.0
0001e0 00 00 00 00 00 00 00 00 00 00 00 00 00 00 00 00
       0.0 0.0 0.0 0.0
0001f0 00 00 00 00 00 00 00 00 00 00 00 00 00 00 00 00
       0.0 0.0 0.0 0.0
000200 00 00 00 00 00 00 00 00 00 00 00 00 00 00 00 00
       0.0 0.0 0.0 0.0
000210 00 00 00 00 00 00 00 00 00 00 00 00 00 00 00 00
       0.0 0.0 0.0 0.0
000220 00 00 00 00 00 00 00 00 00 00 00 00 00 00 00 00
       0.0 0.0 0.0 0.0
000230 3b e3 82 3c 6a 3d a3 3b 24 41 70 3b ee 90 80 3b
       0.015977493 0.0049816864 0.003665992 0.003923527
000240 84 89 14 3c 54 cc 41 3c 4f b0 64 3c 87 cf 9e 3b
       0.009065989 0.011828501 0.013958051 0.0048465165
000250 81 df a6 3b ae 10 e0 3b 9f 8e ff 3b 23 24 71 3b
       0.0050925617 0.006837926 0.007798984 0.003679522
000260 1e 94 6b 3b 6f 98 93 3b 4e 5c a7 3b 67 fe 9e 3b
       0.003594644 0.0045042555 0.005107439 0.0048521045
000270 9e e0 c7 3b 00 2c 2a 3b 48 eb 2a 3b 17 45 83 3b
       0.0060997745 0.0025966167 0.002608018 0.004006039
000280 4e 0c ae 3b 15 54 b4 3b d9 fc bc 3b 8f 1c 4d 3b
       0.0053115254 0.0055031874 0.0057674465 0.003129754
000290 96 b1 85 3b 00 c2 ac 3b 22 f1 eb 3b 89 44 e0 3b
       0.004080008 0.00527215 0.007200376 0.0068441075
0002a0 22 41 fe 3b 68 e3 0c 3b 83 55 36 3b be 66 9a 3b
       0.0077592293 0.002149785 0.0027821965 0.004711955
0002b0 90 8c 9f 3b bc 3f f1 3b 98 54 05 3c f1 0d 5f bc
       0.0048690513 0.007362334 0.0081378445 -0.013614164
0002c0 5c 69 f9 bc b3 64 f2 b9 42 52 9d bb 17 43 c5 bb
       -0.030445747 -0.00046232864 -0.0048010657 -0.0060199606
0002d0 5e d9 1b bc 0b 2f 41 bc e1 2a f8 bc 7d 9a ed bc
       -0.009512274 -0.011791001 -0.030293884 -0.02900433
0002e0 70 0b ca bc c1 ba 97 bc cc 49 e0 bc 6a 26 ef bc
       -0.024663657 -0.018521668 -0.02737894 -0.029193122
0002f0 6f 4d ee bc 18 91 f1 bc da 10 f8 bc 1e 4d f2 bc
       -0.029089658 -0.029488131 -0.030281473 -0.029577788
000300 00 b5 b9 bc d4 91 ce bc d8 e1 d5 bc 8c d8 dc bc
       -0.022669315 -0.02521602 -0.026108667 -0.026958726
000310 67 1b e8 bc 36 0f e9 bc 20 89 92 bc f9 d8 90 bc
       -0.028333379 -0.028449636 -0.017887652 -0.017681586
000320 a4 61 9c bc 8d 08 a0 bc c6 47 b2 bc 1f 07 bb bc
       -0.019089527 -0.019535327 -0.02176274 -0.022830544
000330 ac 69 54 bc b0 16 5c bc 44 9c 67 bc 5f 82 73 bc
       -0.012964647 -0.0134331435 -0.014136378 -0.014862626
000340 77 97 7b bc f0 e4 83 bc 13 72 af 3c fb 97 b6 3c
       -0.015355936 -0.016100377 0.0214167 0.022289267
000350 32 d9 23 3b 6b 1c c8 3b b1 9a 34 3c 65 e7 75 3c
       0.0025001285 0.0061069033 0.011023209 0.015008782
000360 a5 8b 9c 3c 2e f9 b4 3c 2c 56 ac 3c 59 d8 8e 3c
       0.019109556 0.022091474 0.021037184 0.017437147
000370 36 6f 4a 3c 5c 81 9b 3c 2d 7b a7 3c fa 4c ab 3c
       0.012355616 0.018982582 0.020444477 0.020910729
000380 51 ba b3 3c 72 5b b5 3c 77 47 b7 3c 0e 6c 65 3c
       0.021939429 0.022138331 0.022372944 0.014002813
000390 6d 3f 83 3c 41 ed 92 3c bf 29 a2 3c fb 50 a9 3c
       0.016021455 0.017935397 0.019795297 0.020668497
0003a0 65 95 ab 3c 54 6d 37 3c d3 e0 1d 3c 7c 40 34 3c
       0.02094526 0.011195499 0.009636122 0.011001702
0003b0 50 49 4f 3c 5e 66 6f 3c 01 39 89 3c 0b fd fa 3b
       0.012651756 0.014611809 0.016750814 0.0076595596
0003c0 32 2d 04 3c 46 d3 09 3c d5 64 f9 3b a4 9d 1e 3c
       0.008067416 0.008412188 0.007610897 0.009681139
0003d0 2c cd 33 3c 9e 74 7d 3c d8 64 5c bc c8 97 b4 3b
       0.01097421 0.015469698 -0.013451777 0.005511258
0003e0 2a 6b 2c 3b cc 91 25 3c 30 4a 65 3c 44 ae 5f 3c
       0.0026308992 0.010105561 0.013994738 0.013652388
0003f0 9c e2 5a bc b4 bc 69 bc a3 1f 80 bc 47 19 8f bc
       -0.013359692 -0.014266182 -0.015640086 -0.017468108

exp_avg_sq f4 [256, 35]
000000 00 00 00 00 00 00 00 00 00 00 00 00 00 00 00 00
       0.0 0.0 0.0 0.0
000010 00 00 00 00 00 00 00 00 00 00 00 00 00 00 00 00
       0.0 0.0 0.0 0.0
000020 00 00 00 00 00 00 00 00 00 00 00 00 00 00 00 00
       0.0 0.0 0.0 0.0
000030 00 00 00 00 00 00 00 00 00 00 00 00 00 00 00 00
       0.0 0.0 0.0 0.0
000040 00 00 00 00 00 00 00 00 00 00 00 00 00 00 00 00
       0.0 0.0 0.0 0.0
000050 00 00 00 00 00 00 00 00 00 00 00 00 00 00 00 00
       0.0 0.0 0.0 0.0
000060 00 00 00 00 00 00 00 00 00 00 00 00 00 00 00 00
       0.0 0.0 0.0 0.0
000070 00 00 00 00 00 00 00 00 00 00 00 00 00 00 00 00
       0.0 0.0 0.0 0.0
000080 00 00 00 00 00 00 00 00 00 00 00 00 00 00 00 00
       0.0 0.0 0.0 0.0
000090 00 00 00 00 00 00 00 00 00 00 00 00 00 00 00 00
       0.0 0.0 0.0 0.0
0000a0 00 00 00 00 00 00 00 00 00 00 00 00 00 00 00 00
       0.0 0.0 0.0 0.0
0000b0 00 00 00 00 00 00 00 00 00 00 00 00 00 00 00 00
       0.0 0.0 0.0 0.0
0000c0 00 00 00 00 00 00 00 00 00 00 00 00 00 00 00 00
       0.0 0.0 0.0 0.0
0000d0 00 00 00 00 00 00 00 00 00 00 00 00 00 00 00 00
       0.0 0.0 0.0 0.0
0000e0 00 00 00 00 00 00 00 00 00 00 00 00 00 00 00 00
       0.0 0.0 0.0 0.0
0000f0 00 00 00 00 00 00 00 00 00 00 00 00 00 00 00 00
       0.0 0.0 0.0 0.0
000100 00 00 00 00 00 00 00 00 00 00 00 00 00 00 00 00
       0.0 0.0 0.0 0.0
000110 00 00 00 00 00 00 00 00 ac 09 7d 3c 9b 25 1a 3c
       0.0 0.0 0.0154442005 0.00940838
000120 8b 75 0b 39 b9 1c a3 3a 0e 68 6b 3b 46 a4 e6 3b
       0.00013299861 0.0012444473 0.0035920176 0.007038626
000130 93 f1 65 3c a1 5b 15 3c 39 32 07 3c 28 1f da 3b
       0.014034647 0.009116084 0.00825172 0.006656546
000140 54 ab 8c 3b d1 c7 e0 3b 84 9e f5 3b 37 87 02 3c
       0.004292885 0.0068597575 0.007495703 0.007966808
000150 f7 77 09 3c 2e e2 0e 3c 50 a8 11 3c a3 14 9a 3b
       0.008390418 0.008720918 0.0088902265 0.004702167
000160 4f 9f aa 3b a5 3f c0 3b ed d5 d5 3b fc ae ec 3b
       0.0052069793 0.005866962 0.006525746 0.007223008
000170 cb 07 fb 3b 79 df 4e 3b e5 74 62 3b 75 fa 7f 3b
       0.007660841 0.0031566306 0.0034554538 0.0039059196
000180 3d 17 90 3b ea a6 a3 3b f1 02 b6 3b 2f e8 0f 3b
       0.0043973015 0.004994263 0.00555455 0.002195846
000190 b2 fd 13 3b 0e f7 1f 3b 9d 61 30 3b df b6 44 3b
       0.0022581634 0.002440873 0.002691365 0.0030016226
0001a0 60 13 55 3b 00 00 00 00 00 00 00 00 00 00 00 00
       0.003251277 0.0 0.0 0.0
0001b0 00 00 00 00 00 00 00 00 00 00 00 00 00 00 00 00
       0.0 0.0 0.0 0.0
0001c0 00 00 00 00 00 00 00 00 00 00 00 00 00 00 00 00
       0.0 0.0 0.0 0.0
0001d0 00 00 00 00 00 00 00 00 00 00 00 00 00 00 00 00
       0.0 0.0 0.0 0.0
0001e0 00 00 00 00 00 00 00 00 00 00 00 00 00 00 00 00
       0.0 0.0 0.0 0.0
0001f0 00 00 00 00 00 00 00 00 00 00 00 00 00 00 00 00
       0.0 0.0 0.0 0.0
000200 00 00 00 00 00 00 00 00 00 00 00 00 00 00 00 00
       0.0 0.0 0.0 0.0
000210 00 00 00 00 00 00 00 00 00 00 00 00 00 00 00 00
       0.0 0.0 0.0 0.0
000220 00 00 00 00 00 00 00 00 00 00 00 00 00 00 00 00
       0.0 0.0 0.0 0.0
000230 d8 fe 54 3e ac fc 45 3d 7f e8 d5 3a e5 68 84 3c
       0.2080034 0.04833667 0.00163199 0.016163299
000240 e0 15 48 3d a3 b8 c1 3d 08 1c 4a 3e 14 23 40 3d
       0.048848987 0.09459045 0.19737256 0.046908453
000250 ca 5a 3a 3d a0 57 34 3d 29 01 2f 3d bd f6 14 3d
       0.04549674 0.04402888 0.042725716 0.03636812
000260 c3 2e 1d 3d a4 74 22 3d fa d5 29 3d dd 52 30 3d
       0.038374674 0.03966202 0.04146383 0.043047775
000270 79 4d 36 3d c4 79 04 3d 39 e5 0a 3d eb b5 11 3d
       0.044507477 0.032342687 0.03391001 0.03557388
000280 4f f6 19 3d c6 6b 21 3d e9 41 29 3d b4 1d f3 3c
       0.037588414 0.03940942 0.041322622 0.02967725
000290 a1 a7 fa 3c 28 bd 03 3d 37 e8 0c 3d 37 cb 14 3d
       0.03059751 0.032162815 0.034401145 0.036326613
0002a0 53 26 1c 3d de f7 e4 3c 79 73 e7 3c 96 21 f2 3c
       0.038122486 0.027950224 0.028253304 0.02955703
0002b0 0f d3 03 3d dd 7d 0d 3d e3 8f 14 3d b7 0c 92 3d
       0.032183703 0.03454386 0.036270034 0.071313314
0002c0 91 37 e5 3c 0d a1 1b 3a e6 9c b7 3b 31 5b 89 3c
       0.027980598 0.0005936779 0.0056034205 0.016767116
0002d0 32 c0 05 3d 23 11 88 3d 90 d3 dd 3c ef b3 d1 3c
       0.032653995 0.066438936 0.02707842 0.025598494
0002e0 5d 6f b8 3c 53 09 9d 3c 73 d0 a7 3c 2d 65 b4 3c
       0.02251404 0.019169485 0.020485139 0.0220209
0002f0 f2 7c be 3c bd eb c7 3c 96 c2 cf 3c 00 5d d5 3c
       0.023252938 0.024404401 0.02536134 0.026045322
000300 1b 04 87 3c 92 f1 91 3c be 06 9e 3c 18 f8 a9 3c
       0.01648145 0.017815385 0.019290324 0.020748183
000310 2b bb b6 3c b9 8d c0 3c ed 00 55 3c 00 72 62 3c
       0.022306046 0.023505079 0.013000709 0.013821125
000320 91 ea 75 3c 51 06 86 3c 7b 86 90 3c fc 4d 9b 3c
       0.015009538 0.016360434 0.01764225 0.018958084
000330 d4 a3 33 3c 2d 83 37 3c 7b b9 44 3c f8 cc 58 3c
       0.010964353 0.011200708 0.012007113 0.013232462
000340 b1 e5 6c 3c 07 ee 7b 3c 31 bc a6 3c 02 8f d9 3b
       0.01445906 0.015376574 0.020353409 0.0066393623
000350 c7 61 30 39 90 4e d3 3a cc 5d 9c 3b 7b 2d 1c 3c
       0.00016821093 0.0016121436 0.0047719236 0.009532328
000360 98 37 9d 3c 73 7f d3 3b 3d b1 c8 3b 39 80 b7 3b
       0.019191548 0.006454402 0.006124644 0.005600002
000370 e9 a7 a3 3b 76 c3 a4 3b 10 61 ae 3b 34 ea b5 3b
       0.0049943817 0.0050281836 0.0053216293 0.005551601
000380 76 d2 bd 3b 35 6f c4 3b d0 43 ca 3b 2e d1 82 3b
       0.005792911 0.005994702 0.0061726347 0.0039922213
000390 61 79 8d 3b af 06 99 3b 76 65 a3 3b 2d 5a ad 3b
       0.004317448 0.004669986 0.0049864603 0.005290291
0003a0 63 d4 b6 3b 3c af 58 3b ec 35 67 3b 31 ac 7a 3b
       0.0055795177 0.0033063432 0.0035279943 0.0038249607
0003b0 65 bd 87 3b a2 64 91 3b b7 06 9b 3b 9a 42 40 3b
       0.0041424506 0.004437045 0.004731025 0.0029336573
0003c0 73 fb 42 3b d2 f3 4f 3b be 90 66 3b 8e ef 7a 3b
       0.0029751926 0.0031731022 0.0035181488 0.0038289758
0003d0 0e 4f 85 3b 2f f5 b0 3f ad 08 b1 3e 4d 1e 37 3c
       0.004068262 1.3824824 0.34576932 0.011176658
0003e0 6a 0a e0 3d ad f7 a6 3e ec 58 23 3f 74 77 a7 3f
       0.10939486 0.32610837 0.6380756 1.3083329
0003f0 f6 7f ab 3e c7 59 a6 3e e2 f5 a1 3e 95 4a 9f 3e
       0.33496064 0.3249037 0.31632906 0.3111159
