notebooks/checkpoints/mlptest/model8_best.pt (torch, 91787 bytes, 9 tensors)

stack.0.weight f4 [256, 17]
-0.15104339 0.11943009 0.1506437 -0.06947255 0.0020936576 0.19840565 0.0009135111 -0.24482459
-0.054621406 -0.17423978 0.15175933 0.20180319 0.109016456 0.115635805 0.0076108756 -0.0017372778
0.13651717 -0.1485313 -0.22851528 -0.038169883 -0.33166572 -0.4370361 -0.10986244 -0.035621542
-0.10395021 -0.1835417 -0.3603829 -0.06755974 0.031206656 0.26840383 0.48845977 0.040458236
0.19627948 -0.12594143 -0.20162511 0.16849871 -0.19134726 0.011591785 0.12549919 0.09039388
0.18127958 -0.2912843 0.048186343 -0.16584519 0.22174236 -0.17875698 0.038255308 -0.14503
-0.16908237 0.23696585 0.11156651 0.048719417 -0.3809747 -0.07084547 -0.03525242 -0.09867127
0.109074995 -0.05848096 -0.14026012 -0.3540395 -0.10880521 -0.057694178 -0.20279476 0.14423008
0.10166218 -0.18839104 0.0067420923 -0.28329495 -0.0118272845 -0.006155294 0.25258768 0.14330603
0.05420365 0.10943097 -0.5969243 0.28557476 0.26101974 0.32449844 0.16757731 0.4148735
0.06923072 -0.055830155 0.34817868 0.31970263 0.2532666 -0.112669006 0.08969892 0.053982046
0.04108291 -0.1766874 0.14575274 0.024577353 -0.096935526 0.08465123 -0.23616813 0.12162232
0.24096087 0.23134431 0.040273055 -0.21376169 -0.28807142 -0.0048587974 0.010654173 0.054426003
-0.010141287 -0.2221482 0.0072064213 -0.08434807 0.46268058 -0.038801633 -0.048780594 0.06542312
-0.19619642 0.2123228 0.16591002 0.15656324 -0.05632723 -0.14508843 -0.20843206 -0.3515258
-0.09432109 -0.0668798 -0.3266778 -0.1965506 -0.27755973 -0.009865921 0.1423368 0.10022592
0.0067484872 0.19193923 0.19791867 -0.039388187 0.24568328 0.06813451 0.42427036 -0.11170148
0.30434555 0.10082665 0.12593238 -0.064337686 -0.07045217 0.046274185 0.56208056 -0.17855087
0.23205417 0.02959933 -0.18182781 -0.08365561 0.0069139656 -0.13623728 0.29996145 0.17098334
-0.31458253 0.032446973 -0.29587033 -0.13223787 0.0718449 0.019225383 0.031986587 -0.059409782
-0.09126815 -0.25122452 -0.25875488 -0.22500464 -0.08818135 0.20888388 0.11612719 0.106117986
-0.25734246 -0.09014339 0.035946567 -0.10698923 0.2675387 0.24351409 0.26288503 0.11840323
0.07136108 0.15024567 0.008670036 -0.00063519913 0.24023516 -0.096467085 0.12761943 0.011837434
0.074279815 0.18759325 -0.11368543 -0.11683526 -0.21724899 -0.2681601 -0.2599699 0.124859944
0.00047204603 0.32250795 -0.044311058 0.05990969 -0.17448333 0.21892203 0.32395592 0.21457593
-0.13335584 0.017843563 0.09334692 -0.106871665 0.27214637 -0.083201855 0.29286176 0.10048728
0.23115365 0.0006554668 0.27663234 -0.15515271 0.0030314606 0.15186435 -0.022926668 0.070814975
0.13443573 0.08367616 0.058553223 0.1721476 0.038574256 0.30055633 -0.06682221 -0.07201976
0.19910504 0.06300175 -0.0791312 0.5456875 0.15121762 -0.068521015 0.060774855 -0.022283545
-0.07946209 -0.10532346 0.031972617 0.022268942 0.07745685 0.089403965 0.20565984 0.23212764
-0.07753908 -0.13398628 -0.08434913 -0.08416999 0.24515766 0.19701588 -0.18984324 0.17566454
-0.20902859 0.1968647 0.02670348 -0.002286724 0.030995967 0.34526223 0.036993083 0.027757365
00000000: 1eab 1abe c397 f43d 5842 1a3e a047 8ebd
00000010: bf35 093b da2a 4b3e b178 6f3a 4cb3 7abe
00000020: b2ba 5fbd ea6b 32be cc66 1b3e 7fa5 4e3e
00000030: 0544 df3d 77d2 ec3d a764 f93b 5fb5 e3ba
00000040: 28cb 0b3e 9718 18be e9ff 69be 0658 1cbd
00000050: 17d0 a9be 32c3 dfbe 8fff e0bd e5e7 11bd
00000060: d9e3 d4bd 5bf2 3bbe 1c84 b8be c35c 8abd
00000070: 1aa5 ff3c 3a6c 893e 6617 fa3e 89b7 253d
00000080: 7dfd 483e caf6 00be d076 4ebe ed8a 2c3e
00000090: 89f0 43be 78eb 3d3c dc82 003e 6d20 b93d
000000a0: 5ba1 393e 3723 95be 0b5f 453d 52d3 29be
000000b0: 6e10 633e 120c 37be 99b1 1c3d bf82 14be
000000c0: ee23 2dbe 2da7 723e fb7c e43d 038e 473d
000000d0: 1e0f c3be 6e17 91bd d764 10bd 2a14 cabd
000000e0: b662 df3d bb89 6fbd 59a0 0fbe aa44 b5be
000000f0: 44d5 debd bb50 6cbd 6ea9 4fbe 0db1 133e
00000100: 4334 d03d 95e9 40be c5ec dc3b 090c 91be
00000110: 3ac7 41bc 59b2 c9bb 2c53 813e d1be 123e
00000120: a604 5e3d 581d e03d 08d0 18bf db36 923e
00000130: 61a4 853e a924 a63e 6399 2b3e 4d6a d43e
00000140: d6c8 8d3d 29ae 64bd 7a44 b23e 10b0 a33e
00000150: 29ac 813e 02bf e6bd 11b4 b73d 471c 5d3d
00000160: 8e46 283d 8bed 34be 3540 153e 7256 c93c
00000170: 2286 c6bd a05d ad3d 0fd6 71be 1f15 f93d
00000180: 72be 763e 86e5 6c3e 5cf5 243d 58e4 5abe
00000190: 197e 93be 8c36 9fbb d78e 2e3c cded 5e3d
000001a0: a427 26bc d17a 63be d823 ec3b aebe acbd
000001b0: 78e4 ec3e 76ee 1ebd 29ce 47bd 8ffc 853d
000001c0: b7e7 48be 266b 593e 51e4 293e 1d52 203e
000001d0: 62b7 66bd 1092 14be 376f 55be 31fb b3be
000001e0: 6a2b c1bd 47f8 88bd 5042 a7be 8f44 49be
000001f0: 4f1c 8ebe aca4 21bc bdc0 113e 3f43 cd3d
00000200: 6a22 dd3b b88b 443e 31ab 4a3e 8255 21bd
00000210: 6694 7b3e 1b8a 8b3d f739 d93e bfc3 e4bd
00000220: 2ed3 9b3e 347e ce3d 6bf4 003e 7ac3 83bd
00000230: 3a49 90bd 008a 3d3d 83e4 0f3f 0ad6 36be
00000240: 9c9f 6d3e 4b7a f23c 1231 3abe a253 abbd
00000250: 8c8e e23b c981 0bbe 8c94 993e 4216 2f3e
00000260: f610 a1be 1ee7 043d 517c 97be 5d69 07be
00000270: 6b23 933d 8d7e 9d3c 5e04 033d ac57 73bd
00000280: ccea babd 80a0 80be 857b 84be 9e67 66be
00000290: 6c98 b4bd a8e5 553e 18d4 ed3d 6354 d93d
000002a0: 64c2 83be 199d b8bd b53c 133d 2b1d dbbd
000002b0: d5fa 883e c25b 793e de98 863e 657d f23d
000002c0: c225 923d 00da 193e c40c 0e3c 7e83 26ba
000002d0: 3500 763e 8990 c5bd abae 023e ccf1 413c
000002e0: 0420 983d 7218 403e e8d3 e8bd 5347 efbd
000002f0: 8576 5ebe 484c 89be c61a 85be 92b6 ff3d
00000300: f27c f739 c31f a53e 837f 35bd dd63 753d
00000310: c2ab 32be 192d 603e 8ddd a53e cbb9 5b3e
00000320: 6f8e 08be aa2c 923c ac2c bf3d 88df dabd
00000330: c556 8b3e bc65 aabd faf1 953e 46cc cd3d
00000340: 8bb3 6c3e a2d3 2b3a c1a2 8d3e 5ae0 1ebe
00000350: 78ab 463b 5482 1b3e b5d0 bbbc 7107 913d
00000360: 85a9 093e 685e ab3d 81d5 6f3d 7647 303e
00000370: 0a00 1e3d 85e2 993e 15da 88bd 197f 93bd
00000380: 31e2 4b3e 1007 813d 8a0f a2bd 2db2 0b3f
00000390: cbd8 1a3e bf54 8cbd 0eef 783d fb8b b6bc
000003a0: 05bd a2bd d4b3 d7bd b8f5 023d 5b6d b63c
000003b0: b2a1 9e3d 6d19 b73d 7e98 523e deb2 6d3e
000003c0: cfcc 9ebd b333 09be 3dbf acbd 5161 acbd
000003d0: 9c0a 7b3e 88be 493e 4466 42be 68e1 333e
000003e0: 970b 56be e696 493e 42c1 da3c dddc 15bb
000003f0: 41eb fd3c 36c6 b03e 0f86 173d 6a63 e33c

stack.0.bias f4 [256]
0.265905 -0.22959238 0.6424742 0.21429323 -0.24478397 0.5012479 0.40445986 0.14601582
-0.08694722 0.3315891 0.17644632 0.6106385 0.16739964 -0.15326488 0.2835824 -0.020774476
0.45118374 0.30615816 0.4197982 -0.1131791 0.46673843 0.5449416 -0.041297354 0.66333646
0.35354516 0.4540479 0.64928126 0.54950714 -0.13979101 0.30576533 0.5190883 0.32254675
0.26324016 0.20174296 0.11769395 0.7364597 0.23665603 -0.03149858 0.27117315 0.39205593
0.053021666 0.35619754 0.45260105 0.24210438 0.06663521 0.54773015 0.060498778 -0.62939537
0.40771165 0.57086694 0.23365456 0.33622432 0.3007544 0.2870795 0.08091973 0.1292436
0.12232724 -0.67645144 0.19226344 0.05661519 0.19865128 0.5930171 0.0006145216 0.6701613
0.19425723 0.13946775 0.10915597 0.25872546 0.09539364 -0.3929425 0.14306492 0.5953818
0.39631173 0.60844517 0.3800013 0.46995646 0.44406176 -0.6317797 0.34971362 0.17425725
0.043912992 0.39783883 0.29227847 0.44675452 0.57102895 0.6035241 -0.2267738 0.59667283
0.4164575 0.31223541 0.28218618 0.14572884 0.6625235 0.6942814 0.3531041 0.72019935
0.41975766 0.48734117 0.657795 0.08331912 0.4854413 0.44087952 0.53975034 0.4511844
0.2230956 0.50205797 0.2898875 0.27784663 0.18827114 0.34701672 0.56648743 0.46516284
0.31193602 0.36852536 0.52466226 0.25860494 0.123569034 0.4071146 -0.65093625 0.2543837
-0.7658057 0.36219922 0.25585178 0.029262675 0.4239321 0.06553048 0.41401985 -0.18374093
0.1483589 -0.04336455 0.36441007 0.06987478 0.639824 0.41185224 0.108976856 0.24050367
0.104874805 0.23602541 0.29965988 0.04364516 -0.05068463 0.21115342 0.40544096 0.31118402
0.5097312 0.5795855 0.52296406 -0.02878895 0.3513529 0.30508512 -0.6679192 0.063932
0.28161576 0.60221255 0.67626286 -0.73745716 0.5471924 0.20977889 0.3510535 0.071257755
0.12500307 0.0080990195 0.29783034 0.4629546 0.4503887 0.24057804 0.5827348 0.23381758
0.027951233 -0.11625691 0.5206134 0.04271836 0.28847048 0.24615997 0.7307429 -0.36504906
0.37733242 -0.17069821 0.0023834752 0.47695157 0.05012639 0.14014119 0.36561155 0.6494317
-0.20479587 0.42016834 0.15055975 0.2587169 0.48569417 -0.9668115 0.35786644 0.55660963
0.058874864 0.23763035 0.41460234 -0.37051186 0.23121758 0.14084645 0.18350336 0.29208657
0.5118324 0.43523225 -0.41373312 0.5979866 0.33681965 0.59766895 0.06647843 0.48163462
0.4521191 -0.35884544 0.60321903 -0.9147229 -0.121844 0.45476642 0.18336537 0.6136366
-0.29257882 -1.0047895 0.24224333 -0.8191769 0.36674154 0.39143467 0.60966825 0.08607514
0.6008346 0.25052184 0.27545536 0.3072704 0.4306819 -0.3235316 0.68046135 -0.09326857
-0.29333735 0.42986476 0.06828248 0.30479935 0.31494308 -0.19160746 0.3033376 0.30943903
0.53992444 -0.2178618 0.084165856 0.3831411 0.06630133 0.7402294 0.66113037 0.5331476
0.33038694 0.58073354 0.1732034 0.08299547 0.35040385 0.509434 0.3697807 0.35611537
00000000: b324 883e 441a 6bbe 3079 243f af6f 5b3e
00000010: a6a8 7abe c851 003f 5d15 cf3e 2c85 153e
00000020: 6211 b2bd 0cc6 a93e 58ae 343e ce52 1c3f
00000030: d06a 2b3e 78f1 1cbe b631 913e 3c2f aabc
00000040: 8e01 e73e c3c0 9c3e caef d63e 72ca e7bd
00000050: 57f8 ee3e 4b81 0b3f 6a27 29bd 6bd0 293f
00000060: df03 b53e f778 e83e 4c37 263f 80ac 0c3f
00000070: 6025 0fbe 468d 9c3e f9e2 043f d924 a53e
00000080: 6ac7 863e b595 4e3e 8709 f13d 9f88 3c3f
00000090: f555 723e a804 01bd 35d7 8a3e 8ebb c83e
000000a0: 3f2d 593d 865f b63e 53bb e73e 36ea 773e
000000b0: 0a78 883d 0b38 0c3f 91cd 773d 0e20 21bf
000000c0: 95bf d03e 5624 123f 2443 6f3e 9825 ac3e
000000d0: 7bfc 993e 16fc 923e 3eb9 a53d 6f58 043e
000000e0: b486 fa3d ec2b 2dbf b5e0 443e 54e5 673d
000000f0: 3e6b 4b3e f8cf 173f d917 213a b18f 2b3f
00000100: 5eeb 463e a2d0 0e3e 2a8d df3d aa77 843e
00000110: be5d c33d c22f c9be 9c7f 123e f16a 183f
00000120: 5fe9 ca3e 10c3 1b3f 888f c23e 229e f03e
00000130: 105c e33e 50bc 21bf aa0d b33e 7e70 323e
00000140: 1cde 333d 88b1 cb3e 86a5 953e 02bd e43e
00000150: f42e 123f 8e80 1a3f 6437 68be 8dbf 183f
00000160: eb39 d53e 52dd 9f3e b57a 903e f139 153e
00000170: 249b 293f 6dbc 313f 10ca b43e fc5e 383f
00000180: 7aea d63e c884 f93e 4165 283f 37a3 aa3d
00000190: c38b f83e f6ba e13e 142d 0a3f a401 e73e
000001a0: 2c73 643e df86 003f 226c 943e ea41 8e3e
000001b0: 26ca 403e 2dac b13e 5205 113f d329 ee3e
000001c0: 14b6 9f3e 5baf bc3e 4450 063f de67 843e
000001d0: c311 fd3d 5371 d03e c2a3 26bf 953e 823e
000001e0: d80b 44bf 2d72 b93e 01ff 823e 47b8 ef3c
000001f0: a10d d93e d834 863d 69fa d33e 9526 3cbe
00000200: 65eb 173e 079f 31bd f593 ba3e 821a 8f3d
00000210: 81cb 233f 4cde d23e 422f df3d 9846 763e
00000220: 9ac8 d63d a5b0 713e 056d 993e 44c5 323d
00000230: b09a 4fbd 9a38 583e f595 cf3e 8353 9f3e
00000240: be7d 023f b75f 143f f9e0 053f ced6 ebbc
00000250: 87e4 b33e 1e34 9c3e c1fc 2abf c8ee 823d
00000260: f12f 903e 9a2a 1a3f 901f 2d3f fec9 3cbf
00000270: cd14 0c3f 47d0 563e 49bd b33e 96ef 913d
00000280: ce00 003e c0b1 043c 387d 983e 6308 ed3e
00000290: 5999 e63e 175a 763e 1c2e 153f e06d 6f3e
000002a0: fcf9 e43c 1a18 eebd eb46 053f 72f9 2e3d
000002b0: 67b2 933e 5c11 7c3e f711 3b3f b6e7 babe
000002c0: b731 c13e 83cb 2ebe 1434 1c3b ff32 f43e
000002d0: 5451 4d3d 2c81 0f3e 7031 bb3e 2841 263f
000002e0: 02b6 51be 4e20 d73e 562c 1a3e 8b76 843e
000002f0: e8ac f83e f580 77bf 453a b73e f87d 0e3f
00000300: c526 713d 5f55 733e c246 d43e bbb3 bdbe
00000310: 4dc4 6c3e 0d3a 103e 4ee8 3b3e 5f8c 953e
00000320: 7307 033f c3d6 de3e d4d4 d3be a615 193f
00000330: a073 ac3e d500 193f d825 883d d098 f63e
00000340: 287c e73e 97ba b7be 906c 1a3f 482b 6abf
00000350: 5989 f9bd 25d7 e83e 22c4 3b3e 4a17 1d3f
00000360: e4cc 95be f19c 80bf a30e 783e 94b5 51bf
00000370: 8cc5 bb3e 206a c83e 3813 1c3f 2a48 b03d
00000380: 4cd0 193f 6644 803e 7c08 8d3e 8c52 9d3e
00000390: 5782 dc3e efa5 a5be b732 2e3f 9803 bfbd
000003a0: 5030 96be 3c17 dc3e afd7 8b3d a90e 9c3e
000003b0: 3840 a13e bf34 44be 114f 9b3e cb6e 9e3e
000003c0: 7d38 0a3f 2a17 5fbe 265f ac3d 122b c43e
000003d0: fec8 873d ad7f 3d3f d73f 293f 5c7c 083f
000003e0: 7a28 a93e f4aa 143f 3b5c 313e 87f9 a93d
000003f0: 2268 b33e 446a 023f e553 bd3e c154 b63e

stack.2.weight f4 [1, 256]
0.047977243 -0.20012578 0.2563578 0.1206644 -0.3679796 0.16820726 0.17110156 0.09583841
0.20128885 0.12453702 0.11780491 0.25929332 0.03826981 0.22297753 0.137416 0.09559677
0.22947901 0.113727815 0.14633515 -0.28266448 0.19752711 0.10238589 0.21604933 0.18311176
0.19087115 0.19326836 0.28032202 0.26130083 0.19864413 0.14142668 0.16006626 0.23679967
0.16643754 0.13784389 0.068448775 0.27375042 0.16670655 0.17261961 0.31400254 0.12824813
-0.30138624 0.31672856 0.11455349 0.042289544 0.0465068 0.3340413 0.15071449 -0.33083153
0.090627775 0.1703128 0.19256063 0.12472088 0.22946101 0.12501234 0.069711685 0.114717245
0.2236347 -0.38085383 0.19190802 0.1683202 0.037806697 0.23026918 0.14591883 0.31490996
0.048380915 0.24186255 0.17449953 0.1607184 0.0865331 -0.2857755 0.19256064 0.29021055
0.13299158 0.23536308 0.13148773 0.14073607 0.2077133 -0.47149134 0.14805967 0.20688933
0.10687256 0.25179636 0.16633062 0.1257405 0.16464017 0.26454934 0.30552307 0.17092095
0.14250423 0.14675216 0.1652637 0.10440751 0.20015912 0.2571477 0.26011297 0.20558606
0.19169712 0.24450879 0.2674133 0.12872428 0.2444679 0.23224126 0.17586766 0.113724835
0.23310104 0.2733352 0.06621028 0.24587205 0.09274913 0.19332555 0.24437721 0.09848434
-0.015687259 0.09491961 0.22815132 0.12477482 0.144291 0.1216882 -1.2492384 0.19447346
-0.52316445 -0.37194934 0.091118015 0.05173194 0.174677 0.035075206 0.13720274 0.24029954
0.09230886 0.08610113 0.1963161 0.08017977 0.28808597 0.11591743 0.22312261 -0.18590446
0.14251217 0.13134146 0.015924966 0.091680385 -0.42302203 0.07735368 0.15666631 0.06268214
0.20857441 0.2109233 0.23253924 -0.20685688 0.10995443 0.31545347 -0.34874487 0.030127788
0.16758202 0.22146556 0.23132876 -0.35393208 0.27464393 0.16573891 0.20446968 -0.029332487
-0.32621944 0.1558832 0.089898095 0.16955933 0.20576371 0.13413927 0.124523066 0.100247085
0.08784164 -0.42750338 0.19927393 0.13084273 0.18785168 0.10299927 0.20348583 -0.25138584
0.17417237 0.19512862 0.071105815 0.2581463 0.08029419 0.19983748 0.12597005 0.31530353
0.2895463 0.21944237 0.043143973 0.20760775 0.23748586 -0.6059901 0.30040202 0.253279
0.16900368 0.27450868 0.23230961 -0.77676094 0.12497066 0.15267685 0.17196712 0.19169776
0.18358159 0.101757765 -0.3323496 0.19126336 0.13470979 0.2513039 0.21776949 0.13874887
0.077869 -0.43167946 0.39692795 -0.5024961 0.16406699 0.18886848 0.19604032 0.2039432
-0.3921025 -0.71413106 0.15395564 -0.3892382 0.14235833 0.17427036 0.15438077 -0.36976808
0.1911015 0.18760866 0.1469833 0.121891916 0.1468705 -0.36683622 0.1489361 0.17462814
0.20890126 0.086421445 0.17692587 0.16395225 0.03465584 0.49038628 0.09798318 0.13225916
0.2686902 -0.22133943 0.2105257 0.18811743 0.1712736 0.2710057 0.226735 0.29451418
0.104242355 0.37541103 0.12671381 0.11016768 0.116114914 0.2718781 0.16367638 0.074883506
00000000: c983 443d c6ed 4cbe 5441 833e e61e f73d
00000010: d267 bcbe 863e 2c3e 3f35 2f3e ee46 c43d
00000020: aa1e 4e3e 440d ff3d b343 f13d 18c2 843e
00000030: cec0 1c3d 3954 643e c8b6 0c3e 3dc8 c33d
00000040: 8cfc 6a3e 21ea e83d e2d8 153e 66b9 90be
00000050: 8c44 4a3e b2af d13d 093c 5d3e a681 3b3e
00000060: ba73 433e 24e8 453e 5e86 8f3e 39c9 853e
00000070: 5e69 4b3e 28d2 103e 69e8 233e 9d7b 723e
00000080: 9a6e 2a3e f326 0d3e df2e 8c3d 0429 8c3e
00000090: 1fb5 2a3e 32c3 303e f1c4 a03e 7a53 033e
000000a0: 4c4f 9abe 3f2a a23e 059b ea3d cd37 2d3d
000000b0: ea7d 3e3d 7607 ab3e e654 1a3e c062 a9be
000000c0: 0e9b b93d 7b66 2e3e 9d2e 453e a96d ff3d
000000d0: d4f7 6a3e 3c03 003e 00c5 8e3d e0f0 ea3d
000000e0: 7f00 653e 46ff c2be 8983 443e 215c 2c3e
000000f0: 32db 1a3d afcb 6b3e bf6b 153e e13b a13e
00000100: 112b 463d d1aa 773e 01b0 323e 5d93 243e
00000110: 4438 b13d 2b51 92be 9e2e 453e 7a96 943e
00000120: f22e 083e 0503 713e b8a4 063e 1e1d 103e
00000130: ccb2 543e 5067 f1be f49c 173e ccda 533e
00000140: 00e0 da3d 74eb 803e 9352 2a3e 1ec2 003e
00000150: 6f97 283e 0373 873e 856d 9c3e e705 2f3e
00000160: a1ec 113e 3346 163e e33a 293e 9bd3 d53d
00000170: 83f6 4c3e dda8 833e 872d 853e 2785 523e
00000180: 404c 443e 8360 7a3e 65ea 883e 4cd0 033e
00000190: cb55 7a3e a7d0 6d3e a716 343e 91e8 e83d
000001a0: 0ab2 6e3e 97f2 8b3e 4199 873d e2c5 7b3e
000001b0: 42f3 bd3d 22f7 453e 053e 7a3e 28b2 c93d
000001c0: 9182 80bc 3665 c23d 80a0 693e f189 ff3d
000001d0: 05c1 133e aa37 f93d 0be7 9fbf 0d24 473e
000001e0: 1bee 05bf 2570 bebe 159c ba3d dfe4 533d
000001f0: 87de 323e 05ab 0f3d e07e 0c3e 1511 763e
00000200: 6d0c bd3d ca55 b03d 1607 493e 4b35 a43d
00000210: 0180 933e 1e66 ed3d 417a 643e bd5d 3ebe
00000220: b6ee 113e 607e 063e 1375 823c edc2 bb3d
00000230: 5896 d8be 9b6b 9e3d 226d 203e 7e5f 803d
00000240: 8894 553e 47fc 573e c41e 6e3e 4ad2 53be
00000250: ca2f e13d 1e83 a13e b08e b2be 8dce f63c
00000260: 9f9a 2b3e dec7 623e 72e1 6c3e 9636 b5be
00000270: 219e 8c3e 76b7 293e 8060 513e af4a f0bc
00000280: 3c06 a7be d89f 1f3e 7e1c b83d f6a0 2d3e
00000290: b9b3 523e ce5b 093e f305 ff3d 584e cd3d
000002a0: 51e6 b33d b9e1 dabe 770e 4c3e a3fb 053e
000002b0: 315c 403e 48f1 d23d 975e 503e a5b5 80be
000002c0: 3e5a 323e cccf 473e ed9f 913d c02b 843e
000002d0: 4871 a43d 32a2 4c3e 4bfe 003e 776f a13e
000002e0: 6a3f 943e 80b5 603e bcb7 303d 2097 543e
000002f0: 7e2f 733e 2b22 1bbf 4bce 993e c9ad 813e
00000300: 4d0f 2d3e 678c 8c3e 92e2 6d3e ced9 46bf
00000310: 9ef0 ff3d 5257 1c3e 2618 303e 6b4c 443e
00000320: d0fc 3b3e 6066 d03d ba29 aabe 8bda 433e
00000330: 5df1 093e e8aa 803e f7fe 5e3e 2f14 0e3e
00000340: c879 9f3d 1705 ddbe 243a cb3e 96a3 00bf
00000350: 2d01 283e bd66 413e cbbe 483e 7cd6 503e
00000360: a9c1 c8be 4bd1 36bf 8ca6 1d3e 3b4a c7be
00000370: 62c6 113e ee73 323e fe15 1e3e 3e52 bdbe
00000380: 1db0 433e 7c1c 403e ca82 163e 78a2 f93d
00000390: 3865 163e f5d1 bbbe b482 183e b8d1 323e
000003a0: 36ea 553e bafd b03d 0e2c 353e 19e3 273e
000003b0: 48f3 0d3d e913 fb3e 68ab c83d f26e 073e
000003c0: c391 893e cea6 62be 0d94 573e dba1 403e
000003d0: 5962 2f3e 42c1 8a3e 382d 683e 90ca 963e
000003e0: 047d d53d e035 c03e 44c1 013e 989f e13d
000003f0: a8cd ed3d 9b33 8b3e c89a 273e 865c 993d

exp_avg f4 [256, 17]
0.0011459307 -0.0010697403 0.0004078257 0.0011562556 0.001088014 0.0011127162 0.001158212 -0.0010847907
-0.0010770023 -0.0010273304 -0.0009213932 -0.0008737117 -0.00037094785 -0.00022122155 -0.0004223387 -0.0005672539
-0.000172576 -0.00093627465 0.0023877022 0.0004905751 -0.00093776797 -0.0010908418 -0.001071658 -0.00096519466
0.0022742543 0.0021459777 0.0009731691 0.002338094 0.0020055776 -0.00031060717 -0.0016096536 -0.001422582
0.0015265979 0.0011987925 0.0045713456 -0.0073480965 0.00036561882 0.0042559346 0.004592942 0.00431329
0.0046382993 -0.0076285894 -0.007188221 -0.005100458 -0.0072512235 -0.005920831 -0.0032862937 0.00019315095
0.0018816545 -0.005398205 -0.0033226968 0.0008028007 -0.0015457053 -0.0006179295 0.0004894943 0.00069630385
0.00086317945 0.00086912233 -0.0016481776 -0.0013545654 -0.00044423767 -0.0017475119 -0.0012029577 -0.0008747504
0.0014347316 0.0018769399 -0.0008843765 2.6043272e-05 -0.0071983463 0.0062548523 -0.0047554336 -0.007194727
-0.0076777353 -0.0067499336 -0.0071165133 0.0064865607 0.007044519 0.0071908687 0.0057223043 0.0047064177
0.003194463 0.006886179 0.0049535325 0.0034911556 0.0015382451 0.004000253 -0.0034483694 0.0015177862
0.0035188794 0.0041071414 0.0039696046 0.0039839526 -0.0033179102 -0.0032475372 -0.0022824984 -0.0033696538
-0.0028923603 0.00018070557 0.00123242 0.0008950742 -0.0024070318 -0.0011004588 0.0040267576 -0.004524826
0.0014455869 0.004158579 0.004069881 0.0040526544 0.0040562903 -0.004411725 -0.004243076 -0.0032013534
-0.004245379 -0.0041383053 -0.00020226052 0.00091420935 0.0003432139 -0.0028975958 -0.0013626782 -0.00016937578
-0.0029360205 -0.00096404384 -0.00026254405 0.0001394195 -0.00024328564 -8.633297e-05 -0.0028750035 -0.0028571517
-0.0027448446 -0.0033231224 -0.0035903237 -0.00018481739 -0.0005411623 -0.0015885411 -0.002881537 -0.0010467888
0.0029164546 -0.0009865457 0.0012128251 0.0036468033 0.0029392545 0.0032501132 0.0030252452 -0.0010654611
-0.0009171973 -0.00044403394 -0.00026069523 -3.2858712e-05 -0.00086824707 0.00046146972 0.0014138055 0.0005975528
0.001322145 0.00092103344 -0.0015476228 -0.00042655485 0.0007109642 0.0008553412 0.0009497999 0.0010436892
-0.0017129699 -0.0015043727 -0.00056825415 -0.0019224439 -0.0015667387 -0.0013275223 0.0007159279 0.0014299741
-0.0012853307 -0.00064257445 0.0022185848 -0.0009352109 0.0005558786 0.0020425196 0.002237683 0.0020941037
0.0023457322 -0.0010511598 -0.0009689582 -0.0006975881 -0.0007037287 -0.00048085407 -0.0011125265 -0.0004892358
0.0004894014 -7.4041076e-05 0.00071538356 0.005779427 -0.006704554 0.0014327656 0.005681194 0.00588444
0.00581692 0.005847514 -0.0066789337 -0.006566997 -0.004737927 -0.00589387 -0.0055346736 -0.0012903804
0.0002450998 0.00090390653 -0.0037085095 -0.0014304959 0.00066852546 -0.0005162467 0.00021498954 0.00072110526
0.0006678629 0.0006958822 0.000679251 -0.00052727683 -0.0005160998 -0.00041853424 -0.00041192851 -0.00041508925
-0.00020673485 -0.00010626493 0.00010985489 -0.0001840564 -9.788252e-05 0.0031209218 -0.0016929877 0.0015110523
0.0038986271 0.0032561852 0.0036059613 0.0030101333 -0.0018145797 -0.0015126839 -0.00089011266 -0.00075134874
-0.001167728 -0.0013986211 0.00054657436 0.0013837047 9.942906e-05 -4.9206705e-05 0.004979342 -0.0028903948
0.002833295 0.0049487264 0.0048723347 0.0049786735 0.0050562248 -0.0029756275 -0.0032447274 -0.002921694
-0.0023333323 -0.0018327145 -0.0013343297 -0.0023935144 -0.00087917864 -0.0011448984 0.00022299436 0.0017047557
00000000: 0e33 963a 8736 8cba 70d1 d539 808d 973a
00000010: b19b 8e3a 8fd8 913a 25cf 973a 892f 8eba
00000020: 332a 8dba 7da7 86ba a789 71ba cd09 65ba
00000030: c77b c2b9 b5f7 67b9 576d ddb9 c4b3 14ba
00000040: 84f5 34b9 5470 75ba ff7a 1c3b f099 003a
00000050: 8bd4 75ba 94fa 8eba e076 8cba 1e05 7dba
00000060: a80b 153b 88a3 0c3b 461c 7f3a b53a 193b
00000070: 0270 033b fdd8 a2b9 03fb d2ba ee75 baba
00000080: 2018 c83a cd20 9d3a 3acb 953b 4dc8 f0bb
00000090: 87b0 bf39 5e75 8b3b 6480 963b 8056 8d3b
000000a0: e0fc 973b 3ff9 f9bb 2b8b ebbb be21 a7bb
000000b0: ac9b edbb 8803 c2bb dc5e 57bb 9088 4a39
000000c0: d9a1 f63a 6de3 b0bb 9ac1 59bb 0b73 523a
000000d0: 4399 caba 8cfc 21ba 6851 003a 2988 363a
000000e0: fe46 623a d0d5 633a aa07 d8ba ac8b b1ba
000000f0: 92e8 e8b9 c50c e5ba 90ac 9dba 814f 65ba
00000100: 9b0d bc3a a703 f63a 81d5 67ba 8077 da37
00000110: 1be0 ebbb 81f5 cc3b 78d3 9bbb bfc1 ebbb
00000120: 8395 fbbb 8c2e ddbb a431 e9bb 378d d43b
00000130: b5d5 e63b 61a1 eb3b 2b82 bb3b 4b38 9a3b
00000140: 325a 513b 75a5 e13b 3e51 a23b dfcb 643b
00000150: f19e c93a 8e14 833b 0afe 61bb 74f0 c63a
00000160: 009d 663b 3395 863b 7513 823b d18b 823b
00000170: 4c71 59bb a2d4 54bb f895 15bb 69d5 5cbb
00000180: c18d 3dbb c87b 3d39 2789 a13a 6aa3 6a3a
00000190: 4bbf 1dbb 453d 90ba e4f2 833b fe44 94bb
000001a0: d979 bd3a b044 883b a35c 853b 21cc 843b
000001b0: a1ea 843b 3b90 90bb 8009 8bbb cccd 51bb
000001c0: d21c 8bbb 9f9a 87bb e515 54b9 8da7 6f3a
000001d0: 64f1 b339 97e5 3dbb e59b b2ba 779a 31b9
000001e0: 406a 40bb e3b7 7cba 11a6 89b9 2331 1239
000001f0: 7e1a 7fb9 a90d b5b8 8e6a 3cbb 0d3f 3bbb
00000200: dae2 33bb bec8 59bb a34b 6bbb 8acb 41b9
00000210: cadc 0dba 9836 d0ba 2bd8 3cbb 6734 89ba
00000220: fd21 3f3b fb4e 81ba a8f7 9e3a 35ff 6e3b
00000230: 82a0 403b daff 543b 3143 463b f1a6 8bba
00000240: 1270 70ba 3acd e8b9 ecad 88b9 c6d1 09b8
00000250: 139b 63ba 6bf1 f139 714f b93a 17a5 1c3a
00000260: d34b ad3a 8271 713a 9bd9 caba 39a3 dfb9
00000270: 0060 3a3a fa38 603a fefb 783a 66cc 883a
00000280: bb85 e0ba 5f2e c5ba e4f6 14ba 83fa fbba
00000290: 075b cdba 4200 aeba 1cad 3b3a f86d bb3a
000002a0: 8b78 a8ba 7172 28ba ad65 113b f128 75ba
000002b0: 62b8 113a cbdb 053b 17a6 123b 3b3d 093b
000002c0: dbba 193b 12c7 89ba af01 7eba 58de 36ba
000002d0: 6f7a 38ba 241b fcb9 32d2 91ba 0f40 00ba
000002e0: 2c4b 003a 8046 9bb8 9488 3b3a 5961 bd3b
000002f0: e0b1 dbbb a3cb bb3a 4f29 ba3b 43d2 c03b
00000300: dd9b be3b 819c bf3b f5da dabb f72f d7bb
00000310: 9d40 9bbb 5d21 c1bb 355c b5bb fb21 a9ba
00000320: bd80 8039 24f4 6c3a 770a 73bb 7a7f bbba
00000330: fc3f 2f3a bb54 07ba d16e 6139 8e08 3d3a
00000340: 8513 2f3a dd6b 363a c30f 323a f338 0aba
00000350: df4a 07ba b76e dbb9 1cf8 d7b9 56a0 d9b9
00000360: f7c6 58b9 8dda deb8 e561 e638 43ff 40b9
00000370: 4746 cdb8 6188 4c3b 3ee7 ddba 800e c63a
00000380: 1c80 7f3b b965 553b fe51 6c3b a845 453b
00000390: 31d7 edba 4045 c6ba 7356 69ba 29f6 44ba
000003a0: 730e 99ba f051 b7ba fc47 0f3a 6d5d b53a
000003b0: 9284 d038 4c63 4eb8 c029 a33b c76c 3dbb
000003c0: cdae 393b ed28 a23b 1ba8 9f3b 2424 a33b
000003d0: b0ae a53b bf02 43bb 7ea5 54bb e479 3fbb
000003e0: d2ea 18bb b237 f0ba ade4 aeba 82dc 1cbb
000003f0: ae78 66ba 6a10 96ba 98d3 6939 1c72 df3a

exp_avg_sq f4 [256, 17]
2.9173909e-05 1.6459491e-05 2.4370278e-05 2.6667709e-05 2.8869783e-05 2.7945382e-05 2.9934265e-05 1.5291736e-05
1.6439059e-05 1.49575e-05 9.747002e-06 1.0591206e-05 2.827244e-06 1.2729026e-05 1.1075668e-05 1.1185795e-05
1.3207162e-05 0.00029092675 0.00017750375 0.00027007656 0.0002686307 0.00029117538 0.00025831733 0.00028842824
0.0001663062 0.00016077128 0.00027769635 0.0002887421 0.00044939714 9.420217e-05 0.00015941288 0.00050129625
0.00043542034 0.00049628294 0.0012770955 0.00090898044 0.0011727086 0.0011890584 0.0012842588 0.0011955108
0.001281631 0.0008970632 0.00091900426 0.0010651296 0.00094243704 0.0011450363 0.00041390472 0.0006993938
0.0011695592 0.0010191568 0.0010793075 0.00019932228 9.089366e-05 0.00018488214 0.00018190005 0.00019843222
0.00018514156 0.00019929656 8.8728295e-05 9.457018e-05 0.00013062183 0.00013129746 0.00018352552 8.2004146e-05
0.00012332412 0.00021721827 0.00019015884 0.00020230611 0.00048801381 0.00089739903 0.00045238814 0.0005019102
0.00048820145 0.00047822655 0.00049264246 0.0008648142 0.00085829716 0.00080973824 0.00060728175 0.00057519285
8.2841645e-05 0.00022086638 0.0003330719 0.00039795003 0.0003979196 0.000510833 0.0003591328 0.0004721738
0.00047100478 0.0005105619 0.0004776067 0.00051436067 0.0003371781 0.00035046288 0.0004229255 0.00035311736
0.00047181777 8.5787186e-05 0.000245086 0.00047501252 0.00042889031 0.0004604055 0.0005540668 0.0003892577
0.00050580973 0.00050956226 0.00055678457 0.0005143467 0.00055869063 0.00036637072 0.0003762164 0.00044031025
0.0003668497 0.00047560333 9.484735e-05 0.00024749985 0.00047783455 0.00044580761 0.0004970084 4.756008e-05
7.070674e-05 5.0024213e-05 4.7468955e-05 4.984772e-05 4.36327e-05 4.7254318e-05 6.8926805e-05 6.542999e-05
7.274725e-05 5.535588e-05 7.146022e-05 2.0705704e-05 2.3065351e-05 5.901026e-05 5.508776e-05 8.061965e-05
0.0004236687 0.00024264301 0.00037210816 0.00038563332 0.00042124296 0.0004076084 0.00043161717 0.00022573007
0.00024168128 0.0002095459 0.0001230259 0.00012919263 2.864536e-05 0.00016337568 0.00011250515 0.00011025116
0.00012252091 0.00022296021 9.569051e-05 0.00020493091 0.00020321448 0.00022510388 0.0002060677 0.00022324652
9.2969975e-05 9.9290075e-05 0.00013664513 0.00013808275 0.00019401671 8.355607e-05 0.00012777791 0.00022908917
0.00020211896 0.00021543854 0.00015030488 0.00012312796 0.00013153435 0.00013687463 0.00014950616 0.00014429243
0.00015322055 0.00011575648 0.0001221398 0.00010739007 6.6223314e-05 6.512017e-05 1.2537621e-05 6.312582e-05
4.9993174e-05 5.0795978e-05 5.5534936e-05 0.0011943488 0.0008482416 0.0010738757 0.0010944618 0.0012037364
0.0011142087 0.001207579 0.00080487935 0.0008284333 0.0009408286 0.000686267 0.0008898676 0.00022303649
0.00055136986 0.0009658695 0.0008419698 0.0010703767 1.6498865e-05 1.1929587e-05 1.4454972e-05 1.5096738e-05
1.6410982e-05 1.5922467e-05 1.6805494e-05 1.1201684e-05 1.1926756e-05 1.0508954e-05 6.5539416e-06 6.51507e-06
1.3039221e-06 6.9917937e-06 5.4434427e-06 5.559848e-06 5.573905e-06 0.0005250845 0.0003142415 0.00045778407
0.00047905595 0.0005223001 0.00050512253 0.00053510605 0.0002932075 0.00031536978 0.00027575684 0.00016491578
0.00016045482 3.6236594e-05 0.0002033914 0.00014739427 0.00014676635 0.00014389907 0.00020154822 0.0001605867
0.00016766996 0.00018382222 0.00020194362 0.00019195894 0.00020472848 0.00015328631 0.00015951354 0.00014115687
9.652144e-05 8.9500485e-05 2.3487935e-05 8.603712e-05 7.166494e-05 7.122431e-05 7.7579665e-05 9.925351e-05
00000000: 7eba f437 7d12 8a37 c66e cc37 78b4 df37
00000010: 632d f237 406c ea37 581b fb37 c146 8037
00000020: 9ce6 8937 f9f1 7a37 0e87 2337 e2b0 3137
00000030: afbb 3d36 c08e 5537 a2d1 3937 a0aa 3b37
00000040: 5494 5d37 8787 9839 4d20 3a39 1099 8d39
00000050: 01d7 8c39 e6a8 9839 c46e 8739 2f38 9739
00000060: 7b62 2e39 b694 2839 c697 9139 4f62 9739
00000070: 109d eb39 688e c538 1228 2739 6c69 033a
00000080: 2149 e439 fc18 023a 3764 a73a a548 6e3a
00000090: 92b5 993a 2eda 9b3a 9354 a83a b0b2 9c3a
000000a0: 66fc a73a e428 6b3a 55e9 703a d29b 8b3a
000000b0: e10d 773a 0b15 963a 5a01 d939 8657 373a
000000c0: e54b 993a 3a95 853a 8d77 8d3a 2b01 5139
000000d0: 2a9e be38 ecdc 4139 6cbc 3e39 3e12 5039
000000e0: 8f22 4239 43fa 5039 a413 ba38 fb53 c638
000000f0: 88f7 0839 e5ac 0939 c270 4039 a4f9 ab38
00000100: 9150 0139 16c5 6339 6065 4739 2222 5439
00000110: 1bdc ff39 6e3f 6b3a 822e ed39 a092 033a
00000120: 4af5 ff39 7bba fa39 ad24 013a b3b4 623a
00000130: 59ff 603a 9d44 543a fd31 1f3a 8ac8 163a
00000140: 45bb ad38 5e98 6739 27a0 ae39 f3a3 d039
00000150: dd9f d039 6ce9 053a fd49 bc39 188e f739
00000160: 31f1 f639 3bd7 053a 4967 fa39 29d6 063a
00000170: 47c7 b039 55be b739 1abc dd39 9c22 b939
00000180: 4f5e f739 a5e8 b338 e37e 8039 1a0b f939
00000190: afdc e039 9562 f139 cb3e 113a 4915 cc39
000001a0: 5198 043a 2594 053a 2ef5 113a 39d5 063a
000001b0: 1875 123a 7215 c039 e93e c539 71d9 e639
000001c0: bc55 c039 665a f939 c9e8 c638 dec2 8139
000001d0: de85 fa39 49bb e939 ab49 023a 3f7b 4738
000001e0: 6448 9438 17d1 5138 6719 4738 9513 5138
000001f0: 4102 3738 f032 4638 cc8c 9038 7537 8938
00000200: e28f 9838 ec2d 6838 eadc 9538 29b1 ad37
00000210: 777c c137 c981 7738 080e 6738 5812 a938
00000220: da1f de39 fd6d 7e39 8317 c339 d42e ca39
00000230: 46da dc39 46b4 d539 ad4a e239 f4b1 6c39
00000240: d36b 7d39 8db9 5b39 8300 0139 e277 0739
00000250: 714b f037 d34f 2b39 bef0 eb38 a436 e738
00000260: f578 0039 6dca 6939 74ad c838 b9e2 5639
00000270: f915 5539 dd09 6c39 e113 5839 4817 6a39
00000280: e0f8 c238 f439 d038 6648 0f39 4eca 1039
00000290: f770 4b39 d33a af38 1ffc 0539 a837 7039
000002a0: e5ef 5339 58e7 6139 299b 1d39 e91b 0139
000002b0: 7cec 0939 0186 0f39 c1c4 1c39 344d 1739
000002c0: d4a9 2039 49c2 f238 a712 0039 9b36 e138
000002d0: 5fe1 8a38 2091 8838 ac58 5237 6b62 8438
000002e0: c3af 5138 c40d 5538 2fee 6838 b28b 9c3a
000002f0: 885c 5e3a 4ac1 8c3a 0b74 8f3a b1c6 9d3a
00000300: a40a 923a a147 9e3a 8afe 523a 382b 593a
00000310: f0a1 763a 99e6 333a 0146 693a e7de 6939
00000320: ce89 103a 6832 7d3a a3b7 5c3a e24b 8c3a
00000330: 0b67 8a37 3025 4837 a283 7237 ff47 7d37
00000340: 51aa 8937 3d91 8537 86f9 8c37 deee 3b37
00000350: 0719 4837 9d4f 3037 eee9 db36 069c da36
00000360: 6c02 af35 0d9b ea36 d1a6 b636 bb8e ba36
00000370: 7b07 bb36 d3a5 093a c8c0 a439 bd02 f039
00000380: cd29 fb39 f7ea 083a 336a 043a 5c46 0c3a
00000390: a5b9 9939 3758 a539 7593 9039 3eed 2c39
000003a0: c33f 2839 bffc 1738 7745 5539 d98d 1a39
000003b0: 4be5 1939 9de3 1639 b056 5339 2a63 2839
000003c0: 90d0 2f39 67c0 4039 d4c0 5339 9648 4939
000003d0: 62ac 5639 7bbb 2039 1743 2739 8203 1439
000003e0: 8e6b ca38 35b2 bb38 f507 c537 d46e b438
000003f0: d24a 9638 435e 9538 44b2 a238 5326 d038

exp_avg f4 [256]
-0.00073957356 0.0018255725 -0.00300121 0.0002999176 0.008137045 -0.0034743021 -0.002876625 -0.002369016
-0.0003757467 -0.00033004678 -0.0014105788 -0.0045200353 -0.00037471027 -0.00010839142 -0.0025661634 -0.0007601508
-0.0028768377 -0.0019322549 -0.0015115929 0.0024495262 0.0018810553 -0.0018102621 -0.00012728588 -0.0033613099
0.0021236949 -0.003187287 -0.0042616217 -0.0050097117 0.000781852 -0.0011859965 -0.002502644 -0.0033701237
0.00087236613 0.0024988446 -0.0006075948 -0.0043375324 -0.0019112814 -0.000116541945 -0.0045374404 -0.0017406519
-0.0005159158 -0.003810919 -0.0021608586 -0.0007667978 -0.00040302053 -0.0053218557 -0.0010255332 9.135373e-05
-0.0009068641 -0.0035096856 -0.0010245845 -0.002260519 -0.0025961054 -0.0013059746 -0.00064444216 -0.00063651445
0.0010173664 -0.002728905 -0.0007173801 -0.004098288 7.025635e-05 -0.0023005058 -0.0016801878 -0.004163129
-0.0005642196 -0.0017147766 -0.0012198492 -0.0016349163 -0.001250361 0.003798686 0.0013142723 -0.005335889
-0.0031279125 -0.0035328062 -0.0017530438 -0.0027477853 -0.0046075797 0.010397814 -0.0021380608 -0.005752585
-0.0019087667 -0.0043057473 0.0003377367 -0.0018715551 -0.0023949994 -0.004293886 -0.00089653395 -0.0042948313
-0.0024716523 -0.0010743433 -0.0020058348 -0.00071266934 -0.002673683 -0.0041181655 -0.0038524321 -0.0035090242
-0.005561833 -0.0020077117 -0.0038314876 -0.0012076068 -0.0022852581 -0.0037047411 -0.002431794 -0.0019382676
-0.0018565722 -0.0036048747 -0.0008933153 -0.0034418292 -0.00047647508 -0.0027760735 -0.0036473935 -0.0010058121
0.000121810124 -0.0009201615 -0.0048937434 -0.0011105363 -0.0007514141 -0.0017122048 -0.011786563 -0.0018158995
0.0049919733 0.009037909 -0.0012748137 -0.0003772257 -0.0035120943 -0.00051130954 -0.0021485412 -0.0005682806
-0.0005224932 -1.0942252e-05 -0.00035170958 -0.000617013 -0.0035598797 -0.0015686121 -0.0032291336 0.0047136717
-0.001493211 -0.00089333934 -0.00016879638 0.0004154643 0.0070677223 -0.0007227865 -0.002525317 -0.0009496252
-0.0030701582 -0.0030182952 -0.0032408857 -0.00013620757 -0.0018799626 -0.0047113495 0.00067262223 -0.00048515142
-0.0027686737 -0.0024316886 -0.003463909 -0.00059419154 -0.0037510234 -0.0015291453 -0.0044808662 -0.00028291778
0.004997183 -0.0010536234 -0.00076737494 -0.0004119509 -0.0043978738 -0.0009634058 -0.0017911863 -0.0011783055
-0.0013038443 -0.00034181462 -0.0025421788 -0.002118676 -0.0027815183 0.00019897806 -0.002885958 0.0023132898
-0.0034035167 0.00036019518 -0.00047409194 -0.0037437691 0.0011218993 -0.0035181423 -0.00163511 -0.0050889105
7.500066e-05 -0.0025743372 -0.0008286463 -0.0023293055 -0.002764386 0.0045735664 6.6368716e-06 -0.0025152953
-0.0009287516 -0.004388287 -0.0025420699 -0.003381918 -0.0010224226 -0.0005641635 -0.0032666875 -0.0025468788
-0.0027737555 -0.0012729276 -0.0016306385 -0.0015893437 -0.0022970105 -0.003908177 -0.0048014964 -0.0022084515
-0.0016085774 0.00090582244 -0.006255329 0.0022557983 -1.803923e-05 -0.0032206282 -0.0013242854 -0.0049049063
0.012357679 0.0029407928 -0.0012804265 -0.001782935 -0.0017865555 -0.0019470957 -0.0024559 0.0021350898
-0.003591786 -0.0015806418 -0.002629342 0.0002826748 -0.002474273 0.00096432323 -0.0023315751 -0.0003807344
-9.959485e-05 -0.002269714 0.0016641193 -0.0020551183 -0.00014575773 0.003311419 -0.0014291923 -0.0018663742
-0.004092485 -0.0009140005 0.0005803054 -0.0023897311 -0.0010879013 -0.0036562106 -0.0034066306 -0.0076244776
-0.0017342087 -0.0072673475 -0.0014644805 -0.0015057594 -0.0017691841 -0.0049479613 -0.0022431249 7.274755e-05
00000000: f1df 41ba 0c48 ef3a f3af 44bb 423e 9d39
00000010: 3e51 053c 1eb1 63bb c285 3cbb 7e41 1bbb
00000020: deff c4b9 210a adb9 2ce3 b8ba ce1c 94bb
00000030: c374 c4b9 3350 e3b8 142d 28bb db44 47ba
00000040: 5489 3cbb b743 fdba a420 c6ba 3b88 203b
00000050: be8d f63a 5146 edba 0b78 05b9 6c49 5cbb
00000060: b02d 0b3b cde1 50bb 13a5 8bbb 8228 a4bb
00000070: 33f5 4c3a 7073 9bba 6603 24bb 4bdd 5cbb
00000080: 80af 643a a8c3 233b ff46 1fba dc21 8ebb
00000090: f683 faba fb67 f4b8 cfae 94bb 9626 e4ba
000000a0: 863e 07ba 9cc0 79bb 319d 0dbb ee02 49ba
000000b0: 804c d3b9 f662 aebb 2f6b 86ba 2995 bf38
000000c0: 9fba 6dba c102 66bb 5a4b 86ba 3725 14bb
000000d0: 6c23 2abb 3c2d abba c8ef 28ba c3db 26ba
000000e0: 2759 853a 6ed7 32bb 900e 3cba ee4a 86bb
000000f0: 9756 9338 15c4 16bb bf39 dcba db6a 88bb
00000100: 23e8 13ba 5bc2 e0ba 59e3 9fba b04a d6ba
00000110: 27e3 a3ba 60f3 783b a943 ac3a aed8 aebb
00000120: aafd 4cbb a786 67bb 64c6 e5ba 3014 34bb
00000130: 2efb 96bb 985b 2a3c b51e 0cbb 2e80 bcbb
00000140: 952f faba 3a17 8dbb 4112 b139 f84e f5ba
00000150: 6cf5 1cbb bab3 8cbb 6005 6bba a8bb 8cbb
00000160: 72fb 21bb fbd0 8cba 5374 03bb 6ed2 3aba
00000170: f538 2fbb adf1 86bb 1679 7cbb a8f7 65bb
00000180: 0940 b6bb d093 03bb b219 7bbb 8f48 9eba
00000190: 45c4 15bb 3ecb 72bb bc5e 1fbb 780d feba
000001a0: 3a58 f3ba c33f 6cbb 602d 6aba 5090 61bb
000001b0: 67cf f9b9 c9ee 35bb 1c09 6fbb 74d5 83ba
000001c0: 5074 ff38 fe36 71ba b25b a0bb 6a8f 91ba
000001d0: 8cfa 44ba 0f6c e0ba 6e1c 41bc 7a03 eeba
000001e0: b593 a33b bd13 143c a617 a7ba 60c6 c5b9
000001f0: 2a2b 66bb 6709 06ba 8ace 0cbb aaf8 14ba
00000200: edf7 08ba 9d94 37b7 a965 b8b9 0bbf 21ba
00000210: df4c 69bb e399 cdba df9f 53bb 2575 9a3b
00000220: d9b7 c3ba fd2e 6aba effe 30b9 add2 d939
00000230: 5a98 e73b 6279 3dba ca7f 25bb 45f0 78ba
00000240: b534 49bb 97ce 45bb 0a65 54bb f1d2 0eb9
00000250: 1469 f6ba aa61 9abb ea52 303a ec5b feb9
00000260: a372 35bb f75c 1fbb c002 63bb 85c3 1bba
00000270: bbd3 75bb 9a6d c8ba 3bd4 92bb 9554 94b9
00000280: 69bf a33b bc19 8aba a929 49ba 1dfb d7b9
00000290: 0a1c 90bb 128d 7cba 3dc6 eaba 5f71 9aba
000002a0: c1e5 aaba 9535 b3b9 af9a 26bb 7cd9 0abb
000002b0: 224a 36bb c4a4 5039 5722 3dbb 909a 173b
000002c0: 890d 5fbb 94d8 bc39 8b8f f8b9 065a 75bb
000002d0: b20c 933a a290 66bb 3051 d6ba e0c0 a6bb
000002e0: ac49 9d38 36b6 28bb 8339 59ba 43a7 18bb
000002f0: b32a 35bb dbdd 953b 4bb2 de36 a7d7 24bb
00000300: 7777 73ba 9fcb 8fbb db98 26bb 2ba3 5dbb
00000310: cf02 86ba 5fe4 13ba ec15 56bb 89e9 26bb
00000320: e5c7 35bb 5dd8 a6ba 26bb d5ba 8651 d0ba
00000330: 7189 16bb 2a10 80bb df55 9dbb abbb 10bb
00000340: e7d6 d2ba b774 6d3a 81f9 ccbb 04d6 133b
00000350: f452 97b7 2d11 53bb a593 adba 56b9 a0bb
00000360: dd77 4a3c 51ba 403b fcd3 a7ba 5fb1 e9ba
00000370: db2a eaba b135 ffba 2af3 20bb ddec 0b3b
00000380: 2b64 6bbb 8a2d cfba 0a51 2cbb f833 9439
00000390: 6a27 22bb a3ca 7c3a 57cd 18bb 4e9d c7b9
000003a0: 94dd d0b8 7bbf 14bb 941e da3a 2aaf 06bb
000003b0: 8bd6 18b9 6404 593b bc53 bbba 20a1 f4ba
000003c0: 411a 86bb 8999 6fba a31f 183a 099d 1cbb
000003d0: e997 8eba 099d 6fbb c741 5fbb c1d6 f9bb
000003e0: 634e e3ba ee22 eebb d0f3 bfba e75c c5ba
000003f0: f8e3 e7ba 8222 a2bb 6401 13bb 0b90 9838

exp_avg_sq f4 [256]
2.497981e-05 0.0003044051 0.0010072705 0.00014274361 0.00078987883 0.00042410608 0.0004476631 6.15544e-05
0.0002656684 0.0001610229 0.00011836189 0.00095675525 1.2491808e-05 0.00033423354 0.00017108987 6.978401e-05
0.00067336886 0.00014391576 0.0001991545 0.0005876617 0.00045630656 0.00014625283 0.00032272542 0.00050802156
0.0003920563 0.0005111982 0.0011902291 0.00097578554 0.00024803737 0.00016038616 0.00027386015 0.000512446
0.00028071855 0.00019434266 3.6459813e-05 0.0011612113 0.00025033744 0.00021049786 0.0010557738 0.0002235303
0.0008755868 0.00091835234 0.00011752915 1.925398e-05 1.7529077e-05 0.0016867791 0.00017576116 0.0007930664
0.0001078379 0.00036186696 0.00036156306 0.00019090013 0.00071339257 0.0001307361 3.6393252e-05 0.00010666368
0.00042986558 0.00060258846 0.00034180962 0.00019580915 1.6932494e-05 0.000690929 0.00011264342 0.0015172414
1.935661e-05 0.00043307422 0.00024624122 0.0002195513 6.0034694e-05 0.0005843568 0.00033876745 0.0011885896
0.00017447495 0.00086171593 0.00015742314 0.00020717249 0.00045342895 0.00056336576 0.0002514572 0.00026110778
8.2722916e-05 0.0008844102 0.0002832684 0.0002129735 0.00042042372 0.0010841814 0.00057146687 0.0003789475
0.00028501014 0.0002522461 0.00024946188 8.809181e-05 0.00061196124 0.0009857295 0.00060901657 0.000655964
0.000495119 0.00078767224 0.0010845198 0.00013351823 0.0008644858 0.00073658745 0.00042169812 0.00014521158
0.00044369255 0.0011270609 3.7509923e-05 0.0005436465 7.204922e-05 0.0005451354 0.00092477293 9.271946e-05
2.0063799e-06 7.936862e-05 0.0005324587 0.00012659302 0.00015846205 0.0001849758 0.006351907 0.00031788804
0.0020196447 0.0011712405 7.7924684e-05 2.0525851e-05 0.00043384492 1.0275655e-05 0.00026685972 0.00036275105
6.952362e-05 5.1767085e-05 0.00033224153 5.2955165e-05 0.001244388 0.00013146627 0.00039660602 0.0002540576
0.00015674802 0.00014470497 2.4242206e-06 5.890807e-05 0.0014083603 6.234864e-05 0.00021797771 5.826653e-05
0.00056849583 0.000698861 0.00083158526 0.0003975295 0.00014678098 0.0009036172 0.00085550826 8.362418e-06
0.00024159998 0.00072426704 0.0008096448 0.0008872575 0.0011184458 0.00023497811 0.00054385123 4.6247865e-06
0.0009263153 0.00017917602 6.858798e-05 0.00032772412 0.00048068396 0.00014965997 0.00021926488 9.076033e-05
6.428118e-05 0.0013555002 0.00052401016 0.00012697563 0.0003395447 0.000107639746 0.0006152085 0.000454305
0.0003496657 0.00023491637 4.0233008e-05 0.0010346554 5.5983764e-05 0.00029129587 0.00013813052 0.0015042238
0.0005010841 0.00066044374 1.8665985e-05 0.0004225103 0.000811594 0.0019830298 0.0010851681 0.0008938275
0.00021923111 0.00079378294 0.0005615892 0.0024938302 0.00012307987 0.00017994034 0.00027854476 0.0003421585
0.00052535365 8.856745e-05 0.0007943986 0.0004901194 0.00016674836 0.0009454352 0.00028369427 0.000277051
8.938116e-05 0.0004964811 0.0024372693 0.0015585434 0.00015279838 0.00030622698 0.00031742294 0.00056254485
0.00086560694 0.0025380335 0.00020023102 0.00090072304 0.0001820564 0.0003654188 0.00035543772 0.0009973714
0.000524258 0.00034537623 0.00019847132 0.00015405605 0.00020579649 0.0009889682 0.00032839688 0.00023004842
0.00026460903 7.84721e-05 0.0002942053 0.0002290059 1.3025015e-05 0.00052786537 0.00013284123 0.00016379701
0.0010762572 0.00034341935 0.00036661417 0.0003186714 0.00022412046 0.0011332858 0.0007931473 0.0009022751
9.762938e-05 0.0019909309 0.00013584354 9.707703e-05 0.00011462056 0.0011426699 0.00023796441 7.147659e-05
00000000: bc8b d137 9098 9f39 6406 843a 72ad 1539
00000010: df0f 4f3a 8e5a de39 53b4 ea39 c416 8138
00000020: 6949 8b39 41d8 2839 0e39 f838 c2ce 7a3a
00000030: e893 5137 113c af39 9666 3339 0159 9238
00000040: 0585 303a 18e8 1639 21d4 5039 4f0d 1a3a
00000050: 6e3c ef39 725b 1939 7933 a939 c02c 053a
00000060: e88c cd39 ee01 063a 7601 9c3a dccb 7f3a
00000070: 030b 8239 552d 2839 e394 8f39 ab55 063a
00000080: 682d 9339 76c8 4b39 6dec 1838 c933 983a
00000090: b93f 8339 17b9 5c39 e461 8a3a 7563 6a39
000000a0: a387 653a 95bd 703a fb79 f638 9b83 a137
000000b0: 680b 9337 ea16 dd3a 874c 3839 c9e5 4f3a
000000c0: 0827 e238 f6b8 bd39 2c90 bd39 5d2c 4839
000000d0: f702 3b3a 3416 0939 f5a4 1838 a1b0 df38
000000e0: 955f e139 07f7 1d3a e934 b339 1e52 4d39
000000f0: 410a 8e37 761f 353a fa3a ec38 2cde c63a
00000100: 0160 a237 3d0e e339 f019 8139 5a37 6639
00000110: c3cd 7b38 852f 193a 999c b139 73ca 9b3a
00000120: 43f3 3639 c7e4 613a f411 2539 713c 5939
00000130: 34ba ed39 d6ae 133a 04d6 8339 4be5 8839
00000140: 877b ad38 c4d7 673a a483 9439 a351 5f39
00000150: 516c dc39 171b 8e3a 7ece 153a 79ad c639
00000160: 6a6d 9539 e63f 8439 35ca 8239 eebd b838
00000170: 066c 203a 9833 813a 69a6 1f3a 00f5 2b3a
00000180: e0ca 013a ca7b 4e3a 7226 8e3a 0701 0c39
00000190: a99e 623a 8c17 413a 5d17 dd39 f043 1839
000001a0: 689f e839 e3b9 933a f953 1d38 8083 0e3a
000001b0: 2119 9738 6be7 0e3a 766c 723a 6272 c238
000001c0: 58a5 0636 b472 a638 b394 0b3a 0ebe 0439
000001d0: d528 2639 10f6 4139 a823 d03b 36aa a639
000001e0: 045c 043b 4f84 993a 7f6b a338 ee2e ac37
000001f0: ae75 e339 9a65 2c37 4ee9 8b39 9f2f be39
00000200: 36cd 9138 7c20 5938 b430 ae39 2d1c 5e38
00000210: bc1a a33a 35da 0939 8fef cf39 0933 8539
00000220: ba5c 2439 f2bb 1739 cbaf 2236 0f14 7738
00000230: bb98 b83a 2cc1 8238 f290 6439 3663 7438
00000240: 1c07 153a c533 373a befe 593a 826b d039
00000250: 38e9 1939 b9e0 6c3a 3044 603a 504c 0c37
00000260: 0056 7d39 bddc 3d3a 583e 543a d896 683a
00000270: d098 923a 7564 7639 3d91 0e3a 9d2e 9b36
00000280: f8d3 723a 32e1 3b39 e4d6 8f38 63d2 ab39
00000290: 4f04 fc39 0bee 1c39 78ea 6539 9556 be38
000002a0: b2ce 8638 0aab b13a ba5d 093a c324 0539
000002b0: eb04 b239 a6bc e138 f245 213a c92f ee39
000002c0: 5653 b739 e253 7639 ddbf 2838 469d 873a
000002d0: 1cd0 6a38 12b9 9839 21d7 1039 6029 c53a
000002e0: 2f5b 033a a121 2d3a e694 9c37 5f84 dd39
000002f0: 27c1 543a b8f5 013b 333c 8e3a c04f 6a3a
00000300: 67e1 6539 df15 503a 9d37 133a 876f 233b
00000310: 000f 0139 5eae 3c39 a509 9239 bd63 b339
00000320: e3b7 093a 4abd b938 303f 503a 5b7b 003a
00000330: 2cd9 2e39 15d7 773a cdbc 9439 2841 9139
00000340: 2572 bb38 4826 023a 98ba 1f3b 0a48 cc3a
00000350: 8138 2039 178d a039 c96b a639 bf77 133a
00000360: e6e9 623a 2355 263b 1bf5 5139 801e 6c3a
00000370: 65e6 3e39 ae95 bf39 0b5a ba39 3bba 823a
00000380: 5c6e 093a 9d13 b539 bd1c 5039 1b8a 2139
00000390: 13cb 5739 44a0 813a af2c ac39 2739 7139
000003a0: 39bb 8a39 6391 a438 913f 9a39 4e21 7039
000003b0: 0386 5a37 7260 0a3a 4c4b 0b39 edc0 2b39
000003c0: 3311 8d3a f70c b439 1f36 c039 5a13 a739
000003d0: e101 6b39 c38a 943a 37eb 4f3a a886 6c3a
000003e0: 60be cc38 477a 023b 3971 0e39 d595 cb38
000003f0: 7260 f038 a4c5 953a 1686 7939 b4e5 9538
