checkpoints/npslentest/model4.pt (torch, 339726 bytes, 7 tensors)

lstm.weight_ih_l0 f4 [512, 2]
0.107896924 0.07805469 -0.090862684 0.4820849 0.0808517 0.1016674 -0.017339299 0.055640206
0.44064665 0.42340735 -0.081619985 -0.0047381534 0.3229265 0.31324908 0.067164324 0.23136637
-0.017595645 0.10501988 0.13129959 0.22980735 -0.0725951 -0.07407278 0.23866539 0.2891214
0.24210209 0.13567042 -0.32392246 -0.112985834 0.08979352 0.15702176 -0.16034672 -0.26373252
0.28825867 0.32771876 0.11572202 0.068573005 0.73827386 1.1423548 0.48327112 0.30312523
0.2665055 0.05837992 0.2487261 0.13303392 0.07624469 0.43488932 0.4602187 -0.1721454
0.033030283 -0.048880905 0.15857887 0.393016 0.13158713 0.12269502 0.12779023 -0.049671814
0.43220398 0.044273507 0.26734453 0.13271932 0.21399318 0.1654159 0.09651377 0.07955174
0.3076294 0.33858094 0.13532428 0.0803098 0.35730162 0.51040167 0.2080725 0.07999957
0.38501698 0.0062737674 0.3008541 -0.17531571 -0.06279513 -0.06270361 0.19816253 0.22618888
0.43014064 0.3409008 0.21673667 0.15371236 0.041169208 -0.11688064 0.27191564 0.26860029
0.23599842 0.17080553 0.33378074 0.37032947 0.83330894 0.6373533 0.05329198 0.19350119
0.17687187 0.11850648 0.5864596 -0.01845616 0.21687944 0.022277933 0.14497267 -0.28142366
-0.01370067 0.369639 -0.029229298 0.402216 0.20445499 0.20329648 0.3890226 0.15817866
0.076159194 0.02423521 0.28047213 0.1395774 0.18684547 0.19207463 0.16417943 0.008138027
0.27115318 0.0054351306 0.27996692 0.24539055 0.39618704 0.12013637 0.28217018 0.14316192
0.27178323 -0.020150475 0.9369023 0.8071889 0.13505703 0.17535876 0.057048332 0.08287853
0.31240562 0.16418022 0.23518215 0.23588063 0.23483005 0.110377505 0.33075944 0.12575197
0.32906047 -0.044309 0.022135591 -0.08169963 0.11340988 0.013876848 0.15560408 0.22025773
0.47604334 0.02650413 0.33506247 0.17947294 0.24784441 -0.039656684 0.027090259 -0.12454478
0.29844522 0.39168018 0.27807975 0.4199244 0.3744547 0.10685722 0.3160235 0.2691671
0.20906349 0.04578756 0.19863068 0.11582464 -0.13739443 0.029268961 -0.09937141 0.058500074
0.20568943 0.07283332 0.052527655 -0.10443865 0.6561204 0.29426217 0.053332876 0.26984608
0.3715115 -0.06130922 0.38000143 0.37592983 0.312671 0.1197188 0.032104596 -0.012282146
0.44964483 0.22644423 0.4387459 0.23515482 0.6189359 0.2609288 0.013064603 0.2069499
0.0018263352 0.33778676 0.46756497 0.25281706 0.5067291 0.16294432 0.21599597 0.23206896
0.17589547 0.3484251 -0.081468545 -0.21285613 0.27240223 0.16400409 0.30685788 0.1465919
-0.143625 -0.07606203 0.1584083 0.20577379 0.13789111 -0.048187472 0.12676147 0.31836563
0.3121411 0.4484953 0.32891068 0.3106328 0.14325225 0.17620094 0.2817359 0.2290319
0.2989168 0.3333302 0.14734793 0.18468028 0.18498683 0.071251385 -0.035085004 0.81351286
0.46700794 0.27744734 0.05391284 0.07450227 0.0904809 -0.06767533 0.08672121 -0.06108462
0.07717104 0.23697087 0.1483315 -0.08953567 0.34248477 0.21570335 0.17923582 0.14090437
00000000: 10f9 dc3d 23db 9f3d 3716 babd d5d3 f63e
00000010: 9395 a53d ff36 d03d 250b 8ebc fce6 633d
00000020: 709c e13e d9c8 d83e 6128 a7bd 8342 9bbb
00000030: 9f56 a53e 2f62 a03e 738d 893d 4eeb 6c3e
00000040: be24 90bc aa14 d73d 6673 063e 9e52 6b3e
00000050: bdac 94bd 78b3 97bd b364 743e b807 943e
00000060: 9ce9 773e 30ed 0a3e 2ad9 a5be 1e65 e7bd
00000070: aae5 b73d 50ca 203e ee31 24be f307 87be
00000080: a496 933e c1ca a73e abff ec3d 0170 8c3d
00000090: 84ff 3c3f af38 923f 506f f73e 3b33 9b3e
000000a0: 6973 883e c81f 6f3d 0eb2 7e3e 0b3a 083e
000000b0: 2d26 9c3d d0a9 de3e c9a1 eb3e e246 30be
000000c0: c34a 073d 5837 48bd 8062 223e 6539 c93e
000000d0: c7be 063e 8747 fb3d 71db 023e ac74 4bbd
000000e0: d749 dd3e 2358 353d 62e1 883e 93e7 073e
000000f0: 0721 5b3e c962 293e 03a9 c53d 06ec a23d
00000100: 9a81 9d3e 7b5a ad3e 7392 0a3e 7779 a43d
00000110: 3df0 b63e afa9 023f f510 553e d1d6 a33d
00000120: f220 c53e 2d94 cd3b 8c09 9a3e f685 33be
00000130: bc9a 80bd c06a 80bd 1eeb 4a3e 0f9e 673e
00000140: 653b dc3e 8d8a ae3e 38f0 5d3e c666 1d3e
00000150: 0ba1 283d 1e5f efbd 8738 8b3e fa85 893e
00000160: 92a9 713e a5e7 2e3e 4fe5 aa3e d39b bd3e
00000170: bc53 553f 9629 233f b148 5a3d 2d25 463e
00000180: e61d 353e 86b3 f23d 3722 163f 5f31 97bc
00000190: a515 5e3e 3680 b63c b773 143e c316 90be
000001a0: c678 60bc 5341 bd3e 4872 efbc 41ef cd3e
000001b0: a65c 513e f42c 503e f82d c73e 96f9 213e
000001c0: 5af9 9b3d eb88 c63c 0b9a 8f3e 61ed 0e3e
000001d0: 6b54 3f3e 36af 443e a71e 283e 5c55 053c
000001e0: 97d4 8a3e 2e19 b23b d357 8f3e a947 7b3e
000001f0: 07d9 ca3e 0f0a f63d 9c78 903e 0a99 123e
00000200: 2c27 8b3e 9c12 a5bc d4d8 6f3f efa3 4e3f
00000210: 644c 0a3e 3f91 333e 83ab 693d 38bc a93d
00000220: a1f3 9f3e dc1e 283e 97d3 703e b18a 713e
00000230: 4a77 703e 9a0d e23d 4d59 a93e 20c5 003e
00000240: 9d7a a83e 5b7d 35bd b355 b53c 2352 a7bd
00000250: 7043 e83d b85b 633c ad56 1f3e 3e8b 613e
00000260: f4bb f33e 301f d93c 4f8d ab3e c1c7 373e
00000270: edca 7d3e 0c6f 22bd 64ec dd3c 5511 ffbd
00000280: d0cd 983e 4e8a c83e 7860 8e3e 5500 d73e
00000290: 87b8 bf3e f5d7 da3d d5cd a13e 45d0 893e
000002a0: bd14 563e bd8b 3b3d d765 4b3e 7835 ed3d
000002b0: 20b1 0cbe 76c5 ef3c 3d83 cbbd c69d 6f3d
000002c0: 40a0 523e a329 953d 3d27 573d eee3 d5bd
000002d0: 82f7 273f 88a9 963e 9373 5a3d 4429 8a3e
000002e0: c136 be3e 601f 7bbd 8c8f c23e e079 c03e
000002f0: 6a16 a03e 212f f53d 1c80 033d 0e3b 49bc
00000300: d937 e63e ffe0 673e 4da3 e03e 6dcc 703e
00000310: 9572 1e3f 7698 853e eb0c 563c adea 533e
00000320: a461 ef3a 63f2 ac3e ad64 ef3e 3d71 813e
00000330: 00b9 013f e0da 263e 0c2e 5d3e 7ca3 6d3e
00000340: f11d 343e c664 b23e fbd8 a6bd f5f6 59be
00000350: 4e78 8b3e b0f0 273e 7a1c 9d3e 301c 163e
00000360: 6f12 13be 69c6 9bbd c935 223e 5db6 523e
00000370: 5433 0d3e 3a60 45bd c2cd 013e d200 a33e
00000380: f5d0 9f3e 2da1 e53e fb66 a83e 430b 9f3e
00000390: b8b0 123e 056e 343e b03f 903e 5787 6a3e
000003a0: 9f0b 993e 42aa aa3e 60e2 163e d41c 3d3e
000003b0: 306d 3d3e 3fec 913d 4bb5 0fbd 6142 503f
000003c0: aa1b ef3e 940d 8e3e b6d3 5c3d a594 983d
000003d0: 0d4e b93d 5d99 8abd e49a b13d de33 7abd
000003e0: da0b 9e3d 7ea8 723e 36e4 173e 7a5e b7bd
000003f0: 2a5a af3e 57e1 5c3e 9889 373e 3c49 103e

lstm.weight_hh_l0 f4 [512, 128]
-0.03865058 0.10915826 0.050740425 0.008657704 0.062418155 0.09494192 0.19330513 0.089223236
-0.12444201 -0.097982444 -0.24527675 0.09769193 0.033779293 0.024025077 0.008415054 -0.067822844
-0.18919155 0.010258057 0.1546328 0.05510414 -0.00057168136 0.15451817 -0.09528763 0.13161452
0.087321155 -0.046013206 -0.20412458 -0.10223539 -0.1617715 0.10026159 -0.05830461 0.05266931
0.11437231 -0.096973784 0.107415125 -0.050276022 -0.16875891 0.07849144 -0.071856104 -0.116984114
-0.17998487 -0.11603796 -0.051914953 0.034036707 -0.0072412067 -0.049761895 -0.28934908 -0.04940441
0.044855256 -0.06497939 -0.060024314 -0.020526974 0.17517316 -0.020317424 0.09019661 -0.06355618
0.106307276 -0.0012668907 0.11486312 0.0059869415 0.020752799 0.15057069 0.048931047 2.3195338e-05
-0.057860307 0.106193565 0.0073190965 -0.0844544 -0.10748875 0.031860143 -0.13670784 0.020191066
0.0119076455 -0.0042363596 -0.017457867 0.008283959 -0.039359473 0.030637935 0.0160974 -0.012467943
0.07554735 0.12478671 0.16595873 -0.0341866 0.10108118 0.07252259 -0.0077875373 -0.09172107
-0.016367907 0.030033816 -0.01378737 -0.07698356 -0.11685104 0.048630428 0.062246647 0.03665159
0.061061993 -0.077451766 -0.0005328761 -0.16567628 0.005974462 -0.055087842 -0.040670212 0.106572405
0.09541427 -0.09485502 0.05748405 -0.02394123 -0.04946209 -0.014686771 0.13948603 0.030991958
-0.016178392 0.03917794 -0.06533473 0.13946393 -0.08569871 -0.02237783 -0.08469966 -0.05598252
-0.06392522 0.13111334 -0.02337826 0.076723926 -0.009460387 -0.05870982 -0.18648474 0.06313544
-0.068797894 -0.043967266 0.20467229 -0.090087675 0.06903699 0.003519679 0.24777476 0.0669844
-0.030599104 -0.05155648 -0.012518346 0.07443665 -0.04822808 0.08006334 -0.019850496 -0.0711793
-0.067148454 0.020788057 -0.13586725 -0.22055134 0.02609278 -0.17567913 0.12527159 -0.07245023
-0.010539883 -0.05564951 0.03422846 -0.078149416 -0.07696378 -0.068498224 -0.045688625 0.0550473
0.010684249 0.04095289 -0.022937957 -0.048353627 -0.0708856 0.092914924 -0.06540383 0.15171465
0.16400358 0.18480249 -0.06107029 -0.15892902 0.032678198 0.019696603 -0.027396088 0.09109452
0.01148495 -0.20240566 0.0006277535 -0.018142063 -0.17871146 0.074659705 -0.079598844 -0.20487885
0.0018762718 0.020928912 -0.17243075 -0.027664557 0.13699758 -0.094504975 -0.4982981 0.08738802
0.03271907 -0.331032 0.11467116 -0.035332236 0.07297866 -0.10370313 0.07940612 -0.2057067
0.09901225 0.27116933 0.015910503 -0.058575794 0.17777307 0.05551882 -0.49088988 -0.060836658
-0.19367634 -0.11682058 -0.061045732 0.13004 -0.012354879 0.07825428 0.037104193 -0.030697936
0.17365772 -0.125957 -0.0037514044 -0.08040897 -0.038672492 -0.13109662 -0.1630337 -0.09160592
-0.09048903 0.07604026 0.046847917 -0.03325066 -0.047040697 0.12377673 -0.024441674 -0.18462756
-0.07200551 -0.01658636 -0.017566705 0.1995727 0.0051966403 -0.013677998 0.039989185 0.05027754
0.035987698 -0.03298178 0.049394283 0.021122726 0.04269777 0.02388099 0.048838116 0.025109645
0.20017242 0.06750218 -0.090844415 0.0656294 0.004184633 -0.024815923 0.083239526 -0.019663483
00000000: 1250 1ebd 5e8e df3d 31d5 4f3d 0bd9 0d3c
00000010: 2eaa 7f3d e970 c23d c8f1 453e acba b63d
00000020: 74db febd 05ab c8bd d429 7bbe b512 c83d
00000030: 285c 0a3d 3dd0 c43c 4bdf 093c b4e6 8abd
00000040: 6ebb 41be 6911 283c 1058 1e3e e1b4 613d
00000050: e3dc 15ba 033a 1e3e 2926 c3bd f5c5 063e
00000060: 6fd5 b23d 5878 3cbd 0906 51be ca60 d1bd
00000070: 6ea7 25be f355 cd3d d1d0 6ebd c6bb 573d
00000080: 083c ea3d 319a c6bd 76fc db3d 3bee 4dbd
00000090: 23cf 2cbe 1fc0 a03d 4b29 93bd 5e95 efbd
000000a0: f44d 38be 4fa5 edbd c6a4 54bd 136a 0b3d
000000b0: a547 edbb 21d3 4bbd 9025 94be 475c 4abd
000000c0: 25ba 373d ea13 85bd 0edc 75bd 2f28 a8bc
000000d0: 9860 333e ba70 a6bc 00b9 b83d be29 82bd
000000e0: a1b7 d93d cc0d a6ba 5b3d eb3d 1b2e c43b
000000f0: c601 aa3c 342f 1a3e ec6b 483d 9c93 c237
00000100: eefe 6cbd 037c d93d 08d5 ef3b 6ef6 acbd
00000110: 1023 dcbd c87f 023d 24fd 0bbe bc67 a53c
00000120: 4918 433c 29d1 8abb cd03 8fbc 71b9 073c
00000130: 6637 21bd 68fc fa3c b2de 833c 5846 4cbc
00000140: 92b8 9a3d 2d90 ff3d 16f1 293e 4007 0cbd
00000150: a603 cf3d b986 943d 992e ffbb 42d8 bbbd
00000160: fd15 86bc 7a09 f63c 6ce4 61bc 8fa9 9dbd
00000170: 994f efbd b330 473d 57f6 7e3d fa1f 163d
00000180: 241c 7a3d 089f 9ebd b6b0 0bba 0ba7 29be
00000190: 6bc5 c33b caa3 61bd cf95 26bd a242 da3d
000001a0: 8f68 c33d 5943 c2bd 6574 6b3d 6620 c4bc
000001b0: c398 4abd c8a0 70bc 6dd5 0e3e d9e2 fd3c
000001c0: 8c88 84bc 0c79 203d 37ce 85bd a2cf 0e3e
000001d0: ce82 afbd b651 b7bc 0477 adbd ed4d 65bd
000001e0: 3aeb 82bd 9342 063e c483 bfbc 6f21 9d3d
000001f0: bdff 1abc b579 70bd dbf5 3ebe 274d 813d
00000200: e9e5 8cbd 0517 34bd 9d95 513e e37f b8bd
00000210: 4463 8d3d 6aaa 663b abb8 7d3e 1e2f 893d
00000220: f9aa fabc e32c 53bd c019 4dbc 3e72 983d
00000230: cf8a 45bd 40f8 a33d 829d a2bc 74c6 91bd
00000240: 2185 89bd b74b aa3c c920 0bbe 36d8 61be
00000250: 87c0 d53c 3be5 33be 3247 003e c960 94bd
00000260: 79af 2cbc bef0 63bd 2433 0c3d cd0c a0bd
00000270: 309f 9dbd cc48 8cbd ff23 3bbd 4779 613d
00000280: fd0c 2f3c 38be 273d 62e8 bbbc 740e 46bd
00000290: 782c 91bd 2e4a be3d 71f2 85bd 165b 1b3e
000002a0: 8ef0 273e dd3c 3d3e d724 7abd 4abe 22be
000002b0: 93d9 053d c55a a13c c36d e0bc c48f ba3d
000002c0: 5f2b 3c3c 6e43 4fbe d38f 243a aa9e 94bc
000002d0: 2300 37be 30e7 983d b804 a3bd c3cb 51be
000002e0: 3ced f53a 1c73 ab3c b091 30be c8a0 e2bc
000002f0: 1849 0c3e d38b c1bd ee20 ffbe 7df8 b23d
00000300: 6e04 063d 077d a9be b7d8 ea3d 89b8 10bd
00000310: d675 953d 4e62 d4bd ad9f a23d c7a4 52be
00000320: efc6 ca3d b5d6 8a3e be56 823c 2ced 6fbd
00000330: 250a 363e b467 633d eb55 fbbe dc2f 79bd
00000340: 1753 46be a13f efbd 170b 7abd 3529 053e
00000350: 1e6c 4abc c843 a03d 91fa 173d 3d7a fbbc
00000360: 54d3 313e dffa 00be 1fda 75bb 75ad a4bd
00000370: 0c67 1ebd 313e 06be 4ef2 26be e29b bbbd
00000380: 5052 b9bd ffba 9b3d 9ae3 3f3d d831 08bd
00000390: bfad 40bd a77e fd3d e839 c8bc 020f 3dbe
000003a0: a077 93bd 1ee0 87bc 0de8 8fbc c95c 4c3e
000003b0: 9448 aa3b af19 60bc b3cb 233d d2ef 4d3d
000003c0: d667 133d e717 07bd a951 4a3d 9109 ad3c
000003d0: dbe3 2e3d 11a2 c33c 7a0a 483d beb2 cd3c
000003e0: 00fa 4c3e 953e 8a3d a30c babd b568 863d
000003f0: 3f1f 893b c34a cbbc 7c79 aa3d 5015 a1bc

lstm.bias_ih_l0 f4 [512]
0.036427822 -0.0546446 0.069233425 0.18214346 0.10976918 0.074284524 0.059676513 0.09383918
0.03774426 -0.04111605 0.04888203 0.019647684 -0.024435414 0.036736306 -0.09412062 0.051679753
0.04465621 -0.084314466 0.08304876 0.09031151 0.094431244 0.1455518 -0.039710984 0.04329684
-0.02466995 0.160755 0.111188725 -0.02010337 0.07130607 0.102448665 0.13801408 0.19833827
0.3094726 0.27316532 0.14937942 0.049254756 0.22586426 0.06478037 0.096515745 -0.040756203
0.22664155 -0.10030027 0.10698919 -0.049943484 0.0033761577 0.31286913 0.027299972 0.185842
0.026504612 -0.040125016 0.039044816 0.11092921 0.047344837 0.07263322 -0.0309354 0.15110904
0.10472122 0.0372101 0.026797755 -0.08772758 0.09456631 -0.004897913 -0.04922105 0.022058597
0.097754344 -0.106784955 -0.089469366 0.06440986 0.28419572 -0.024202133 0.1858552 -0.035472777
-0.0086894315 -0.090144776 -0.15833549 -0.017810374 -0.041341994 -0.059693705 -0.030378545 0.0342723
0.1025114 -0.024690133 -0.105204165 0.047645107 -0.14322491 -0.0034679987 0.21924071 0.009967726
0.013548633 0.22337827 0.24494542 0.07545085 0.058438703 0.19125882 0.053681754 -0.01648759
0.19836044 0.13920425 0.17027141 0.0037684652 0.12942377 0.047349587 -0.07554989 0.052712083
0.056386672 -0.022916779 0.03159443 -0.053076617 -0.106964685 0.040852644 -0.07483082 0.079122014
-0.057993136 0.20969105 0.06659088 0.04376112 0.3142594 0.008434022 -0.10683681 0.14475486
-0.11091593 0.07756628 -0.17343795 -0.028478047 0.17594782 -0.037991464 -0.20240942 -0.09245875
-0.057897333 -0.07469935 0.15430725 -0.016206376 0.08759721 -0.0013153348 -0.14659512 0.059924934
0.059046376 0.09534297 -0.06318226 -0.03577374 0.018319681 -0.05411906 -0.0050602155 0.12668055
0.014935394 0.10175632 -0.008066856 -0.052908253 -0.012110259 0.014320094 -0.1259725 0.04717052
0.028851463 0.020367006 0.029869033 -0.10084579 -0.05010904 0.008753258 0.029801745 0.094270654
0.0012123117 -0.07356988 0.07914602 -0.03175993 0.04462902 -0.10526575 0.18017983 -0.028659452
0.015913727 -0.27099994 -0.024713887 0.038581006 -0.04715019 0.036014754 0.10153648 -0.05524544
0.045419425 -0.061006498 0.01884955 0.040789463 -0.112832285 0.057251614 -0.112560675 0.053039536
0.13839738 0.10976378 -0.24845392 -0.060507253 0.05444173 -0.071935296 0.013184532 0.021329232
0.106841266 -0.021796724 -0.033478577 -0.041061614 -0.06588165 0.005141964 -0.0037249345 -0.12176604
-0.04332181 -0.0037237708 -0.059929978 -0.016083442 0.008982909 -0.00081079314 -0.08718305 0.09450659
0.045477524 -0.06271438 -0.18033338 -0.078815944 0.039641965 -0.03907669 0.12288088 0.023525512
0.028992934 0.21814573 -0.116176404 -0.016789092 -0.040932603 -0.042822782 0.010323771 -0.047400083
0.107222386 -0.02224752 0.05039013 0.09717298 -0.017768532 -0.3031422 -0.049818795 -0.069915324
-0.0876076 -0.024148382 0.088911705 -0.07657416 -0.10424816 -0.11296205 -0.04143452 0.02259869
-0.03719118 0.054599125 0.06279775 -0.01859606 0.21817046 0.15665165 -0.051678725 -0.019375874
-0.2479418 0.021262906 -0.010944093 -0.074568115 -0.04174881 0.044854734 -0.21657431 0.13062733
00000000: 5735 153d 04d3 5fbd 41ca 8d3d d183 3a3e
00000010: aace e03d 7c22 983d 5c6f 743d c22e c03d
00000020: ba99 1a3d 4e69 28bd 8638 483d 2ef4 a03c
00000030: c72c c8bc cf78 163d 50c2 c0bd 26ae 533d
00000040: 6ee9 363d 10ad acbd 7815 aa3d 3ef5 b83d
00000050: 2b65 c13d 880b 153e fca7 22bd 0758 313d
00000060: a318 cabc f59c 243e eab6 e33d d3af a4bc
00000070: eb08 923d 9bd0 d13d 9053 0d3e 3019 4b3e
00000080: 3173 9e3e 53dc 8b3e ebf6 183e 5bbf 493d
00000090: f648 673e 92ab 843d 0caa c53d faef 26bd
000000a0: b914 683e 3a6a cdbd 261d db3d 8a91 4cbd
000000b0: 8742 5d3b 6230 a03e 31a4 df3c 5e4d 3e3e
000000c0: 3320 d93c 215a 24bd 75ed 1f3d db2e e33d
000000d0: a9ec 413d bac0 943d 3c6c fdbc 54bc 1a3e
000000e0: 1478 d63d 9e69 183d f786 db3c 84aa b3bd
000000f0: fbab c13d ac7e a0bb 039c 49bd 3bb4 b43c
00000100: 6e33 c83d 12b2 dabd b73b b7bd 51e9 833d
00000110: 1a82 913e 8d43 c6bc d350 3e3e e74b 11bd
00000120: 1e5e 0ebc d39d b8bd b322 22be 10e7 91bc
00000130: 3956 29bd 6381 74bd 6ddc f8bc 1c61 0c3d
00000140: 7ff1 d13d f642 cabc 4875 d7bd 8427 433d
00000150: 8da9 12be 5d47 63bb a380 603e ac4f 233c
00000160: 16fb 5d3c 46bd 643e f9d2 7a3e fa85 9a3d
00000170: 6c5d 6f3d 5ad9 433e 66e1 5b3d fb10 87bc
00000180: 001f 4b3e 8f8b 0e3e a15b 2e3e 5bf8 763b
00000190: aa87 043e a4f1 413d e7b9 9abd a0e8 573d
000001a0: b6f5 663d f8bb bbbc 2969 013d de66 59bd
000001b0: 4d10 dbbd 1a55 273d e740 99bd b90a a23d
000001c0: 368a 6dbd 40b9 563e cd60 883d dc3e 333d
000001d0: 9ce6 a03e da2e 0a3c 42cd dabd 9e3a 143e
000001e0: e427 e3bd 12db 9e3d b899 31be cb4a e9bc
000001f0: aa2b 343e f09c 1bbd 6a44 4fbe 035b bdbd
00000200: c125 6dbd f9fb 98bd b802 1e3e 3cc3 84bc
00000210: 2b66 b33d 5067 acba 081d 16be d973 753d
00000220: 9dda 713d 2d43 c33d b365 81bd 7c87 12bd
00000230: 2813 963c f3ab 5dbd 2ad0 a5bb 8cb8 013e
00000240: 95b3 743c 9e65 d03d d92a 04bc 53b6 58bd
00000250: 1c6a 46bc d49e 6a3c effe 00be e035 413d
00000260: e759 ec3c b5d8 a63c e7af f43c 3d88 cebd
00000270: 233f 4dbd d369 0f3c ca22 f43c f910 c13d
00000280: 6ee6 9e3a ceab 96bd 4f17 a23d b316 02bd
00000290: ebcc 363d 9295 d7bd 1081 383e 3ac7 eabc
000002a0: 815d 823c 81c0 8abe c774 cabc 1e07 1e3d
000002b0: 8f20 41bd 3584 133d 5cf2 cf3d 0b49 62bd
000002c0: b809 3a3d f3e1 79bd 5f6a 9a3c da12 273d
000002d0: 9d14 e7bd ab80 6a3d 3686 e6bd fc3f 593d
000002e0: 0bb8 0d3e d5cb e03d b46a 7ebe 74d6 77bd
000002f0: 4bfe 5e3d d052 93bd ef03 583c a4ba ae3c
00000300: 98cf da3d 0b8f b2bc d520 09bd 3930 28bd
00000310: f5ec 86bd ec7d a83b 081e 74bb 7960 f9bd
00000320: 3672 31bd 820a 74bb 2379 75bd 6cc1 83bc
00000330: 0d2d 133c 688b 54ba 078d b2bd ac8c c13d
00000340: a446 3a3d 6670 80bd 50a9 38be 416a a1bd
00000350: 9d5f 223d e10e 20bd f9a8 fb3d 93b8 c03c
00000360: 9782 ed3c 9861 5f3e e5ed edbd 4789 89bc
00000370: f2a8 27bd f166 2fbd 0925 293c 9726 42bd
00000380: 6997 db3d 6e40 b6bc e265 4e3d a102 c73d
00000390: 508f 91bc 7435 9bbe cb0e 4cbd c42f 8fbd
000003a0: 9d6b b3bd d4d2 c5bc 5717 b63d ead2 9cbd
000003b0: 0f80 d5bd a658 e7bd 3eb7 29bd e320 b93c
000003c0: c755 18bd 55a3 5f3d 1b9c 803d c456 98bc
000003d0: 1468 5f3e 4a69 203e 12ad 53bd 27ba 9ebc
000003e0: 75e4 7dbe 8c2f ae3c da4e 33bc 2bb7 98bd
000003f0: cd00 2bbd 99b9 373d a8c5 5dbe 2cc3 053e

lstm.bias_hh_l0 f4 [512]
0.006648624 0.0653128 0.13372685 0.27955034 0.05580862 -0.0053096884 0.036249667 0.10214693
0.1167566 -0.047360156 -0.022647468 0.023074029 0.105045564 0.018122852 -0.058522403 0.06462258
-0.08496825 -0.023409067 0.09007093 0.10227994 0.15585557 0.06368761 -0.15006901 0.09340087
-0.078970395 0.067648746 -0.00999514 -0.008139622 -0.023857625 0.089607604 0.004932004 0.07644592
0.22475159 0.21517691 0.15810981 -0.0070768935 0.132736 0.028356217 0.07815944 -0.05743638
0.13500436 0.06521224 -0.056303244 -0.07883065 -0.09559448 0.29048008 0.0945631 0.17527276
0.023986617 -0.025197636 0.117247395 0.032913513 -0.09612404 0.17962782 -0.047713738 0.1935583
0.10888166 0.05380577 0.015354731 -0.033134088 0.10135726 -0.004240377 -0.15434438 -0.03925993
0.10213423 -0.05500389 -0.14775291 0.123318866 0.16277379 0.04386347 0.30688027 -0.13233599
0.07915371 0.043517478 -0.074953645 0.08924098 -0.14386187 0.019233838 0.026516352 -0.02772433
-0.0010583907 -0.014520519 -0.101975694 0.049950916 -0.13421944 0.066309094 0.21944568 -0.06111231
-0.020788116 0.071198426 0.15382935 -0.0077948854 0.030063836 0.21904942 0.005918506 -0.06087747
0.16685675 0.16082318 0.011050434 0.045847367 0.116552755 -0.062234063 0.07733769 0.045124453
0.11264683 0.05144205 0.087547444 0.04420523 -0.09563654 -0.109281324 -0.088143155 0.025908496
0.044862233 0.18389663 -0.011059443 0.12190556 0.25516298 0.1409387 -0.0575413 0.033615243
-0.13390048 0.056768816 -0.055109367 0.047125705 0.16797799 -0.0123156365 -0.06899207 -0.028890887
-0.07002655 0.030102981 0.022959355 0.03272409 0.008629278 -0.01695192 -0.10989313 0.111342855
0.044080697 0.0050294423 0.066919155 -0.01382705 0.018904505 0.019999905 -0.08858359 -0.0011708473
-0.019599728 -0.017132845 -0.033139292 0.05202023 -0.026212946 -0.041541655 -0.043492474 -0.023250706
0.05398464 -0.042797893 -0.005134099 -0.018787894 0.009026471 0.11155003 0.062279258 0.03934683
0.10780509 -0.07743919 0.11546065 0.034980908 -0.0045800875 -0.045211993 0.1559262 0.05747008
0.056462016 -0.1678503 0.04329457 -0.029545346 0.04831024 0.05544864 0.04391641 -0.02898104
0.008267131 0.010345394 0.112603754 0.16295594 0.0048183333 0.017003087 -0.04959606 0.03290073
0.071456805 0.061096374 -0.24696349 -0.012717884 -0.02717916 0.06810618 -0.11124792 -0.13793397
-0.042625822 -0.055677734 -0.0006733418 0.018926334 0.0146163 -0.07237325 0.14586857 -0.11336855
-0.084656544 -0.11557656 0.042689297 0.015582183 -0.1558659 0.015399865 0.025937838 0.019792957
-0.038995564 0.016210604 -0.19648057 0.047337286 0.020891704 0.02498623 0.12540393 0.026083587
-0.08981731 0.11733853 -0.07923284 0.0723203 0.11244811 -0.03973269 0.045209337 -0.08053366
-0.00136509 -0.03722816 -0.019520544 -0.024300084 0.06885477 -0.19504549 -0.012384654 -0.09678203
-0.07062341 0.054132108 0.032677375 -0.092525564 -0.000364894 -0.09876529 -0.019011421 0.0025879086
-0.042623196 0.028578725 0.12880869 -0.14828417 0.20571385 0.0896467 -0.013056556 0.04630173
-0.16350003 -0.014366748 0.004683489 -0.030882563 0.10521751 0.013619204 -0.11259498 0.05357907
00000000: b3dc d93b b8c2 853d b1ef 083e 3921 8f3e
00000010: 9497 643d e5fc adbb 887a 143d 6932 d13d
00000020: 161e ef3d b9fc 41bd 2f87 b9bc bf05 bd3c
00000030: 2122 d73d 6076 943c 30b5 6fbd d858 843d
00000040: d503 aebd 5fc4 bfbc 1c77 b83d 2578 d13d
00000050: 9a98 1f3e a66e 823d b1ab 19be f548 bf3d
00000060: 3bbb a1bd 6d8b 8a3d a8c2 23bc 0d5c 05bc
00000070: 1171 c3bc 3184 b73d a69c a13b ae8f 9c3d
00000080: 4825 663e 5657 5c3e 8ae7 213e 49e5 e7bb
00000090: f2eb 073e 4c4b e83c 0e12 a03d 6942 6bbd
000000a0: 953e 0a3e ff8d 853d 3b9e 66bd f771 a1bd
000000b0: 0ac7 c3bd ceb9 943e 4caa c13d b47a 333e
000000c0: 957f c43c 466b cebc 671f f03d 52d0 063d
000000d0: aedc c4bd 5bf0 373e 7b6f 43bd 2634 463e
000000e0: 59fd de3d 7063 5c3d 6992 7b3c 9cb7 07bd
000000f0: 6594 cf3d dcf2 8abb 740c 1ebe 05cf 20bd
00000100: c02b d13d c24b 61bd 8a4c 17be 9a8e fc3d
00000110: 2cae 263e 2faa 333d 691f 9d3e 1683 07be
00000120: 571b a23d 623f 323d 4c81 99bd fac3 b63d
00000130: 8750 13be 4890 9d3c d238 d93c 221e e3bc
00000140: b3b9 8aba 79e7 6dbc a2d8 d0bd 5599 4c3d
00000150: d270 09be 10cd 873d 5eb6 603e e750 7abd
00000160: d74b aabc 7bd0 913d 7185 1d3e 3d6c ffbb
00000170: 6f48 f63c 7e4e 603e 07f0 c13b a75a 79bd
00000180: 7fdc 2a3e d5ae 243e e10c 353c 73ca 3b3d
00000190: 36b3 ee3d 25e9 7ebd 3963 9e3d 6bd4 383d
000001a0: 62b3 e63d e6b4 523d 134c b33d 8b10 353d
000001b0: 17dd c3bd e3ce dfbd 6684 b4bd 0e3e d43c
000001c0: 76c1 373d 664f 3c3e aa32 35bc 9fa9 f93d
000001d0: b9a4 823e 3c52 103e 6db0 6bbd 23b0 093d
000001e0: 351d 09be 6b86 683d 5cba 61bd e206 413d
000001f0: 6c02 2c3e 86c7 49bc b74b 8dbd 95ac ecbc
00000200: 146a 8fbd 879a f63c 4215 bc3c b209 063d
00000210: d161 0d3c c1de 8abc a60f e1bd b907 e43d
00000220: f68d 343d 05ce a43b e90c 893d da8a 62bc
00000230: 9fdd 9a3c d7d6 a33c 506b b5bd 1e77 99ba
00000240: 9c8f a0bc 2e5a 8cbc 11bd 07bd 2a13 553d
00000250: 88bc d6bc 9527 2abd 2a25 32bd 4478 bebc
00000260: ff1e 5d3d d84c 2fbd f23b a8bb 12e9 99bc
00000270: c3e3 133c 5874 e43d 8918 7f3d 242a 213d
00000280: eac8 dc3d 7098 9ebd a276 ec3d 2448 0f3d
00000290: 8f14 96bb 3630 39bd 1eab 1f3e bf65 6b3d
000002a0: b744 673d f3e0 2bbe a655 313d 1509 f2bc
000002b0: f5e0 453d 1d1e 633d b2e1 333d a569 edbc
000002c0: dc72 073c ba7f 293c cc9c e63d ecdd 263e
000002d0: 1ce3 9d3b 0f4a 8b3c 3d25 4bbd eac2 063d
000002e0: f257 923d 3140 7a3d ffe3 7cbe ac5e 50bc
000002f0: d4a6 debc 417b 8b3d f3d5 e3bd 903e 0dbe
00000300: 6a98 2ebd 560e 64bd 3483 30ba 660b 9b3c
00000310: 3579 6f3c 6d38 94bd 925e 153e c52d e8bd
00000320: 6960 adbd 67b3 ecbd f9da 2e3d 6a4c 7f3c
00000330: 4f9b 1fbe b74f 7c3c 977b d43c d724 a23c
00000340: d0b9 1fbd 1acc 843c 3432 49be bee4 413d
00000350: 1425 ab3c ecaf cc3c e369 003e 3fad d53c
00000360: 23f2 b7bd 2f4f f03d d444 a2bd aa1c 943d
00000370: 324b e63d bfbe 22bd 6d2d 393d d5ee a4bd
00000380: d2ec b2ba 8e7c 18bd 8ce9 9fbc f810 c7bc
00000390: bb03 8d3d 01ba 47be 01e9 4abc a835 c6bd
000003a0: 02a3 90bd a1b9 5d3d b6d8 053d 0b7e bdbd
000003b0: 3e4f bfb9 7545 cabd d7bd 9bbc e799 293b
000003c0: a995 2ebd ee1d ea3c 6de6 033e ced7 17be
000003d0: a7a6 523e b098 b73d 2aeb 55bc e2a6 3d3d
000003e0: 8d6c 27be 8262 6bbc f477 993b 6efd fcbc
000003f0: 477c d73d 1523 5f3c 3298 e6bd ba75 5b3d

h2o.0.weight f4 [128, 128]
0.046398446 -0.016640687 0.021274563 -0.07916063 -0.09264339 -0.019880038 -0.084973454 -0.0040854784
-0.064414285 0.014182947 0.0052036536 -0.06360622 -0.09643718 0.11405593 0.106003664 -0.038069136
0.23226449 -0.012295423 0.075845286 -0.019815937 -0.15727004 0.140754 0.08268798 -0.10187209
0.07376608 0.041256066 -0.013442737 -0.07205057 0.0040982193 0.02060444 0.07978035 -0.05119067
-0.120413736 0.05997454 -0.100328505 0.021569733 0.005653202 0.015099131 0.07076683 0.107017756
-0.02865972 0.054028694 0.0065152766 -0.044136684 0.08763925 0.09060329 -0.062783286 0.11317652
-0.15414946 -0.08870597 0.19610937 0.10739589 -0.0046594464 -0.091840915 0.02302111 0.078039855
0.05505236 -0.00048388657 -0.10050495 -0.11204562 0.086326 0.051276885 0.07657262 0.034883827
-0.009250034 -0.0013496769 0.113874525 0.025036842 -0.048626013 -0.06073709 -0.049172 -0.113388784
0.02482243 -0.020145435 0.10395806 0.02547694 -0.016013604 0.0624722 -0.010966746 0.08088611
-0.06844272 -0.0741186 -0.04660344 0.06447012 0.014434288 -0.09119387 -0.14013949 0.07576273
0.025079833 -0.023365213 0.025556037 0.04860995 -0.047846876 -0.030747706 0.033135626 0.13825244
0.049547624 -0.005715964 -0.17348222 0.015466434 -0.0074645486 -0.05084812 -0.041473124 -0.016570127
0.062303662 -0.04106309 -0.07149916 0.009265106 -0.045558956 0.07286186 -0.005426099 0.087199494
0.086057514 0.043058425 -0.02653829 -0.07444958 0.015631655 0.06585268 -0.025177179 -0.0062721665
0.0538179 -0.008919753 -0.0326088 0.016123379 0.069737755 0.02861537 0.07913917 -0.04870575
-0.03542229 0.051202714 -0.08010718 -0.10930352 -0.0040152995 -0.010613983 0.07278905 -0.008103225
-0.27411586 -0.012285029 0.03713544 -0.056528978 0.029305454 -0.01738682 -0.027809555 -0.073376924
0.0719799 -0.045450874 -0.04967279 0.14248504 0.038571484 0.41602948 -0.29295704 0.074717246
-0.0074046818 -0.074241355 -0.102654375 -0.0074788276 -0.09264595 0.0113841565 0.06523889 0.05443839
-0.032607026 -0.11073955 0.064027786 -0.080594964 0.007941561 0.28837833 0.07420553 -0.065178044
-0.1458192 -0.19282417 -0.046186198 -0.023680171 0.049524345 0.06490283 -0.28435394 -0.09167416
-0.0053333887 -0.054425795 -0.061646365 -0.028580906 0.29362217 0.0787311 0.15466224 -0.016205842
0.03434342 -0.04758449 0.21131736 -0.053737797 -0.029481879 0.06273677 0.1067915 0.014975038
0.07733275 0.62282807 -0.07597456 -0.0061941845 0.09480749 0.39512315 0.020911021 0.1772549
0.02513599 -0.048233498 0.017513057 0.08329499 -0.07634521 -0.09096559 0.035032067 -0.070460185
0.06956088 0.02391206 0.15856366 -0.032193795 -0.036111895 -0.03464263 -0.064969435 0.10625439
0.033929117 -0.0045024063 0.04537787 -0.0009183052 -0.036698394 0.153368 0.2747131 0.2447878
0.084974594 -0.3497245 -0.04166982 -0.09626879 -0.116475575 -0.41875422 -0.069133535 0.13745612
0.2789672 -0.0027447229 0.33437133 -0.29759642 -0.0038625505 0.03514723 0.008595263 -0.1088544
0.016530592 0.37937766 0.050857894 0.28413966 -0.0018767487 0.04842787 -0.04588022 0.013761822
-0.41833705 0.00079354475 0.04884218 0.04551192 -0.008503966 0.02409461 -0.38886896 0.018199334
00000000: 4c0c 3e3d 0d52 88bc fe47 ae3c f81e a2bd
00000010: d1bb bdbd 76db a2bc 9006 aebd 7adf 85bb
00000020: a3eb 83bd 975f 683c 6983 aa3b fa43 82bd
00000030: db80 c5bd 2896 e93d 7318 d93d 62ee 1bbd
00000040: bed6 6d3e be72 49bc c654 9b3d 0855 a2bc
00000050: 660b 21be d121 103e 5158 a93d 50a2 d0bd
00000060: ac12 973d 1ffc 283d ed3e 5cbc 408f 93bd
00000070: 5b4a 863b a4ca a83c e163 a33d 4fad 51bd
00000080: 7a9b f6bd dda7 753d 0879 cdbd 02b3 b03c
00000090: 7f3e b93b 5862 773c 33ee 903d 202c db3d
000000a0: cac7 eabc 314d 5d3d 1a7e d53b abc8 34bd
000000b0: 357c b33d 388e b93d 8694 80bd 17c9 e73d
000000c0: 5bd9 1dbe 7aab b5bd e5d0 483e 60f2 db3d
000000d0: 45ae 98bb 1717 bcbd c496 bc3c 5cd3 9f3d
000000e0: 957e 613d 28b2 fdb9 8ad5 cdbd 2d78 e5bd
000000f0: b0cb b03d b607 523d 1bd2 9c3d 58e2 0e3d
00000100: 748d 17bc a4e7 b0ba 0c37 e93d 101a cd3c
00000110: 122c 47bd 74c7 78bd 9468 49bd 6138 e8bd
00000120: 6958 cb3c 0a08 a5bc f7e7 d43d 04b5 d03c
00000130: f62e 83bc d9e2 7f3d dead 33bc 9ea7 a53d
00000140: b22b 8cbd 7ecb 97bd 40e3 3ebd e908 843d
00000150: cb7d 6c3c dac3 babd ba80 0fbe 7d29 9b3d
00000160: 3974 cd3c 6768 bfbc e55a d13c 3a1b 473d
00000170: 16fb 43bd 9de2 fbbc 39b9 073d 0c92 0d3e
00000180: 73f2 4a3d fb4c bbbb 53a5 31be ed66 7d3c
00000190: 2c99 f4bb 1e46 50bd b9df 29bd 13be 87bc
000001a0: 2032 7f3d c531 28bd 276e 92bd accc 173c
000001b0: 079c 3abd 9938 953d 6bcd b1bb a695 b23d
000001c0: ec3e b03d 085e 303d d466 d9bc 0579 98bd
000001d0: f50d 803c c5dd 863d 5f40 cebc bf86 cdbb
000001e0: 2970 5c3d 2824 12bc ce90 05bd 2d15 843c
000001f0: abd2 8e3d c86a ea3c b813 a23d ae7f 47bd
00000200: f716 11bd f0b9 513d 3c0f a4bd 86da dfbd
00000210: c692 83bb 45e6 2dbc 6d12 953d 64c3 04bc
00000220: ea58 8cbe 2547 49bc 551b 183d ee8a 67bd
00000230: fe11 f03c ce6e 8ebc ddd0 e3bc a446 96bd
00000240: 336a 933d b22a 3abd b275 4bbd 99e7 113e
00000250: 22fd 1d3d d101 d53e 77fe 95be 5b05 993d
00000260: f9a2 f2bb da0b 98bd 753c d2bd f410 f5bb
00000270: 29bd bdbd 9d84 3a3c f89b 853d cafa 5e3d
00000280: f28e 05bd 6bcb e2bd 0021 833d f90e a5bd
00000290: 521d 023c 53a6 933e 12f9 973d 117c 85bd
000002a0: a151 15be b373 45be bd2d 3dbd ebfc c1bc
000002b0: 0ada 4a3d c6eb 843d d796 91be a9bf bbbd
000002c0: b5c3 aebb 95ed 5ebd e680 7cbd 8122 eabc
000002d0: a555 963e c53d a13d c75f 1e3e 1dc2 84bc
000002e0: b0ab 0c3d f4e7 42bd 9463 583e 2a1c 5cbd
000002f0: fb83 f1bc 237c 803d 80b5 da3d dd59 753c
00000300: a260 9e3d a971 1f3f 8d98 9bbd 96f8 cabb
00000310: 6e2a c23d 954d ca3e 974d ab3c 4f82 353e
00000320: fee9 cd3c 7d90 45bd 8b77 8f3c 9096 aa3d
00000330: e15a 9cbd 2b4c babd c97d 0f3d 6e4d 90bd
00000340: ef75 8e3d 39e3 c33c 835e 223e a4dd 03bd
00000350: 11ea 13bd 6ee5 0dbd b20e 85bd e79b d93d
00000360: 42f9 0a3d ec88 93bb 25de 393d 6bba 70ba
00000370: 0e51 16bd 800c 1d3e 32a7 8c3e a7a9 7a3e
00000380: 2907 ae3d 170f b3be f9ad 2abd 9228 c5bd
00000390: bf8a eebd f466 d6be e295 8dbd 4cc1 0c3e
000003a0: cad4 8e3e cfe0 33bb b832 ab3e 8f5e 98be
000003b0: d822 7dbb 8bf6 0f3d 25d3 0c3c 0eef debd
000003c0: 2a6b 873c ca3d c23e 5e50 503d c17a 913e
000003d0: 3dfd f5ba 4d5c 463d e6ec 3bbd 4479 613c
000003e0: 4630 d6be e305 503a bd0e 483d b56a 3a3d
000003f0: 3854 0bbc 0f62 c53c d519 c7be c516 953c

h2o.0.bias f4 [128]
0.009920348 0.10526136 0.05869431 -0.08146942 0.009170595 0.11011063 0.036494162 -0.0135140605
0.027007652 -0.026941612 -0.08196939 0.0611499 0.048511907 0.045355573 0.015911749 -0.10293395
0.12761098 0.119794786 -0.09540301 0.06478389 0.09840057 -0.008051543 0.008792142 0.04845502
0.013401728 -0.06799137 0.032256905 0.058992997 0.017979054 0.09188806 -0.06602649 -0.05632586
-0.020743486 0.038535446 -0.059463643 -0.10046948 0.107972495 0.015952852 -0.07938091 -0.09987788
-0.0010680761 -0.07722514 -0.0026731496 -0.027446808 0.031231869 -0.03324297 0.020864509 0.050121155
-0.07958928 0.06601011 -0.08483531 -0.03916464 0.12512027 -0.11026061 -0.047391776 0.14658873
-0.024514815 -0.06455342 0.039326675 -0.076539025 0.03550251 0.06708637 0.07584078 0.05459654
0.059681963 0.008425985 0.0126415 0.12061869 -0.04714252 0.10378789 -0.09095717 -0.009674999
0.055549383 0.11741182 0.09228861 0.13148949 0.052043106 -0.05165299 -0.004260621 0.11251113
-0.03651593 0.03995626 -0.07859215 0.033960387 -0.060165823 -0.08449748 -0.04446596 0.08480666
0.032962598 -0.08668299 0.08175428 0.07654744 0.022892017 -0.10245821 0.113340825 0.039016828
0.05361082 -0.090860866 -0.034153543 -0.112645894 0.05411724 0.048924595 0.048555296 0.08346528
-0.033895362 0.117598206 0.043513842 -0.016025953 -0.097627714 0.1224771 0.0973083 0.111179724
0.11656588 0.02536173 0.079888605 0.06676655 0.019598182 -0.042791553 0.078924544 0.13964249
0.09520099 0.07217151 0.1089105 -0.09886289 0.04167074 0.019374164 0.12159942 -0.10493393
00000000: f588 223c 4593 d73d 7269 703d 70d9 a6bd
00000010: 4340 163c af81 e13d e77a 153d 146a 5dbc
00000020: 273f dd3c a8b4 dcbc 91df a7bd 5178 7a3d
00000030: 6cb4 463d c4c6 393d 5b59 823c 09cf d2bd
00000040: 74ac 023e f856 f53d a762 c3bd 6bad 843d
00000050: 3d86 c93d 9eea 03bc eb0c 103c c578 463d
00000060: ec92 5b3c 0f3f 8bbd d11f 043d a4a2 713d
00000070: cf48 933c cf2f bc3d e538 87bd f2b5 66bd
00000080: 3eee a9bc 58d7 1d3d 2690 73bd f1c2 cdbd
00000090: af20 dd3d 8eaf 823c 7592 a2bd c68c ccbd
000000a0: b0fe 8bba 3728 9ebd 0230 2fbb 21d8 e0bc
000000b0: fad9 ff3c c829 08bd 0cec aa3c d74b 4d3d
000000c0: b4ff a2bd 4f30 873d 23be adbd 1a6b 20bd
000000d0: 871f 003e 51d0 e1bd e11d 42bd 5b1b 163e
000000e0: 4bd3 c8bc 9534 84bd 0215 213d 7ec0 9cbd
000000f0: 146b 113d 9464 893d 6952 9b3d 9fa0 5f3d
00000100: 1375 743d 250d 0a3c 4b1e 4f3c ef06 f73d
00000110: 8418 41bd bf8e d43d c147 babd e383 1ebc
00000120: c087 633d 9c75 f03d d001 bd3d 2ea5 063e
00000130: 272b 553d 1692 53bd ae9c 8bbb 3c6c e63d
00000140: ba91 15bd 2da9 233d ecf4 a0bd 0c1a 0b3d
00000150: 7070 76bd 040d adbd f021 36bd 1daf ad3d
00000160: ca03 073d da86 b1bd ca6e a73d e7c4 9c3d
00000170: 0a88 bb3c 9cd5 d1bd 3c1f e83d 1cd0 1f3d
00000180: 0597 5b3d 4315 babd 96e4 0bbd e4b2 e6bd
00000190: 0aaa 5d3d 2865 483d ebe1 463d d8ef aa3d
000001a0: ddd5 0abd 54d7 f03d 923b 323d dc48 83bc
000001b0: 0af1 c7bd 46d5 fa3d 9349 c73d 32b2 e33d
000001c0: 18ba ee3d 67c3 cf3c a39c a33d e7bc 883d
000001d0: 5e8c a03c 3246 2fbd 31a3 a13d 71fe 0e3e
000001e0: bdf8 c23d a8ce 933d 780c df3d a078 cabd
000001f0: f0ae 2a3d 91b6 9e3c 1e09 f93d 9ae7 d6bd

h2o.2.weight f4 [1, 128]
0.020710133 0.1976738 -0.2831162 -0.046457976 -0.055478357 0.20437755 -0.012508336 -0.09961145
-0.018061295 0.22888695 -0.011802736 0.22136636 0.19634534 0.23407048 -0.10836061 -0.0699216
0.1861882 -0.2708121 -0.053873677 0.24376966 0.21846375 0.26101524 -0.0012098299 -0.1897922
0.1954491 0.06644453 0.10566753 0.06276397 0.2549572 0.22617495 -0.051202193 -0.04545493
-0.0131475255 -0.034446385 -0.0017691706 0.03889906 0.21045084 -0.05538345 0.005241877 -0.03016686
0.2746452 -0.053835172 -0.20360915 -0.20639746 -0.06657434 -0.10968012 0.18572849 0.23404668
-0.019541075 -0.041024525 0.011304514 -0.07079225 0.17429176 0.0058797197 -0.0016736073 0.18372746
-0.0966853 -0.0003760337 -0.3087817 0.05433296 0.18437737 0.23625325 0.22143379 0.1942818
-0.19431794 0.22640957 0.26828846 0.2569625 -0.07210642 0.22905609 -0.21585368 -0.002552451
-0.004062038 0.23146711 0.28917146 0.23042476 0.051751442 -0.114467025 -0.0394914 0.20300551
-0.095533416 0.26039568 -0.06053144 0.2653208 -0.053212054 0.0009972412 -0.008154963 0.20010532
0.16300793 -0.018230755 -0.32716778 0.3170094 0.2719224 -0.021362491 0.13390426 -0.15446907
-0.0029037485 -0.12538601 -0.0068750824 -0.08278969 -0.016448872 0.0250801 0.05050123 0.19531852
-0.073689036 0.2202916 0.29449973 -0.03799257 -0.025680574 0.22315438 0.20686708 0.20010261
0.17592081 -0.021805396 -0.206149 0.23070915 0.25546786 0.052812036 0.15340182 0.2580479
0.1688133 0.23634219 0.23400557 -0.0032707744 0.22755828 0.2535382 0.22308981 0.0034178267
00000000: 4ca8 a93c 006b 4a3e 9bf4 90be b84a 3ebd
00000010: 463d 63bd 5948 513e c4ef 4cbc 1701 ccbd
00000020: 48f5 93bc 5761 6a3e 4360 41bc ddad 623e
00000030: c10e 493e 2cb0 6f3e 2bec ddbd 0e33 8fbd
00000040: 1fa8 3e3e e2a7 8abe a5aa 5cbd c19e 793e
00000050: f6b4 5f3e caa3 853e 2893 9eba e358 42be
00000060: cf23 483e 1214 883d 3868 d83d 658a 803d
00000070: c089 823e 689a 673e 64b9 51bd f32e 3abd
00000080: b868 57bc a717 0dbd 84e3 e7ba 9f54 1f3d
00000090: 6d80 573e c2d9 62bd 0dc4 ab3b 7e20 f7bc
000000a0: 4c9e 8c3e 4582 5cbd eb7e 50be db59 53be
000000b0: 2158 88bd f99f e0bd 9c2f 3e3e efa9 6f3e
000000c0: 9b14 a0bc 5509 28bd 9136 393c 87fb 90bd
000000d0: 8a79 323e aaaa c03b f15c dbba 0d23 3c3e
000000e0: f102 c6bd 6426 c5b9 a318 9ebe 3d8c 5e3d
000000f0: 6ccd 3c3e 5fec 713e 8abf 623e cff1 463e
00000100: 48fb 46be e9d7 673e 1b5d 893e 9790 833e
00000110: 88ac 93bd ae8d 6a3e bf08 5dbe 0647 27bb
00000120: d81a 85bb b705 6d3e 480e 943e 78f4 6b3e
00000130: 52f9 533d b06d eabd bcc1 21bd ade0 4f3e
00000140: 06a7 c3bd 9552 853e d1ef 77bd 21d8 873e
00000150: e2f4 59bd ddb5 823a 659c 05bc 69e8 4c3e
00000160: 8deb 263e aa58 95bc 8982 a7be 0e4f a23e
00000170: 6a39 8b3e 6400 afbc 331e 093e 242d 1ebe
00000180: d14c 3ebb 3165 00be 5f48 e1bb a48d a9bd
00000190: c9bf 86bc c874 cd3c 61da 4e3d 9401 483e
000001a0: 47ea 96bd 1f94 613e abc8 963e 199e 1bbd
000001b0: 1160 d2bc 9582 643e f7d4 533e b3e7 4c3e
000001c0: 9624 343e 3ba1 b2bc b918 53be 053f 6c3e
000001d0: afcc 823e 6f51 583d 5e15 1d3e db1e 843e
000001e0: 65dd 2c3e b003 723e 289f 6f3e 7d5a 56bb
000001f0: 0a05 693e c2cf 813e a871 643e 9efd 5f3b
