checkpoints/cp3_600epochs.pt (torch, 19927 bytes, 5 tensors)

rnn.weight_ih_l0 f4 [64, 1]
-0.016242452 -0.046506897 0.07880869 0.045585584 0.071415596 0.109582454 0.020982588 0.06529345
0.036677707 0.036996745 -0.09990894 -0.11645105 -0.008078033 0.07707704 0.019944172 -0.085315585
-0.052528013 0.052577373 -0.04958214 -0.11385411 -0.024880711 0.011378833 0.08964881 0.107244626
0.060212623 0.104807526 0.09205034 -0.035751406 -0.025852818 0.008600869 0.07148306 -0.047180858
0.076842286 0.07129739 0.046396494 -0.09418871 -0.11864135 0.04226438 0.06741713 0.09683391
-0.10824371 -0.0078082355 -0.05327332 -0.094028264 -0.052169286 -0.004181254 0.06428582 0.14780428
-0.097319975 -0.058327794 0.15619859 -0.11879546 -0.021912185 -0.061462335 -0.1199799 -0.085092634
0.06832963 0.033537153 -0.026982855 0.23181583 0.1761676 -0.056191504 0.107702434 0.07756632
00000000: e40e 85bc 047e 3ebd 7366 a13d f3b7 3a3d
00000010: 5742 923d c46c e03d ade3 ab3c 93b8 853d
00000020: 5d3b 163d e689 173d 0f9d ccbd e37d eebd
00000030: ba59 04bc 91da 9d3d f661 a33c f0b9 aebd
00000040: 9d27 57bd 5f5b 573d a416 4bbd 582c e9bd
00000050: a2d2 cbbc 496e 3a3c cc99 b73d 12a3 db3d
00000060: 83a1 763d 54a5 d63d e384 bc3d 1170 12bd
00000070: 4ac9 d3bc a9ea 0c3c b665 923d b740 41bd
00000080: 7d5f 9d3d 5e04 923d 400a 3e3d 03e6 c0bd
00000090: 3cfa f2bd 6a1d 2d3d fe11 8a3d db50 c63d
000000a0: e1ae ddbd 3adc ffbb 2035 5abd e491 c0bd
000000b0: 76af 55bd e702 89bb 49a8 833d 015a 173e
000000c0: b24f c7bd 20e9 6ebd 86f2 1f3e 094b f3bd
000000d0: 2f81 b3bc eebf 7bbd 06b8 f5bd 0c45 aebd
000000e0: 68f0 8b3d 415e 093d 260b ddbc 2161 6d3e
000000f0: 4865 343e 1029 66bd 1893 dc3d 17db 9e3d

rnn.weight_hh_l0 f4 [64, 64]
-0.053168938 -0.04261312 -0.03816657 0.07257959 -0.09673667 0.10059787 -0.025476914 0.12415705
0.03619248 -0.09210727 0.017300084 -0.061046682 0.03551024 0.03048998 -0.10473387 0.008734078
0.08516757 0.08988737 0.007062152 0.005582281 0.06442891 -0.119168006 -0.10942674 0.042074945
0.077957354 -0.11146722 -0.07956304 -0.08953581 0.05092895 0.10076314 -0.121331766 0.004147117
-0.007916898 -0.089101136 -0.059861243 0.07286534 0.079943016 0.0118566 0.115116216 0.08513656
-0.11398417 -0.1103045 0.020940391 -0.088348806 -0.037623122 -0.0030569986 0.12488957 -0.08800074
-0.07290107 -0.05191192 -0.0550143 -0.06612666 0.1155114 0.0015309304 0.071306504 -0.034069903
0.11647346 -0.10807037 -0.03237211 0.010643742 0.060777586 -0.033989467 0.04418352 -0.09984758
0.0068851262 -0.050318286 0.0066232085 0.026118085 0.07107195 -0.06471287 0.021942988 0.03398885
0.09478514 -0.0052966326 0.11965902 -0.0073392913 -0.099038824 0.06281477 -0.06662975 0.11430195
-0.009752154 0.08137715 -0.08868092 0.11143549 0.044444144 0.056497797 -0.10511744 -0.03683617
-0.03433744 -0.008533604 -0.08256283 -0.036577314 -0.09226525 0.016427815 -0.06032805 -0.098410964
0.061888486 -0.11316599 0.10598579 -0.088815376 0.12134087 0.107958674 -0.0711918 0.016421974
0.07352765 -0.013530098 0.072857305 -0.064187646 -0.12025752 -0.039615445 0.082566455 0.0242462
-0.110765874 0.038420305 -0.10089047 -0.07722176 -0.005479209 -0.022018842 0.07607551 -0.060824953
-0.09527641 -0.06425597 0.097241 -0.012981057 -0.08408521 0.016824633 -0.033891425 0.018612117
-0.071625344 0.07505529 -0.02521321 -0.098362915 -0.0044382317 0.07401572 -0.07081725 0.019492062
0.087751605 0.040156852 -0.06570567 -0.06547801 -0.06248093 0.11370798 0.06859061 0.12318687
0.12069268 0.10393894 -0.04434362 0.0579248 -0.03076096 -0.09443004 -0.06788557 0.011783577
0.033739917 -0.11424877 0.03782407 -0.083741084 -0.052442018 -0.07127904 -0.1159317 -0.035791963
0.02573533 -0.0045082895 -0.03364917 -0.00533358 -0.088351086 0.10639771 -0.032981962 -0.04985923
0.09065665 -0.07124866 -0.05949168 0.0768454 0.08109315 -0.003398188 0.038510732 -0.057332642
0.07120287 -0.023815256 0.1081312 0.07280682 -0.102611415 -0.12491119 -0.058133226 -0.028900884
0.061568387 0.008171311 -0.11200369 0.082311295 0.09842358 -0.0486705 -0.021568745 -0.10775106
0.047104824 -0.08007546 0.09476484 0.16986918 -0.11228542 -0.07705936 0.16959193 0.06875272
0.078731954 -0.11579842 0.098747365 0.034935776 0.12045382 -0.096552916 -0.1066479 -0.07508039
0.120609 0.037793927 0.0768919 0.1038025 0.123655975 -0.10747561 -0.052895494 0.048971556
-0.03782175 0.12859504 0.112216815 0.11093054 -0.023455806 0.07748592 0.11894679 -0.03786459
0.018760592 0.09981426 -0.06852947 -0.029694898 -0.11841415 -0.026802843 0.066150635 0.03348718
-0.034502372 -0.09721744 0.0089024175 -0.026315905 -0.0135254115 0.07694472 -0.02715908 0.006427571
-0.038745347 0.04327364 0.072060324 -0.12432403 0.116527975 -0.048663124 0.15831472 0.02101028
-0.06634305 0.11621223 0.09184641 0.1609628 0.044025812 0.005825824 -0.031424463 0.04432761
00000000: acc7 59bd 188b 2ebd 8d54 1cbd 9ca4 943d
00000010: e01d c6bd 4206 ce3d f6b4 d0bc 0d46 fe3d
00000020: 913e 143d bda2 bcbd e8b8 8d3c 160c 7abd
00000030: 2f73 113d 1fc6 f93c b67e d6bd 6119 0f3c
00000040: 566c ae3d df16 b83d a069 e73b 91eb b63b
00000050: 4ef3 833d 5b0e f4bd 201b e0bd c756 2c3d
00000060: 1ba8 9f3d ed48 e4bd f2f1 a2bd 8d5e b7bd
00000070: e09a 503d e85c ce3d ca7c f8bd 8ae4 873b
00000080: e0b5 01bc a87a b6bd 1031 75bd 6c3a 953d
00000090: 2ab9 a33d 2f42 423c 0dc2 eb3d 145c ae3d
000000a0: 8870 e9bd 53e7 e1bd 2f8b ab3c 38f0 b4bd
000000b0: b41a 1abd ed57 48bb 1ac6 ff3d bb39 b4bd
000000c0: 284d 95bd 98a1 54bd ad56 61bd 6a6d 87bd
000000d0: 3e91 ec3d 80a9 c83a 2509 923d e28c 0bbd
000000e0: a389 ee3d 0054 ddbd 9e98 04bd 1763 2e3c
000000f0: ebf1 783d 8a38 0bbd c7f9 343d e37c ccbd
00000100: a09c e13b 8c1a 4ebd 8007 d93b 98f5 d53c
00000110: 2c8e 913d 2e88 84bd c8c1 b33c e437 0b3d
00000120: b61e c23d 608f adbb ca0f f53d 707e f0bb
00000130: ded4 cabd 08a5 803d 2e75 88bd 2417 ea3d
00000140: 80c7 1fbc 10a9 a63d 589e b5bd 4a38 e43d
00000150: 100b 363d 3c6a 673d d047 d7bd 86e1 16bd
00000160: 6aa5 0cbd 88d0 0bbc b316 a9bd 18d2 15bd
00000170: 90f5 bcbd a093 863c 8c1a 77bd b08b c9bd
00000180: c87e 7d3d 92c3 e7bd 140f d93d d6e4 b5bd
00000190: 9081 f83d 7019 dd3d 02cd 91bd 6087 863c
000001a0: aa95 963d 58ad 5dbc 3636 953d d074 83bd
000001b0: 9349 f6bd ce43 22bd 9a18 a93d f89f c63c
000001c0: 38d9 e2bd 9c5e 1d3d aa9f cebd 7126 9ebd
000001d0: f08a b3bb dc60 b4bc 7acd 9b3d 9623 79bd
000001e0: 4720 c3bd a298 83bd 4a26 c73d 80ae 54bc
000001f0: de34 acbd d0d3 893c bcd1 0abd 7078 983c
00000200: 4fb0 92bd 96b6 993d ef8b cebc 7f72 c9bd
00000210: 966e 91bb 8e95 973d a208 91bd d1ad 9f3c
00000220: 1db7 b33d 837b 243d b290 86bd 5619 86bd
00000230: 01ec 7fbd bbdf e83d 3c79 8c3d 6649 fc3d
00000240: b92d f73d f0dd d43d a8a1 35bd 8e42 6d3d
00000250: 69fe fbbc 8964 c1bd 9707 8bbd e70f 413c
00000260: de32 0a3d 42fb e9bd 69ed 1a3d 7280 abbd
00000270: 71cd 56bd bffa 91bd 996d edbd 989a 12bd
00000280: e6d2 d23c 46ba 93bb b6d3 09bd 50c5 aebb
00000290: 6af1 b4bd 0be7 d93d 1818 07bd 3139 4cbd
000002a0: 32aa b93d d1ea 91bd 8cad 73bd 1f61 9d3d
000002b0: 2a14 a63d 22b4 5ebb 6ebd 1d3d a2d5 6abd
000002c0: cfd2 913d 3618 c3bc e473 dd3d be1b 953d
000002d0: ef25 d2bd 70d1 ffbd 1b1d 6ebd 8cc1 ecbc
000002e0: 222f 7c3d f6e0 053c 3162 e5bd d392 a83d
000002f0: 4d92 c93d b85a 47bd f0b0 b0bc 96ac dcbd
00000300: fdf0 403d 9afe a3bd 1214 c23d 30f2 2d3e
00000310: e6f5 e5bd 4cd1 9dbd 82a9 2d3e 3ace 8c3d
00000320: 383e a13d b927 edbd 0f3c ca3d d118 0f3d
00000330: 7eb0 f63d 89bd c5bd 376a dabd bfc3 99bd
00000340: da01 f73d cecd 1a3d 8079 9d3d 6896 d43d
00000350: 583f fd3d 2c1c dcbd f2a8 58bd 6696 483d
00000360: fbea 1abd 6bae 033e eed1 e53d 8d2f e33d
00000370: 6426 c0bc f0b0 9e3d 609a f33d e617 1bbd
00000380: d0af 993c 6b6b cc3d 2e59 8cbd b742 f3bc
00000390: 1e83 f2bd a391 dbbc fc79 873d da29 093d
000003a0: 5c52 0dbd f019 c7bd 72db 113c 7494 d7bc
000003b0: b099 5dbc 3195 9d3d b87c debc 609e d23b
000003c0: 71b3 1ebd b33f 313d 5d94 933d 999d febd
000003d0: 38a6 ee3d fc52 47bd 411d 223e c01d ac3c
000003e0: ddde 87bd ad00 ee3d f819 bc3d 6fd3 243e
000003f0: 6954 343d 8ee6 be3b f0b6 00bd de90 353d

rnn.bias_ih_l0 f4 [64]
-0.09171487 -0.06315282 -0.11695465 -0.12257298 0.0014730415 0.0724062 -0.1218505 0.11822486
0.09092968 0.00010045588 -0.09231259 -0.10157928 -0.07410702 -0.08796115 -0.004229314 -0.0103644105
0.058466822 0.07682569 -0.1220659 0.044387724 0.10078934 0.088333555 -0.08038585 0.029982556
-0.03845931 -0.042231675 0.115801245 0.017825602 0.015262541 0.027515296 -0.09321547 0.045256276
0.043173004 0.03986484 0.085981496 -0.09720736 -0.0048130946 -0.06468164 0.017166646 0.026638908
-0.04717118 -0.10202723 0.034589507 0.033587914 0.066296354 0.022640495 -0.003823079 0.0362937
-0.0068792296 0.0909301 0.021766154 0.044495657 -0.06122558 -0.11567806 0.070911005 -0.10095137
0.032535512 0.08228412 0.084490925 -0.08155215 0.045645975 0.08220536 -0.034751236 0.06957588
00000000: 01d5 bbbd 4456 81bd eb85 efbd 8b07 fbbd
00000010: 1213 c13a b449 943d c18c f9bd e01f f23d
00000020: 5739 ba3d d7ab d238 620e bdbd cc08 d0bd
00000030: 6cc5 97bd fa24 b4bd 0f96 8abb 7dcf 29bc
00000040: e87a 6f3d ca56 9d3d b0fd f9bd e7cf 353d
00000050: a46a ce3d 39e8 b43d 56a1 a4bd fa9d f53c
00000060: 8287 1dbd 1ffb 2cbd 3429 ed3d ff06 923c
00000070: bd0f 7a3c c267 e13c c1e7 bebd a55e 393d
00000080: 2dd6 303d 5149 233d 1117 b03d a714 c7bd
00000090: 2ab7 9dbb cf77 84bd 11a1 8c3c d739 da3c
000000a0: 9136 41bd a7f3 d0bd baad 0d3d 7b93 093d
000000b0: 62c6 873d 8f78 b93c 9f8c 7abb b4a8 143d
000000c0: 296b e1bb 8f39 ba3d ef4e b23c 1441 363d
000000d0: acc7 7abd 9ee8 ecbd ca39 913d 98bf cebd
000000e0: f543 053d 9484 a83d 9409 ad3d d004 a7bd
000000f0: 46f7 3a3d 495b a83d 5057 0ebd cd7d 8e3d

rnn.bias_hh_l0 f4 [64]
0.09340511 -0.1234331 -0.07353427 0.013603227 0.08833354 -0.013180358 -0.057348553 -0.08026814
0.021720834 -0.022149907 0.0007352306 -0.028316304 0.0909518 -0.02711068 0.08741168 0.11226235
-0.09912121 0.03947139 -0.062307842 0.009818896 -0.12221912 -0.0850322 0.0533079 0.07840249
-0.08332068 0.0050089792 -0.07102037 -0.021748053 -0.050125618 -0.12131128 0.032554694 0.06167773
0.039194275 0.04661601 -0.044155933 0.121785864 -0.014390285 0.11678204 -0.0051735467 -0.08636791
0.09813274 -0.10933825 0.08525368 -0.097056024 -0.10217838 0.07193643 0.07984901 -0.029118184
-0.09191567 -0.027661024 0.09305788 -0.003443819 0.11708753 -0.067246005 0.041047957 0.09178275
-0.069939956 0.026762506 -0.0030981572 0.06340043 0.11705496 -0.052707177 -0.019871246 -0.09455981
00000000: 2e4b bf3d 7eca fcbd 2399 96bd 12e0 5e3c
00000010: 37e8 b43d 6ef2 57bc 51e6 6abd 9f63 a4bd
00000020: e4ef b13c b973 b5bc 7ebc 403a 98f7 e7bc
00000030: f044 ba3d 3717 debc e504 b33d cee9 e53d
00000040: 1000 cbbd c1ac 213d 8236 7fbd 6fdf 203c
00000050: 054e fabd 5d25 aebd 6259 5a3d 7c91 a03d
00000060: 08a4 aabd 5d22 a43b 2173 91bd f928 b2bc
00000070: 8550 4dbd 0c72 f8bd 1258 053d caa1 7c3d
00000080: 2d8a 203d 6ef0 3e3d dadc 34bd de6a f93d
00000090: 3bc5 6bbc 6c2b ef3d db86 a9bb a9e1 b0bd
000000a0: d1f9 c83d bbec dfbd 7b99 ae3d 4fc5 c6bd
000000b0: e642 d1bd 6853 933d e187 a33d 4289 eebc
000000c0: 483e bcbd 5f99 e2bc 2195 be3d b2b1 61bb
000000d0: 96cb ef3d 46b8 89bd e721 283d 98f8 bb3d
000000e0: ae3c 8fbd 0b3d db3c 740a 4bbb 16d8 813d
000000f0: 83ba ef3d 7be3 57bd 06c9 a2bc 93a8 c1bd

h2o.weight f4 [1, 64]
0.01595881 0.046297222 -0.11809107 0.09152543 0.054759737 -0.07435922 0.11497197 -0.029731072
-0.052647255 -0.08123146 0.053159557 -0.066381164 0.10794828 -0.03726053 0.07028387 0.028181823
-0.05688389 -0.032041945 -0.03538064 0.048071146 0.033159405 -0.049050517 0.07339253 -0.008784332
-0.0695016 0.11074165 0.08037812 -0.019599611 -0.113985196 0.027091637 0.06004377 -0.015148661
-0.027324857 0.19488412 0.0043529314 0.08596885 0.071002156 0.040192883 -0.06282881 0.04865518
0.123909704 -0.08199506 0.012110935 0.07532969 -0.0023190454 0.12774348 -0.056026824 -0.045080908
0.016897019 0.07931971 0.050661314 0.086539984 -0.071736984 0.10892272 0.06046482 0.07171394
-0.07367764 0.057305448 0.19018804 0.10726125 -0.01980519 -0.022904024 -0.007299978 0.08945147
00000000: 0dbc 823c 28a2 3d3d bbd9 f1bd af71 bb3d
00000010: bf4b 603d a649 98bd 6d76 eb3d 948e f3bc
00000020: a6a4 57bd ae5c a6bd d6bd 593d d9f2 87bd
00000030: fd13 dd3d 7f9e 18bd fdf0 8f3d 91dd e63c
00000040: 15ff 68bd 6a3e 03bd 4aeb 10bd 40e6 443d
00000050: 28d2 073d 32e9 48bd d34e 963d 29ec 0fbc
00000060: db56 8ebd 85cc e23d 499d a43d 5d8f a0bc
00000070: 1271 e9bd 48ef dd3c 75f0 753d 1732 78bc
00000080: 61d8 dfbc b48f 473e 09a3 8e3b 7010 b03d
00000090: 9469 913d 4ba1 243d 64ac 80bd a74a 473d
000000a0: 5fc4 fd3d 07ed a7bd f16c 463c 7446 9a3d
000000b0: 20fb 17bb 30cf 023e 627c 65bd c2a6 38bd
000000c0: 9e6b 8a3c 5f72 a23d 3d82 4f3d e03b b13d
000000d0: d7ea 92bd e012 df3d f6a9 773d c2de 923d
000000e0: 4de4 96bd 1eb9 6a3d a7c0 423e c9ab db3d
000000f0: 7e3e a2bc 38a1 bbbc a734 efbb 5532 b73d
