checkpoints/scalertest/rnn2_scalertest_cp3.pt (torch, 70669 bytes, 5 tensors)

rnn.weight_ih_l0 f4 [128, 2]
00000000: 4c73 a3bd 8a32 283e fd62 40be 7f28 aa3d
00000010: 91c7 c7bb f3d7 39bd ec9b 40bd f080 3bbd
00000020: c3c8 933d 051e a63d 5256 4a3d 7a53 49bd
00000030: 0dd3 2bbd 06aa 033d 53b8 f23d da58 bfbb
00000040: 33ee d93c 6af8 e33c 9d94 753d 2657 c4bb
00000050: aff4 febd 12fb 09bb 0410 5cbe 6018 8f3d
00000060: 5c4b 693d 68e4 48bd bdf9 a33b 00b1 0abd
00000070: ecfb 783d 7912 9ebd 2830 17bd 8e24 91bd
00000080: eda8 993d 4a2c d83c a2d8 733d ddb8 033e
00000090: 77b9 8cbd 05b3 2dbd d7e1 3e3d 33c4 a8bc
000000a0: 08ac c7bd 92e2 3dbc 6162 e03c e36c 8ebd
000000b0: 94f1 48bd fbc6 d1bd bac1 7abc 602d 523d
000000c0: 2fb2 b63c 17fb 943d 7c73 0cbd 9858 e43d
000000d0: 3f7f 94bd b11a 13bd 4d95 843d fc3f 59bc
000000e0: b855 673d cfbc 8bbd 7233 0b3e b646 753d
000000f0: 6eaa a13e 3f95 103e b8ad e03c 6a70 92ba
00000100: 1e4b b2bd 2707 5fbd 813f 053d 3b46 803c
00000110: 00b7 3cbc 1424 473d 1fc0 f33d 9336 d13d
00000120: 6960 70bc 93c8 c3bd 73e0 3a3e ebe9 a73d
00000130: 828b 3e3d 161b 27bd b7a3 753d 5cc2 d539
00000140: 0120 8fbc be33 8bbd fa39 bcbd 4c9a 8f3d
00000150: dc95 7f3c bb70 0ebd 6329 af3c 126a 1a3d
00000160: 1fc4 76bd 2a57 17bd 5106 d73d a0f4 92bb
00000170: 3f4a 0bbd 3d16 2fbd ce9b b83d 5927 8c3d
00000180: 6e35 74bd 8aec 5f3d 9a98 a43d bb97 0e3c
00000190: ffa1 c3bc 8551 813d 95e3 12be 6317 ac3d
000001a0: c408 463d 2b67 c33c 2843 013e 3d13 a43d
000001b0: 62cd 1f3c b2df 0d3e 1c7b 963d 0ec6 a83d
000001c0: 73d3 0dbe a65e 90bd a663 2e3e fbb9 953d
000001d0: 2f6b cc3d b168 353d f871 7d3e 1aed f23d
000001e0: 7e4f b23c 92fc 593d a653 8e3d 07a2 1dbc
000001f0: 598d 813d d702 063c b48d 1e3e d379 763d
00000200: b421 ab3c 59af 3e3c a3ca 133d 10a3 103d
00000210: 261e c1bd ee03 a9bd 2cd6 873d ddb8 1cbd
00000220: a907 f9bc 8dc5 fb3c 137d 9cbd 8b3e b0bc
00000230: f62f 1abc 8719 52bd 293a c63d 67cc 1d3d
00000240: bf67 acbd 985b 033d 3902 b13d 464b 98bc
00000250: af3b c53c 1600 833b 1de1 e13b f7e4 4d3d
00000260: f329 ec3d 9640 3c3d fdd7 813c 6b5e 84bd
00000270: f8f4 213d b9d1 10bd 8e40 83bd f5d8 ddba
00000280: 76f3 0dbd eade 933c 3fdd e83c 4e94 923d
00000290: ef03 9b3d ebdd d13d 1c56 943c d494 a23d
000002a0: c2a9 c73d 7a3a b83b f419 003e 01b4 153c
000002b0: c1ff a23b 030d bfbc ab19 b0b9 5f51 9fbd
000002c0: fff9 4b3e 086c 013e 9c2d 483d 3df9 57bd
000002d0: 4144 47bd 5c5b debd 4ef2 f6bc 30b4 873d
000002e0: fb83 333d 9538 403d 230b 103e 42c4 003e
000002f0: a46f dfbd 396a 983d e5c4 b53c d1bf 89bd
00000300: a00c 6ebe ff38 4abd c1a4 9cbd 37ab fa3d
00000310: 013d b43c c74b c63d fdb1 9dbc dda3 fc3d
00000320: c6f2 d83d 4b4d 883d ddd2 fe3d 2893 533c
00000330: 319a 693e 831f cf3d 35de eb3d 24d5 033c
00000340: af34 1ebd 627e fe3c fce5 66bd 0dc9 493a
00000350: be4a 913d 1313 fd3c 0d8f 693b 90ab 413d
00000360: 3642 d13d a808 b7bc 0d22 223d 6afc b7bd
00000370: 25c6 303d e5dd 80bd 2797 de3d 39ef 88bd
00000380: 709d 0d3e ed7c 153e dcdd 813d dc2d 6f3c
00000390: dd22 0d3d 567a c43d 0619 143d 6e95 13bd
000003a0: 9be9 25bd d61b 3a3c d46a 76bd a8ad 64bd
000003b0: acd3 773d 6968 a9bd 7147 6cbd 5ed5 ba3d
000003c0: 16b9 d43d a2ca a5bc 42d1 e83d aeb1 3a3d
000003d0: 0b7c 873d 5eda 983d 257e 7cbd d000 d7bd
000003e0: 8e65 613d 2dfe 023d 71c3 093e c1e3 b43d
000003f0: 7981 143e ec38 1bba 377f 283c 8474 ff3d
-0.079809755 0.16425529 -0.18787761 0.08308505 -0.006096788 -0.04537196 -0.0470237 -0.04577726
0.07216027 0.081111945 0.049398728 -0.049151875 -0.04194932 0.03214457 0.11851563 -0.0058394494
0.02660284 0.027828414 0.05995618 -0.005991834 -0.124490134 -0.002105419 -0.21490484 0.06987071
0.056956634 -0.04904595 0.0050041364 -0.033860207 0.060787126 -0.07718367 -0.03691116 -0.070870504
0.07502923 0.026388306 0.05953277 0.12863488 -0.06871312 -0.042407054 0.046602096 -0.020601368
-0.09749609 -0.011589663 0.02739066 -0.06954362 -0.04905851 -0.10243031 -0.015304977 0.051312804
0.022301761 0.07274454 -0.034289822 0.111497104 -0.07250833 -0.035914127 0.06473789 -0.013259884
0.056478232 -0.06823122 0.13593844 0.05988189 0.3157534 0.14119433 0.027426586 -0.0011172418
-0.08705734 -0.05445018 0.032531265 0.015658488 -0.01151824 0.04861839 0.119018786 0.10215487
-0.0146714235 -0.09559741 0.18249683 0.08198913 0.046519764 -0.040797316 0.059970584 0.00040771335
-0.017471315 -0.067969784 -0.09190746 0.07011852 0.015599694 -0.034775477 0.02138204 0.037698813
-0.06024563 -0.03694836 0.10499252 -0.004484728 -0.034006353 -0.042745817 0.090140924 0.068434425
-0.059621267 0.05466894 0.08036919 0.008703168 -0.023880957 0.06314377 -0.14344628 0.08402898
0.048348203 0.023852905 0.12623274 0.08011482 0.009753557 0.13854864 0.073477 0.08240901
-0.13850193 -0.07049303 0.170302 0.073108636 0.09981381 0.044289295 0.24750507 0.1186163
0.02176642 0.053219385 0.069495484 -0.00962115 0.06325788 0.008179388 0.15483743 0.060174774
0.020890094 0.011638486 0.03608192 0.03531176 -0.094295785 -0.08252703 0.06632647 -0.038262237
-0.03039916 0.030733848 -0.076410435 -0.021514198 -0.009410849 -0.051293876 0.09679062 0.03852501
-0.084182255 0.032069772 0.08643002 -0.01859058 0.02407631 0.003997813 0.0068932907 0.050267186
0.11531439 0.04596003 0.015850062 -0.06463321 0.03954026 -0.035356257 -0.06408797 -0.001692562
-0.03465601 0.01805063 0.02842581 0.07157193 0.0756911 0.102474056 0.018107466 0.07938543
0.097491756 0.0056222053 0.125099 0.009137155 0.004974336 -0.023321634 -0.0003358846 -0.07779192
0.19919585 0.12638867 0.04887162 -0.052727927 -0.048649076 -0.10857269 -0.030144837 0.06626165
0.04382704 0.04692896 0.14066748 0.12574866 -0.10909966 0.07442135 0.022188613 -0.06726039
-0.23247004 -0.049370762 -0.07648612 0.12239688 0.022001745 0.09682422 -0.01924991 0.12335942
0.1059318 0.066553675 0.12442563 0.012913503 0.22812726 0.10113432 0.11516992 0.008046422
-0.03862446 0.031066123 -0.056371674 0.00076975004 0.07094334 0.030892884 0.0035638243 0.047282755
0.10217707 -0.022342995 0.039583255 -0.08983691 0.043157715 -0.06292323 0.10868674 -0.06686253
0.13829589 0.14598437 0.063411444 0.014598336 0.034457076 0.09593646 0.036156677 -0.03603118
-0.040505987 0.011359176 -0.060160473 -0.055829674 0.0605046 -0.08271868 -0.05768532 0.09122728
0.10386865 -0.020238224 0.11368038 0.045579605 0.06615456 0.07463525 -0.06164374 -0.10498202
0.05502849 0.031980682 0.13453461 0.08832503 0.14502515 -0.0005921263 0.010284237 0.124733955

rnn.weight_hh_l0 f4 [128, 128]
00000000: 109e 463c 568d 39bc 048e ac3d 327b 66bd
00000010: e6f3 3bbd c461 ae3b 8c4e 86bd b7f2 493b
00000020: 7795 dfbb 0513 b9bc 9a60 833d 5095 f23d
00000030: 9cfd 3dbd 0cf8 38bd fa2f c33c b913 53bd
00000040: 6222 f7bc 9b2f 1e3d 35b0 bbbc e6c8 64bd
00000050: 3447 243d c673 49bc ebd5 a63c c97d 323d
00000060: 41f2 033c ec00 2f3d 40ad e8bc bd54 37bd
00000070: 7567 0ebc 934d a4bd 640f d33b fc09 d03d
00000080: 6922 d93c 9b14 f6bc e471 6cbc f495 823d
00000090: ba63 813d 639a d83d f61f c13c 6f98 b23d
000000a0: e676 963d 2db6 a0bc 222a 253c aafb 3b3d
000000b0: aa4b 9cbd 2864 b43c 3a5b 043d 6a2c 3abd
000000c0: 7833 9c3b e32d 683c fa07 c8bd 2cca 4b3d
000000d0: 8ffb 363c c070 733d 9dda 1c3d 0e80 8b3d
000000e0: a086 8a3c 6bd8 82bc 2de0 273b fd18 883d
000000f0: 6fa2 88bc 5ee7 733d 71ba 903d a911 fb3c
00000100: 77a4 c83d d9e0 0e3c cad7 083d 6284 b0bd
00000110: 243a ec3d 394b f73c a41e a2bd 0c46 903d
00000120: 20a5 4fbd faf5 b23d ed7e a23c edc6 2e3b
00000130: a69f 7f3d 4cba a3bd f627 bfbd 6a39 853d
00000140: 6eff ad3d 3583 9e3c 8558 aabc 7946 c43d
00000150: d9e2 6f3b 45b1 a1bc 89d2 fdbb 6baf 8f3a
00000160: c04b 8a3d 222b cfb9 c92b 79bd 3ec7 31bb
00000170: 7ff8 de3d 5e81 f93d f920 3f3d 3212 fe3c
00000180: cc9b 933d 2b39 063d 2212 58bd 6d0b 983d
00000190: 4a7a 31bc 934b 723d 8104 353c 2d47 d9bb
000001a0: 2f2d 53bd 5520 a5bc f96f 73bc 1590 633c
000001b0: f38a e43b 65c4 983c 8d53 38bd d6b3 ddbb
000001c0: 6b58 663a 9240 86bd 9aeb 1d3c 7c1d eabb
000001d0: f082 e93a 6640 a03d d3b1 6e3d 3405 303d
000001e0: 784b d6ba e1f4 e13b 7177 d73d 923d 50bb
000001f0: abcf de3d a293 6f3d 506e a13d a194 9b3d
00000200: 24e1 623d 000a 16bc fd37 a53d 35c7 0a3d
00000210: d52c 883d b6ec ae3d 8a1c 19bd e76f 0f3d
00000220: 1415 c33d 199c 283c 690d c23d 342e eabc
00000230: 42ce a0b9 741f 5e3d d60b efbc bf6d dc3c
00000240: 1ef2 813c ed54 993d f1e1 48bd d7e7 463c
00000250: 5f68 ac3c be34 ed3d 01bc 22bd 84ce bdbc
00000260: 2beb af3d dbf0 c7bc 414c 463b 6d05 463d
00000270: cdde 9f3d 9ebe 1bbc f16e bbbd fc3c 0cbd
00000280: fb1a 00bd 9cb5 b4bd 6f02 7bbd 24fc 183d
00000290: 8434 80bc ca0e 673d 4a33 503d 3d99 c33d
000002a0: f466 84bb f493 cc3c f321 3a3d 18a6 193d
000002b0: e817 aa3d 2258 a03d 6b2f 983d afd9 893d
000002c0: 6910 f8bd f8e0 12bd 2e40 d3bc 4a68 4ebd
000002d0: 83a6 833c dd14 a93c 5398 a53c 205c b23d
000002e0: 6b3c 61bd 8c1a a23d a892 bebc 50ce 38bd
000002f0: 1ee7 d4bd 75f7 9dbd 9ad8 283d bf98 89bd
00000300: 43c0 583d 689a 173d c38b 8c3d 38bd f73c
00000310: 2f2e d33c 6ddd 4fba 0d97 2dbd 195f ba3d
00000320: fa28 bdbc 0dde dfbb 584c 8bbd e696 2ebd
00000330: 5510 053c a833 84bd 98ee 983d 061f 2fbd
00000340: bb87 d9bc 0e59 863d 6a15 483d 2423 ad3d
00000350: 75a6 39bd d80b cc3c 77b8 72bc 3955 c83b
00000360: ff13 98bd e2c9 02bd 3a7f 983d dcc3 0d3d
00000370: b9e4 50bd e369 0f3d 0706 9d3d 26a5 233c
00000380: cd8f 61bb 8049 be3d ca61 d7bc e73c 733d
00000390: 1f2b 503d 2752 413d f83c 273d 49ce 573d
000003a0: 4e06 9b3d fc80 e23c ade1 58bb 59d2 ebbc
000003b0: 325d bdbc 1c98 34bd 3f49 debc b2df 2abd
000003c0: 0bf3 4ebd 1c8a 873b 7abb 1e3c 011a 59bd
000003d0: 4721 e9b9 aa9d d83d 32a9 323d b1e9 80bd
000003e0: 8832 8dbd a834 48bd ab71 ef3b 621d dc3d
000003f0: 347c 943d f39c 3f3d ce7f a9bb cd49 72bd
0.012122646 -0.011325201 0.08425525 -0.056269832 -0.045886897 0.005321713 -0.065579504 0.0030814835
-0.0068232375 -0.022592077 0.0641491 0.11844885 -0.04638444 -0.04515843 0.023826588 -0.05153248
-0.030167762 0.03861962 -0.02291117 -0.055855654 0.040106967 -0.012295669 0.020365676 0.04357699
0.008053363 0.04272549 -0.028402925 -0.044758547 -0.008691658 -0.080226086 0.0064410437 0.10158154
0.026505666 -0.030039122 -0.0144314505 0.063762575 0.063178495 0.10576322 0.02357481 0.08720481
0.07346897 -0.019618118 0.010080846 0.045894302 -0.07631619 0.022020414 0.032313563 -0.045452513
0.0047668777 0.0141710965 -0.097671464 0.049753353 0.011168375 0.0594337 0.038294423 0.06811534
0.016909897 -0.015972337 0.0025615797 0.06645391 -0.016679017 0.05954682 0.07066811 0.03064807
0.09796994 0.0087206 0.033408917 -0.08619 0.11534527 0.030187236 -0.079160005 0.070446104
-0.050694585 0.087383226 0.019835914 0.0026668862 0.062408112 -0.07994518 -0.09333794 0.065050915
0.08495985 0.019349674 -0.020794163 0.09583754 0.0036603718 -0.019737849 -0.007746045 0.0010962313
0.067527294 -0.00039514253 -0.060832772 -0.0027126814 0.108872406 0.12182878 0.046662305 0.031014536
0.0720745 0.032769363 -0.052751668 0.07424054 -0.010832379 0.059154104 0.011048437 -0.0066307993
-0.051556762 -0.020157019 -0.014858239 0.013889332 0.006974572 0.018648336 -0.045001555 -0.006765823
0.0008786979 -0.065552846 0.009638691 -0.007144628 0.0017815512 0.07824783 0.058275055 0.042973712
-0.0016349396 0.006895647 0.105208285 -0.003177498 0.10879453 0.058490403 0.078823686 0.07596708
0.055390492 -0.009157658 0.080673195 0.033881385 0.06649176 0.08541243 -0.037380733 0.035018828
0.09525505 0.010291123 0.09475214 -0.028586484 -0.00030671252 0.054229215 -0.029180449 0.0269078
0.01586252 0.074869014 -0.0490436 0.012140236 0.021045862 0.115823254 -0.039730076 -0.023169763
0.085897766 -0.024406841 0.0030257853 0.04834502 0.07806168 -0.009505896 -0.0915202 -0.034237847
-0.03127573 -0.08823702 -0.061281618 0.037349835 -0.015650041 0.05641059 0.050830163 0.09550712
-0.0040405933 0.024972893 0.045442533 0.037511915 0.08305341 0.0782931 0.07430919 0.06730973
-0.12112505 -0.03585908 -0.02578744 -0.050392427 0.01607061 0.020639831 0.020214235 0.08708978
-0.05498926 0.0791522 -0.02326329 -0.04511863 -0.103956446 -0.07713214 0.041222192 -0.06718587
0.05291773 0.037012488 0.06862595 0.030241594 0.025778858 -0.00079294184 -0.04238038 0.0910017
-0.023090828 -0.0068318904 -0.06801671 -0.042624377 0.00812157 -0.06455165 0.07467383 -0.042754196
-0.02655398 0.065599546 0.048848547 0.08453968 -0.04532476 0.024907991 -0.014814488 0.006113675
-0.07425689 -0.03193081 0.074461415 0.034610614 -0.050999377 0.03501309 0.07667165 0.009988105
-0.0034417987 0.09291363 -0.026291747 0.059384253 0.050822373 0.047197487 0.04082963 0.052686963
0.07569562 0.027649395 -0.0033093498 -0.028786825 -0.023115728 -0.044090375 -0.027134536 -0.04171724
-0.050524753 0.004136337 0.009688253 -0.053003315 -0.00044466017 0.10576947 0.04361839 -0.06294573
-0.06894404 -0.048878342 0.0073072514 0.10747792 0.07250252 0.046780538 -0.005172706 -0.059152413

rnn.bias_ih_l0 f4 [128]
00000000: 202d 343e cf8e 183d 4b3d 4cbd fd59 a2bd
00000010: d543 2dbd d717 97bd 31ac c63c ee58 873c
00000020: 00b4 7f3d 2009 58bd 00b6 2b3e c73b a03d
00000030: f6a3 8fbd 5b61 cd3a 775d 02bc 4171 8b3d
00000040: ad38 90bd 9b62 083e 1975 ac3c 3749 cabd
00000050: 1396 85bd 349b 2fbd 9057 ebbd c6ab a33d
00000060: 95d1 983d 2f38 513e 45cd ef3a 0d0c a1bd
00000070: 854a 413c 77c8 d8bc 9ca6 e93d 4320 ecbd
00000080: 9f13 afbd 671d 72bc b6e7 323d ca50 a23d
00000090: eea9 f53d a416 803c fb49 d53b bcf1 ac3c
000000a0: a47f a9bd d0d3 2b3c 0224 4dbd 2f2f 3e3c
000000b0: e8c5 83bc a6d6 483d 29ea 5a3d d8df a9bb
000000c0: 5aca 8ebc ce12 6abd a2e6 f7bc 9f2e 443e
000000d0: 3f42 08bb 9292 cc3d 6d9d 553e c64d a8bd
000000e0: 77a6 54bd cabb 333d 715c b23c cc57 793d
000000f0: a6f4 e13c 8ec6 88bd a821 84bd 8bed 0fbd
00000100: 6454 f73c 4757 97bd df55 8339 447e f5bc
00000110: ad1b 473e 4306 673c 1503 61bd dc6f 2f3e
00000120: 98fd f0bc 7dd5 36ba 4e7c 5dbd 7da1 30bd
00000130: e24d 553d 5ea4 d53c 1753 793c 6232 243d
00000140: 89fe b13d 4b9f 45bd abcb 83bc bff0 713e
00000150: 7939 843c a2ee b9bc aeb2 a93a a2a3 b23c
00000160: e60f df3d 19f8 073d ce94 1c3d 8b95 ea3d
00000170: 1374 febd 71a7 183e 7d28 2b3e 029e 84bd
00000180: 9c58 bb3d baf4 0a3e 4472 aebd 3f7a d03d
00000190: 3955 4fbd f89c 883b f439 09bc ab21 b63d
000001a0: 8ccf 8c3d bf6a c9bc 92a1 513b 3c40 d23d
000001b0: fe84 f33c c370 e33d 97eb 02be 247f 5fbd
000001c0: cfff a23c 562b 24bd cbe3 463a 7d22 a9bd
000001d0: cd50 53bd a3fa 903d 6de0 7d3c 7e7f 203a
000001e0: 33cb 623d 29b0 3d3c 166c 6bbb b704 c83d
000001f0: 499a fd3d 9b5a dc3d ae4e 323a ca40 4fbd
0.17595339 0.037245568 -0.04986314 -0.0792732 -0.042301018 -0.07377594 0.02425203 0.016521897
0.06242752 -0.052743077 0.16768646 0.078239016 -0.07013695 0.0015669273 -0.007956854 0.06808711
-0.0704206 0.13318865 0.02105193 -0.09877246 -0.06522765 -0.042872623 -0.114913106 0.079917476
0.074618496 0.20431589 0.0018295428 -0.07863627 0.011797552 -0.026462777 0.11408731 -0.11529591
-0.08548664 -0.014777518 0.043678008 0.079255655 0.11995302 0.015635796 0.0065090633 0.021111362
-0.08276299 0.010487512 -0.050083168 0.011607929 -0.01608558 0.04903283 0.05344597 -0.005184155
-0.017430473 -0.05714684 -0.030261341 0.1915841 -0.002079144 0.099888936 0.20860834 -0.08217959
-0.051916566 0.04388026 0.021772595 0.060874745 0.027582478 -0.06678496 -0.06451732 -0.035138648
0.030191608 -0.07389694 0.00025050246 -0.029967435 0.19444151 0.014100614 -0.05493458 0.17132515
-0.029417798 -0.0006974561 -0.054073624 -0.043122757 0.052076228 0.026079353 0.015217564 0.04008711
0.08691127 -0.048247617 -0.016088327 0.23626994 0.016140686 -0.022696797 0.0012946927 0.021806542
0.10891704 0.03319559 0.03822785 0.11454304 -0.12424483 0.14907624 0.16714664 -0.0647545
0.0914776 0.13569918 -0.08517888 0.101795666 -0.050618384 0.0041691028 -0.0083756335 0.088931404
0.06875524 -0.024587033 0.0031987173 0.10266158 0.029726502 0.11105492 -0.12785183 -0.05456461
0.01989737 -0.04008039 0.00075870444 -0.08258531 -0.05159073 0.07079055 0.015495402 0.00061225134
0.055369567 0.011577644 -0.0035922579 0.09766524 0.12382943 0.10759469 0.00068018853 -0.050598897

rnn.bias_hh_l0 f4 [128]
00000000: ee92 5a3e a4ab 963d 193a ea3c 8fb6 b33c
00000010: 17a3 ac3d 69a3 20bd b594 d6bb af2c 2c3d
00000020: faf0 053e eb97 b13d 7e14 873c 3e4e dd3d
00000030: d584 333d 4120 0abd bfe1 4d3d 4ea8 e73d
00000040: 7c0a d73b 52a4 1b3e 802b 14bb e956 4dbd
00000050: bee0 053d 622b 973d 22a9 04be 63c6 b0bc
00000060: bd90 3b3e 4036 663e 744a a0bd cca5 293c
00000070: 1e3a a5bd 4393 52bb 9ccd 043e 91d9 ffbc
00000080: c38b cdbc ea4f 363d b5d2 113e e7f2 293e
00000090: 779d 51ba 8f06 28bd 7c7f 5a3d 7323 263d
000000a0: 8d25 de3c bf66 5e3c 28ff 9dbd 3e75 8a3d
000000b0: c307 073c 0fe6 c53d a3c8 e83d ca1d 603d
000000c0: 008b 103d 05fb 2bbd 0cdc bfbd 187e 233e
000000d0: 9e02 39bd 650f db3d 8dab 603d de18 423b
000000e0: ef0d b13d c613 6fbd 06d9 15bd abf1 173e
000000f0: 78e8 1cbd 20bb adbd 123a bfbc 4c35 903d
00000100: 0249 aa3d 935e 26bd b961 aa3d 397f b1bd
00000110: c436 453e 08a7 2fbd 109e 1d3d 6f4b fa3d
00000120: abcc cf3c cc9d f43c dca0 133d 3bec 9dbd
00000130: 8d45 8c3d 183d 1f3c a20b dabc 4208 91bc
00000140: 6817 e4bc 8fa3 bb3d de87 143c ea5b 943e
00000150: 5cba 9bbc 0a06 273d 46a9 32bd e19e 6b3c
00000160: d0f3 d43d bac1 c53c f89c 4f3c 0d92 e63d
00000170: 85f0 c5bd e898 3d3e bb79 403e b764 8f3b
00000180: de50 f03d dc84 3d3e 004e 5dbd 8136 6c3d
00000190: f449 b93d 2d3e ba3d 3815 943c 5952 853d
000001a0: 1c8b 953c ea2c 96bd 577d d73d 73e5 e33b
000001b0: 348d 143d 97fb 7e3a 6420 eabc c897 143d
000001c0: a35b 093e d161 e33c 08d0 9fbb 91f6 b0bd
000001d0: 7922 04be 4f33 e23d c3fe dfbc eafd af3d
000001e0: e8ef ad3d 1c7b 22bd db64 96bd 6baf 033d
000001f0: 8a8c c03d eb2c d23d c295 c13d 4638 aa3d
0.21345112 0.073569566 0.028592156 0.021937637 0.084295444 -0.03921834 -0.006548489 0.0420348
0.13080207 0.08671554 0.016489264 0.10805939 0.04382785 -0.033722166 0.050264116 0.113113984
0.006562529 0.15199402 -0.0022608936 -0.050131712 0.032685034 0.073813215 -0.12955144 -0.021578973
0.18316932 0.22481632 -0.07826701 0.01035447 -0.080677256 -0.0032131232 0.12969059 -0.031231673
-0.025091058 0.044509806 0.14240535 0.16596566 -0.00079961814 -0.04102188 0.053344235 0.04056115
0.027117515 0.013574301 -0.07714683 0.067606434 0.008241597 0.09663021 0.113663934 0.05471591
0.03528881 -0.041987438 -0.093681425 0.1596607 -0.04516851 0.10696296 0.054851104 0.0029616873
0.08645236 -0.058368467 -0.036583923 0.14838283 -0.038307637 -0.08482957 -0.02334312 0.070414156
0.083147064 -0.040617537 0.0831942 -0.08666844 0.19259173 -0.042883903 0.03848082 0.12221419
0.025366148 0.0298604 0.03604208 -0.07711073 0.06849203 0.009719156 -0.026616875 -0.017704133
-0.027843192 0.09162056 0.009065596 0.28976375 -0.019009762 0.040777244 -0.043618463 0.014381141
0.10398066 0.024140228 0.012671702 0.11258326 -0.09665016 0.1851536 0.18796436 0.00437602
0.11734174 0.18507713 -0.054029465 0.057669166 0.090473086 0.0909389 0.018076524 0.06509847
0.01825481 -0.073327854 0.105219536 0.0069548427 0.036267474 0.0009726821 -0.028579898 0.036277562
0.13413863 0.027756603 -0.004877094 -0.08640779 -0.12903775 0.110449426 -0.02734316 0.08593352
0.08493024 -0.039668187 -0.073434554 0.032149713 0.09401806 0.10262474 0.09452392 0.083115146

h2o.weight f4 [1, 128]
00000000: ff49 f33e 9cfc c53e 1302 35bd ba6b 15bd
00000010: 48b2 17bd 7c60 d23d 69d6 44bd 5eb9 8abc
00000020: 3685 213e 825a 863d 571e bb3e a95c d03e
00000030: 65ef 8abc 7984 8b3c 35fe e8bc ce68 cf3d
00000040: add7 7a3c 51a8 353e 4719 063e e45b 55bd
00000050: 2699 353d 23c4 b03c 19ca aabd 8420 483d
00000060: 71a5 313e 002a b43e 4fcf 0f3e 7e1c ec3d
00000070: 7150 b9bd 0e2c 863d 48f5 5e3c 1948 fcbc
00000080: b54b 2ebb b591 963c a233 813e e338 ed3d
00000090: 604a 2a3e 2d49 493d cc73 dabc b551 0b3d
000000a0: 9572 40bd 7e5f adbc 52d2 19bc b79d a23d
000000b0: 5984 dbbc 1990 6c3d a7a4 443e e26a d0bc
000000c0: c5d9 a0bc 5265 a2bd c7a0 b0bd 3ed2 be3e
000000d0: af36 d1bc c5a7 b2bc cd0a 643e 92d8 5ebd
000000e0: 73c6 0c3e cf81 23bc 9002 903d a056 9fbc
000000f0: 6a15 d5bc 2ae5 493d fec2 823d d9cb cc3b
00000100: 20b6 303e e0a5 3d3c 454a f43d 2de7 fdbc
00000110: 4939 943e 3d96 96bd db4d a0bd 9587 df3d
00000120: 1fc9 183c 0ba1 493d ba5a 7cbd 58ff b03d
00000130: b982 10bd 6c2a 19bd 2ffd 053d 4ce7 693e
00000140: 7876 513d 9758 2bbd 668c 36bd c26c a43e
00000150: 007d c23d b404 91bc 06b3 9cbc 78da 05bd
00000160: f0ab 6abb a044 7fbd 6294 e03d 9acd 6ebd
00000170: b1e6 5e3c 34ff 043d 5f5a ea3e 16cb 793c
00000180: 4f6e c13e e6e8 8a3e 8fab 7dbd 562d 3a3e
00000190: ebab ba3d 2b91 87bd 3a93 61bb 6830 c83c
000001a0: 7f2d 6d3d 1733 e7bd c08b 153e 835c 1e3e
000001b0: 97c0 f63b 5c74 fd3c 6caa 273c a18a 2abd
000001c0: cd28 a33d 9e17 6cbc e2a5 073c fb0f 8a3c
000001d0: d100 453b e3db 8f3e af03 383d b91e 033e
000001e0: 3f3c 7b3c 5c7a b63d 43a5 523c 7e72 d73d
000001f0: d4d9 283e 0a77 73bc 0747 443c 7622 a83d
0.47517392 0.38669288 -0.04419143 -0.03647969 -0.037035257 0.10272309 -0.04805604 -0.016934093
0.15773472 0.06560232 0.36546585 0.40695694 -0.016959855 0.017030941 -0.028441528 0.10127412
0.01531021 0.17739989 0.1309558 -0.052089587 0.044335507 0.0215779 -0.08339328 0.048859134
0.17348267 0.35188293 0.14043926 0.11528872 -0.09048546 0.065513715 0.013608284 -0.030796098
-0.0026595418 0.018380025 0.25234705 0.11583116 0.16629934 0.04914205 -0.026666544 0.03401347
-0.046984274 -0.021163698 -0.009388523 0.07940238 -0.026796507 0.05775461 0.19203435 -0.02544159
-0.01963509 -0.079294816 -0.08624416 0.37269777 -0.02553877 -0.021808514 0.22269745 -0.054405756
0.13747577 -0.009979679 0.07031739 -0.019450486 -0.026011188 0.049290814 0.06384848 0.0062498865
0.17256975 0.011575192 0.11928228 -0.030994022 0.28949955 -0.073528744 -0.0782735 0.10914532
0.009325295 0.04922585 -0.06160996 0.08642453 -0.035280917 -0.037393972 0.032712158 0.22842139
0.05113837 -0.041832533 -0.044567488 0.32114226 0.09496498 -0.017702438 -0.019128334 -0.03267905
-0.003580805 -0.062321305 0.10965802 -0.058301546 0.013604806 0.032469943 0.45772073 0.015246173
0.3777947 0.27130812 -0.06193119 0.18181357 0.09114822 -0.066194855 -0.003442003 0.024437144
0.057904717 -0.112890415 0.14604092 0.15464978 0.0075302827 0.030939274 0.010233503 -0.041636113
0.079667665 -0.014409928 0.008279296 0.016853323 0.00300603 0.28097448 0.044925388 0.12804689
0.015334188 0.08910057 0.012856784 0.105198845 0.16489345 -0.014859924 0.011979825 0.08209698
