checkpoints/scalertest/rnn2_scalertest_128_300_64_1e-3.pt (torch, 70905 bytes, 5 tensors)

rnn.weight_ih_l0 f4 [128, 2]
00000000: b44e c1bd eb73 323e a1a4 55be d1f1 c63d
00000010: aa43 51bc f671 16bd bb94 fdbc 0565 68bd
00000020: 8a3b a63d dfce a13d 72fb 113d 0a36 1bbd
00000030: b3ba cabc 0609 793c e010 ee3d efc0 01bc
00000040: 9b87 1b3c 909f 253d 9fb5 153d 9fef 573c
00000050: 0798 13be 4fc3 533c 6995 6cbe cc47 a63d
00000060: 457c 4b3d 8b34 12bd b78b 6abc 9108 6fbc
00000070: 97bd 413d 3147 9bbd e6b2 8abd d654 5bbd
00000080: 224b 8d3d 632b 063d 6f66 3c3d 4da8 0e3e
00000090: 4c43 a8bd a9d7 02bd e9fe 343d 05b7 30bc
000000a0: 6eac c1bd 03d1 6cbc be89 c63c 0096 53bd
000000b0: e067 38bd 6105 c8bd 3a55 d1bc 9363 6e3d
000000c0: 2f4c 443c 7cd1 a33d ad12 47bd 1516 f83d
000000d0: 4cff c7bd 7520 c4bc 92b1 5e3d 8943 3ebb
000000e0: b3f1 8a3d 2012 82bd a7c6 093e 4475 8a3d
000000f0: 595f a13e 884b 143e bd17 d83c 1a46 e73b
00000100: f33d 9cbd f05c 63bd 7ea8 e83c cc5e 163c
00000110: f62a dabc be08 743d f296 db3d e719 e33d
00000120: 4fff 0bbd 9578 a6bd bf3d 313e f425 b73d
00000130: c237 553d aee1 e6bc d1c0 4f3d 4a87 163c
00000140: b6bf 63bc 1ecc 88bd 025b 82bd 5d4e 6f3d
00000150: 2c52 0d3c 330d e0bc 2a44 dd3b 80f7 433d
00000160: 5958 0ebd 5ac6 60bc 7480 cb3d 99bc 133a
00000170: 67bc 61bd 3e6d f3bc a646 8d3d 3450 973d
00000180: 6f78 57bd 6ef7 ee3c 599a a23d 82a8 183c
00000190: 6497 f8bc 77e6 3a3d dd2b 23be 0919 c13d
000001a0: 623c 353d 4e59 88ba 4092 f43d d947 af3d
000001b0: d167 bcbb 7afe 173e 9b45 853d 36eb 9b3d
000001c0: 3bd8 0cbe d188 65bd b4b3 2a3e 2ec2 9e3d
000001d0: 4fb0 ca3d f8c2 2b3d 2915 7b3e 7b7a f73d
000001e0: 7f33 013d 6860 e73c a653 8e3d 07a2 1dbc
000001f0: f65e 833d 173c f93b c048 183e 94f9 8a3d
00000200: 4f95 1e3c b805 b63c c421 0c3d be7c 123d
00000210: 00d3 e3bd 2722 90bd c0a5 963d 04fb 3bbd
00000220: db0c 3ebd c479 2f3d de4d 1cbd c4ae 56bd
00000230: 6e46 65bc 2ec5 3dbd bd25 b43d 06a1 403d
00000240: 4267 52bd 63b9 a53a 809c ba3d 8fbd 84bc
00000250: 9e55 113d 09bf a13b 9ba7 1dbc c008 793d
00000260: f482 e63d 4bc1 483d f5c5 d73c 7612 8fbd
00000270: 9e72 093d 1690 0abd 41ca a3bd c4c4 fd3b
00000280: 44fd 11bd d971 af3c 3ec3 453d 797b 8c3d
00000290: 9105 963d 8c04 db3d d35e 863b 405c b83d
000002a0: 25bf c53d 2559 ef3b 6d5f ff3d 9689 c93a
000002b0: 8564 f63b 3757 d5bc acba 183b d14f 73bd
000002c0: 3886 473e 36bb 063e 5fb7 823d cb83 6dbd
000002d0: 42a9 0fbd a8bf acbd 221d d53c a2f4 8f3c
000002e0: 0bd3 263d 8dd7 3d3d 3be1 0e3e a16c 043e
000002f0: 0cff 00be f4f3 ac3d 2500 a63c a7da 55bd
00000300: 085c 7fbe 582b 1bbd e40e bdbd 09e9 053e
00000310: b8dd da3c 5dcd 923d cfe7 09bd cf01 073e
00000320: 3444 c73d 58aa 973d 862d 023e d697 423c
00000330: 2ca8 663e 8deb d63d 8fe2 f03d 4368 393c
00000340: ab96 37bd 4467 0c3d f04a 16bd 4fea 4f3c
00000350: 0582 753d ea80 213d 0149 15bc 1024 623d
00000360: 9349 ad3d 9dfd 3abc 5380 123d facf 86bd
00000370: ae3a 083d f7f5 57bd c1af db3d a9e0 87bd
00000380: 47a8 013e 49ae 1b3e 3343 713d 56be a83c
00000390: 94d0 053d 57f6 c23d 0619 143d 6e95 13bd
000003a0: af7b 21bd 7be1 433c 9dfa a2bd 78db 34bd
000003b0: 853a 5e3d c539 89bd b063 a9bd cb7d d83d
000003c0: 42f9 e73d 22cf b6bc ed99 d43d d7b0 5a3d
000003d0: 5e40 743d 261f a73d d1f7 3fbd 68e3 95bd
000003e0: 234c 333d 7c2e 273d 42d1 0a3e 83c3 bb3d
000003f0: 4923 163e 383b 493b 899c 45ba ae92 0a3e
-0.094388396 0.17427032 -0.20863582 0.097140916 -0.01277248 -0.036729775 -0.03095471 -0.056736965
0.08116825 0.07900786 0.035640188 -0.037893333 -0.024747228 0.015199905 0.116243124 -0.007919534
0.00949278 0.040435374 0.03655016 0.013179689 -0.14413463 0.012924983 -0.2310387 0.08119163
0.04967906 -0.03569464 -0.014315537 -0.014589445 0.047299948 -0.07581938 -0.067724034 -0.053547703
0.06899096 0.03275622 0.045996126 0.13931389 -0.08215961 -0.03194395 0.044188414 -0.010785823
-0.094567165 -0.014454129 0.024235602 -0.051656723 -0.045020938 -0.09766651 -0.025553335 0.05820043
0.011981054 0.0799894 -0.048601795 0.12113587 -0.09765491 -0.023941258 0.054368563 -0.0029031953
0.06784382 -0.06351113 0.13454686 0.06760648 0.31518057 0.14481938 0.026378507 0.0070579173
-0.076290034 -0.055508554 0.028400656 0.009177875 -0.026631813 0.05957865 0.1072215 0.11088925
-0.034179028 -0.08128468 0.1730871 0.08942786 0.052055128 -0.028183784 0.050720993 0.009187529
-0.013900688 -0.06679557 -0.063650146 0.058424342 0.008625548 -0.027350044 0.0067525106 0.047843456
-0.034752224 -0.013719166 0.0993661 0.0005635708 -0.055111315 -0.029715177 0.06898241 0.073883444
-0.05260509 0.029170718 0.07939596 0.009317519 -0.030345626 0.045629945 -0.15934701 0.09428603
0.04424704 -0.0010402591 0.119419575 0.08558626 -0.0057496806 0.14843169 0.06507417 0.07613222
-0.1375436 -0.05603868 0.16670114 0.077518806 0.098969094 0.041933984 0.2451979 0.12083908
0.03154325 0.028244212 0.069495484 -0.00962115 0.06414597 0.00760604 0.14871502 0.067858845
0.009679153 0.022219524 0.03421189 0.035763495 -0.111242294 -0.07037764 0.07355833 -0.045893684
-0.04639898 0.042840734 -0.038160197 -0.052412763 -0.0139938425 -0.046330623 0.087962605 0.047028564
-0.051368006 0.001264375 0.09111881 -0.01620367 0.03548204 0.0049361032 -0.00962248 0.06079936
0.11255446 0.049012464 0.02633951 -0.06985943 0.033556573 -0.033828817 -0.07997561 0.0077444036
-0.035641924 0.021416591 0.0482819 0.06859488 0.073252805 0.106942266 0.0041006594 0.0900197
0.096555986 0.007304328 0.12469373 0.0015376087 0.007519307 -0.026042564 0.0023304624 -0.05940229
0.19484794 0.13157353 0.063826315 -0.057987016 -0.035073526 -0.08434993 0.026014868 0.017572705
0.04072861 0.046348143 0.13953106 0.12932064 -0.12597293 0.08444968 0.02026374 -0.052210476
-0.24937451 -0.037883133 -0.09231356 0.13077177 0.026717052 0.07168076 -0.033668336 0.13184284
0.097298056 0.07405537 0.12712678 0.011877021 0.2252509 0.104941465 0.117619626 0.011316362
-0.044821423 0.03427817 -0.03669256 0.012690141 0.05993845 0.039429583 -0.009111644 0.055210173
0.08461299 -0.011413005 0.03576691 -0.06582637 0.033259086 -0.052724805 0.10726882 -0.066346474
0.12661849 0.15203203 0.058901977 0.020598572 0.03266962 0.09519642 0.036156677 -0.03603118
-0.039424594 0.011955614 -0.07957957 -0.044154614 0.054255027 -0.06700472 -0.08270967 0.10570868
0.11326839 -0.022315565 0.103809215 0.053391304 0.059631698 0.08160238 -0.046867196 -0.07318765
0.04377378 0.040815815 0.13556388 0.0916815 0.14661898 0.0030705463 -0.0007538279 0.13532516

rnn.weight_hh_l0 f4 [128, 128]
00000000: 02dc 613c 06ed 22bc 648d 9f3d aab7 5abd
00000010: 7bd2 9ebc 40e0 51ba e701 9abd e711 a73b
00000020: 7c79 d4bb 4549 bcba 869b 853d ba08 f53d
00000030: 596a d8bc f07a d5bc 1578 7a3d 893f 41bd
00000040: e3d5 b6bb 34a3 2a3d 79c8 ccbc 4dcc 96bd
00000050: 6754 823c 3a67 27bd 7469 f2bb 38c6 343d
00000060: 8ba3 1d3c 435c 373d 238f f9bc be85 99bd
00000070: 21ce 6ebc d556 94bd bf2b 7c3c 8d46 923d
00000080: 9dde 833c 396d a9bb 29b4 54bc b290 883d
00000090: 8632 823d f4f3 d63d 0448 283d bc25 b13d
000000a0: da2d 9b3d c1d1 5a3c d6c9 3bbc ac01 433d
000000b0: 6eb9 0ebd 75a9 d63c de2a 0f3d 18cc 62bd
000000c0: f983 283d 06e9 643c a958 a3bd 5540 543d
000000d0: f8ce 9b3c 1eab 533d 71e6 293d c5b8 8d3d
000000e0: 0cb5 663c 9260 91bc c690 553c 2086 923d
000000f0: b137 8f3b 5ee7 733d 3751 973d 428a f33c
00000100: 12dd c73d 31c9 9dba 12b7 073d b332 adbd
00000110: d386 ee3d 1ac9 8f3b 9c75 43bd 1ae9 943d
00000120: e02d b1bd 8f6b bd3d c2c4 d53c 7af6 17bc
00000130: db64 903d 9255 73bd dda9 79bd 794e 853d
00000140: 61f9 393d 4752 02bc 143c cebc a3f4 c83d
00000150: 6362 3b3c 166e 8fbc bf2e a5bb 670a 023b
00000160: a2a0 8f3d c166 92bc 07c0 9ebd ece2 27bd
00000170: e76d d03d dfdd ff3d 8f24 433d f061 3cbb
00000180: 3eda 943d 8593 143d cf3e f4bc 5682 9c3d
00000190: 8ebf 53bc 908b 843d 87ea a33c 557f 7f3a
000001a0: f97c 8bbd 7eeb 03bb 9ddf 8abc 0871 823c
000001b0: c2c6 84bc 5038 c73c 9601 79bd 86d4 bbbb
000001c0: 6e2a 133b 4ec2 8cbd b632 2b3c 7c1d eabb
000001d0: c57c 1bbc 450a a23d e895 9e3d b90b 3b3d
000001e0: ec3c a93c 4339 d33b 26a2 d03d 4654 85bc
000001f0: 1521 e03d 8200 8a3d e35b ac3d 5340 973d
00000200: 2a6c 713d 2b60 bbbb b0cc 9e3d 43b5 123d
00000210: 1247 503d 5c84 a53d e30e 2abd a5bd 103d
00000220: 648c c63d 1e46 ebbc 7e57 c73d 613c d1bc
00000230: 6b3c 973c 3547 9d3d 12ed 8dbd e61e 043d
00000240: 2bff 103b d150 a23d 6d4d 49bd a3d6 3bbb
00000250: f0b6 023c 13c0 a33d aa68 82bd 79ef 99bc
00000260: e79f b73d 74ed a7bc 1399 8d3b 8c53 af3c
00000270: 8a1b 983d 096e ab3b e51e 9dbd d5f6 72bd
00000280: 7cb1 04bd 6558 82bd e890 6fbd e0da 2d3d
00000290: 10b9 7bbc 43ea 693d 1129 74bb fccf c53d
000002a0: fd73 e33b 6ea9 6d3d d1ac d23c 0b5a 283d
000002b0: fdc1 a63d a8d0 ac3d 5785 9f3d e0dc 523d
000002c0: f893 adbd 9e1a 08bd ea85 a53a cff7 3dbd
000002d0: 4609 0c3d cffa 413c 31c0 cf3c 8618 b03d
000002e0: cb71 81bd d88a a23d 5a30 8dbb a31c 22bd
000002f0: 5ba2 a4bd 75f7 9dbd cdba 2e3d 4c53 88bd
00000300: 0cdc 5d3d 8e31 713d bdf1 8c3d 23a5 e33c
00000310: d24d e73c 6dcd 07bd 27a3 5cbd 6dfd c23d
00000320: 5f02 62bd 0975 a43b 865b 64bd a7e0 4ebd
00000330: 4c7c 883c 4b61 9abd 7ca4 243d 698b 26bd
00000340: b4bc 5ebd fb6b 233d d99c 433d c718 b53d
00000350: 8ac8 02bd eeae fd3c 9d46 72bc 4a94 caba
00000360: 6043 8ebd 1c49 5dbd 17d4 5c3d 8945 8ebb
00000370: adc8 5fbd a069 193d edc0 a23d f218 dfbc
00000380: a37b abba 6d25 ca3d 76aa 20bb 7ccb 813d
00000390: 6066 4f3d d17a 693d a367 5d3d 5eff 833d
000003a0: 4d41 843d 3b87 493d 3576 36bb f6b9 cdbc
000003b0: a67f 44bd bd64 5abd cc65 26bd 2302 36bd
000003c0: f1af 40bd 00f7 613b 6552 6d3c 011a 59bd
000003d0: 0763 12bc 1ea9 dc3d 2181 833d 93c5 68bd
000003e0: cac4 41bd dec7 40bd 77fe cd3b 1f20 bc3d
000003f0: 71db 993d 5f69 773d e5e6 743b 067d 6dbd
0.013785364 -0.009944206 0.0779064 -0.053397812 -0.019387474 -0.0008006133 -0.07519894 0.0050985697
-0.0064842086 -0.0014365098 0.06523804 0.11964555 -0.026417898 -0.026059598 0.061149675 -0.047179732
-0.0055796965 0.04165955 -0.024997937 -0.07363186 0.015909387 -0.04086993 -0.007397825 0.04413435
0.009621511 0.044765722 -0.03046376 -0.074962124 -0.014575512 -0.072431244 0.015391289 0.07142363
0.016097361 -0.005170491 -0.012982407 0.066682234 0.06357293 0.10495749 0.041084304 0.086497754
0.07577105 0.013355673 -0.011461696 0.047609016 -0.03484481 0.02620385 0.03495299 -0.05537042
0.041141484 0.013971573 -0.07975895 0.051819164 0.019019589 0.051676862 0.04147953 0.069200076
0.014081251 -0.017746244 0.013035005 0.071544886 0.0043706526 0.05954682 0.073885374 0.029729012
0.09758963 -0.0012038109 0.033133574 -0.08456936 0.116468094 0.004387987 -0.047719583 0.07271023
-0.08651328 0.09249031 0.026094798 -0.009275073 0.07050487 -0.059407778 -0.06095301 0.06509108
0.045403842 -0.007954187 -0.025175132 0.09812286 0.011437031 -0.017508548 -0.005040973 0.0019842626
0.0701306 -0.017871263 -0.0775147 -0.040987894 0.10177212 0.124934904 0.047642287 -0.0028744899
0.07268189 0.036273498 -0.029815106 0.07642047 -0.012924088 0.06471932 0.020009292 0.0009746452
-0.06810946 -0.0020129378 -0.01695233 0.015923038 -0.016208056 0.024318844 -0.060792528 -0.005732122
0.002245571 -0.06872998 0.010449102 -0.007144628 -0.009490197 0.07912115 0.07743436 0.045665476
0.020658933 0.006446035 0.10187177 -0.016275536 0.1094381 0.06738378 0.084159635 0.07385316
0.058941044 -0.005718251 0.07753885 0.035817396 0.050849028 0.08081886 -0.041518103 0.03533711
0.09694746 -0.028719958 0.09733485 -0.025541486 0.018461427 0.07679597 -0.06929983 0.03225603
0.0022124748 0.07925571 -0.049146105 -0.002866187 0.007978186 0.079956196 -0.06367619 -0.018790947
0.08966046 -0.020498969 0.0043212264 0.021402143 0.07427128 0.005231623 -0.07671908 -0.05931743
-0.032395825 -0.06364516 -0.058487803 0.042445064 -0.015363947 0.057108175 -0.0037255923 0.096588105
0.006941317 0.05802291 0.02571717 0.041101497 0.08142469 0.084382355 0.077891044 0.051480174
-0.084754884 -0.03322851 0.001262841 -0.046378907 0.03418853 0.011839583 0.025360199 0.085984275
-0.063205324 0.079366386 -0.0043087425 -0.03957809 -0.08038779 -0.07713214 0.042658616 -0.066565126
0.05416493 0.05888515 0.068820454 0.027788704 0.02823535 -0.033154894 -0.05386653 0.095209934
-0.055178043 0.0050188345 -0.055751346 -0.050507214 0.016660832 -0.075380884 0.040195927 -0.040660296
-0.05437918 0.0398979 0.047757003 0.088426165 -0.03192953 0.030967202 -0.014787343 -0.001545557
-0.069464445 -0.0540248 0.053913202 -0.0043417853 -0.05463474 0.037454247 0.07946954 -0.027233575
-0.0013083111 0.0987042 -0.0024515665 0.0633764 0.05063474 0.057001892 0.054053914 0.06445192
0.06457768 0.04920123 -0.0027841453 -0.025113087 -0.047973298 -0.053318728 -0.040624425 -0.04443563
-0.04704279 0.00344795 0.014484976 -0.053003315 -0.008934743 0.10774444 0.06421114 -0.056829046
-0.047306813 -0.04706561 0.006286438 0.09185814 0.07512558 0.060403224 0.003736907 -0.05798056

rnn.bias_ih_l0 f4 [128]
00000000: 6c5c 483e 4551 633d 91fa c3bc 1b8f c6bd
00000010: 76dc 84bd f638 55bd dcd1 d63b 8e55 543c
00000020: 0a0e 963d 350f a3bd dbdb 3c3e 9a1f cf3d
00000030: 4a86 8dbd 45ca 0c3b b3ea cfbc 5a9b 703d
00000040: dcc8 a1bd c6bf 193e 6f0e 3f3d 7451 92bd
00000050: 59eb 8cbd 8492 3ebd 73a0 b6bd 63cd cb3d
00000060: 3c44 c13d a970 623e a538 883c 3c0e 65bd
00000070: 14c0 0b3d f0b9 c3bc ac1b ef3d dac0 b3bd
00000080: db5f 86bd 267f 32bd a62c 803d 8e45 c03d
00000090: e47a 103e 730e e53c 8cd0 e7bc a247 313d
000000a0: 851e 90bd 0da3 84bc a534 b8bc d657 d83c
000000b0: 0bcc 31bd 6714 783d f9eb 843d 341c 03bd
000000c0: 3691 c7bc d4f6 6dbd 0eca e7bc 4cdb 593e
000000d0: 282a febb dbf9 cb3d aeae 643e 1785 b5bd
000000e0: 50a8 59bd b576 7a3d 65e9 b13c 5d9a 813d
000000f0: e94f e23c 8ec6 88bd 123c 83bd eb2b 90bc
00000100: 4637 523d 4731 9cbd 370e 3d3c 1b2a b9bc
00000110: bb93 583e a5fb c1bc 4cf8 6cbd 16a0 433e
00000120: df4a 7cbd 7a6f 5bba 7a85 3dbd b81c 6ebc
00000130: 8816 583d 1d25 b73c cbf0 5f3b 5738 753d
00000140: 1087 a93d 75c2 85bd 418d f73b 19ca 813e
00000150: b335 963c 1849 9dbc 1fcf c5bc a6bb 9c3c
00000160: 72c1 f03d 0d66 173d 0ac7 da3c f096 623d
00000170: 2626 ccbd 4722 193e 6aad 3e3e 1edf 7fbd
00000180: f000 e63d 6d7a 1e3e dee0 abbd 3426 ea3d
00000190: a422 e9bc 5356 273c 8e4d 0abc d3ab bc3d
000001a0: ca6a 953d eace 4ebd 1121 d23c 44e7 ff3d
000001b0: 1fb3 e23c 809b d03d 519c d3bd 2a94 61bd
000001c0: dbe9 043d 0a25 89bc 61a2 9d3c 7d22 a9bd
000001d0: 6eea 3abd 7bb9 b33d da59 963c 7cd2 473c
000001e0: 15c7 023d 7063 043d f9c9 b33c a4dd a23d
000001f0: 8fca 123e 1991 e23d 3404 3c3b 74d3 ebbc
0.19566506 0.055497427 -0.02392319 -0.09695264 -0.06487362 -0.052056275 0.006555779 0.012959851
0.073268965 -0.07961885 0.18443243 0.101134494 -0.06910379 0.0021482867 -0.025380468 0.058741905
-0.07899639 0.15014562 0.046644624 -0.07144442 -0.068808265 -0.046526447 -0.08917322 0.09951284
0.09436843 0.22113289 0.016628573 -0.055921778 0.034118727 -0.023892373 0.116752 -0.08777018
-0.06561252 -0.04357829 0.06258516 0.093882665 0.14109379 0.027960991 -0.028297685 0.043281205
-0.07037071 -0.01619103 -0.02248604 0.026409071 -0.04340748 0.060566332 0.06490321 -0.03200932
-0.024361234 -0.05809672 -0.02829459 0.21275061 -0.0077564903 0.099597655 0.2233226 -0.088632755
-0.05313903 0.061148364 0.021717736 0.063282706 0.027625995 -0.06678496 -0.06407942 -0.017599067
0.051322244 -0.076265864 0.011539034 -0.022603085 0.21150105 -0.023679564 -0.05785398 0.19104037
-0.06159484 -0.00083707983 -0.04626987 -0.014533214 0.052755862 0.022356564 0.0034170623 0.059868183
0.08277714 -0.0653123 0.0075546806 0.253495 0.018336153 -0.019199893 -0.024146615 0.019132446
0.11755647 0.036962558 0.026706237 0.055319726 -0.09968214 0.14954482 0.1862084 -0.06246864
0.112306476 0.15476389 -0.083924994 0.11433068 -0.0284589 0.010213452 -0.008441342 0.0921246
0.07295759 -0.050490297 0.025650533 0.12495282 0.027673302 0.10185909 -0.10332549 -0.05507294
0.032449584 -0.016741294 0.019242467 -0.08258531 -0.045633726 0.08775612 0.018353391 0.0121961795
0.03192814 0.032321393 0.021946894 0.07952431 0.14335082 0.110628314 0.0028689029 -0.028787352

rnn.bias_hh_l0 f4 [128]
00000000: 3ac2 6e3e e70c bc3d 155d 5f3d 1b89 8b3b
00000010: d0d0 7c3d 9a59 8fbc cc9c c6bc b595 1d3d
00000020: 1b0b 113e 6d1a 753d a221 083d fa18 063e
00000030: 29c0 373d a7be 07bd da83 063d b484 d43d
00000040: cbf0 03bb 7d01 2d3e 4022 bf3c abce babc
00000050: 3e6c ee3c 9caf 8f3d 069b d4bd 3afe 01bb
00000060: 11ca 4f3e ba6e 773e 85fb 81bd 5b73 073d
00000070: b006 6fbd ed79 28ba 2388 073e 4dde 72bb
00000080: 08f1 aabb 33b0 803c 092f 253e 67ed 383e
00000090: 1ea2 a63c 6415 ebbc dedb 973c 2679 803d
000000a0: 3cd5 213d 44b3 56bc a8f4 4abd 12c5 a83d
000000b0: 324e 9cbc 0f85 dd3d cf1f 003e 2e7b e43c
000000c0: 574f e83c 0bdf 2fbd e9d4 bbbd c52a 393e
000000d0: b143 50bd ae76 da3d 2778 8e3d ccd6 64bb
000000e0: 1c8d ae3d db58 28bd 6c12 16bd fe68 1a3e
000000f0: dbba 1cbd 20bb adbd b8a3 bbbc 1c21 b43d
00000100: 688f d53d 7512 30bd 3480 c13d 116a a2bd
00000110: d2ae 563e 3733 a5bd cea8 113d ed55 113e
00000120: 5b2d dfbb 2a79 f33c b097 333d 0cbe 46bd
00000130: eda9 8d3d 967c c43b 9b5b 1dbd a91d 083b
00000140: 58fa 02bd a6b0 983d 62f9 053d 902d 9d3e
00000150: 1bbe 89bc c658 353d 2f6f 8dbd 33cf 3f3c
00000160: 5ca5 e63d 7c9d e43c 40bd 963a 0290 5a3d
00000170: 98a2 93bd be13 3e3e a8fe 533e db4c da3b
00000180: 997c 0d3e 8f0a 513e 252b 58bd 0dc7 8f3d
00000190: bfab e63d 1f9f c63d 798b 933c 81dc 8b3d
000001a0: 53f8 b73c bc39 cbbd 52bc 023e 3b95 ef3c
000001b0: 6924 0c3d 3aba 06bc 07d3 84bb c282 123d
000001c0: 3436 163e e649 513d 6cee 5e3c 91f6 b0bd
000001d0: ad11 fcbd 1179 023e 2295 c8bc 24b7 c73d
000001e0: 9fdb 7b3d 6b07 9bbc ed2d 44bd 9885 653c
000001f0: 7d87 e83d 6963 d83d 5211 c63d 9ee3 d63d
0.23316279 0.091821484 0.05453213 0.0042582876 0.061722577 -0.01749878 -0.024244688 0.03847285
0.14164393 0.059839655 0.0332352 0.13095465 0.044860993 -0.033140805 0.032840587 0.103768736
-0.0020132537 0.16895099 0.023331761 -0.022803625 0.029104348 0.07015917 -0.10381131 -0.0019835369
0.20291926 0.24163333 -0.06346802 0.033068996 -0.058355987 -0.000642686 0.13235526 -0.003705877
-0.0052167214 0.015709018 0.16131224 0.18059312 0.020340975 -0.028696723 0.018537458 0.06273107
0.039509997 -0.013104264 -0.04954973 0.08240713 -0.019080255 0.108163945 0.12512134 0.027890768
0.028358145 -0.04293732 -0.09171469 0.18082722 -0.050845806 0.106671676 0.06956511 -0.0034918068
0.08523008 -0.041100364 -0.036638662 0.15079114 -0.038264137 -0.08482957 -0.022905216 0.087953776
0.10427743 -0.042986352 0.09448281 -0.07930387 0.20965126 -0.08066409 0.035561375 0.14192934
-0.0068108267 0.029720861 0.043845832 -0.048521087 0.069171764 0.005996297 -0.03841744 0.0020769632
-0.031977028 0.07455568 0.032708533 0.30698824 -0.016814282 0.044274114 -0.06905972 0.011707115
0.112620085 0.027907126 0.0011500493 0.053359993 -0.07208747 0.18562219 0.20702612 0.006661994
0.13817061 0.20414184 -0.05277552 0.07020388 0.11263227 0.09698319 0.018010842 0.06829167
0.022457277 -0.09923121 0.12767151 0.029245963 0.03421441 -0.008223111 -0.0040534767 0.03576923
0.14669114 0.051095866 0.013606649 -0.08640779 -0.12308059 0.12741496 -0.024485175 0.09751728
0.061488744 -0.018924436 -0.04789536 0.014008902 0.11353967 0.10565836 0.09671272 0.10492633

h2o.weight f4 [1, 128]
00000000: 32fe fc3e ded0 d03e 9c29 cabc bc58 98bc
00000010: b3c3 97bc 707a e53d 8c5c 41bd d480 76bd
00000020: dfb3 2f3e 825a 863d 18f9 c33e 0bfa da3e
00000030: 0179 7cbc cf19 e83c 35fe e8bc 972e ed3d
00000040: add7 7a3c c954 453e 80d5 163e 7621 50bd
00000050: f459 c83c 127d 9bbc 300e 95bd ecc9 913d
00000060: edad 423e a380 bd3e b2cb 243e c500 b23d
00000070: 4e82 9ebd 1944 883d fbaa c8ba d608 14bd
00000080: 9989 a53c b026 aa3b 827b 893e 5b06 053e
00000090: 0324 353e bf11 5a3d 4773 3fbd 720f 413d
000000a0: 5d7b e1bc 116c 043d 75cf 90bc f161 c03d
000000b0: dd59 ffbc 220e 7d3d bcdf 543e e26a d0bc
000000c0: 37cf 293c 5265 a2bd b22f 53bd 2c4b c93e
000000d0: d512 d5bc 171b 14bd 5ec4 763e e902 58bd
000000e0: f424 ea3d fffd 2cbb 87bb 993d e6e7 54bd
000000f0: a104 b7bb 2ae5 493d fec2 823d 18d7 303c
00000100: 1a2b 3f3e 5d23 d53c 34e4 053e 2de7 fdbc
00000110: 8f27 9c3e 3d96 96bd 5a3f a2bd c26a 003e
00000120: d814 293c 4d8c 673d 4eb6 3fbd c042 d23d
00000130: 33f3 a3bd 9505 3abd 2ffd 053d 8c0b 7d3e
00000140: 5ca1 193d 9758 2bbd 1997 04bd 613b ad3e
00000150: f3d4 ab3d fd8b b9bc 6e06 97bc 498c 5fbd
00000160: d646 6c3b 0da6 91bd e81b a33d 9acd 6ebd
00000170: f97e f33c ef81 a13c 7bdd f33e 8033 09bd
00000180: 957c cb3e f3e6 953e d6c8 13bd 72cb 4d3e
00000190: ec73 ce3d b086 9ebd 31c7 dcbc 626d 2b3c
000001a0: a4f4 7a3d be45 a5bd c118 263e 8627 303e
000001b0: 6926 0dbd a1c1 cdbb 249b 053c ff83 92bd
000001c0: 2601 b83d e03e 90ba ccd6 ef3c fb0f 8a3c
000001d0: cb1d b33c 95cf 973e 2202 2d3d e0aa 1d3e
000001e0: 9f21 2bbd 6966 d43d 719f d73c 9d67 9d3d
000001f0: 381a 383e c569 cabc 4921 283c d4e4 d23d
0.49412686 0.40784353 -0.024678044 -0.018597 -0.018525934 0.11204994 -0.0472074 -0.060181454
0.17158459 0.06560232 0.3827598 0.42768893 -0.015409709 0.028332619 -0.028441528 0.11581152
0.01531021 0.19270624 0.14729881 -0.05081316 0.024456955 -0.018980537 -0.07278097 0.07118592
0.1901166 0.37012205 0.16093329 0.08691553 -0.077396974 0.066536136 -0.0015309745 -0.03614124
0.020207213 0.0051926 0.2685204 0.12990706 0.17689519 0.05323958 -0.046740796 0.04713387
-0.027524645 0.032329623 -0.017677048 0.09393681 -0.03117078 0.061781056 0.20788473 -0.02544159
0.010364345 -0.079294816 -0.051559158 0.39315164 -0.026009956 -0.036158647 0.24098346 -0.05273715
0.114328295 -0.002639651 0.07506471 -0.051978968 -0.0055852686 0.049290814 0.06384848 0.01079347
0.18668786 0.02601784 0.13075334 -0.030994022 0.3049893 -0.073528744 -0.079222396 0.12540725
0.010319911 0.056530286 -0.04680472 0.10266638 -0.08005371 -0.04541548 0.032712158 0.24711436
0.0375074 -0.041832533 -0.03237066 0.33834365 0.08390226 -0.02264976 -0.018435683 -0.054577146
0.0036052964 -0.0711175 0.07964307 -0.058301546 0.029723631 0.019715277 0.47629914 -0.03349638
0.39743486 0.29277763 -0.036080204 0.2009714 0.10080704 -0.07740533 -0.02695045 0.010463091
0.061268464 -0.08069943 0.1622038 0.17202577 -0.03446046 -0.006279186 0.008154664 -0.071540825
0.08984594 -0.0011005066 0.029277228 0.016853323 0.021864792 0.2965056 0.042238362 0.15397215
-0.04178011 0.10371096 0.026321145 0.07685778 0.17978752 -0.024708638 0.010261842 0.10297552
